src/lib/tflm/models/fomo_face_detection.tflite (tflite, 57040 bytes, 21 tensors)

model_1/Conv1/Conv2D i1 [16, 3, 3, 3]
000000 00 00 00 00 00 00 00 00 00 00 00 00 00 00 00 00
       0 0 0 0 0 0 0 0 0 0 0 0 0 0 0 0
000010 00 00 00 00 00 00 00 00 00 00 00 32 00 22 fe ec
       0 0 0 0 0 0 0 0 0 0 0 50 0 34 -2 -20
000020 12 81 8a bb 05 fe 01 ed 06 fd 04 e4 06 ff 14 00
       18 -127 -118 -69 5 -2 1 -19 6 -3 4 -28 6 -1 20 0
000030 fe 0a ff 2b f0 0e 1e fe fd 48 73 03 29 dd 08 0b
       -2 10 -1 43 -16 14 30 -2 -3 72 115 3 41 -35 8 11
000040 10 02 42 7f e7 16 fe fb 33 c3 16 4a d9 ee 23 ce
       16 2 66 127 -25 22 -2 -5 51 -61 22 74 -39 -18 35 -50
000050 10 05 1d 00 1f 5a 11 00 07 fd 15 22 04 44 7f 1a
       16 5 29 0 31 90 17 0 7 -3 21 34 4 68 127 26
000060 f3 ef 05 05 02 03 1c 1d 09 ff fe 04 23 4a fb 0b
       -13 -17 5 5 2 3 28 29 9 -1 -2 4 35 74 -5 11
000070 55 fa eb 0d 02 28 5e 36 1b 7f 25 18 39 f6 2f 52
       85 -6 -21 13 2 40 94 54 27 127 37 24 57 -10 47 82
000080 27 26 7d 13 e3 1c 18 0a 04 8a fe 03 98 fc 1d e5
       39 38 125 19 -29 28 24 10 4 -118 -2 3 -104 -4 29 -27
000090 07 d8 81 01 d6 8d 00 0e e9 ff 0b ef 04 00 f4 02
       7 -40 -127 1 -42 -115 0 14 -23 -1 11 -17 4 0 -12 2
0000a0 0f f5 15 c1 25 2c a8 2a 07 ea 09 22 a1 41 3d 81
       15 -11 21 -63 37 44 -88 42 7 -22 9 34 -95 65 61 -127
0000b0 4b 05 e3 13 12 de 11 0c d5 1d f2 08 01 e0 10 02
       75 5 -29 19 18 -34 17 12 -43 29 -14 8 1 -32 16 2
0000c0 93 d7 fe eb 1a 02 f3 f7 fe 81 a0 f6 fd fd 05 e9
       -109 -41 -2 -21 26 2 -13 -9 -2 -127 -96 -10 -3 -3 5 -23
0000d0 1f f5 f4 0a fd eb 1a fd 48 20 e5 51 1e dd 21 ca
       31 -11 -12 10 -3 -21 26 -3 72 32 -27 81 30 -35 33 -54
0000e0 81 56 35 fa 60 35 f7 30 de 92 4b 35 03 58 35 fe
       -127 86 53 -6 96 53 -9 48 -34 -110 75 53 3 88 53 -2
0000f0 22 da 97 ea fb 07 f3 f9 ff 05 04 f6 63 72 f5 4d
       34 -38 -105 -22 -5 7 -13 -7 -1 5 4 -10 99 114 -11 77

model_1/expanded_conv_depthwise_BN/FusedBatchNormV3;model_1/expanded_conv_depthwise/depthwise;model_1/block_5_project/Conv2D i1 [1, 3, 3, 16]
000000 94 13 ae 82 27 bd 50 b4 a8 fd f8 1d 81 05 36 b7
       -108 19 -82 -126 39 -67 80 -76 -88 -3 -8 29 -127 5 54 -73
000010 33 19 81 7f 7f 81 7f 81 aa 7f 81 33 97 05 7f e7
       51 25 -127 127 127 -127 127 -127 -86 127 -127 51 -105 5 127 -25
000020 18 e8 5a fe b8 44 a1 4d a4 e5 04 f1 3d 01 9a e3
       24 -24 90 -2 -72 68 -95 77 -92 -27 4 -15 61 1 -102 -29
000030 81 7f e9 0d d4 10 e3 0d e4 00 03 93 cf 08 e2 f2
       -127 127 -23 13 -44 16 -29 13 -28 0 3 -109 -49 8 -30 -14
000040 b2 d7 c6 f1 f8 e7 08 e4 91 a7 15 f3 98 81 01 17
       -78 -41 -58 -15 -8 -25 8 -28 -111 -89 21 -13 -104 -127 1 23
000050 0e 01 40 02 03 22 e7 21 81 06 fe 02 eb 0c fc 2b
       14 1 64 2 3 34 -25 33 -127 6 -2 2 -21 12 -4 43
000060 8d b8 44 02 fa 27 d9 33 b6 00 00 04 28 02 e5 17
       -115 -72 68 2 -6 39 -39 51 -74 0 0 4 40 2 -27 23
000070 17 fc 1f fe e5 28 de 14 81 f3 00 54 c6 00 e3 91
       23 -4 31 -2 -27 40 -34 20 -127 -13 0 84 -58 0 -29 -111
000080 15 f9 13 00 04 0f 09 16 8e 04 ff 81 6b 03 11 81
       21 -7 19 0 4 15 9 22 -114 4 -1 -127 107 3 17 -127

model_1/expanded_conv_project/Conv2D i1 [8, 1, 1, 16]
000000 00 ed 02 ff 7e ff fd ff 04 81 a5 fc 00 7b fc 00
       0 -19 2 -1 126 -1 -3 -1 4 -127 -91 -4 0 123 -4 0
000010 00 e5 00 58 48 0c 16 05 02 f9 7f d3 00 1e f2 00
       0 -27 0 88 72 12 22 5 2 -7 127 -45 0 30 -14 0
000020 00 00 ff f4 c4 04 0c 02 fd 02 ed 00 00 7f f9 00
       0 0 -1 -12 -60 4 12 2 -3 2 -19 0 0 127 -7 0
000030 00 f8 ec 81 52 16 45 0e 07 3d ff 28 00 ff 0f 00
       0 -8 -20 -127 82 22 69 14 7 61 -1 40 0 -1 15 0
000040 00 2f e5 21 ca 20 7f 0b f8 c3 11 f5 00 f8 0a 00
       0 47 -27 33 -54 32 127 11 -8 -61 17 -11 0 -8 10 0
000050 00 ef f3 ff eb e9 f7 0e fa 0b fc d3 00 fc 7f 00
       0 -17 -13 -1 -21 -23 -9 14 -6 11 -4 -45 0 -4 127 0
000060 00 10 fe 04 32 ee e9 fb 01 98 71 3f 00 7f 3b 00
       0 16 -2 4 50 -18 -23 -5 1 -104 113 63 0 127 59 0
000070 00 10 f0 7f 09 fe 12 08 06 46 cd 4d 00 f9 2f 00
       0 16 -16 127 9 -2 18 8 6 70 -51 77 0 -7 47 0

model_1/block_1_expand/Conv2D i1 [48, 1, 1, 8]
000000 0e 81 2d d8 19 ec d3 18 44 3f e6 a3 09 ef b5 7f
       14 -127 45 -40 25 -20 -45 24 68 63 -26 -93 9 -17 -75 127
000010 1b 0a d7 7f 36 76 2a 5b 4f 45 ae 7f 9f f6 fb 12
       27 10 -41 127 54 118 42 91 79 69 -82 127 -97 -10 -5 18
000020 df 94 4a 0c 08 22 d2 81 12 06 dd 28 03 e0 27 7f
       -33 -108 74 12 8 34 -46 -127 18 6 -35 40 3 -32 39 127
000030 32 ef 81 af 64 09 37 e4 7f 12 15 e8 1a fb 52 c3
       50 -17 -127 -81 100 9 55 -28 127 18 21 -24 26 -5 82 -61
000040 19 94 07 6b 01 12 f9 81 66 81 09 fc f3 0f 86 51
       25 -108 7 107 1 18 -7 -127 102 -127 9 -4 -13 15 -122 81
000050 81 dd 8b 15 f4 0c 98 38 e7 d7 fc 9d 81 e3 32 f2
       -127 -35 -117 21 -12 12 -104 56 -25 -41 -4 -99 -127 -29 50 -14
000060 10 07 dd 44 b2 e7 3a 7f 00 00 00 00 00 00 00 00
       16 7 -35 68 -78 -25 58 127 0 0 0 0 0 0 0 0
000070 f9 e1 f9 0d 2f 7f 2d 28 2f ff 12 81 47 2c c4 4d
       -7 -31 -7 13 47 127 45 40 47 -1 18 -127 71 44 -60 77
000080 00 00 00 00 00 00 00 00 0f 1a 7f 15 e4 f6 1a 1e
       0 0 0 0 0 0 0 0 15 26 127 21 -28 -10 26 30
000090 53 81 16 1e fa 12 8c fe 81 f3 1b 4a c7 c3 9c 43
       83 -127 22 30 -6 18 -116 -2 -127 -13 27 74 -57 -61 -100 67
0000a0 20 1c d6 6a e6 81 00 38 3d 14 7f 0b f2 f2 48 0f
       32 28 -42 106 -26 -127 0 56 61 20 127 11 -14 -14 72 15
0000b0 b2 ef 81 03 03 08 98 04 99 7f e9 ea 06 f6 7f ad
       -78 -17 -127 3 3 8 -104 4 -103 127 -23 -22 6 -10 127 -83
0000c0 06 c8 cc 52 f5 bf 62 7f 0a 30 24 23 7f 74 b0 ca
       6 -56 -52 82 -11 -65 98 127 10 48 36 35 127 116 -80 -54
0000d0 ae e0 81 ff 05 11 a0 ff fe ea e2 0a d9 7f 40 33
       -82 -32 -127 -1 5 17 -96 -1 -2 -22 -30 10 -39 127 64 51
0000e0 ff ec e8 28 14 7f 38 40 52 1f 7f fe ec f7 50 f6
       -1 -20 -24 40 20 127 56 64 82 31 127 -2 -20 -9 80 -10
0000f0 ae 7f e5 e0 08 f7 6a d2 d7 a2 e8 08 1c b7 7f 72
       -82 127 -27 -32 8 -9 106 -46 -41 -94 -24 8 28 -73 127 114

model_1/block_1_depthwise_BN/FusedBatchNormV3;model_1/block_1_depthwise/depthwise;model_1/block_3_depthwise/depthwise i1 [1, 3, 3, 48]
000000 d6 ea f9 f0 07 d9 b1 bc e5 ce 09 42 22 b9 72 d5
       -42 -22 -7 -16 7 -39 -79 -68 -27 -50 9 66 34 -71 114 -43
000010 8f ab 25 fa fe b8 91 b1 dd 83 c0 eb 46 0f 60 1a
       -113 -85 37 -6 -2 -72 -111 -79 -35 -125 -64 -21 70 15 96 26
000020 81 a9 f8 36 13 30 81 4e b3 f2 69 94 fd dd a9 6b
       -127 -87 -8 54 19 48 -127 78 -77 -14 105 -108 -3 -35 -87 107
000030 4c 0c e4 e3 39 81 81 af 3d b3 8d 6e 25 ae ff 3e
       76 12 -28 -29 57 -127 -127 -81 61 -77 -115 110 37 -82 -1 62
000040 cc 8f 3b 07 0a 91 81 ba fc 81 88 d9 ca 15 c8 36
       -52 -113 59 7 10 -111 -127 -70 -4 -127 -120 -39 -54 21 -56 54
000050 1d 81 40 54 0d 48 a4 7f 81 06 7d 81 02 e9 81 5e
       29 -127 64 84 13 72 -92 127 -127 6 125 -127 2 -23 -127 94
000060 e0 2b 06 fb bf 94 c5 ee 57 f8 81 26 08 b9 9b f5
       -32 43 6 -5 -65 -108 -59 -18 87 -8 -127 38 8 -71 -101 -11
000070 81 e7 1b 0c f0 b4 dc e8 f5 e1 c6 f4 f6 12 e8 09
       -127 -25 27 12 -16 -76 -36 -24 -11 -31 -58 -12 -10 18 -24 9
000080 6b aa 46 20 0f 23 fb 10 b1 03 07 b2 ef 05 c9 0f
       107 -86 70 32 15 35 -5 16 -79 3 7 -78 -17 5 -55 15
000090 ab 81 d4 d4 f6 37 63 97 e6 94 eb 71 5a c0 1b 9f
       -85 -127 -44 -44 -10 55 99 -105 -26 -108 -21 113 90 -64 27 -97
0000a0 87 a2 59 b4 2a a8 99 81 2a 88 b2 da 7f c4 7f 54
       -121 -94 89 -76 42 -88 -103 -127 42 -120 -78 -38 127 -60 127 84
0000b0 d5 ad f1 54 dd b3 94 59 2a 3b 68 93 a5 8b 52 78
       -43 -83 -15 84 -35 -77 -108 89 42 59 104 -109 -91 -117 82 120
0000c0 7f ad 81 81 7f 29 5e 81 65 81 91 7f 7f f2 f9 7f
       127 -83 -127 -127 127 41 94 -127 101 -127 -111 127 127 -14 -7 127
0000d0 c4 81 7f 81 7f 81 88 89 7f 9b 81 81 89 81 b9 7f
       -60 -127 127 -127 127 -127 -120 -119 127 -101 -127 -127 -119 -127 -71 127
0000e0 1c 91 7f 7f bc 81 9f 5a 3d 7f 7f 8c 90 81 7c 7f
       28 -111 127 127 -68 -127 -97 90 61 127 127 -116 -112 -127 124 127
0000f0 cb 1f c2 ab 88 e9 1f da 7f eb b4 23 38 ba e7 d4
       -53 31 -62 -85 -120 -23 31 -38 127 -21 -76 35 56 -70 -25 -44

model_1/block_1_project/Conv2D i1 [8, 1, 1, 48]
000000 f5 01 0c a6 09 1c 05 08 01 08 01 fb 61 00 02 03
       -11 1 12 -90 9 28 5 8 1 8 1 -5 97 0 2 3
000010 00 fa f8 ff 4f fe 01 07 1e 26 0f 0d 04 03 01 81
       0 -6 -8 -1 79 -2 1 7 30 38 15 13 4 3 1 -127
000020 0a 08 ff 00 e6 00 ef 22 07 e5 f6 07 01 00 03 02
       10 8 -1 0 -26 0 -17 34 7 -27 -10 7 1 0 3 2
000030 db f8 fb fb 2c 1d e2 4d 16 07 e1 e9 0c 00 13 24
       -37 -8 -5 -5 44 29 -30 77 22 7 -31 -23 12 0 19 36
000040 00 2a 12 d0 00 17 7f 14 e6 fc 36 00 14 fc 10 f5
       0 42 18 -48 0 23 127 20 -26 -4 54 0 20 -4 16 -11
000050 0e f9 f7 ec 05 ca 09 04 fa fa af f9 df 07 d1 a0
       14 -7 -9 -20 5 -54 9 4 -6 -6 -81 -7 -33 7 -47 -96
000060 c6 0f 00 0a 2b f8 1b 1a f6 38 09 fb 03 00 07 33
       -58 15 0 10 43 -8 27 26 -10 56 9 -5 3 0 7 51
000070 00 0e 81 17 02 0f 07 f1 e1 02 26 07 08 1c 16 04
       0 14 -127 23 2 15 7 -15 -31 2 38 7 8 28 22 4
000080 05 f8 f5 f3 0b 03 03 02 25 f9 e0 02 18 c9 18 0e
       5 -8 -11 -13 11 3 3 2 37 -7 -32 2 24 -55 24 14
000090 01 01 01 09 fa 1a 01 fc 40 12 fc ff 1b 00 e3 f8
       1 1 1 9 -6 26 1 -4 64 18 -4 -1 27 0 -29 -8
0000a0 00 02 f7 01 ff 02 05 f0 f4 fd f6 fe f9 fd fe f9
       0 2 -9 1 -1 2 5 -16 -12 -3 -10 -2 -7 -3 -2 -7
0000b0 cf 2d c8 fe 08 01 05 81 00 02 01 ce fd 01 ff 05
       -49 45 -56 -2 8 1 5 -127 0 2 1 -50 -3 1 -1 5
0000c0 00 fe 51 24 04 eb ff fd 01 fd fb fb af 00 f6 04
       0 -2 81 36 4 -21 -1 -3 1 -3 -5 -5 -81 0 -10 4
0000d0 00 0c 06 00 40 07 00 fc ef 21 fa 2c fa ff 00 61
       0 12 6 0 64 7 0 -4 -17 33 -6 44 -6 -1 0 97
0000e0 03 04 00 ff 14 f7 f9 ee fd 81 03 04 fe fe ff ff
       3 4 0 -1 20 -9 -7 -18 -3 -127 3 4 -2 -2 -1 -1
0000f0 fa 2b 02 f8 02 2f 19 0d ec 1e 08 34 1a 00 81 fe
       -6 43 2 -8 2 47 25 13 -20 30 8 52 26 0 -127 -2

model_1/block_2_expand/Conv2D i1 [48, 1, 1, 8]
000000 57 27 fa f7 7f 19 d2 e0 f9 fd 02 7f 0b fa 04 12
       87 39 -6 -9 127 25 -46 -32 -7 -3 2 127 11 -6 4 18
000010 17 81 ef 26 f8 c0 4c 0f 7f df f7 0f f8 dc 1b 06
       23 -127 -17 38 -8 -64 76 15 127 -33 -9 15 -8 -36 27 6
000020 0d ce 7f f2 f2 ce 09 a2 46 02 04 fe 7f 0c f4 01
       13 -50 127 -14 -14 -50 9 -94 70 2 4 -2 127 12 -12 1
000030 f0 59 f1 7f 16 33 bb c9 f7 7f fb 02 fc f1 0f ff
       -16 89 -15 127 22 51 -69 -55 -9 127 -5 2 -4 -15 15 -1
000040 7f 2e f9 03 cd e6 fe e1 81 0e 08 16 37 09 fd 00
       127 46 -7 3 -51 -26 -2 -31 -127 14 8 22 55 9 -3 0
000050 bb f6 0b 7f 2c 20 ed fd 81 fb 10 c3 2a 0c e7 d2
       -69 -10 11 127 44 32 -19 -3 -127 -5 16 -61 42 12 -25 -46
000060 7f 1b 03 10 d7 f8 03 d2 f3 51 81 f9 09 6a bb 49
       127 27 3 16 -41 -8 3 -46 -13 81 -127 -7 9 106 -69 73
000070 c8 e5 f1 7f 17 09 f6 e5 fb 7f 03 fd fe f2 09 cc
       -56 -27 -15 127 23 9 -10 -27 -5 127 3 -3 -2 -14 9 -52
000080 f1 81 ed 02 fd 93 78 e1 11 7f 01 f3 03 48 ad f2
       -15 -127 -19 2 -3 -109 120 -31 17 127 1 -13 3 72 -83 -14
000090 f5 2a 81 fc 0d 37 dc 42 bf 14 08 08 81 08 12 16
       -11 42 -127 -4 13 55 -36 66 -65 20 8 8 -127 8 18 22
0000a0 81 e6 fb 01 5b dc 37 00 c4 00 fd 03 81 00 12 01
       -127 -26 -5 1 91 -36 55 0 -60 0 -3 3 -127 0 18 1
0000b0 81 e3 01 fe 5e f3 27 34 ea e6 f7 f7 f9 4d 81 aa
       -127 -29 1 -2 94 -13 39 52 -22 -26 -9 -9 -7 77 -127 -86
0000c0 f6 2b 81 03 0c 32 ed 4b 67 e1 fd 7f bc f5 0a c9
       -10 43 -127 3 12 50 -19 75 103 -31 -3 127 -68 -11 10 -55
0000d0 05 ed fc 00 f7 74 7f e1 48 f9 fa 0c 7f 19 27 ee
       5 -19 -4 0 -9 116 127 -31 72 -7 -6 12 127 25 39 -18
0000e0 ff 7f c2 08 09 53 de 73 f6 08 f9 f9 fd 57 81 af
       -1 127 -62 8 9 83 -34 115 -10 8 -7 -7 -3 87 -127 -81
0000f0 04 fc 01 81 f7 ff fc f4 be 05 02 03 81 08 12 ff
       4 -4 1 -127 -9 -1 -4 -12 -66 5 2 3 -127 8 18 -1

model_1/block_2_depthwise_BN/FusedBatchNormV3;model_1/block_2_depthwise/depthwise;model_1/block_3_depthwise/depthwise i1 [1, 3, 3, 48]
000000 05 fd 15 6d 04 52 ff 1c 0f 08 09 08 f8 f7 d3 08
       5 -3 21 109 4 82 -1 28 15 8 9 8 -8 -9 -45 8
000010 fe 08 e8 8e f9 e9 7f f6 fd 06 fb 09 fb 05 10 63
       -2 8 -24 -114 -7 -23 127 -10 -3 6 -5 9 -5 5 16 99
000020 14 1d 26 e5 01 23 ff 02 12 bd f8 f7 11 03 f9 f5
       20 29 38 -27 1 35 -1 2 18 -67 -8 -9 17 3 -7 -11
000030 7f 0a 10 81 1c 58 0b 0b 7b 7f 07 2c ce e8 05 08
       127 10 16 -127 28 88 11 11 123 127 7 44 -50 -24 5 8
000040 7f c8 c4 c8 9a 19 93 0e 11 47 e1 ac 17 15 09 86
       127 -56 -60 -56 -102 25 -109 14 17 71 -31 -84 23 21 9 -122
000050 05 c3 7f 0a d8 d2 fb 75 b1 9f e2 03 de f9 81 17
       5 -61 127 10 -40 -46 -5 117 -79 -97 -30 3 -34 -7 -127 23
000060 e1 fd 08 0f ff 41 04 11 1c 09 f1 20 f2 fd 10 03
       -31 -3 8 15 -1 65 4 17 28 9 -15 32 -14 -3 16 3
000070 99 1d fd 4e e0 f4 ee f9 fc c5 fd 1d f0 05 04 eb
       -103 29 -3 78 -32 -12 -18 -7 -4 -59 -3 29 -16 5 4 -21
000080 08 e9 11 ed 00 30 2a f4 32 26 f0 0b d5 04 fe fa
       8 -23 17 -19 0 48 42 -12 50 38 -16 11 -43 4 -2 -6
000090 7d 07 01 9e 0e e5 23 f0 09 09 f3 36 fa ff 12 df
       125 7 1 -98 14 -27 35 -16 9 9 -13 54 -6 -1 18 -33
0000a0 00 ce c4 aa 09 b6 84 ed 05 63 f2 81 f8 21 0c 95
       0 -50 -60 -86 9 -74 -124 -19 5 99 -14 -127 -8 33 12 -107
0000b0 11 cc fe 7f fd 3b d7 29 c2 81 27 a7 d4 f3 f3 fb
       17 -52 -2 127 -3 59 -41 41 -62 -127 39 -89 -44 -13 -13 -5
0000c0 1a 81 81 73 81 81 81 81 81 a0 7f 81 7f 7f 23 81
       26 -127 -127 115 -127 -127 -127 -127 -127 -96 127 -127 127 127 35 -127
0000d0 ae 7f 7f 96 7f 7f 70 7f 7f 81 81 1d 81 81 5d 7f
       -82 127 127 -106 127 127 112 127 127 -127 -127 29 -127 -127 93 127
0000e0 81 7f e3 d7 7f 81 7f 7f 7f b1 7f 7f 7f 88 65 6a
       -127 127 -29 -41 127 -127 127 127 127 -79 127 127 127 -120 101 106
0000f0 36 05 31 f3 05 c3 2c 12 e8 0f 96 f9 00 d8 7f 04
       54 5 49 -13 5 -61 44 18 -24 15 -106 -7 0 -40 127 4

model_1/block_2_project/Conv2D i1 [8, 1, 1, 48]
000000 d0 f1 d8 0c 02 e4 02 ff 8a 7f d5 70 70 07 47 e9
       -48 -15 -40 12 2 -28 2 -1 -118 127 -43 112 112 7 71 -23
000010 fe de 0a 07 f7 f8 e7 e3 14 a6 0f 3b f0 0e 10 d8
       -2 -34 10 7 -9 -8 -25 -29 20 -90 15 59 -16 14 16 -40
000020 ff b0 72 14 02 f8 f9 eb 6f 00 2c e4 e4 14 ee ed
       -1 -80 114 20 2 -8 -7 -21 111 0 44 -28 -28 20 -18 -19
000030 fe 22 7f 05 fc ed 00 b2 1a 01 16 08 ed 07 fc 8d
       -2 34 127 5 -4 -19 0 -78 26 1 22 8 -19 7 -4 -115
000040 09 cb 06 07 e5 25 17 dc ef f6 0e ff 0a f9 0e 02
       9 -53 6 7 -27 37 23 -36 -17 -10 14 -1 10 -7 14 2
000050 fb 10 11 0e f5 e0 40 c6 0c 23 f6 17 f2 0a 19 00
       -5 16 17 14 -11 -32 64 -58 12 35 -10 23 -14 10 25 0
000060 07 cd 0f d5 20 1a f7 e2 04 ff fc 0d f5 39 05 fd
       7 -51 15 -43 32 26 -9 -30 4 -1 -4 13 -11 57 5 -3
000070 db 7f e9 e1 f1 16 d8 f8 77 03 01 f9 e2 f7 01 d7
       -37 127 -23 -31 -15 22 -40 -8 119 3 1 -7 -30 -9 1 -41
000080 f7 f5 03 0c f8 fd f2 06 0f ed ec 00 03 18 e6 d8
       -9 -11 3 12 -8 -3 -14 6 15 -19 -20 0 3 24 -26 -40
000090 fe a8 00 06 04 fc f5 ff f9 f6 13 15 0c f8 31 02
       -2 -88 0 6 4 -4 -11 -1 -7 -10 19 21 12 -8 49 2
0000a0 f4 ea 03 14 f7 16 e9 03 07 32 fe 07 f7 03 7f 00
       -12 -22 3 20 -9 22 -23 3 7 50 -2 7 -9 3 127 0
0000b0 0c 08 fa fc e7 f3 f9 0c f6 04 f8 1b f8 03 00 20
       12 8 -6 -4 -25 -13 -7 12 -10 4 -8 27 -8 3 0 32
0000c0 9e 07 fd fe 02 d9 01 08 28 d7 16 ec dd 01 f2 f5
       -98 7 -3 -2 2 -39 1 8 40 -41 22 -20 -35 1 -14 -11
0000d0 02 04 00 1a 0c e5 0f 05 f9 31 08 6b 01 00 fa e1
       2 4 0 26 12 -27 15 5 -7 49 8 107 1 0 -6 -31
0000e0 ff 81 e4 0a 05 fc 03 ff cf fd f1 12 c7 fe 05 05
       -1 -127 -28 10 5 -4 3 -1 -49 -3 -15 18 -57 -2 5 5
0000f0 eb 1c 14 06 cf 0d fc 2d 15 00 0a 05 f8 d3 04 1f
       -21 28 20 6 -49 13 -4 45 21 0 10 5 -8 -45 4 31

model_1/block_3_expand/Conv2D i1 [48, 1, 1, 8]
000000 81 00 fe 4b da 2a 1a e4 1e 4d 35 11 11 d9 6a 7f
       -127 0 -2 75 -38 42 26 -28 30 77 53 17 17 -39 106 127
000010 dd 01 04 fd 81 f2 09 fc 67 f6 ed 81 84 12 24 ef
       -35 1 4 -3 -127 -14 9 -4 103 -10 -19 -127 -124 18 36 -17
000020 81 31 f2 f3 4d f5 2d 15 9d e3 16 f4 81 09 0a 55
       -127 49 -14 -13 77 -11 45 21 -99 -29 22 -12 -127 9 10 85
000030 ef 81 1b ed 11 03 f9 22 be f9 0b 67 7f e2 dc 0a
       -17 -127 27 -19 17 3 -7 34 -66 -7 11 103 127 -30 -36 10
000040 44 02 06 81 04 ed d6 e0 f6 81 fe ff 01 51 cd 59
       68 2 6 -127 4 -19 -42 -32 -10 -127 -2 -1 1 81 -51 89
000050 a5 fb 03 18 81 49 3b f1 70 0c 29 0d c7 d5 de 81
       -91 -5 3 24 -127 73 59 -15 112 12 41 13 -57 -43 -34 -127
000060 fe 10 27 f6 0c b4 7f 3c 3c e8 00 f5 7a 7f 70 d8
       -2 16 39 -10 12 -76 127 60 60 -24 0 -11 122 127 112 -40
000070 7f 3b fb 12 8f eb e6 ed f1 81 13 f4 06 04 03 22
       127 59 -5 18 -113 -21 -26 -19 -15 -127 19 -12 6 4 3 34
000080 d1 f2 01 ff 81 fe 0e 05 e4 5d 8a 03 07 81 63 aa
       -47 -14 1 -1 -127 -2 14 5 -28 93 -118 3 7 -127 99 -86
000090 7f e5 d2 0e c6 1c 0c 60 7f d1 f0 fa 30 00 1f 03
       127 -27 -46 14 -58 28 12 96 127 -47 -16 -6 48 0 31 3
0000a0 7b 19 f2 7f ff 22 00 c8 0a 27 c5 03 e4 5b 81 a2
       123 25 -14 127 -1 34 0 -56 10 39 -59 3 -28 91 -127 -94
0000b0 81 10 1b fb da 02 ca e8 d9 c9 ff 19 81 3b 4a ee
       -127 16 27 -5 -38 2 -54 -24 -39 -55 -1 25 -127 59 74 -18
0000c0 7f fd f8 f9 a4 f4 03 0b 14 f5 fd e8 7f 2f 31 df
       127 -3 -8 -7 -92 -12 3 11 20 -11 -3 -24 127 47 49 -33
0000d0 04 a0 02 da 06 81 54 ca ef 81 17 f2 ff cc 1d f7
       4 -96 2 -38 6 -127 84 -54 -17 -127 23 -14 -1 -52 29 -9
0000e0 9e 28 e3 0b e7 dc 7f 5e f3 2a 10 06 f9 27 99 81
       -98 40 -29 11 -25 -36 127 94 -13 42 16 6 -7 39 -103 -127
0000f0 7f e6 00 09 a6 01 da e6 f8 de 41 ed 0d 92 7f 47
       127 -26 0 9 -90 1 -38 -26 -8 -34 65 -19 13 -110 127 71

model_1/block_3_depthwise_BN/FusedBatchNormV3;model_1/block_3_depthwise/depthwise i1 [1, 3, 3, 48]
000000 45 a3 61 46 36 de 6a c0 3c a8 b0 2f 34 d6 b8 a7
       69 -93 97 70 54 -34 106 -64 60 -88 -80 47 52 -42 -72 -89
000010 65 4e 31 4e 43 b6 ad 33 e0 d8 c1 c0 bd 3d c2 8f
       101 78 49 78 67 -74 -83 51 -32 -40 -63 -64 -67 61 -62 -113
000020 f2 29 45 40 bf 34 ce e9 32 b7 3a 3e a3 0b 4c de
       -14 41 69 64 -65 52 -50 -23 50 -73 58 62 -93 11 76 -34
000030 51 9f 7f 56 b3 bc c8 ac 60 9a c0 4a 50 94 a1 5c
       81 -97 127 86 -77 -68 -56 -84 96 -102 -64 74 80 -108 -95 92
000040 da 5f 52 7f 56 8d 35 47 cc b3 bd b0 38 4f e2 81
       -38 95 82 127 86 -115 53 71 -52 -77 -67 -80 56 79 -30 -127
000050 aa 4f 50 53 ae 52 ae f0 4b a2 53 59 b7 81 5d 9a
       -86 79 80 83 -82 82 -82 -16 75 -94 83 89 -73 -127 93 -102
000060 22 d2 46 25 12 d7 d1 d9 2a e0 05 22 1d b1 c9 fe
       34 -46 70 37 18 -41 -47 -39 42 -32 5 34 29 -79 -55 -2
000070 ca 25 22 46 21 c9 1f 1a e4 d3 d4 e9 1f 1e 59 a7
       -54 37 34 70 33 -55 31 26 -28 -45 -44 -23 31 30 89 -89
000080 ac 2c 23 21 e2 27 db f5 28 d8 22 2b fa f7 24 b7
       -84 44 35 33 -30 39 -37 -11 40 -40 34 43 -6 -9 36 -73
000090 5c 90 d7 5e 38 ae 7f a7 57 8f b8 52 53 92 f3 81
       92 -112 -41 94 56 -82 127 -89 87 -113 -72 82 83 -110 -13 -127
0000a0 7f 6b 4a d9 53 6b 81 48 49 b5 a3 9d 81 56 ba f8
       127 107 74 -39 83 107 -127 72 73 -75 -93 -99 -127 86 -70 -8
0000b0 a8 46 6a 60 ab 4f b0 59 54 9b 57 5b a7 6b 5e a5
       -88 70 106 96 -85 79 -80 89 84 -101 87 91 -89 107 94 -91
0000c0 7f 81 bf 7f 81 81 a6 81 7f 81 81 7f 7f 81 ea 62
       127 -127 -65 127 -127 -127 -90 -127 127 -127 -127 127 127 -127 -22 98
0000d0 be 7f 7f cd 7f 7f 46 7f 7f 81 81 81 35 7f e3 10
       -66 127 127 -51 127 127 70 127 127 -127 -127 -127 53 127 -29 16
0000e0 81 7f 7f 7f 81 7f 81 7f 7f 81 7f 7f 81 f5 7f 81
       -127 127 127 127 -127 127 -127 127 127 -127 127 127 -127 -11 127 -127
0000f0 3f b3 df 43 26 c2 d0 c1 38 d5 c3 3a 30 cb f0 0a
       63 -77 -33 67 38 -62 -48 -63 56 -43 -61 58 48 -53 -16 10

model_1/block_3_project/Conv2D i1 [16, 1, 1, 48]
000000 f1 fd e7 07 17 fe 02 69 ca 11 2b fb 12 f1 f1 0e
       -15 -3 -25 7 23 -2 2 105 -54 17 43 -5 18 -15 -15 14
000010 0e f7 f8 fd 43 fa 14 7f ee 54 fb f3 1d f0 17 e1
       14 -9 -8 -3 67 -6 20 127 -18 84 -5 -13 29 -16 23 -31
000020 f0 34 12 d5 0f 30 11 f5 95 e4 12 2c 25 16 88 cb
       -16 52 18 -43 15 48 17 -11 -107 -28 18 44 37 22 -120 -53
000030 de f9 16 0b df 0b fe 38 c8 e0 04 d5 e7 f3 fe fc
       -34 -7 22 11 -33 11 -2 56 -56 -32 4 -43 -25 -13 -2 -4
000040 e8 72 f6 15 09 07 e6 f1 1b d9 0f 18 e7 af d9 17
       -24 114 -10 21 9 7 -26 -15 27 -39 15 24 -25 -81 -39 23
000050 eb fd 22 ff 00 d9 05 11 ec e1 7f 09 0e fd 13 f4
       -21 -3 34 -1 0 -39 5 17 -20 -31 127 9 14 -3 19 -12
000060 ea f8 f3 dc fd c2 05 ec 01 0d 10 17 10 0a f3 05
       -22 -8 -13 -36 -3 -62 5 -20 1 13 16 23 16 10 -13 5
000070 fc ec e8 f1 fa 00 ff 81 f3 46 f3 05 00 ed fd fb
       -4 -20 -24 -15 -6 0 -1 -127 -13 70 -13 5 0 -19 -3 -5
000080 fc 30 0a fd 14 0c 19 01 d8 04 ec fa fe f7 11 09
       -4 48 10 -3 20 12 25 1 -40 4 -20 -6 -2 -9 17 9
000090 fa 20 05 e3 01 ff 05 fc ef fc fe 27 81 06 f9 ff
       -6 32 5 -29 1 -1 5 -4 -17 -4 -2 39 -127 6 -7 -1
0000a0 01 05 ee fe e3 05 06 11 f8 f6 00 17 f7 12 06 14
       1 5 -18 -2 -29 5 6 17 -8 -10 0 23 -9 18 6 20
0000b0 02 02 11 16 f8 19 28 07 0c 04 18 e2 07 fd 03 11
       2 2 17 22 -8 25 40 7 12 4 24 -30 7 -3 3 17
0000c0 22 e0 09 0b 13 1c 17 e9 e4 04 f5 ed 01 0d 00 0f
       34 -32 9 11 19 28 23 -23 -28 4 -11 -19 1 13 0 15
0000d0 16 f8 b2 05 fa 09 0f 46 00 e5 06 31 08 b7 14 07
       22 -8 -78 5 -6 9 15 70 0 -27 6 49 8 -73 20 7
0000e0 0e dd 1f 81 0b 24 00 11 ed 14 07 e7 f4 ee 0b 06
       14 -35 31 -127 11 36 0 17 -19 20 7 -25 -12 -18 11 6
0000f0 20 02 ed 3e 00 fa 06 1a 06 fd 2d 0b 04 36 01 01
       32 2 -19 62 0 -6 6 26 6 -3 45 11 4 54 1 1

model_1/block_4_expand/Conv2D i1 [96, 1, 1, 16]
000000 25 e1 7e 7f 53 e3 1a d3 78 f1 bb ae 20 55 e2 ad
       37 -31 126 127 83 -29 26 -45 120 -15 -69 -82 32 85 -30 -83
000010 18 47 fe 06 53 00 10 1d 37 3e e5 7f 01 ee 51 a9
       24 71 -2 6 83 0 16 29 55 62 -27 127 1 -18 81 -87
000020 0d cc 01 ef b9 31 d3 6b b0 8b 18 4e e5 81 54 90
       13 -52 1 -17 -71 49 -45 107 -80 -117 24 78 -27 -127 84 -112
000030 7f 76 fa 1f 88 ec c2 ea fb 02 5e be cd 56 da e5
       127 118 -6 31 -120 -20 -62 -22 -5 2 94 -66 -51 86 -38 -27
000040 03 f7 19 13 eb 27 f5 33 c0 e4 f7 07 05 81 1b 08
       3 -9 25 19 -21 39 -11 51 -64 -28 -9 7 5 -127 27 8
000050 6a cc e2 0a fa 93 e1 05 f2 0d 81 fc 19 ee 03 22
       106 -52 -30 10 -6 -109 -31 5 -14 13 -127 -4 25 -18 3 34
000060 8e c5 f2 66 d1 f8 cb 0a 81 bb ab e2 12 29 0f 5b
       -114 -59 -14 102 -47 -8 -53 10 -127 -69 -85 -30 18 41 15 91
000070 f2 11 be 31 29 81 e6 21 0f e6 0d f5 f7 11 dc 09
       -14 17 -66 49 41 -127 -26 33 15 -26 13 -11 -9 17 -36 9
000080 1b cf ee f7 04 20 bb bd f2 09 b8 08 81 05 fc 17
       27 -49 -18 -9 4 32 -69 -67 -14 9 -72 8 -127 5 -4 23
000090 1c cc 3f 7f f9 21 fe b9 79 a0 05 f0 ff 37 a4 0e
       28 -52 63 127 -7 33 -2 -71 121 -96 5 -16 -1 55 -92 14
0000a0 90 b8 e7 cc 75 37 21 4f 72 a8 a6 2f 7a 89 81 5b
       -112 -72 -25 -52 117 55 33 79 114 -88 -90 47 122 -119 -127 91
0000b0 2f f3 81 14 2d 0f e8 25 ee de f3 f7 02 18 dd 06
       47 -13 -127 20 45 15 -24 37 -18 -34 -13 -9 2 24 -35 6
0000c0 62 d2 00 07 f6 c6 c9 e3 2f fa 81 e9 d4 f1 fd 3b
       98 -46 0 7 -10 -58 -55 -29 47 -6 -127 -23 -44 -15 -3 59
0000d0 1c b8 18 ad 4c 05 a5 81 15 ae 1c 06 02 de 13 08
       28 -72 24 -83 76 5 -91 -127 21 -82 28 6 2 -34 19 8
0000e0 c5 19 9c db 4e 81 32 bd 3c 2a ef a4 1b 72 fc 1d
       -59 25 -100 -37 78 -127 50 -67 60 42 -17 -92 27 114 -4 29
0000f0 19 f2 3d 25 2f d4 d7 f4 14 bc c6 fb 81 cd ef 31
       25 -14 61 37 47 -44 -41 -12 20 -68 -58 -5 -127 -51 -17 49

model_1/block_4_depthwise_BN/FusedBatchNormV3;model_1/block_4_depthwise/depthwise;model_1/block_6_expand/Conv2D i1 [1, 3, 3, 96]
000000 ef 05 ec 68 ef 17 c2 ca 11 fa 62 f7 04 f8 fd 37
       -17 5 -20 104 -17 23 -62 -54 17 -6 98 -9 4 -8 -3 55
000010 05 11 df 04 4b 02 20 de 02 12 2c 31 15 0c 18 31
       5 17 -33 4 75 2 32 -34 2 18 44 49 21 12 24 49
000020 f8 1c 09 f1 04 31 c3 e6 14 09 1b 12 ab c9 19 fc
       -8 28 9 -15 4 49 -61 -26 20 9 27 18 -85 -55 25 -4
000030 f6 ec f9 f9 32 06 f7 02 fd dd 1c e1 1b fd 7f 1b
       -10 -20 -7 -7 50 6 -9 2 -3 -35 28 -31 27 -3 127 27
000040 f2 f5 0a cb 43 24 01 fa 4f df 44 04 11 81 1d 41
       -14 -11 10 -53 67 36 1 -6 79 -33 68 4 17 -127 29 65
000050 01 0f 7f f2 26 1c e5 ed 24 f9 f2 51 01 14 fe 0d
       1 15 127 -14 38 28 -27 -19 36 -7 -14 81 1 20 -2 13
000060 d0 0c f8 0a 34 f8 f6 81 26 0d 81 fb f0 f4 05 5d
       -48 12 -8 10 52 -8 -10 -127 38 13 -127 -5 -16 -12 5 93
000070 12 e2 f2 f1 4d 9f 7f 19 c3 e1 97 f0 1a 23 cf 12
       18 -30 -14 -15 77 -97 127 25 -61 -31 -105 -16 26 35 -49 18
000080 78 0d f3 ff e8 7f bf 81 09 ee e3 0e 2f 81 7f d4
       120 13 -13 -1 -24 127 -65 -127 9 -18 -29 14 47 -127 127 -44
000090 b4 33 31 07 28 c1 1f 38 25 2a 9b 55 7f 22 03 ec
       -76 51 49 7 40 -63 31 56 37 42 -101 85 127 34 3 -20
0000a0 2b da a0 ff 25 e2 ee 30 d0 cf 69 fc e2 c6 df 3f
       43 -38 -96 -1 37 -30 -18 48 -48 -49 105 -4 -30 -58 -33 63
0000b0 be 3e f0 09 f5 2f 38 d7 e5 35 f3 48 81 e2 17 81
       -66 62 -16 9 -11 47 56 -41 -27 53 -13 72 -127 -30 23 -127
0000c0 00 fb e9 b7 07 14 26 15 fd fe 04 3e 01 f3 f6 06
       0 -5 -23 -73 7 20 38 21 -3 -2 4 62 1 -13 -10 6
0000d0 f2 11 f1 11 07 18 18 e0 01 e1 0a 0c f9 05 2e b1
       -14 17 -15 17 7 24 24 -32 1 -31 10 12 -7 5 46 -79
0000e0 2b 11 0a e9 0c 04 df eb 07 03 f0 09 17 e1 14 01
       43 17 10 -23 12 4 -33 -21 7 3 -16 9 23 -31 20 1
0000f0 07 f9 06 fb 04 06 fa 08 f9 2d 07 fe 0b ed 03 ef
       7 -7 6 -5 4 6 -6 8 -7 45 7 -2 11 -19 3 -17

model_1/block_4_project/Conv2D i1 [16, 1, 1, 96]
000000 fa 13 f7 1a 2e 48 e2 e6 2c 04 08 03 f8 0a 17 41
       -6 19 -9 26 46 72 -30 -26 44 4 8 3 -8 10 23 65
000010 04 f8 f7 fb 5f cb 02 f2 ed dc d9 a2 fd f8 2d 2d
       4 -8 -9 -5 95 -53 2 -14 -19 -36 -39 -94 -3 -8 45 45
000020 75 f5 05 ff 05 f0 e8 04 e2 06 1b e1 05 e5 f2 1d
       117 -11 5 -1 5 -16 -24 4 -30 6 27 -31 5 -27 -14 29
000030 ee 14 03 f7 da f9 09 fb 29 19 ee df c4 1d f3 f6
       -18 20 3 -9 -38 -7 9 -5 41 25 -18 -33 -60 29 -13 -10
000040 05 07 39 02 0b 07 ff e8 be f7 f9 04 fa a7 02 f5
       5 7 57 2 11 7 -1 -24 -66 -9 -7 4 -6 -89 2 -11
000050 2b f3 ce d4 16 f2 05 14 f8 00 10 e2 1c 18 f9 7f
       43 -13 -50 -44 22 -14 5 20 -8 0 16 -30 28 24 -7 127
000060 43 99 27 54 fa b7 f9 c6 e6 a5 f8 17 05 b9 d8 cc
       67 -103 39 84 -6 -73 -7 -58 -26 -91 -8 23 5 -71 -40 -52
000070 9e fd 18 1d da 89 de 21 7f c0 bf 14 e6 61 f6 3c
       -98 -3 24 29 -38 -119 -34 33 127 -64 -65 20 -26 97 -10 60
000080 0f 06 ce 1b e7 ec 3f e8 fc b4 55 dc c6 09 34 f6
       15 6 -50 27 -25 -20 63 -24 -4 -76 85 -36 -58 9 52 -10
000090 25 19 08 bd 44 af 2a e3 0e 13 e8 93 25 c5 12 ca
       37 25 8 -67 68 -81 42 -29 14 19 -24 -109 37 -59 18 -54
0000a0 fb a6 28 2e 28 2e d7 02 99 25 e8 3e 21 59 15 ea
       -5 -90 40 46 40 46 -41 2 -103 37 -24 62 33 89 21 -22
0000b0 1f 04 b6 2b aa 43 fb 42 d4 0e 0f 0a fd cd 2c f9
       31 4 -74 43 -86 67 -5 66 -44 14 15 10 -3 -51 44 -7
0000c0 16 0f 0b ea 05 02 fe 27 41 f3 0a 41 fe 07 34 05
       22 15 11 -22 5 2 -2 39 65 -13 10 65 -2 7 52 5
0000d0 f5 f4 0d ff eb c6 ff c7 fe ed e8 1c f1 12 79 c6
       -11 -12 13 -1 -21 -58 -1 -57 -2 -19 -24 28 -15 18 121 -58
0000e0 0f b8 e5 36 15 7f cd e6 04 e9 fe 20 d8 cf be 1a
       15 -72 -27 54 21 127 -51 -26 4 -23 -2 32 -40 -49 -66 26
0000f0 1a 18 db e3 11 03 fc da ea 06 01 19 fe 06 4e 5d
       26 24 -37 -29 17 3 -4 -38 -22 6 1 25 -2 6 78 93

model_1/block_5_expand/Conv2D i1 [96, 1, 1, 16]
000000 05 3f ec 61 11 2d 0d fb 23 26 bd 67 12 83 1e 81
       5 63 -20 97 17 45 13 -5 35 38 -67 103 18 -125 30 -127
000010 0e 2b fa ec 1f ee 7f 92 04 50 fa ef 04 c9 1e 0e
       14 43 -6 -20 31 -18 127 -110 4 80 -6 -17 4 -55 30 14
000020 81 28 c9 f5 f6 fc 40 69 e3 44 76 f7 bf 10 2c cc
       -127 40 -55 -11 -10 -4 64 105 -29 68 118 -9 -65 16 44 -52
000030 bd 3d 25 36 cc 31 47 7f 08 41 8d 0c 2d be b6 c9
       -67 61 37 54 -52 49 71 127 8 65 -115 12 45 -66 -74 -55
000040 06 00 24 39 e6 4b fa 32 0d e7 08 0a 0f 01 81 e0
       6 0 36 57 -26 75 -6 50 13 -25 8 10 15 1 -127 -32
000050 f1 e5 44 f5 11 e3 f8 1a b7 68 e0 81 ec 1a c4 e0
       -15 -27 68 -11 17 -29 -8 26 -73 104 -32 -127 -20 26 -60 -32
000060 07 00 1c fb 25 3e b6 bb fd fb 32 fd 7f ed f6 d5
       7 0 28 -5 37 62 -74 -69 -3 -5 50 -3 127 -19 -10 -43
000070 1d 0f 7f e8 e6 d3 02 fd a3 15 b4 d1 11 f4 27 f7
       29 15 127 -24 -26 -45 2 -3 -93 21 -76 -47 17 -12 39 -9
000080 13 14 43 29 da 50 19 3b 19 ff 02 a5 e9 fc 81 bf
       19 20 67 41 -38 80 25 59 25 -1 2 -91 -23 -4 -127 -65
000090 1e 86 47 32 17 e7 fa 11 7f fb 56 0a da 0c 89 dd
       30 -122 71 50 23 -25 -6 17 127 -5 86 10 -38 12 -119 -35
0000a0 e2 a3 06 ef a2 06 f4 3b 5f 7f 26 db e2 47 4c fc
       -30 -93 6 -17 -94 6 -12 59 95 127 38 -37 -30 71 76 -4
0000b0 23 ec 0e a4 10 e7 99 81 d2 29 f7 e3 17 e7 21 bf
       35 -20 14 -92 16 -25 -103 -127 -46 41 -9 -29 23 -25 33 -65
0000c0 fb 0d fe cf d9 df 8b ee c2 a7 f2 1a 25 7f 6c 2e
       -5 13 -2 -49 -39 -33 -117 -18 -62 -89 -14 26 37 127 108 46
0000d0 e6 a0 c6 1c ff c2 02 e6 31 13 f7 f4 10 11 7f 21
       -26 -96 -58 28 -1 -62 2 -26 49 19 -9 -12 16 17 127 33
0000e0 00 c2 2f 1f 0b 26 05 7f 0e 30 04 df 15 29 c1 69
       0 -62 47 31 11 38 5 127 14 48 4 -33 21 41 -63 105
0000f0 0d e5 fc 3e 0a fe 5f 03 07 81 13 e3 00 ec fe da
       13 -27 -4 62 10 -2 95 3 7 -127 19 -29 0 -20 -2 -38

model_1/block_5_depthwise_BN/FusedBatchNormV3;model_1/block_5_depthwise/depthwise;model_1/block_6_expand/Conv2D i1 [1, 3, 3, 96]
000000 d1 b9 f5 7f 16 48 4d c7 f1 ee f1 fc e3 00 24 02
       -47 -71 -11 127 22 72 77 -57 -15 -18 -15 -4 -29 0 36 2
000010 f7 d5 1b 16 12 81 7f 07 ae 0a 32 e4 83 81 26 18
       -9 -43 27 22 18 -127 127 7 -82 10 50 -28 -125 -127 38 24
000020 0c 1a 3b ee e3 f5 1f fa f3 1b 93 47 18 bc 25 2e
       12 26 59 -18 -29 -11 31 -6 -13 27 -109 71 24 -68 37 46
000030 ee 32 e7 13 03 fa 0f 30 a6 cf c4 ee f5 00 0b 26
       -18 50 -25 19 3 -6 15 48 -90 -49 -60 -18 -11 0 11 38
000040 44 e6 49 0e f7 11 13 7f 18 16 19 ff f6 12 7f fa
       68 -26 73 14 -9 17 19 127 24 22 25 -1 -10 18 127 -6
000050 f1 0e e5 14 7f 16 b3 f0 01 e0 f0 d9 02 e6 f0 19
       -15 14 -27 20 127 22 -77 -16 1 -32 -16 -39 2 -26 -16 25
000060 7f 81 4c 69 d6 7f 27 8c 44 04 ee 7f 7f 9d f2 0f
       127 -127 76 105 -42 127 39 -116 68 4 -18 127 127 -99 -14 15
000070 0a 7f 7f 90 7f b5 50 45 81 8b bf de c9 2e c4 eb
       10 127 127 -112 127 -75 80 69 -127 -117 -65 -34 -55 46 -60 -21
000080 a6 34 81 ab d5 f1 ca 3f ff 7f 7f 50 cc 8e 90 cd
       -90 52 -127 -85 -43 -15 -54 63 -1 127 127 80 -52 -114 -112 -51
000090 f1 81 2b 54 43 e1 2b 52 d2 2a af 90 d3 d7 c2 43
       -15 -127 43 84 67 -31 43 82 -46 42 -81 -112 -45 -41 -62 67
0000a0 48 c2 1b 1f af 20 ee 5b 76 7f 0d 14 02 3a de 34
       72 -62 27 31 -81 32 -18 91 118 127 13 20 2 58 -34 52
0000b0 40 7f 7f e9 f9 4b 91 7f 8b 9c 04 81 a5 81 d9 67
       64 127 127 -23 -7 75 -111 127 -117 -100 4 -127 -91 -127 -39 103
0000c0 b5 f4 1e ad 0f e8 42 f9 4e de e4 12 ed fa f7 f4
       -75 -12 30 -83 15 -24 66 -7 78 -34 -28 18 -19 -6 -9 -12
0000d0 f7 f1 07 fb ea 9a 1e 00 87 66 08 ca 76 32 f1 09
       -9 -15 7 -5 -22 -102 30 0 -121 102 8 -54 118 50 -15 9
0000e0 01 0d 0d e2 f8 21 14 0d 19 0c 88 3f 12 ee 24 0d
       1 13 13 -30 -8 33 20 13 25 12 -120 63 18 -18 36 13
0000f0 f1 0a ef 05 f6 02 fd 14 be 06 de 34 02 29 22 00
       -15 10 -17 5 -10 2 -3 20 -66 6 -34 52 2 41 34 0

model_1/block_5_project/Conv2D i1 [16, 1, 1, 96]
000000 ed f4 02 e2 10 f8 da 00 12 04 f6 06 f8 f8 e9 07
       -19 -12 2 -30 16 -8 -38 0 18 4 -10 6 -8 -8 -23 7
000010 ff 07 fd fc 0c e0 04 03 06 0c 03 7f 23 dc 2b f4
       -1 7 -3 -4 12 -32 4 3 6 12 3 127 35 -36 43 -12
000020 fe 06 06 fe f4 0f d6 fe f7 08 01 24 04 0c 0f 05
       -2 6 6 -2 -12 15 -42 -2 -9 8 1 36 4 12 15 5
000030 19 03 fa 0a 0f eb f7 50 02 09 e4 db fc 1a 02 e6
       25 3 -6 10 15 -21 -9 80 2 9 -28 -37 -4 26 2 -26
000040 d5 c0 ed 25 09 0a 14 f0 f8 e0 fe ea e5 13 01 07
       -43 -64 -19 37 9 10 20 -16 -8 -32 -2 -22 -27 19 1 7
000050 f7 e6 1c 17 ff f7 f6 a3 04 f3 06 fd 2e de dd f4
       -9 -26 28 23 -1 -9 -10 -93 4 -13 6 -3 46 -34 -35 -12
000060 27 b9 b0 c4 7f f3 44 22 eb a4 c2 ee 01 fb c3 2a
       39 -71 -80 -60 127 -13 68 34 -21 -92 -62 -18 1 -5 -61 42
000070 ba 0f 2d 33 0c 24 ef c8 0e fb f5 bb 26 ee bf 23
       -70 15 45 51 12 36 -17 -56 14 -5 -11 -69 38 -18 -65 35
000080 ec 26 ff 05 0c f5 0d 1a dd 20 d7 ed d5 59 fe fd
       -20 38 -1 5 12 -11 13 26 -35 32 -41 -19 -43 89 -2 -3
000090 11 aa 06 d4 ea 2e 38 10 c0 e7 e0 da 11 ee 03 d5
       17 -86 6 -44 -22 46 56 16 -64 -25 -32 -38 17 -18 3 -43
0000a0 ac 65 e8 e8 fd e6 e7 11 36 91 e2 01 27 cb 27 04
       -84 101 -24 -24 -3 -26 -25 17 54 -111 -30 1 39 -53 39 4
0000b0 07 e8 1f 00 ce 16 ec 1c 22 d8 fe 07 21 08 20 70
       7 -24 31 0 -50 22 -20 28 34 -40 -2 7 33 8 32 112
0000c0 f8 3b a8 f6 54 58 1f 46 00 8e fa ef 05 f6 20 1a
       -8 59 -88 -10 84 88 31 70 0 -114 -6 -17 5 -10 32 26
0000d0 12 ec d4 49 19 00 57 1e 33 1f ff ce 24 ff 37 bf
       18 -20 -44 73 25 0 87 30 51 31 -1 -50 36 -1 55 -65
0000e0 18 28 e4 21 81 b1 24 28 08 d2 05 e8 11 e3 05 4e
       24 40 -28 33 -127 -79 36 40 8 -46 5 -24 17 -29 5 78
0000f0 e1 1d e1 f4 64 f7 f5 3d 1c 12 1e 04 13 1a 20 e5
       -31 29 -31 -12 100 -9 -11 61 28 18 30 4 19 26 32 -27

model_1/block_6_expand/Conv2D i1 [96, 1, 1, 16]
000000 dc 5b f8 81 cd e2 dc b4 ef 0e 06 56 15 c6 fc 32
       -36 91 -8 -127 -51 -30 -36 -76 -17 14 6 86 21 -58 -4 50
000010 e1 1b c6 f6 e5 da 23 a7 39 3f bd 0b 07 ff 29 81
       -31 27 -58 -10 -27 -38 35 -89 57 63 -67 11 7 -1 41 -127
000020 f6 04 d0 25 1b 1b d0 c4 7f d3 07 19 fb 54 c9 11
       -10 4 -48 37 27 27 -48 -60 127 -45 7 25 -5 84 -55 17
000030 2f bd 0a 8e 0a df f4 f6 6d f8 4e 2b f2 2c 12 7f
       47 -67 10 -114 10 -33 -12 -10 109 -8 78 43 -14 44 18 127
000040 ae 36 12 2b 0a eb ff 2a 02 10 11 e6 81 f1 ec 19
       -82 54 18 43 10 -21 -1 42 2 16 17 -26 -127 -15 -20 25
000050 08 40 77 01 10 4e b0 4b c2 52 e2 d8 2c ce 81 1b
       8 64 119 1 16 78 -80 75 -62 82 -30 -40 44 -50 -127 27
000060 1f bb 76 81 23 08 cd 65 b7 8f 40 e3 ff 66 f2 53
       31 -69 118 -127 35 8 -51 101 -73 -113 64 -29 -1 102 -14 83
000070 2d 7b ef b6 6a 07 08 ca 7f 6a dd 0d 1f e1 3a 34
       45 123 -17 -74 106 7 8 -54 127 106 -35 13 31 -31 58 52
000080 0f b0 0f a7 1b c9 14 bd 15 3f 45 f2 14 7f 4c 3e
       15 -80 15 -89 27 -55 20 -67 21 63 69 -14 20 127 76 62
000090 05 de f6 7f 27 fb 2a c2 c6 68 21 f0 f7 c5 f6 f5
       5 -34 -10 127 39 -5 42 -62 -58 104 33 -16 -9 -59 -10 -11
0000a0 f6 17 ca 81 06 02 ef 20 26 d9 17 e8 eb d6 05 1c
       -10 23 -54 -127 6 2 -17 32 38 -39 23 -24 -21 -42 5 28
0000b0 04 13 1d e9 56 de 57 c4 a7 29 fb 1c 02 7f ba e3
       4 19 29 -23 86 -34 87 -60 -89 41 -5 28 2 127 -70 -29
0000c0 4a f1 87 f0 26 b2 17 17 0e 3f ad cb da 7f fd 26
       74 -15 -121 -16 38 -78 23 23 14 63 -83 -53 -38 127 -3 38
0000d0 f2 09 eb 08 07 81 fe 11 02 f8 05 fc 0c f1 06 0c
       -14 9 -21 8 7 -127 -2 17 2 -8 5 -4 12 -15 6 12
0000e0 1c db 5e d5 3c 00 81 9e ee cb 21 1a 0a bc f5 e4
       28 -37 94 -43 60 0 -127 -98 -18 -53 33 26 10 -68 -11 -28
0000f0 a6 13 e1 dd f4 09 7f 3e e3 24 57 f0 13 59 46 00
       -90 19 -31 -35 -12 9 127 62 -29 36 87 -16 19 89 70 0

model_1/head/Conv2D i1 [32, 1, 1, 96]
000000 0e 3a 21 a1 aa 15 04 49 eb dd 8f ab 81 7a cb 4b
       14 58 33 -95 -86 21 4 73 -21 -35 -113 -85 -127 122 -53 75
000010 2f 64 14 08 de 9e dc 23 5b 8e 09 72 43 a7 4c 04
       47 100 20 8 -34 -98 -36 35 91 -114 9 114 67 -89 76 4
000020 a0 5c 26 b8 ec 0f 9b ee 9d d6 6e bd 47 f3 ac 71
       -96 92 38 -72 -20 15 -101 -18 -99 -42 110 -67 71 -13 -84 113
000030 97 68 99 24 ee 51 0d 33 c4 9e f5 2a eb 5f 2c 84
       -105 104 -103 36 -18 81 13 51 -60 -98 -11 42 -21 95 44 -124
000040 47 93 9c 30 36 a4 fd 7d c9 1a d3 79 d9 ca e6 e1
       71 -109 -100 48 54 -92 -3 125 -55 26 -45 121 -39 -54 -26 -31
000050 96 32 49 23 d9 c0 c5 d8 23 32 20 30 9f a6 d2 27
       -106 50 73 35 -39 -64 -59 -40 35 50 32 48 -97 -90 -46 39
000060 41 00 47 28 0d ba 05 72 1f 32 b9 45 81 9e 1b b6
       65 0 71 40 13 -70 5 114 31 50 -71 69 -127 -98 27 -74
000070 cc e0 08 e4 66 55 ad be 14 ff e5 bf 59 27 e8 c2
       -52 -32 8 -28 102 85 -83 -66 20 -1 -27 -65 89 39 -24 -62
000080 a4 ab a8 ab 24 c3 d2 12 09 6c f6 20 27 05 df 28
       -92 -85 -88 -85 36 -61 -46 18 9 108 -10 32 39 5 -33 40
000090 13 96 ef d8 f6 90 d1 9d 2a 2c 57 0a 38 af dd d4
       19 -106 -17 -40 -10 -112 -47 -99 42 44 87 10 56 -81 -35 -44
0000a0 6e f8 00 5c 47 52 2f 73 fd 13 2e 24 45 bb 78 e2
       110 -8 0 92 71 82 47 115 -3 19 46 36 69 -69 120 -30
0000b0 b6 61 bf 53 23 18 96 28 cf c8 3e dd db 13 2b 00
       -74 97 -65 83 35 24 -106 40 -49 -56 62 -35 -37 19 43 0
0000c0 ff ba a6 81 db 09 47 ff 16 ce bb ca 36 4b b5 89
       -1 -70 -90 -127 -37 9 71 -1 22 -50 -69 -54 54 75 -75 -119
0000d0 9b 21 d2 1f 9f c7 1b 17 b4 44 d0 cd e5 dc a9 1f
       -101 33 -46 31 -97 -57 27 23 -76 68 -48 -51 -27 -36 -87 31
0000e0 37 b8 31 03 ad 14 b1 42 39 db 70 4c bd ea 31 18
       55 -72 49 3 -83 20 -79 66 57 -37 112 76 -67 -22 49 24
0000f0 ee be 04 5a a4 b0 00 ad cd 16 55 70 60 53 bb 66
       -18 -66 4 90 -92 -80 0 -83 -51 22 85 112 96 83 -69 102

model_1/logits/Conv2D i1 [2, 1, 1, 32]
000000 c4 01 cb cf 5a fd 7f fe 19 a7 9b b5 63 de 65 f4
       -60 1 -53 -49 90 -3 127 -2 25 -89 -101 -75 99 -34 101 -12
000010 9f 02 45 0c 56 de 64 cf c8 69 06 99 b2 a5 0c 13
       -97 2 69 12 86 -34 100 -49 -56 105 6 -103 -78 -91 12 19
000020 5c 7f a6 af 13 69 0c cb 4c 9a a5 39 b5 05 25 55
       92 127 -90 -81 19 105 12 -53 76 -102 -91 57 -75 5 37 85
000030 a6 65 6c 4d b9 fd f0 2f 6c f6 ae a5 41 58 77 8f
       -90 101 108 77 -71 -3 -16 47 108 -10 -82 -91 65 88 119 -113
