lib/models/blazeface_front_128.tflite (tflite, 189816 bytes, 37 tensors)

tfl.pseudo_qconst1 i1 [96, 1, 1, 96]
-12 40 24 13 8 -4 103 18
35 -12 15 -15 -8 -4 13 86
-1 -21 -4 -7 23 48 -41 -87
7 -16 43 4 -8 1 25 -35
127 -38 14 -25 -15 63 -20 -6
-60 28 -23 19 11 28 -19 -12
19 23 -7 19 -13 -70 12 -21
11 -3 -43 -14 -18 11 -17 66
-2 -41 -37 -22 -27 5 -30 37
-75 57 53 25 -7 14 -16 6
69 49 -5 6 -96 34 3 -3
-16 -24 32 -32 -4 -121 -6 -50
11 -24 1 14 -15 -13 0 41
-50 -6 -8 20 17 8 11 -11
10 11 4 44 -30 37 43 -41
15 6 42 -3 0 4 -29 37
-9 -20 2 -7 -53 32 7 22
-32 -4 -36 -6 -17 -21 -16 -6
-29 -20 28 23 24 -28 0 -17
-22 -33 -38 -1 34 29 38 -54
15 -9 3 -45 -23 23 -2 -16
-1 87 -33 23 -46 23 -56 -29
7 55 6 -6 -35 -6 -12 36
-14 -11 -35 26 29 127 -5 17
7 -8 -9 -20 2 23 63 6
10 6 -46 4 1 -48 32 21
4 0 -10 4 3 10 -8 -5
-8 -29 15 22 -7 7 25 -16
81 18 27 10 0 -60 -56 -22
39 -6 -7 -23 -7 -127 9 -55
-77 -25 26 -34 -4 30 8 -11
-4 -79 -19 16 -7 21 26 -7
00000000: f428 180d 08fc 6712 23f4 0ff1 f8fc 0d56
00000010: ffeb fcf9 1730 d7a9 07f0 2b04 f801 19dd
00000020: 7fda 0ee7 f13f ecfa c41c e913 0b1c edf4
00000030: 1317 f913 f3ba 0ceb 0bfd d5f2 ee0b ef42
00000040: fed7 dbea e505 e225 b539 3519 f90e f006
00000050: 4531 fb06 a022 03fd f0e8 20e0 fc87 face
00000060: 0be8 010e f1f3 0029 cefa f814 1108 0bf5
00000070: 0a0b 042c e225 2bd7 0f06 2afd 0004 e325
00000080: f7ec 02f9 cb20 0716 e0fc dcfa efeb f0fa
00000090: e3ec 1c17 18e4 00ef eadf daff 221d 26ca
000000a0: 0ff7 03d3 e917 fef0 ff57 df17 d217 c8e3
000000b0: 0737 06fa ddfa f424 f2f5 dd1a 1d7f fb11
000000c0: 07f8 f7ec 0217 3f06 0a06 d204 01d0 2015
000000d0: 0400 f604 030a f8fb f8e3 0f16 f907 19f0
000000e0: 5112 1b0a 00c4 c8ea 27fa f9e9 f981 09c9
000000f0: b3e7 1ade fc1e 08f5 fcb1 ed10 f915 1af9

tfl.pseudo_qconst3 i1 [6, 1, 1, 96]
-1 -37 -2 -122 5 0 -10 1
0 2 -127 1 0 -2 2 -1
-4 -1 9 -3 -45 1 -1 -1
-1 -3 -7 1 -21 7 -1 1
-4 -1 1 -4 -33 -17 -6 -64
5 -1 -1 -52 -1 -3 -1 -1
-17 -69 -35 -34 0 -2 -4 0
0 -3 -32 2 -1 -83 0 -1
-48 3 -3 -1 3 4 0 -1
-3 -1 0 1 -42 0 -23 -109
-9 -2 5 1 -6 4 -8 -7
0 -1 -2 -123 -6 -3 0 0
-21 -127 1 -85 0 0 -6 0
1 0 -126 0 -4 -3 4 -1
-5 -2 0 -4 -68 0 0 -1
-3 -3 -5 1 -101 0 0 2
-1 0 1 -3 -23 -37 -18 -57
3 -2 -1 -78 -1 -5 2 -7
-19 -64 -24 -10 -2 -1 -4 0
0 -19 -33 0 -1 -66 0 -2
-63 1 -3 0 3 2 0 0
-1 -1 0 1 -67 1 -21 -61
-3 0 -1 1 0 0 -4 -13
0 1 -1 -85 0 1 0 1
-115 -127 -4 -61 -2 0 -6 -1
1 -1 -96 0 -9 -4 3 0
-6 -2 -7 -6 -97 -2 0 -1
-10 0 -2 1 -101 -7 0 -1
1 0 0 -3 -36 -56 -49 -64
0 -3 -2 -100 0 -11 2 -6
-21 -53 -26 -1 -4 -1 -3 -2
0 -27 -47 -3 -2 -57 1 -3
00000000: ffdb fe86 0500 f601 0002 8101 00fe 02ff
00000010: fcff 09fd d301 ffff fffd f901 eb07 ff01
00000020: fcff 01fc dfef fac0 05ff ffcc fffd ffff
00000030: efbb ddde 00fe fc00 00fd e002 ffad 00ff
00000040: d003 fdff 0304 00ff fdff 0001 d600 e993
00000050: f7fe 0501 fa04 f8f9 00ff fe85 fafd 0000
00000060: eb81 01ab 0000 fa00 0100 8200 fcfd 04ff
00000070: fbfe 00fc bc00 00ff fdfd fb01 9b00 0002
00000080: ff00 01fd e9db eec7 03fe ffb2 fffb 02f9
00000090: edc0 e8f6 feff fc00 00ed df00 ffbe 00fe
000000a0: c101 fd00 0302 0000 ffff 0001 bd01 ebc3
000000b0: fd00 ff01 0000 fcf3 0001 ffab 0001 0001
000000c0: 8d81 fcc3 fe00 faff 01ff a000 f7fc 0300
000000d0: fafe f9fa 9ffe 00ff f600 fe01 9bf9 00ff
000000e0: 0100 00fd dcc8 cfc0 00fd fe9c 00f5 02fa
000000f0: ebcb e6ff fcff fdfe 00e5 d1fd fec7 01fd

tfl.pseudo_qconst5 i1 [96, 1, 1, 96]
-34 7 -53 -13 27 8 -89 33
41 42 24 -84 -65 -45 39 -8
34 -22 5 52 -2 -23 43 118
13 7 -31 19 3 -6 -54 17
-8 37 127 19 20 26 8 -8
-26 -54 36 -18 46 24 -32 -7
5 -33 -93 51 19 -26 31 -71
-89 16 -7 25 -38 34 38 25
41 -11 29 53 49 56 -27 6
102 -47 -41 79 -2 14 10 -15
-60 -45 -69 38 14 -49 -47 4
-17 -24 -29 -14 -14 -8 56 -5
-32 5 -5 19 7 -22 -43 -19
44 6 20 -69 -42 -7 50 -32
-127 -81 5 85 -35 -35 -1 24
-32 11 -5 68 -27 -58 13 22
45 -29 -7 14 8 -16 2 -12
35 31 123 -44 1 6 37 3
12 -21 -98 64 17 4 -2 -33
45 35 -15 70 -97 -40 32 18
-19 -21 30 7 25 -27 19 23
79 -40 23 45 -12 10 -21 -30
45 90 61 49 7 -39 -37 0
4 61 6 -10 -20 -5 -21 -1
13 25 -71 29 28 -28 -23 -16
100 66 21 -7 -7 12 -30 -22
-6 -46 -87 -15 -17 13 9 1
8 -21 111 -10 -61 -70 0 13
38 -28 -14 -29 15 16 2 -20
-24 26 27 -21 -54 31 -38 -15
-22 -57 49 -89 12 9 1 -52
9 49 43 53 -127 27 13 -20
00000000: de07 cbf3 1b08 a721 292a 18ac bfd3 27f8
00000010: 22ea 0534 fee9 2b76 0d07 e113 03fa ca11
00000020: f825 7f13 141a 08f8 e6ca 24ee 2e18 e0f9
00000030: 05df a333 13e6 1fb9 a710 f919 da22 2619
00000040: 29f5 1d35 3138 e506 66d1 d74f fe0e 0af1
00000050: c4d3 bb26 0ecf d104 efe8 e3f2 f2f8 38fb
00000060: e005 fb13 07ea d5ed 2c06 14bb d6f9 32e0
00000070: 81af 0555 dddd ff18 e00b fb44 e5c6 0d16
00000080: 2de3 f90e 08f0 02f4 231f 7bd4 0106 2503
00000090: 0ceb 9e40 1104 fedf 2d23 f146 9fd8 2012
000000a0: edeb 1e07 19e5 1317 4fd8 172d f40a ebe2
000000b0: 2d5a 3d31 07d9 db00 043d 06f6 ecfb ebff
000000c0: 0d19 b91d 1ce4 e9f0 6442 15f9 f90c e2ea
000000d0: fad2 a9f1 ef0d 0901 08eb 6ff6 c3ba 000d
000000e0: 26e4 f2e3 0f10 02ec e81a 1beb ca1f daf1
000000f0: eac7 31a7 0c09 01cc 0931 2b35 811b 0dec

tfl.pseudo_qconst6 i1 [1, 3, 3, 96]
-6 -30 115 -102 -127 31 -87 20
12 17 -127 55 74 8 -33 34
-33 79 -119 11 8 -21 2 4
-101 80 -52 -42 55 -120 31 -15
-102 -127 -1 3 9 -41 -31 33
-9 31 -57 -16 -127 -42 -38 111
65 127 6 65 -10 -13 -16 89
32 -88 -60 3 19 -16 -83 33
115 76 17 8 -76 -4 -1 -127
45 74 26 -15 96 -28 61 40
-17 -39 -23 -96 39 -56 -33 5
-41 -35 41 127 8 29 14 -15
108 -38 126 6 16 33 -127 59
-127 65 -34 25 81 20 -67 127
-82 -107 -120 63 -123 -34 119 30
-85 21 -115 -67 -31 -96 106 -17
71 -103 -21 11 5 -52 -61 59
20 44 -112 -28 -48 9 6 -40
42 126 -85 127 -36 -40 -60 31
34 -70 -28 65 -110 -104 -13 -16
104 51 7 -20 -127 74 23 -126
44 -127 4 -45 27 -37 94 41
-22 27 -127 -98 -45 -81 31 -99
-53 -17 43 82 92 11 43 74
119 43 57 -38 10 30 -44 58
-8 0 -34 14 32 17 11 -11
-58 -95 -127 47 -24 55 71 127
-42 -10 0 -27 -56 -58 60 -124
-127 -68 -8 16 -32 13 -33 -52
23 26 -34 -20 36 112 -18 -22
29 100 12 94 38 -35 -13 23
3 127 -58 9 -47 70 0 -127
00000000: fae2 739a 811f a914 0c11 8137 4a08 df22
00000010: df4f 890b 08eb 0204 9b50 ccd6 3788 1ff1
00000020: 9a81 ff03 09d7 e121 f71f c7f0 81d6 da6f
00000030: 417f 0641 f6f3 f059 20a8 c403 13f0 ad21
00000040: 734c 1108 b4fc ff81 2d4a 1af1 60e4 3d28
00000050: efd9 e9a0 27c8 df05 d7dd 297f 081d 0ef1
00000060: 6cda 7e06 1021 813b 8141 de19 5114 bd7f
00000070: ae95 883f 85de 771e ab15 8dbd e1a0 6aef
00000080: 4799 eb0b 05cc c33b 142c 90e4 d009 06d8
00000090: 2a7e ab7f dcd8 c41f 22ba e441 9298 f3f0
000000a0: 6833 07ec 814a 1782 2c81 04d3 1bdb 5e29
000000b0: ea1b 819e d3af 1f9d cbef 2b52 5c0b 2b4a
000000c0: 772b 39da 0a1e d43a f800 de0e 2011 0bf5
000000d0: c6a1 812f e837 477f d6f6 00e5 c8c6 3c84
000000e0: 81bc f810 e00d dfcc 171a deec 2470 eeea
000000f0: 1d64 0c5e 26dd f317 037f c609 d146 0081

tfl.pseudo_qconst8 i1 [96, 1, 1, 96]
-98 -39 -109 -20 -71 -110 34 -5
11 -20 13 31 0 0 54 -19
-11 50 -13 -18 16 48 -31 -9
1 63 -9 -2 -6 29 -6 -4
6 7 33 -5 46 -3 96 -81
-51 -18 54 23 34 -29 -55 -11
45 36 -85 12 17 -9 20 -32
35 -20 -29 -57 29 13 -52 4
-31 33 -7 14 15 7 25 37
-8 16 -44 107 -61 9 -67 4
37 -18 13 1 24 64 17 -92
-127 -51 -71 30 62 66 -108 79
-51 15 -64 -14 -35 60 -54 13
28 37 -11 71 -7 12 49 -4
-15 32 -75 0 -24 -127 0 37
13 -33 -5 -60 5 15 30 8
17 41 43 -53 34 -41 -36 -1
-28 -13 -9 22 -5 -77 -25 -28
-2 -36 -9 -21 -47 -10 32 93
-6 40 -47 11 65 -27 18 -26
37 -50 -23 119 5 -30 -47 13
0 -67 26 -36 -74 -84 47 7
57 49 47 61 -15 37 5 -3
-124 -100 36 17 -118 35 -14 -10
55 -23 -6 -38 61 38 -56 -37
-15 20 -17 -97 -51 -2 88 -10
-6 -28 -28 46 33 70 34 21
21 -31 -30 -58 16 21 -46 -14
25 -37 -19 39 -68 -15 81 0
6 17 -44 29 19 19 25 -32
-27 0 4 18 85 -2 -55 -101
39 -13 44 -6 -36 44 25 -61
00000000: 9ed9 93ec b992 22fb 0bec 0d1f 0000 36ed
00000010: f532 f3ee 1030 e1f7 013f f7fe fa1d fafc
00000020: 0607 21fb 2efd 60af cdee 3617 22e3 c9f5
00000030: 2d24 ab0c 11f7 14e0 23ec e3c7 1d0d cc04
00000040: e121 f90e 0f07 1925 f810 d46b c309 bd04
00000050: 25ee 0d01 1840 11a4 81cd b91e 3e42 944f
00000060: cd0f c0f2 dd3c ca0d 1c25 f547 f90c 31fc
00000070: f120 b500 e881 0025 0ddf fbc4 050f 1e08
00000080: 1129 2bcb 22d7 dcff e4f3 f716 fbb3 e7e4
00000090: fedc f7eb d1f6 205d fa28 d10b 41e5 12e6
000000a0: 25ce e977 05e2 d10d 00bd 1adc b6ac 2f07
000000b0: 3931 2f3d f125 05fd 849c 2411 8a23 f2f6
000000c0: 37e9 fada 3d26 c8db f114 ef9f cdfe 58f6
000000d0: fae4 e42e 2146 2215 15e1 e2c6 1015 d2f2
000000e0: 19db ed27 bcf1 5100 0611 d41d 1313 19e0
000000f0: e500 0412 55fe c99b 27f3 2cfa dc2c 19c3

tfl.pseudo_qconst9 i1 [1, 3, 3, 96]
119 68 -62 -70 90 2 -4 -5
3 -14 7 -17 16 6 -23 20
-16 -2 28 -31 -55 127 22 104
48 37 -110 -11 -26 127 1 -91
-39 9 -44 -16 -21 97 -82 127
-13 1 -27 -127 -5 74 -127 127
77 127 10 -7 48 -5 65 30
88 48 -127 -9 42 -38 -75 5
27 -8 -12 -21 81 113 127 -33
9 -11 -127 58 -16 -87 -35 82
27 114 1 34 5 -17 35 -102
60 -127 -121 -127 -40 82 124 127
127 25 -127 -107 90 39 79 -36
10 -3 56 -77 48 -17 41 68
9 15 39 -9 64 5 11 -29
32 127 -29 -23 92 25 6 9
6 -8 -124 110 -41 38 25 31
19 25 -16 -95 18 27 -120 56
-31 96 49 -86 26 17 86 -20
127 79 -116 2 108 10 -85 7
-55 66 -5 44 127 69 73 30
72 -8 15 15 58 -41 35 127
56 117 17 61 26 63 75 -16
-33 10 -127 -26 -71 -51 61 44
65 68 -86 -4 106 31 24 4
22 15 -10 -31 21 -7 119 7
-27 -1 -45 37 -94 -87 -127 -127
12 46 -67 -100 127 113 -5 109
-127 -108 -99 127 -33 -3 88 -89
0 51 -8 -68 20 41 -92 -66
-37 68 2 -40 36 -17 49 -78
26 105 -71 2 -112 -54 -28 10
00000000: 7744 c2ba 5a02 fcfb 03f2 07ef 1006 e914
00000010: f0fe 1ce1 c97f 1668 3025 92f5 e67f 01a5
00000020: d909 d4f0 eb61 ae7f f301 e581 fb4a 817f
00000030: 4d7f 0af9 30fb 411e 5830 81f7 2ada b505
00000040: 1bf8 f4eb 5171 7fdf 09f5 813a f0a9 dd52
00000050: 1b72 0122 05ef 239a 3c81 8781 d852 7c7f
00000060: 7f19 8195 5a27 4fdc 0afd 38b3 30ef 2944
00000070: 090f 27f7 4005 0be3 207f e3e9 5c19 0609
00000080: 06f8 846e d726 191f 1319 f0a1 121b 8838
00000090: e160 31aa 1a11 56ec 7f4f 8c02 6c0a ab07
000000a0: c942 fb2c 7f45 491e 48f8 0f0f 3ad7 237f
000000b0: 3875 113d 1a3f 4bf0 df0a 81e6 b9cd 3d2c
000000c0: 4144 aafc 6a1f 1804 160f f6e1 15f9 7707
000000d0: e5ff d325 a2a9 8181 0c2e bd9c 7f71 fb6d
000000e0: 8194 9d7f dffd 58a7 0033 f8bc 1429 a4be
000000f0: db44 02d8 24ef 31b2 1a69 b902 90ca e40a

tfl.pseudo_qconst11 i1 [96, 1, 1, 96]
-67 -53 37 9 -33 -62 -7 -1
38 -13 -6 -40 -78 -28 -114 25
16 -41 -19 -3 9 -11 29 33
27 87 8 -18 -22 -2 -29 -18
77 75 -15 -29 24 -52 33 8
-26 2 10 -32 -45 -45 36 9
31 -6 -48 29 -47 -27 1 -3
22 39 57 -59 -45 -6 35 -29
-9 16 -55 -24 4 -5 41 32
-24 -3 -4 20 3 -38 6 62
36 -20 -9 -96 -12 53 -127 -40
-78 -58 -10 114 5 -11 -21 55
-8 127 23 -6 -18 -28 23 -2
-35 -30 15 -3 -28 -47 41 6
-8 -32 -11 1 -8 39 3 -21
6 10 45 -4 20 17 -13 26
26 53 15 -67 20 53 -22 14
7 13 4 -16 -19 40 -72 -17
-45 11 13 -32 -20 4 -6 -19
-14 17 51 -1 -7 26 51 -5
32 -5 -18 -20 7 35 3 -7
3 30 -21 -32 -7 67 -4 4
-36 -39 13 32 -16 -96 15 19
-23 53 -9 -64 -62 59 -12 8
7 66 112 -14 -25 64 44 5
12 9 -7 127 -13 8 -48 17
35 -39 28 -9 -11 -15 6 48
-6 5 -15 -8 34 -16 -25 0
45 -24 13 -30 34 -67 6 -35
-7 -22 11 30 -31 24 20 -8
81 -5 -25 -31 -37 -36 21 53
-9 -4 30 -6 -57 -7 6 -18
00000000: bdcb 2509 dfc2 f9ff 26f3 fad8 b2e4 8e19
00000010: 10d7 edfd 09f5 1d21 1b57 08ee eafe e3ee
00000020: 4d4b f1e3 18cc 2108 e602 0ae0 d3d3 2409
00000030: 1ffa d01d d1e5 01fd 1627 39c5 d3fa 23e3
00000040: f710 c9e8 04fb 2920 e8fd fc14 03da 063e
00000050: 24ec f7a0 f435 81d8 b2c6 f672 05f5 eb37
00000060: f87f 17fa eee4 17fe dde2 0ffd e4d1 2906
00000070: f8e0 f501 f827 03eb 060a 2dfc 1411 f31a
00000080: 1a35 0fbd 1435 ea0e 070d 04f0 ed28 b8ef
00000090: d30b 0de0 ec04 faed f211 33ff f91a 33fb
000000a0: 20fb eeec 0723 03f9 031e ebe0 f943 fc04
000000b0: dcd9 0d20 f0a0 0f13 e935 f7c0 c23b f408
000000c0: 0742 70f2 e740 2c05 0c09 f97f f308 d011
000000d0: 23d9 1cf7 f5f1 0630 fa05 f1f8 22f0 e700
000000e0: 2de8 0de2 22bd 06dd f9ea 0b1e e118 14f8
000000f0: 51fb e7e1 dbdc 1535 f7fc 1efa c7f9 06ee

tfl.pseudo_qconst12 i1 [1, 3, 3, 96]
-8 2 -113 -9 -84 77 -14 -12
-23 -42 83 71 -14 94 -57 85
-76 46 -50 2 -64 -93 105 -86
-95 -127 6 127 26 -39 -69 23
17 33 -11 -127 -37 -46 15 39
-127 43 -119 17 64 127 -13 127
92 22 120 105 62 -83 90 53
39 -38 127 121 0 -2 -34 1
54 17 -8 -127 100 -7 103 -41
0 -123 -70 45 -8 35 19 90
-77 16 8 -53 -127 -111 -87 -43
127 -9 127 77 -127 -63 29 -26
81 -78 -90 14 -21 64 55 2
-7 -89 123 2 -127 12 -40 24
-127 -36 -50 -12 5 -16 64 -12
127 -71 -37 114 99 -32 -59 0
82 -31 -50 -127 -54 -82 80 22
27 112 -104 -9 28 118 38 42
89 44 127 73 -10 -27 9 29
-127 -88 99 66 14 -5 26 -9
-32 -127 -6 -70 13 11 31 -61
-1 -46 -59 67 -43 -1 50 127
-116 32 116 -102 -90 -30 -69 -30
42 8 91 97 -34 21 83 29
-44 -49 -104 -82 -21 84 -21 0
-33 29 -39 48 -17 -4 -3 -67
-110 83 15 38 18 -11 60 -18
104 -29 -21 53 127 -39 0 -120
-32 -56 1 -103 -48 -20 60 30
80 127 -24 94 -46 41 -26 -14
36 100 48 127 43 22 -93 14
-74 -127 32 -3 -14 -5 -34 127
00000000: f802 8ff7 ac4d f2f4 e9d6 5347 f25e c755
00000010: b42e ce02 c0a3 69aa a181 067f 1ad9 bb17
00000020: 1121 f581 dbd2 0f27 812b 8911 407f f37f
00000030: 5c16 7869 3ead 5a35 27da 7f79 00fe de01
00000040: 3611 f881 64f9 67d7 0085 ba2d f823 135a
00000050: b310 08cb 8191 a9d5 7ff7 7f4d 81c1 1de6
00000060: 51b2 a60e eb40 3702 f9a7 7b02 810c d818
00000070: 81dc cef4 05f0 40f4 7fb9 db72 63e0 c500
00000080: 52e1 ce81 caae 5016 1b70 98f7 1c76 262a
00000090: 592c 7f49 f6e5 091d 81a8 6342 0efb 1af7
000000a0: e081 faba 0d0b 1fc3 ffd2 c543 d5ff 327f
000000b0: 8c20 749a a6e2 bbe2 2a08 5b61 de15 531d
000000c0: d4cf 98ae eb54 eb00 df1d d930 effc fdbd
000000d0: 9253 0f26 12f5 3cee 68e3 eb35 7fd9 0088
000000e0: e0c8 0199 d0ec 3c1e 507f e85e d229 e6f2
000000f0: 2464 307f 2b16 a30e b681 20fd f2fb de7f

tfl.pseudo_qconst14 i1 [96, 1, 1, 96]
23 17 -65 15 -47 62 -28 18
59 37 -14 -125 60 -8 -3 -86
-31 17 -41 -22 -73 -15 46 -52
-26 55 23 -20 -52 39 -23 9
-124 57 17 -41 4 59 -19 33
46 88 -46 49 68 4 15 -36
-21 -28 -10 -2 73 68 -77 41
16 55 57 44 30 17 33 7
-38 10 4 14 -94 17 -77 23
4 -37 90 -11 15 -61 77 49
3 -22 67 -77 -127 -18 60 -9
87 102 -86 -110 18 -55 0 -101
-22 6 -11 -56 37 24 -10 0
-39 79 14 -29 4 13 25 21
6 -64 -6 -7 11 -43 -54 34
16 73 28 -23 -22 29 20 -12
-2 30 7 -6 5 -23 -29 -48
-18 -11 1 -80 14 10 -52 -15
-35 -37 -70 -6 42 14 50 17
-3 7 0 -19 5 17 -9 3
-14 -6 -21 -127 71 47 29 -75
-44 -31 2 -51 0 -58 7 31
-36 107 -6 -83 -17 -61 -3 -12
-109 46 2 25 -32 -40 -17 -29
9 -17 33 1 -2 -75 9 -36
-7 58 15 -38 -62 44 -19 11
1 18 44 -51 -37 -74 41 -29
23 94 19 20 -57 127 12 -25
-63 72 71 -19 -70 -34 -43 -30
8 -15 -25 -3 38 -18 45 -13
26 -31 9 48 66 27 117 -31
25 34 58 80 -35 -96 3 0
00000000: 1711 bf0f d13e e412 3b25 f283 3cf8 fdaa
00000010: e111 d7ea b7f1 2ecc e637 17ec cc27 e909
00000020: 8439 11d7 043b ed21 2e58 d231 4404 0fdc
00000030: ebe4 f6fe 4944 b329 1037 392c 1e11 2107
00000040: da0a 040e a211 b317 04db 5af5 0fc3 4d31
00000050: 03ea 43b3 81ee 3cf7 5766 aa92 12c9 009b
00000060: ea06 f5c8 2518 f600 d94f 0ee3 040d 1915
00000070: 06c0 faf9 0bd5 ca22 1049 1ce9 ea1d 14f4
00000080: fe1e 07fa 05e9 e3d0 eef5 01b0 0e0a ccf1
00000090: dddb bafa 2a0e 3211 fd07 00ed 0511 f703
000000a0: f2fa eb81 472f 1db5 d4e1 02cd 00c6 071f
000000b0: dc6b faad efc3 fdf4 932e 0219 e0d8 efe3
000000c0: 09ef 2101 feb5 09dc f93a 0fda c22c ed0b
000000d0: 0112 2ccd dbb6 29e3 175e 1314 c77f 0ce7
000000e0: c148 47ed bade d5e2 08f1 e7fd 26ee 2df3
000000f0: 1ae1 0930 421b 75e1 1922 3a50 dda0 0300

tfl.pseudo_qconst19 i1 [1, 3, 3, 96]
61 -67 -18 95 -54 -52 -127 -48
95 127 87 -54 124 -27 -35 -82
127 16 -40 -73 15 73 63 59
31 109 -76 -21 1 -114 23 41
-3 67 3 -127 23 30 -18 5
-82 13 127 107 95 127 127 -83
56 122 35 126 0 1 5 -45
3 -3 -64 -7 68 125 54 -24
-111 121 123 -43 -127 -108 -40 -127
127 4 18 95 -90 83 -87 115
-14 37 127 127 -43 -127 -99 44
-1 -67 127 -48 -13 122 71 19
71 -7 -115 26 -40 3 -65 30
127 -69 127 -52 -49 -49 16 -89
42 -32 -70 -54 -38 6 127 79
127 127 -45 -14 -7 -127 26 85
-61 75 17 -96 -32 65 40 127
-60 41 72 92 48 28 1 -105
8 57 95 127 -64 27 26 18
10 -102 -94 -28 -45 124 102 -13
-36 109 48 26 -18 -97 -88 -38
110 23 -17 13 -4 -85 -27 5
127 -64 38 -7 -95 -31 -38 104
-22 -25 53 -35 -127 60 88 23
-12 13 -127 -49 -47 31 5 127
41 -104 4 -39 77 -127 -6 -63
-4 -31 -88 -31 -35 35 95 57
8 87 -72 -26 -56 -93 37 127
-22 -26 -25 0 -88 -17 47 49
84 4 19 127 127 -121 42 8
54 120 60 123 -39 -16 3 -52
-42 -14 -52 -26 -5 127 74 -127
00000000: 3dbd ee5f cacc 81d0 5f7f 57ca 7ce5 ddae
00000010: 7f10 d8b7 0f49 3f3b 1f6d b4eb 018e 1729
00000020: fd43 0381 171e ee05 ae0d 7f6b 5f7f 7fad
00000030: 387a 237e 0001 05d3 03fd c0f9 447d 36e8
00000040: 9179 7bd5 8194 d881 7f04 125f a653 a973
00000050: f225 7f7f d581 9d2c ffbd 7fd0 f37a 4713
00000060: 47f9 8d1a d803 bf1e 7fbb 7fcc cfcf 10a7
00000070: 2ae0 baca da06 7f4f 7f7f d3f2 f981 1a55
00000080: c34b 11a0 e041 287f c429 485c 301c 0197
00000090: 0839 5f7f c01b 1a12 0a9a a2e4 d37c 66f3
000000a0: dc6d 301a ee9f a8da 6e17 ef0d fcab e505
000000b0: 7fc0 26f9 a1e1 da68 eae7 35dd 813c 5817
000000c0: f40d 81cf d11f 057f 2998 04d9 4d81 fac1
000000d0: fce1 a8e1 dd23 5f39 0857 b8e6 c8a3 257f
000000e0: eae6 e700 a8ef 2f31 5404 137f 7f87 2a08
000000f0: 3678 3c7b d9f0 03cc d6f2 cce6 fb7f 4a81

tfl.pseudo_qconst21 i1 [96, 1, 1, 88]
20 -127 -36 -2 -33 117 21 127
-60 80 26 -21 -70 -19 -25 27
23 5 -65 -36 -80 -42 -20 -11
-65 90 -48 -3 -58 61 -76 -30
-77 -7 -65 -10 -18 -23 12 89
-53 -63 -13 -71 118 6 -43 66
-12 6 -64 93 76 -27 6 110
2 4 28 45 -11 -61 34 19
-68 19 9 22 39 10 115 54
21 0 -36 -18 41 -13 -13 -17
-7 41 3 -103 -47 23 -8 -24
1 17 -12 -6 -52 -127 -27 -23
-59 -9 -11 54 -17 -27 2 -16
-10 15 -47 37 -24 8 -33 16
-7 53 -51 -72 -29 21 -26 0
-53 68 5 1 67 -30 27 44
0 11 41 -31 22 -9 23 -29
4 -19 -11 56 68 13 -5 53
-75 -9 15 55 35 -9 8 -40
37 40 3 -76 30 1 -16 47
-41 43 0 -43 25 -35 -7 -24
-38 -25 -31 -42 -46 -23 -11 -23
45 -57 109 11 54 50 34 62
-48 92 23 -43 11 -36 -75 -21
-24 -19 -40 -59 -28 -51 38 -22
-4 8 -36 40 -11 -50 -49 -24
-46 11 -24 -19 10 7 45 0
27 -55 -87 -110 -6 -13 -20 31
14 -48 -19 46 -24 -48 7 72
50 10 -2 127 -11 55 -1 -11
-8 -8 32 -62 -35 40 2 -18
-25 29 10 99 -15 48 -16 -65
00000000: 1481 dcfe df75 157f c450 1aeb baed e71b
00000010: 1705 bfdc b0d6 ecf5 bf5a d0fd c63d b4e2
00000020: b3f9 bff6 eee9 0c59 cbc1 f3b9 7606 d542
00000030: f406 c05d 4ce5 066e 0204 1c2d f5c3 2213
00000040: bc13 0916 270a 7336 1500 dcee 29f3 f3ef
00000050: f929 0399 d117 f8e8 0111 f4fa cc81 e5e9
00000060: c5f7 f536 efe5 02f0 f60f d125 e808 df10
00000070: f935 cdb8 e315 e600 cb44 0501 43e2 1b2c
00000080: 000b 29e1 16f7 17e3 04ed f538 440d fb35
00000090: b5f7 0f37 23f7 08d8 2528 03b4 1e01 f02f
000000a0: d72b 00d5 19dd f9e8 dae7 e1d6 d2e9 f5e9
000000b0: 2dc7 6d0b 3632 223e d05c 17d5 0bdc b5eb
000000c0: e8ed d8c5 e4cd 26ea fc08 dc28 f5ce cfe8
000000d0: d20b e8ed 0a07 2d00 1bc9 a992 faf3 ec1f
000000e0: 0ed0 ed2e e8d0 0748 320a fe7f f537 fff5
000000f0: f8f8 20c2 dd28 02ee e71d 0a63 f130 f0bf

tfl.pseudo_qconst23 i1 [1, 3, 3, 88]
125 -7 -15 -6 -6 -19 -56 127
-36 41 89 -59 -107 17 58 82
81 -67 -33 -69 -127 -127 -102 -62
-127 120 -28 36 -127 -5 20 6
-127 66 -20 -127 35 -36 -40 5
-105 -81 82 -44 125 -127 -105 87
-55 -107 -66 86 42 -91 47 93
83 -127 116 127 -8 -60 29 127
-127 81 73 74 97 99 100 -107
-27 -17 -120 -94 69 17 64 127
-93 115 127 -127 -120 35 -122 -71
127 13 5 127 -79 -1 -99 116
-77 114 73 26 -106 -71 32 104
103 -99 -28 -81 -127 -112 -127 -110
-42 127 -127 -24 -111 48 70 -27
-81 69 -89 -115 10 -101 -46 82
-64 -69 127 -13 66 -123 -81 6
41 -39 42 109 51 -127 81 81
20 -127 124 123 -56 -57 29 104
-117 74 19 48 42 127 106 -127
4 -56 -96 -98 -39 89 63 122
-59 68 114 -102 -60 15 -110 -114
116 37 -19 79 -21 59 -124 28
-60 124 -27 50 -76 -92 -1 29
22 -127 -69 127 9 -50 -100 77
-18 103 -104 -44 -66 105 75 -78
-64 60 -127 10 -40 -85 -23 85
-23 30 89 27 18 -26 -87 39
117 37 127 41 75 -113 -38 127
-12 -88 41 98 -11 -3 -3 82
-45 43 -78 42 27 105 35 -84
65 -58 -44 -54 -127 43 26 40
00000000: 7df9 f1fa faed c87f dc29 59c5 9511 3a52
00000010: 51bd dfbb 8181 9ac2 8178 e424 81fb 1406
00000020: 8142 ec81 23dc d805 97af 52d4 7d81 9757
00000030: c995 be56 2aa5 2f5d 5381 747f f8c4 1d7f
00000040: 8151 494a 6163 6495 e5ef 88a2 4511 407f
00000050: a373 7f81 8823 86b9 7f0d 057f b1ff 9d74
00000060: b372 491a 96b9 2068 679d e4af 8190 8192
00000070: d67f 81e8 9130 46e5 af45 a78d 0a9b d252
00000080: c0bb 7ff3 4285 af06 29d9 2a6d 3381 5151
00000090: 1481 7c7b c8c7 1d68 8b4a 1330 2a7f 6a81
000000a0: 04c8 a09e d959 3f7a c544 729a c40f 928e
000000b0: 7425 ed4f eb3b 841c c47c e532 b4a4 ff1d
000000c0: 1681 bb7f 09ce 9c4d ee67 98d4 be69 4bb2
000000d0: c03c 810a d8ab e955 e91e 591b 12e6 a927
000000e0: 7525 7f29 4b8f da7f f4a8 2962 f5fd fd52
000000f0: d32b b22a 1b69 23ac 41c6 d4ca 812b 1a28

tfl.pseudo_qconst25 i1 [32, 1, 1, 88]
3 11 4 -16 1 -29 -14 8
-5 -18 -1 -5 2 2 10 1
1 -12 -4 1 21 63 -7 -2
6 -2 -8 -2 12 -8 -25 5
8 3 3 11 0 -9 -3 -2
10 5 -25 -5 41 -22 6 -8
127 -37 4 1 7 -2 -6 -18
45 3 -4 -4 -12 -9 -35 80
7 0 -4 -33 -5 16 -34 3
-112 44 29 19 -4 -7 -12 5
-38 -106 38 32 14 54 9 -58
-1 -17 2 3 1 0 11 2
2 18 0 -8 -2 -18 -19 -3
-1 0 2 -2 -6 32 1 10
-4 13 -3 11 -3 0 -19 10
2 -3 -1 -2 6 -5 -3 -1
5 4 -24 1 23 -3 15 -6
12 -18 -10 5 -8 2 -5 -4
-34 1 2 2 4 8 -3 -35
2 3 -23 -9 15 10 -35 -6
37 51 -16 7 13 -46 42 33
39 88 37 -2 -10 -127 -1 -70
-3 28 -1 3 -8 11 -9 17
5 26 9 32 9 -53 -25 -18
-14 7 1 9 -4 -3 7 -47
6 12 7 0 1 9 10 -14
25 4 8 -15 4 -9 13 2
5 14 -9 11 12 7 7 -2
113 28 -93 -1 11 -1 9 11
31 -2 -3 11 4 0 -11 13
-10 6 38 12 25 12 4 -4
9 71 35 -42 -34 -30 32 40
00000000: 030b 04f0 01e3 f208 fbee fffb 0202 0a01
00000010: 01f4 fc01 153f f9fe 06fe f8fe 0cf8 e705
00000020: 0803 030b 00f7 fdfe 0a05 e7fb 29ea 06f8
00000030: 7fdb 0401 07fe faee 2d03 fcfc f4f7 dd50
00000040: 0700 fcdf fb10 de03 902c 1d13 fcf9 f405
00000050: da96 2620 0e36 09c6 ffef 0203 0100 0b02
00000060: 0212 00f8 feee edfd ff00 02fe fa20 010a
00000070: fc0d fd0b fd00 ed0a 02fd fffe 06fb fdff
00000080: 0504 e801 17fd 0ffa 0cee f605 f802 fbfc
00000090: de01 0202 0408 fddd 0203 e9f7 0f0a ddfa
000000a0: 2533 f007 0dd2 2a21 2758 25fe f681 ffba
000000b0: fd1c ff03 f80b f711 051a 0920 09cb e7ee
000000c0: f207 0109 fcfd 07d1 060c 0700 0109 0af2
000000d0: 1904 08f1 04f7 0d02 050e f70b 0c07 07fe
000000e0: 711c a3ff 0bff 090b 1ffe fd0b 0400 f50d
000000f0: f606 260c 190c 04fc 0947 23d6 dee2 2028

tfl.pseudo_qconst27 i1 [2, 1, 1, 88]
5 -13 -3 -9 -24 11 -10 3
-2 -1 -13 -16 11 -30 -17 -15
9 -8 1 -8 -6 -13 2 -44
9 0 10 8 5 3 0 0
6 -5 -3 -13 2 8 -20 -2
-23 5 -11 -15 -5 -12 -27 -32
-4 -17 -20 7 6 9 -29 -1
-8 3 15 4 5 -1 -44 -9
1 14 -6 -12 -4 17 3 -13
-13 -26 18 -45 -46 -29 -52 -38
6 -11 -85 -112 -85 -127 -61 -18
2 7 -2 -5 2 10 -7 7
0 5 -9 1 12 -20 -19 -12
11 -4 0 -3 -5 -10 5 -44
6 5 8 -3 3 6 -7 0
6 -3 1 -13 2 3 -16 6
-18 7 -6 -11 0 -8 -29 14
17 2 -29 7 3 6 -43 3
0 4 13 6 -3 1 -26 0
7 10 3 -12 6 15 4 -8
-6 -23 19 -28 -30 -37 -2 -2
22 -6 -64 74 0 -127 -39 -3
00000000: 05f3 fdf7 e80b f603 feff f3f0 0be2 eff1
00000010: 09f8 01f8 faf3 02d4 0900 0a08 0503 0000
00000020: 06fb fdf3 0208 ecfe e905 f5f1 fbf4 e5e0
00000030: fcef ec07 0609 e3ff f803 0f04 05ff d4f7
00000040: 010e faf4 fc11 03f3 f3e6 12d3 d2e3 ccda
00000050: 06f5 ab90 ab81 c3ee 0207 fefb 020a f907
00000060: 0005 f701 0cec edf4 0bfc 00fd fbf6 05d4
00000070: 0605 08fd 0306 f900 06fd 01f3 0203 f006
00000080: ee07 faf5 00f8 e30e 1102 e307 0306 d503
00000090: 0004 0d06 fd01 e600 070a 03f4 060f 04f8
000000a0: fae9 13e4 e2db fefe 16fa c04a 0081 d9fd

tfl.pseudo_qconst29 i1 [88, 1, 1, 80]
38 6 7 -3 9 -34 -96 -53
25 33 12 16 63 -9 23 3
31 -40 -54 11 -16 37 -39 11
6 33 50 -114 -82 -4 -25 -73
-11 -10 -25 -37 11 -4 -9 -10
-4 20 -16 -25 -25 0 -5 17
38 15 -50 0 9 -32 -28 7
96 -4 71 -127 99 -11 -11 -2
37 16 -29 52 64 45 -126 -14
-44 41 16 42 -66 -7 5 -47
-13 -45 3 49 17 -8 0 44
-65 15 5 6 118 63 14 21
-33 -12 12 -1 -22 -34 0 11
10 -55 60 -27 -62 -78 -6 -36
14 79 -2 12 -23 8 29 -1
10 -3 29 -19 6 50 54 -10
30 43 -12 64 32 9 21 46
-70 9 -5 22 15 17 21 16
-7 10 9 73 75 67 67 -44
-61 17 -16 40 -32 127 -34 20
33 -10 106 -13 20 -74 13 18
41 10 26 23 77 -50 15 -20
-3 58 -16 -19 30 -33 -13 33
-26 0 -32 13 22 16 -14 10
-19 56 7 -36 -32 41 -25 -7
40 -19 1 -13 24 26 -25 -10
-26 1 10 -24 -73 -8 6 -24
-9 0 -67 -65 -127 -3 31 -10
42 1 -16 -37 29 22 -63 -29
26 8 -36 14 1 29 -34 35
19 -12 40 -9 73 -35 -23 -80
32 -38 -7 36 17 -14 10 6
00000000: 2606 07fd 09de a0cb 1921 0c10 3ff7 1703
00000010: 1fd8 ca0b f025 d90b 0621 328e aefc e7b7
00000020: f5f6 e7db 0bfc f7f6 fc14 f0e7 e700 fb11
00000030: 260f ce00 09e0 e407 60fc 4781 63f5 f5fe
00000040: 2510 e334 402d 82f2 d429 102a bef9 05d1
00000050: f3d3 0331 11f8 002c bf0f 0506 763f 0e15
00000060: dff4 0cff eade 000b 0ac9 3ce5 c2b2 fadc
00000070: 0e4f fe0c e908 1dff 0afd 1ded 0632 36f6
00000080: 1e2b f440 2009 152e ba09 fb16 0f11 1510
00000090: f90a 0949 4b43 43d4 c311 f028 e07f de14
000000a0: 21f6 6af3 14b6 0d12 290a 1a17 4dce 0fec
000000b0: fd3a f0ed 1edf f321 e600 e00d 1610 f20a
000000c0: ed38 07dc e029 e7f9 28ed 01f3 181a e7f6
000000d0: e601 0ae8 b7f8 06e8 f700 bdbf 81fd 1ff6
000000e0: 2a01 f0db 1d16 c1e3 1a08 dc0e 011d de23
000000f0: 13f4 28f7 49dd e9b0 20da f924 11f2 0a06

tfl.pseudo_qconst31 i1 [1, 3, 3, 80]
-55 78 -114 -74 -64 -107 3 -37
-12 -6 50 -13 111 0 -70 -18
30 -23 81 -65 28 4 -43 -10
-22 -127 -9 1 104 65 4 34
-96 26 50 -65 89 106 22 -97
-10 56 12 -76 -4 57 59 127
62 44 -80 -101 11 34 -68 37
9 -127 74 -114 32 -68 66 8
-124 -39 -104 -121 -127 35 58 -113
17 24 -21 37 69 -31 -69 44
-127 86 -85 -14 -127 -102 32 -59
-21 -12 49 -11 38 23 -96 43
127 26 127 -36 14 3 67 -9
-78 -114 -91 -72 127 33 8 61
-97 89 14 -127 106 90 -56 -127
-72 51 30 -79 2 120 21 40
47 33 -87 -83 -33 4 -8 42
13 -115 70 -111 -51 -57 111 19
-127 -127 -60 -6 -97 31 51 21
-37 40 -50 56 27 -127 -18 -49
-15 73 -39 -51 27 -122 -4 -75
-16 -18 -71 -8 75 -9 -43 9
55 27 69 31 10 -7 63 -8
-127 -85 -48 -106 113 2 6 41
-110 91 -44 -94 118 121 -127 -69
-12 30 18 -23 8 69 35 -88
63 19 88 -37 12 -17 -51 45
27 -75 28 -48 -102 -68 31 -17
-74 -88 -127 -7 -105 43 35 37
-127 -2 -127 19 41 -98 6 -103
-80 88 -2 -127 -117 -109 -12 -38
-59 -3 127 -13 21 -2 -127 -40
00000000: c94e 8eb6 c095 03db f4fa 32f3 6f00 baee
00000010: 1ee9 51bf 1c04 d5f6 ea81 f701 6841 0422
00000020: a01a 32bf 596a 169f f638 0cb4 fc39 3b7f
00000030: 3e2c b09b 0b22 bc25 0981 4a8e 20bc 4208
00000040: 84d9 9887 8123 3a8f 1118 eb25 45e1 bb2c
00000050: 8156 abf2 819a 20c5 ebf4 31f5 2617 a02b
00000060: 7f1a 7fdc 0e03 43f7 b28e a5b8 7f21 083d
00000070: 9f59 0e81 6a5a c881 b833 1eb1 0278 1528
00000080: 2f21 a9ad df04 f82a 0d8d 4691 cdc7 6f13
00000090: 8181 c4fa 9f1f 3315 db28 ce38 1b81 eecf
000000a0: f149 d9cd 1b86 fcb5 f0ee b9f8 4bf7 d509
000000b0: 371b 451f 0af9 3ff8 81ab d096 7102 0629
000000c0: 925b d4a2 7679 81bb f41e 12e9 0845 23a8
000000d0: 3f13 58db 0cef cd2d 1bb5 1cd0 9abc 1fef
000000e0: b6a8 81f9 972b 2325 81fe 8113 299e 0699
000000f0: b058 fe81 8b93 f4da c5fd 7ff3 15fe 81d8

tfl.pseudo_qconst33 i1 [80, 1, 1, 72]
-33 108 -5 -74 -10 -15 89 -12
11 19 -127 -22 13 15 -4 -49
13 -47 57 6 46 6 23 1
-68 -2 12 -11 -18 -2 15 35
-53 23 10 35 52 -28 36 13
-39 -17 73 -1 -11 -20 -94 14
-84 71 12 -127 -26 -54 52 97
-14 -33 -88 -6 -33 35 17 -26
47 0 -10 -47 -21 -14 -10 101
-2 66 13 -32 26 -14 -9 11
65 -13 -29 -18 -25 13 56 12
22 -23 114 -25 15 -3 -93 12
57 -13 -28 10 -56 20 39 14
10 -62 14 -58 -41 40 -5 -31
38 -9 -37 -36 25 -17 4 39
8 16 -5 59 -19 -63 13 13
-24 -94 1 35 -127 54 1 -26
13 31 -51 -80 -44 -69 5 -21
7 59 -127 -2 -43 -46 14 -20
-42 -5 20 3 -39 11 77 15
62 -15 7 -2 19 9 58 -34
-23 33 -52 15 -6 -12 36 10
16 -16 -11 -36 -113 -56 26 -69
-2 -37 18 6 21 -28 -70 7
-17 -32 -14 17 -24 -32 18 99
-17 -86 -82 58 52 8 -38 -27
28 -30 -33 -4 -37 75 -16 52
21 25 4 -72 5 2 31 -13
10 -3 20 2 14 25 43 27
13 -6 -37 4 51 0 26 4
-48 12 -17 -28 -5 -36 -12 -4
30 11 -42 -6 37 -25 -12 -32
00000000: df6c fbb6 f6f1 59f4 0b13 81ea 0d0f fccf
00000010: 0dd1 3906 2e06 1701 bcfe 0cf5 eefe 0f23
00000020: cb17 0a23 34e4 240d d9ef 49ff f5ec a20e
00000030: ac47 0c81 e6ca 3461 f2df a8fa df23 11e6
00000040: 2f00 f6d1 ebf2 f665 fe42 0de0 1af2 f70b
00000050: 41f3 e3ee e70d 380c 16e9 72e7 0ffd a30c
00000060: 39f3 e40a c814 270e 0ac2 0ec6 d728 fbe1
00000070: 26f7 dbdc 19ef 0427 0810 fb3b edc1 0d0d
00000080: e8a2 0123 8136 01e6 0d1f cdb0 d4bb 05eb
00000090: 073b 81fe d5d2 0eec d6fb 1403 d90b 4d0f
000000a0: 3ef1 07fe 1309 3ade e921 cc0f faf4 240a
000000b0: 10f0 f5dc 8fc8 1abb fedb 1206 15e4 ba07
000000c0: efe0 f211 e8e0 1263 efaa ae3a 3408 dae5
000000d0: 1ce2 dffc db4b f034 1519 04b8 0502 1ff3
000000e0: 0afd 1402 0e19 2b1b 0dfa db04 3300 1a04
000000f0: d00c efe4 fbdc f4fc 1e0b d6fa 25e7 f4e0

tfl.pseudo_qconst35 i1 [1, 3, 3, 72]
-91 -45 127 75 68 -18 -15 -9
127 10 25 89 -63 14 -102 -37
2 -78 -69 -20 25 17 -23 8
53 14 -17 -26 24 -4 22 -92
10 -19 -72 -7 -73 -56 -20 30
127 61 -127 0 74 1 3 -13
13 82 -79 105 46 1 -125 127
92 46 84 -23 127 43 -127 88
-127 -120 -60 127 -127 -127 2 70
-127 -13 75 22 70 -28 -112 -4
79 83 20 -9 1 -32 -42 -16
9 -56 -127 12 -44 7 -60 58
-35 59 13 -33 10 55 -6 -103
-16 -12 30 22 -89 -49 -11 -70
74 -9 -104 -38 7 -7 55 3
-15 -65 -88 -30 33 -127 -36 37
28 92 -1 -52 14 110 -6 127
-119 -78 -34 80 -65 -1 37 14
-35 -23 -28 1 4 -22 -127 -16
11 99 21 2 -66 -127 18 17
55 -80 -89 -23 -19 14 -97 74
-41 81 16 -9 22 36 -1 -64
-11 -2 121 68 -127 -127 6 -127
59 -127 -48 -127 3 34 77 15
3 -103 -26 -29 -24 -124 72 5
-27 38 -47 -17 -9 127 31 96
-37 14 -45 31 -35 114 -9 -47
-20 -34 -10 14 127 -6 -11 -41
77 -31 78 32 16 79 9 17
6 0 -26 -12 3 1 -45 43
127 0 -12 -26 -11 -3 9 -26
11 -41 -70 -114 39 25 -18 -6
00000000: a5d3 7f4b 44ee f1f7 7f0a 1959 c10e 9adb
00000010: 02b2 bbec 1911 e908 350e efe6 18fc 16a4
00000020: 0aed b8f9 b7c8 ec1e 7f3d 8100 4a01 03f3
00000030: 0d52 b169 2e01 837f 5c2e 54e9 7f2b 8158
00000040: 8188 c47f 8181 0246 81f3 4b16 46e4 90fc
00000050: 4f53 14f7 01e0 d6f0 09c8 810c d407 c43a
00000060: dd3b 0ddf 0a37 fa99 f0f4 1e16 a7cf f5ba
00000070: 4af7 98da 07f9 3703 f1bf a8e2 2181 dc25
00000080: 1c5c ffcc 0e6e fa7f 89b2 de50 bfff 250e
00000090: dde9 e401 04ea 81f0 0b63 1502 be81 1211
000000a0: 37b0 a7e9 ed0e 9f4a d751 10f7 1624 ffc0
000000b0: f5fe 7944 8181 0681 3b81 d081 0322 4d0f
000000c0: 0399 e6e3 e884 4805 e526 d1ef f77f 1f60
000000d0: db0e d31f dd72 f7d1 ecde f60e 7ffa f5d7
000000e0: 4de1 4e20 104f 0911 0600 e6f4 0301 d32b
000000f0: 7f00 f4e6 f5fd 09e6 0bd7 ba8e 2719 eefa

tfl.pseudo_qconst37 i1 [72, 1, 1, 64]
-49 13 32 -49 127 -67 67 -37
53 -10 -17 -7 -8 -14 29 -40
27 -98 72 -36 -1 1 18 -5
38 -9 -57 -4 -35 -5 -44 13
61 33 -16 28 33 71 -18 -26
-14 -91 26 4 20 -14 49 -11
-11 49 -3 53 -60 -37 1 -1
-83 13 15 -26 -86 85 -21 -31
65 -127 -23 -19 80 -58 3 -5
2 7 -2 -16 22 10 0 -66
12 -11 -28 17 4 0 10 40
63 11 -41 -7 66 -50 -13 33
-30 -8 16 -7 10 10 63 -42
-1 -32 -37 -7 41 10 -4 -6
-11 -16 15 -8 -19 13 -30 4
-22 10 3 -5 11 -1 -20 -58
83 59 15 44 15 51 60 -10
17 -69 -39 -41 15 -52 21 -2
20 -24 0 24 24 19 -78 -19
112 36 -7 -11 16 6 0 11
-65 -17 -13 15 -16 25 -19 17
10 -33 -6 -22 -17 20 41 67
22 -127 18 -99 -26 -31 5 24
28 32 -8 -35 7 -5 108 -52
-19 -6 -28 -63 -16 -24 -10 -127
-11 -30 38 3 -21 -2 -54 -8
6 -32 16 -49 -9 -52 27 32
-15 0 0 39 31 -65 -27 -10
4 -18 51 10 4 25 3 -51
-24 -43 46 14 0 91 25 91
-97 17 63 2 -12 15 8 -51
49 -22 -63 -10 65 -57 13 66
00000000: cf0d 20cf 7fbd 43db 35f6 eff9 f8f2 1dd8
00000010: 1b9e 48dc ff01 12fb 26f7 c7fc ddfb d40d
00000020: 3d21 f01c 2147 eee6 f2a5 1a04 14f2 31f5
00000030: f531 fd35 c4db 01ff ad0d 0fe6 aa55 ebe1
00000040: 4181 e9ed 50c6 03fb 0207 fef0 160a 00be
00000050: 0cf5 e411 0400 0a28 3f0b d7f9 42ce f321
00000060: e2f8 10f9 0a0a 3fd6 ffe0 dbf9 290a fcfa
00000070: f5f0 0ff8 ed0d e204 ea0a 03fb 0bff ecc6
00000080: 533b 0f2c 0f33 3cf6 11bb d9d7 0fcc 15fe
00000090: 14e8 0018 1813 b2ed 7024 f9f5 1006 000b
000000a0: bfef f30f f019 ed11 0adf faea ef14 2943
000000b0: 1681 129d e6e1 0518 1c20 f8dd 07fb 6ccc
000000c0: edfa e4c1 f0e8 f681 f5e2 2603 ebfe caf8
000000d0: 06e0 10cf f7cc 1b20 f100 0027 1fbf e5f6
000000e0: 04ee 330a 0419 03cd e8d5 2e0e 005b 195b
000000f0: 9f11 3f02 f40f 08cd 31ea c1f6 41c7 0d42

tfl.pseudo_qconst39 i1 [1, 3, 3, 64]
-32 84 -49 97 -46 -127 -23 127
-127 46 81 69 64 12 -112 20
-40 -42 -50 -46 1 95 126 -32
-126 26 21 3 90 -127 -16 14
1 27 125 -64 53 -13 -72 32
-20 71 77 -100 -7 16 23 127
15 -127 -127 5 43 -23 77 -105
-37 14 -46 14 3 24 -29 127
-56 -37 17 -15 -81 -70 -116 -45
-38 22 71 87 68 -1 -90 9
-18 34 -88 -91 60 85 127 -81
-127 -5 -14 17 75 -122 24 -95
-40 76 94 -51 74 -39 -46 -15
-75 44 12 -127 44 15 -3 43
80 -116 -38 -81 -17 57 8 -7
43 -10 42 63 16 98 2 88
-113 -54 2 13 -127 41 -127 -61
19 -50 54 20 24 -6 -27 52
-29 7 -64 -89 114 63 -61 -17
-69 -9 -47 44 37 -23 33 -44
-127 127 -15 15 -44 -7 98 7
-79 45 17 -83 -77 14 -11 -13
53 -30 64 -127 4 73 -127 45
66 -2 -64 -11 -75 127 2 82
-1 21 -127 127 -14 -59 2 31
-108 74 65 31 89 -1 -127 78
-29 -97 -127 2 32 127 89 -2
-51 -6 89 -5 122 -102 46 -2
9 60 -13 -77 20 -64 -97 67
88 71 97 -44 100 3 -57 59
47 -31 -37 21 7 79 49 -18
-57 119 -13 -94 33 -31 53 18
00000000: e054 cf61 d281 e97f 812e 5145 400c 9014
00000010: d8d6 ced2 015f 7ee0 821a 1503 5a81 f00e
00000020: 011b 7dc0 35f3 b820 ec47 4d9c f910 177f
00000030: 0f81 8105 2be9 4d97 db0e d20e 0318 e37f
00000040: c8db 11f1 afba 8cd3 da16 4757 44ff a609
00000050: ee22 a8a5 3c55 7faf 81fb f211 4b86 18a1
00000060: d84c 5ecd 4ad9 d2f1 b52c 0c81 2c0f fd2b
00000070: 508c daaf ef39 08f9 2bf6 2a3f 1062 0258
00000080: 8fca 020d 8129 81c3 13ce 3614 18fa e534
00000090: e307 c0a7 723f c3ef bbf7 d12c 25e9 21d4
000000a0: 817f f10f d4f9 6207 b12d 11ad b30e f5f3
000000b0: 35e2 4081 0449 812d 42fe c0f5 b57f 0252
000000c0: ff15 817f f2c5 021f 944a 411f 59ff 814e
000000d0: e39f 8102 207f 59fe cdfa 59fb 7a9a 2efe
000000e0: 093c f3b3 14c0 9f43 5847 61d4 6403 c73b
000000f0: 2fe1 db15 074f 31ee c777 f3a2 21e1 3512

tfl.pseudo_qconst41 i1 [64, 1, 1, 56]
20 -15 -103 -32 -48 32 -34 55
-47 18 61 -14 -54 -47 -30 -2
86 33 70 -17 50 8 9 13
10 -32 -11 -52 -50 -11 18 -22
-32 -86 -6 -48 -21 22 46 46
-58 45 49 -34 -84 39 101 73
-39 -18 -29 -76 82 25 -31 127
-37 12 127 26 -2 -48 114 9
12 34 47 13 60 -1 -40 -10
103 11 -60 4 37 -8 36 50
-11 3 10 -65 -27 -75 65 8
-28 65 86 99 -43 -103 -26 12
12 -14 14 36 14 124 40 45
-40 19 -20 12 -108 47 119 -67
16 -38 -104 -11 -18 -32 46 19
-17 26 -10 25 -16 -86 -20 -15
-45 -9 43 75 20 24 24 21
-1 0 3 -37 26 35 24 -53
4 -5 78 30 -14 71 -12 -56
-27 35 -16 38 -22 0 -3 -61
-13 -35 -49 -15 34 39 127 2
-96 -41 73 -109 55 -34 -30 48
58 -83 -28 39 -4 34 0 -18
-12 2 -45 57 -44 21 91 3
21 10 58 -11 25 61 22 -68
23 -59 78 45 -57 32 20 13
61 32 50 -52 -89 22 7 -41
19 -31 -7 37 56 -127 64 48
14 12 26 14 -127 -8 -3 9
-2 7 18 -7 -23 -35 4 -26
1 5 12 -26 19 5 16 -24
-9 4 -24 36 -8 -3 8 1
00000000: 14f1 99e0 d020 de37 d112 3df2 cad1 e2fe
00000010: 5621 46ef 3208 090d 0ae0 f5cc cef5 12ea
00000020: e0aa fad0 eb16 2e2e c62d 31de ac27 6549
00000030: d9ee e3b4 5219 e17f db0c 7f1a fed0 7209
00000040: 0c22 2f0d 3cff d8f6 670b c404 25f8 2432
00000050: f503 0abf e5b5 4108 e441 5663 d599 e60c
00000060: 0cf2 0e24 0e7c 282d d813 ec0c 942f 77bd
00000070: 10da 98f5 eee0 2e13 ef1a f619 f0aa ecf1
00000080: d3f7 2b4b 1418 1815 ff00 03db 1a23 18cb
00000090: 04fb 4e1e f247 f4c8 e523 f026 ea00 fdc3
000000a0: f3dd cff1 2227 7f02 a0d7 4993 37de e230
000000b0: 3aad e427 fc22 00ee f402 d339 d415 5b03
000000c0: 150a 3af5 193d 16bc 17c5 4e2d c720 140d
000000d0: 3d20 32cc a716 07d7 13e1 f925 3881 4030
000000e0: 0e0c 1a0e 81f8 fd09 fe07 12f9 e9dd 04e6
000000f0: 0105 0ce6 1305 10e8 f704 e824 f8fd 0801

tfl.pseudo_qconst43 i1 [1, 3, 3, 56]
92 19 16 23 -4 93 36 74
-32 87 73 68 -59 -127 22 0
-15 1 18 126 13 4 -44 -5
2 82 69 24 -11 -100 -50 127
37 56 8 69 15 116 -127 -24
-103 63 -3 -73 -73 -1 6 2
-76 127 -55 18 -15 -127 -127 64
127 11 12 127 14 127 127 56
-100 -2 -31 -125 -6 52 34 -5
-127 -24 44 -3 -28 65 69 -127
-8 -22 127 8 23 -127 -127 42
44 69 24 -26 66 84 -62 7
-127 106 -2 -64 -83 37 72 -8
93 67 -127 -77 -72 -13 -21 -11
-22 19 -78 55 16 89 -39 23
-20 66 -80 -21 -127 12 12 5
-50 2 38 -60 -12 89 105 -80
2 61 26 -24 33 27 -56 -42
-15 34 -17 -121 57 93 -54 -17
-9 127 27 53 -58 33 127 0
127 62 -122 43 -127 40 -18 -7
94 127 29 -48 2 -2 -48 127
-6 58 21 -5 -25 -127 30 24
51 0 4 65 98 -14 -7 9
15 81 22 -10 -75 -70 -98 98
53 35 -127 127 -21 78 -113 34
5 39 -22 -78 38 -127 12 69
-54 30 28 79 19 -97 -90 92
-33 5 108 69 127 -73 -62 119
127 77 13 -127 10 -22 127 127
-25 127 127 60 8 -127 -127 -115
-127 -28 80 -87 127 -115 -54 43
00000000: 5c13 1017 fc5d 244a e057 4944 c581 1600
00000010: f101 127e 0d04 d4fb 0252 4518 f59c ce7f
00000020: 2538 0845 0f74 81e8 993f fdb7 b7ff 0602
00000030: b47f c912 f181 8140 7f0b 0c7f 0e7f 7f38
00000040: 9cfe e183 fa34 22fb 81e8 2cfd e441 4581
00000050: f8ea 7f08 1781 812a 2c45 18e6 4254 c207
00000060: 816a fec0 ad25 48f8 5d43 81b3 b8f3 ebf5
00000070: ea13 b237 1059 d917 ec42 b0eb 810c 0c05
00000080: ce02 26c4 f459 69b0 023d 1ae8 211b c8d6
00000090: f122 ef87 395d caef f77f 1b35 c621 7f00
000000a0: 7f3e 862b 8128 eef9 5e7f 1dd0 02fe d07f
000000b0: fa3a 15fb e781 1e18 3300 0441 62f2 f909
000000c0: 0f51 16f6 b5ba 9e62 3523 817f eb4e 8f22
000000d0: 0527 eab2 2681 0c45 ca1e 1c4f 139f a65c
000000e0: df05 6c45 7fb7 c277 7f4d 0d81 0aea 7f7f
000000f0: e77f 7f3c 0881 818d 81e4 50a9 7f8d ca2b

tfl.pseudo_qconst45 i1 [56, 1, 1, 48]
108 -38 18 44 -15 47 -38 -19
-15 82 55 -16 -32 -53 51 -53
127 26 32 5 -15 -41 -21 -35
-18 21 -26 97 28 0 -31 28
-84 -60 14 12 10 34 -14 -113
6 -62 -15 -46 54 2 -18 -17
0 -105 -34 27 -21 -12 68 18
0 81 -11 26 -3 28 -6 -6
33 -13 -41 21 -17 -12 28 30
30 9 -48 -18 -42 51 27 35
-6 18 87 29 -36 -45 46 -55
-127 -33 108 -19 -10 -31 -24 102
-8 -8 -127 3 26 -8 47 -8
-16 -9 -3 4 16 17 67 -2
10 -42 -18 46 11 -18 -8 -2
25 18 15 18 -5 -3 -39 36
54 44 -62 42 5 43 -15 -46
3 -37 -25 42 32 25 6 -4
23 31 -38 -108 4 1 -26 -8
-48 -19 -35 17 -24 -15 -8 -12
52 15 -17 -6 53 -31 -43 -4
-18 -1 -42 -4 -20 -25 -97 -48
-41 -67 -48 40 -55 15 40 23
-12 61 -45 118 -42 18 127 61
-40 -28 -11 -2 -29 -39 -35 -55
26 26 24 5 -3 -21 -9 -17
2 -39 3 45 -11 -5 40 -14
39 24 6 127 -14 -44 12 54
-14 -106 -26 -24 21 -10 -4 -59
52 20 -35 36 11 23 -35 13
18 38 -7 4 12 127 -12 -41
-20 5 9 -6 -27 15 -21 52
00000000: 6cda 122c f12f daed f152 37f0 e0cb 33cb
00000010: 7f1a 2005 f1d7 ebdd ee15 e661 1c00 e11c
00000020: acc4 0e0c 0a22 f28f 06c2 f1d2 3602 eeef
00000030: 0097 de1b ebf4 4412 0051 f51a fd1c fafa
00000040: 21f3 d715 eff4 1c1e 1e09 d0ee d633 1b23
00000050: fa12 571d dcd3 2ec9 81df 6ced f6e1 e866
00000060: f8f8 8103 1af8 2ff8 f0f7 fd04 1011 43fe
00000070: 0ad6 ee2e 0bee f8fe 1912 0f12 fbfd d924
00000080: 362c c22a 052b f1d2 03db e72a 2019 06fc
00000090: 171f da94 0401 e6f8 d0ed dd11 e8f1 f8f4
000000a0: 340f effa 35e1 d5fc eeff d6fc ece7 9fd0
000000b0: d7bd d028 c90f 2817 f43d d376 d612 7f3d
000000c0: d8e4 f5fe e3d9 ddc9 1a1a 1805 fdeb f7ef
000000d0: 02d9 032d f5fb 28f2 2718 067f f2d4 0c36
000000e0: f296 e6e8 15f6 fcc5 3414 dd24 0b17 dd0d
000000f0: 1226 f904 0c7f f4d7 ec05 09fa e50f eb34

tfl.pseudo_qconst47 i1 [1, 3, 3, 48]
97 87 11 -4 -41 -17 -3 47
-24 -60 -111 127 36 44 -68 2
123 119 -1 -34 47 -33 127 78
-58 -26 -11 -100 127 35 11 90
127 -30 127 -37 -127 13 43 37
-88 -22 -33 -36 -8 74 -36 -44
75 127 66 -127 -127 9 121 -25
-65 26 -117 71 46 60 -77 83
127 87 -13 -82 -3 -44 121 120
21 16 80 -127 34 49 -13 61
127 -91 41 31 26 7 -24 127
55 86 -12 -12 -20 2 -80 -73
-60 85 15 67 -58 12 127 -36
-28 -34 8 7 38 80 -127 -10
114 20 -18 -10 -55 11 63 -25
-50 118 127 5 -70 18 27 -24
-15 15 27 52 9 27 -8 79
100 112 16 39 -31 27 -50 -48
-15 59 64 -11 -7 -16 -41 41
-21 -122 -127 37 -1 48 -11 -55
112 79 -6 20 3 -52 87 19
86 -25 -43 -97 119 26 -22 42
6 -41 102 -77 -60 -86 -33 16
-127 13 10 42 -107 127 -68 -41
-117 117 127 117 13 -127 19 -71
-127 87 -127 77 -127 23 -35 125
54 80 -12 -127 -127 -127 -2 -71
127 42 66 -26 -90 127 -3 -127
3 -11 -59 127 -70 18 127 18
5 127 -109 16 -120 34 -127 -127
-48 11 5 113 8 -9 73 -127
-5 127 -79 31 13 -17 -68 -22
00000000: 6157 0bfc d7ef fd2f e8c4 917f 242c bc02
00000010: 7b77 ffde 2fdf 7f4e c6e6 f59c 7f23 0b5a
00000020: 7fe2 7fdb 810d 2b25 a8ea dfdc f84a dcd4
00000030: 4b7f 4281 8109 79e7 bf1a 8b47 2e3c b353
00000040: 7f57 f3ae fdd4 7978 1510 5081 2231 f33d
00000050: 7fa5 291f 1a07 e87f 3756 f4f4 ec02 b0b7
00000060: c455 0f43 c60c 7fdc e4de 0807 2650 81f6
00000070: 7214 eef6 c90b 3fe7 ce76 7f05 ba12 1be8
00000080: f10f 1b34 091b f84f 6470 1027 e11b ced0
00000090: f13b 40f5 f9f0 d729 eb86 8125 ff30 f5c9
000000a0: 704f fa14 03cc 5713 56e7 d59f 771a ea2a
000000b0: 06d7 66b3 c4aa df10 810d 0a2a 957f bcd7
000000c0: 8b75 7f75 0d81 13b9 8157 814d 8117 dd7d
000000d0: 3650 f481 8181 feb9 7f2a 42e6 a67f fd81
000000e0: 03f5 c57f ba12 7f12 057f 9310 8822 8181
000000f0: d00b 0571 08f7 4981 fb7f b11f 0def bcea

tfl.pseudo_qconst49 i1 [48, 1, 1, 42]
-1 5 -5 -64 -102 -30 -64 44
18 -86 -37 38 -6 -2 -74 6
19 27 -43 4 -51 8 -24 -20
30 16 -16 6 -1 -13 22 38
-36 22 69 127 9 -32 40 38
10 -41 3 58 -25 59 73 19
6 -28 9 22 -34 -38 19 7
40 -13 15 43 -29 -9 -45 0
-47 3 16 -43 10 -53 24 -35
50 20 -9 18 127 -11 -1 37
-36 -39 -17 -33 30 -23 -37 20
-2 83 76 89 -20 -2 7 -35
55 -39 -8 16 68 -17 -30 -20
6 15 -16 -14 -21 -59 -62 -7
66 -13 127 51 9 -61 -8 15
19 -43 -7 66 -19 63 18 -29
95 18 -66 24 66 41 35 16
-69 -24 -25 -49 -6 -127 -10 -24
49 -72 61 -15 -16 3 -66 61
-68 -13 1 7 51 13 50 33
30 -39 -29 24 62 -24 94 29
-72 -27 17 -5 -4 25 60 -50
-47 -77 70 -54 22 -13 -31 27
49 -49 53 -31 -39 23 93 -7
-78 -48 -32 59 -63 -42 28 17
-5 -5 -18 12 -127 49 -67 24
-5 -7 -5 12 -86 -109 10 -8
-5 99 -51 -19 85 -44 -107 -10
-26 13 -127 105 -20 -94 55 80
97 -38 -65 127 -27 33 7 -23
-18 32 -76 48 -76 21 -85 64
27 -77 -7 109 -3 -17 39 -14
00000000: ff05 fbc0 9ae2 c02c 12aa db26 fafe b606
00000010: 131b d504 cd08 e8ec 1e10 f006 fff3 1626
00000020: dc16 457f 09e0 2826 0ad7 033a e73b 4913
00000030: 06e4 0916 deda 1307 28f3 0f2b e3f7 d300
00000040: d103 10d5 0acb 18dd 3214 f712 7ff5 ff25
00000050: dcd9 efdf 1ee9 db14 fe53 4c59 ecfe 07dd
00000060: 37d9 f810 44ef e2ec 060f f0f2 ebc5 c2f9
00000070: 42f3 7f33 09c3 f80f 13d5 f942 ed3f 12e3
00000080: 5f12 be18 4229 2310 bbe8 e7cf fa81 f6e8
00000090: 31b8 3df1 f003 be3d bcf3 0107 330d 3221
000000a0: 1ed9 e318 3ee8 5e1d b8e5 11fb fc19 3cce
000000b0: d1b3 46ca 16f3 e11b 31cf 35e1 d917 5df9
000000c0: b2d0 e03b c1d6 1c11 fbfb ee0c 8131 bd18
000000d0: fbf9 fb0c aa93 0af8 fb63 cded 55d4 95f6
000000e0: e60d 8169 eca2 3750 61da bf7f e521 07e9
000000f0: ee20 b430 b415 ab40 1bb3 f96d fdef 27f2

tfl.pseudo_qconst51 i1 [1, 3, 3, 42]
-127 59 110 52 -102 9 -30 15
-3 76 -47 26 -4 -116 61 75
41 -111 63 -11 81 67 45 11
46 54 106 8 -127 -47 93 -85
32 110 91 -65 67 -20 -67 -11
85 -89 -99 74 127 25 -127 45
-59 71 39 77 -49 98 40 -116
115 71 127 -108 81 -44 127 94
70 121 70 59 64 -8 -22 -69
114 -127 109 127 127 -52 96 -9
-127 45 99 -72 -22 76 54 -6
-59 54 -1 78 52 42 -46 49
55 -17 68 25 68 -38 76 -61
68 52 80 127 36 23 5 -10
55 -35 46 -73 118 91 61 38
79 -38 -87 107 30 -26 -63 70
75 111 -114 53 -27 55 44 96
-100 75 67 -127 74 92 84 -108
35 -68 26 87 24 28 82 102
60 34 -67 -57 100 29 63 83
54 -127 102 -82 -10 53 88 -127
-61 127 103 127 -119 97 57 127
127 127 -127 127 127 -121 127 127
117 -127 -37 -127 57 127 113 76
127 127 127 95 -19 -127 127 -31
127 104 116 -57 127 -103 -67 122
127 -112 -7 89 81 38 -45 88
94 116 97 38 -52 80 107 -30
89 28 75 -20 -81 -87 75 69
127 71 74 85 92 76 68 -60
75 -65 104 53 81 58 101 -49
-50 127 51 -47 7 53 -1 84
00000000: 813b 6e34 9a09 e20f fd4c d11a fc8c 3d4b
00000010: 2991 3ff5 5143 2d0b 2e36 6a08 81d1 5dab
00000020: 206e 5bbf 43ec bdf5 55a7 9d4a 7f19 812d
00000030: c547 274d cf62 288c 7347 7f94 51d4 7f5e
00000040: 4679 463b 40f8 eabb 7281 6d7f 7fcc 60f7
00000050: 812d 63b8 ea4c 36fa c536 ff4e 342a d231
00000060: 37ef 4419 44da 4cc3 4434 507f 2417 05f6
00000070: 37dd 2eb7 765b 3d26 4fda a96b 1ee6 c146
00000080: 4b6f 8e35 e537 2c60 9c4b 4381 4a5c 5494
00000090: 23bc 1a57 181c 5266 3c22 bdc7 641d 3f53
000000a0: 3681 66ae f635 5881 c37f 677f 8961 397f
000000b0: 7f7f 817f 7f87 7f7f 7581 db81 397f 714c
000000c0: 7f7f 7f5f ed81 7fe1 7f68 74c7 7f99 bd7a
000000d0: 7f90 f959 5126 d358 5e74 6126 cc50 6be2
000000e0: 591c 4bec afa9 4b45 7f47 4a55 5c4c 44c4
000000f0: 4bbf 6835 513a 65cf ce7f 33d1 0735 ff54

tfl.pseudo_qconst53 i1 [42, 1, 1, 36]
-127 -56 27 3 52 -43 52 -22
52 27 -11 108 -1 -57 -64 -9
1 36 -12 10 -92 89 22 -2
-16 -12 -32 -14 -39 55 -13 22
16 -61 30 120 -7 127 -24 51
20 -9 -27 10 -50 -87 13 -36
36 37 9 -50 30 30 -19 -14
-37 -3 -6 50 -4 35 -42 26
16 -3 38 74 6 -74 -56 -19
-94 8 -121 -35 -16 29 84 -86
78 -35 -25 12 17 55 -4 -57
-75 33 66 4 -82 -98 -108 112
31 -33 86 -56 32 -114 -21 127
18 -91 -11 85 -63 -24 -40 24
29 -41 -18 20 15 20 45 37
50 127 48 -86 -99 -3 19 30
-14 32 15 50 -75 1 10 22
-52 10 11 29 4 -81 37 13
127 35 -23 15 6 47 98 -9
57 -34 -66 -88 -3 1 -10 -11
19 32 -93 63 -12 23 -13 42
78 -20 31 -66 -2 66 -86 22
-46 31 27 11 -20 -35 -6 13
17 127 25 -35 -59 -56 -10 57
34 -79 -39 -6 -14 27 49 15
20 -24 46 -21 -3 17 20 -15
-4 -1 18 41 8 -20 -34 -17
-34 28 -78 -93 -27 17 101 -32
-75 14 -16 18 27 42 -32 42
18 19 8 68 49 -24 69 25
-5 -127 44 68 -22 5 -48 -7
-96 33 -83 59 49 11 -47 -22
00000000: 81c8 1b03 34d5 34ea 341b f56c ffc7 c0f7
00000010: 0124 f40a a459 16fe f0f4 e0f2 d937 f316
00000020: 10c3 1e78 f97f e833 14f7 e50a cea9 0ddc
00000030: 2425 09ce 1e1e edf2 dbfd fa32 fc23 d61a
00000040: 10fd 264a 06b6 c8ed a208 87dd f01d 54aa
00000050: 4edd e70c 1137 fcc7 b521 4204 ae9e 9470
00000060: 1fdf 56c8 208e eb7f 12a5 f555 c1e8 d818
00000070: 1dd7 ee14 0f14 2d25 327f 30aa 9dfd 131e
00000080: f220 0f32 b501 0a16 cc0a 0b1d 04af 250d
00000090: 7f23 e90f 062f 62f7 39de bea8 fd01 f6f5
000000a0: 1320 a33f f417 f32a 4eec 1fbe fe42 aa16
000000b0: d21f 1b0b ecdd fa0d 117f 19dd c5c8 f639
000000c0: 22b1 d9fa f21b 310f 14e8 2eeb fd11 14f1
000000d0: fcff 1229 08ec deef de1c b2a3 e511 65e0
000000e0: b50e f012 1b2a e02a 1213 0844 31e8 4519
000000f0: fb81 2c44 ea05 d0f9 a021 ad3b 310b d1ea

tfl.pseudo_qconst55 i1 [1, 3, 3, 36]
-77 25 127 79 97 -2 29 81
-53 50 30 -81 8 -110 57 -82
33 5 -110 -108 95 -69 77 31
-83 7 -10 52 127 -18 -127 -62
-20 127 40 -14 -127 3 127 10
-28 -67 -103 127 31 127 95 -29
1 -127 104 -117 61 0 -112 -3
33 -28 6 41 -39 54 -98 111
81 -66 -77 -127 -114 70 -80 -80
-83 17 -25 -72 -92 -30 -42 76
7 22 19 62 -23 -11 70 -121
5 -14 -45 92 -21 2 -61 69
35 1 -61 104 79 -14 50 -57
-53 -77 -57 -127 -89 -22 79 74
93 8 -85 36 -127 -6 30 -127
-35 -6 -69 61 87 1 24 -81
73 -127 111 -7 -127 -19 16 76
87 -89 -48 17 -30 112 125 27
33 -127 118 -14 -67 -127 -127 120
45 127 122 -39 -127 23 -127 -1
106 -127 127 -4 127 -61 24 -127
70 127 -127 127 1 24 6 -116
-127 92 51 -100 1 4 -82 -127
-127 -71 36 17 90 52 127 105
-49 40 -114 -59 0 -2 52 127
6 -7 -64 -37 59 23 -43 74
109 127 83 3 -113 -56 -31 -102
2 -48 0 34 -26 14 -36 -26
-111 -60 12 41 -16 76 -86 121
79 -5 58 11 -10 -53 111 -9
-40 -28 -6 -34 50 -61 -3 -4
-13 54 127 -14 62 -48 36 40
00000000: b319 7f4f 61fe 1d51 cb32 1eaf 0892 39ae
00000010: 2105 9294 5fbb 4d1f ad07 f634 7fee 81c2
00000020: ec7f 28f2 8103 7f0a e4bd 997f 1f7f 5fe3
00000030: 0181 688b 3d00 90fd 21e4 0629 d936 9e6f
00000040: 51be b381 8e46 b0b0 ad11 e7b8 a4e2 d64c
00000050: 0716 133e e9f5 4687 05f2 d35c eb02 c345
00000060: 2301 c368 4ff2 32c7 cbb3 c781 a7ea 4f4a
00000070: 5d08 ab24 81fa 1e81 ddfa bb3d 5701 18af
00000080: 4981 6ff9 81ed 104c 57a7 d011 e270 7d1b
00000090: 2181 76f2 bd81 8178 2d7f 7ad9 8117 81ff
000000a0: 6a81 7ffc 7fc3 1881 467f 817f 0118 068c
000000b0: 815c 339c 0104 ae81 81b9 2411 5a34 7f69
000000c0: cf28 8ec5 00fe 347f 06f9 c0db 3b17 d54a
000000d0: 6d7f 5303 8fc8 e19a 02d0 0022 e60e dce6
000000e0: 91c4 0c29 f04c aa79 4ffb 3a0b f6cb 6ff7
000000f0: d8e4 fade 32c3 fdfc f336 7ff2 3ed0 2428

tfl.pseudo_qconst57 i1 [36, 1, 1, 32]
-127 15 27 70 31 -15 33 5
-32 -16 -19 2 17 10 -11 36
72 7 8 -16 29 -37 0 -19
3 -12 -75 -38 -2 35 27 -17
-16 32 52 1 -5 -11 34 -31
13 10 -13 34 -17 -14 25 27
45 17 -15 38 -4 -16 10 11
-3 4 -73 -30 37 -127 -21 24
-36 71 -71 -74 -3 -44 43 25
47 33 6 68 12 54 -52 -89
44 42 -127 4 -19 -1 -44 10
30 23 -120 5 -37 18 57 6
40 -19 -27 -24 -67 46 41 14
-97 -92 49 62 -77 14 -28 24
5 65 17 24 -40 -4 -83 18
-5 31 -127 73 -36 -34 7 113
-53 -26 -68 71 -103 -33 42 -7
35 0 18 20 -6 -7 94 20
61 13 -59 124 -45 -22 -32 -13
-47 59 -103 64 17 -81 -117 127
17 -8 -49 -41 -38 107 -72 -80
61 -75 -69 -4 -65 57 -71 -111
-23 -22 101 -47 -127 3 -51 -23
-21 -43 -9 8 -58 50 66 -78
-14 -48 53 5 -17 49 10 6
-100 127 -38 12 -9 -65 15 8
-34 -1 26 -30 15 -12 0 -17
-31 73 -41 -24 -8 0 37 -62
-68 -8 0 35 -25 -7 -43 127
29 0 -23 3 -4 -59 -31 103
33 13 4 48 -28 1 -32 -1
11 38 -27 -20 1 -79 36 77
00000000: 810f 1b46 1ff1 2105 e0f0 ed02 110a f524
00000010: 4807 08f0 1ddb 00ed 03f4 b5da fe23 1bef
00000020: f020 3401 fbf5 22e1 0d0a f322 eff2 191b
00000030: 2d11 f126 fcf0 0a0b fd04 b7e2 2581 eb18
00000040: dc47 b9b6 fdd4 2b19 2f21 0644 0c36 cca7
00000050: 2c2a 8104 edff d40a 1e17 8805 db12 3906
00000060: 28ed e5e8 bd2e 290e 9fa4 313e b30e e418
00000070: 0541 1118 d8fc ad12 fb1f 8149 dcde 0771
00000080: cbe6 bc47 99df 2af9 2300 1214 faf9 5e14
00000090: 3d0d c57c d3ea e0f3 d13b 9940 11af 8b7f
000000a0: 11f8 cfd7 da6b b8b0 3db5 bbfc bf39 b991
000000b0: e9ea 65d1 8103 cde9 ebd5 f708 c632 42b2
000000c0: f2d0 3505 ef31 0a06 9c7f da0c f7bf 0f08
000000d0: deff 1ae2 0ff4 00ef e149 d7e8 f800 25c2
000000e0: bcf8 0023 e7f9 d57f 1d00 e903 fcc5 e167
000000f0: 210d 0430 e401 e0ff 0b26 e5ec 01b1 244d

tfl.pseudo_qconst59 i1 [1, 3, 3, 32]
-44 -70 -42 95 -54 22 41 -27
80 -5 8 9 -9 -33 -108 26
-51 -99 -37 21 -14 -34 27 -12
-43 -53 15 -3 -2 -37 -40 -62
-59 -68 -127 120 -70 -51 14 -20
127 -20 24 40 14 127 -76 127
20 -116 93 -78 52 -85 25 -20
-112 -87 54 -29 82 90 -127 120
51 -47 -21 -30 -63 25 -44 25
10 -19 2 4 -3 60 74 10
125 27 75 -41 52 20 19 1
-96 -37 44 -31 -13 8 -105 127
-79 -6 18 127 21 -34 -127 -72
41 -38 18 23 -4 -67 -76 49
-127 -89 -114 47 -43 -1 3 -4
-48 -62 127 -28 24 -127 28 -64
94 -127 -7 46 127 -127 8 -43
42 -127 127 127 -127 -12 -55 -11
-62 -127 -20 127 127 127 127 127
-12 -127 126 -127 127 79 110 35
127 -75 29 -59 -27 10 80 17
-42 -39 -2 1 -47 63 -44 -10
97 6 127 -105 93 33 9 2
-54 -47 51 -32 -27 13 -1 58
-7 -34 85 -12 42 26 -24 -67
-54 -3 3 -2 -20 1 36 24
-45 -18 -88 10 -80 2 0 -1
-43 1 52 -37 13 -32 -3 -64
67 39 127 -51 103 -3 27 -127
-33 -13 -3 -1 -47 -56 127 8
-39 0 -40 61 27 25 -11 -6
-127 -29 25 -84 9 -38 4 -4
00000000: d4ba d65f ca16 29e5 50fb 0809 f7df 941a
00000010: cd9d db15 f2de 1bf4 d5cb 0ffd fedb d8c2
00000020: c5bc 8178 bacd 0eec 7fec 1828 0e7f b47f
00000030: 148c 5db2 34ab 19ec 90a9 36e3 525a 8178
00000040: 33d1 ebe2 c119 d419 0aed 0204 fd3c 4a0a
00000050: 7d1b 4bd7 3414 1301 a0db 2ce1 f308 977f
00000060: b1fa 127f 15de 81b8 29da 1217 fcbd b431
00000070: 81a7 8e2f d5ff 03fc d0c2 7fe4 1881 1cc0
00000080: 5e81 f92e 7f81 08d5 2a81 7f7f 81f4 c9f5
00000090: c281 ec7f 7f7f 7f7f f481 7e81 7f4f 6e23
000000a0: 7fb5 1dc5 e50a 5011 d6d9 fe01 d13f d4f6
000000b0: 6106 7f97 5d21 0902 cad1 33e0 e50d ff3a
000000c0: f9de 55f4 2a1a e8bd cafd 03fe ec01 2418
000000d0: d3ee a80a b002 00ff d501 34db 0de0 fdc0
000000e0: 4327 7fcd 67fd 1b81 dff3 fdff d1c8 7f08
000000f0: d900 d83d 1b19 f5fa 81e3 19ac 09da 04fc
