lib/models/face_landmarks_192.tflite (tflite, 795952 bytes, 68 tensors)

p_re_lu/p_re_lu/Alpha/read i1 [1, 1, 16] scale=0.00855337 zero_point=0
00000000: ee25 5a5e f154 7f61 1505 573a 6554 f743
-0.15396066 0.31647468 0.7698033 0.80401677 -0.12830055 0.7184831 1.086278 0.82967687
0.17962077 0.04276685 0.7441432 0.49609545 0.86389035 0.7184831 -0.07698033 0.5730758

p_re_lu_1/p_re_lu_1/Alpha/read i1 [1, 1, 16] scale=0.0074843327 zero_point=0
00000000: 4311 3841 a8e5 d8ec 2e18 cc3e 7f14 e819
0.5014503 0.12723365 0.41912264 0.48648164 -0.65862125 -0.20207699 -0.2993733 -0.14968665
0.3442793 0.17962399 -0.3891853 0.46402863 0.95051026 0.14968665 -0.17962399 0.18710832

p_re_lu_10/p_re_lu_10/Alpha/read i1 [1, 1, 128] scale=0.0057717636 zero_point=0
00000000: 54e5 07b6 1ce1 e72e 2a2f 0dca 5a20 55d7
00000010: 281d 1e0d 345e f539 16e0 1b63 6d04 fd43
00000020: 010c 39c0 4832 3e1c 0035 bb0a 32ff 4519
00000030: 0205 4524 00fe 60c1 3b38 5e2c 4508 f8fa
00000040: b5ec 2957 f121 181a 2bde dfc6 c106 ca22
00000050: dec4 57ed 1e2c ff0d cf69 fcd3 eafc 10f3
00000060: e2f0 7b7f ceed b408 d6c0 bcdd f11d 0504
00000070: 46d6 cb48 5aed 18eb c5c5 f63c 3ac2 fadf
0.48482814 -0.15583763 0.040402345 -0.4271105 0.16160938 -0.17892468 -0.14429408 0.26550114
0.24241407 0.2712729 0.07503293 -0.31167525 0.5194587 0.18469644 0.4905999 -0.2366423
0.23087054 0.16738114 0.17315291 0.07503293 0.3001317 0.5425458 -0.0634894 0.32899052
0.1269788 -0.18469644 0.15583763 0.5714046 0.62912226 0.023087054 -0.01731529 0.38670817
0.0057717636 0.06926116 0.32899052 -0.36939287 0.41556698 0.28858817 0.35784936 0.16160938
0.0 0.30590346 -0.39825168 0.057717636 0.28858817 -0.0057717636 0.39825168 0.14429408
0.011543527 0.028858818 0.39825168 0.20778349 0.0 -0.011543527 0.5540893 -0.36362112
0.34053406 0.32321876 0.5425458 0.2539576 0.39825168 0.04617411 -0.04617411 -0.03463058
-0.43288228 -0.11543527 0.2366423 0.50214344 -0.086576454 0.19046819 0.13852233 0.15006585
0.24818584 -0.19623996 -0.19046819 -0.33476228 -0.36362112 0.03463058 -0.31167525 0.19623996
-0.19623996 -0.34630582 0.50214344 -0.10966351 0.17315291 0.2539576 -0.0057717636 0.07503293
-0.2828164 0.6060352 -0.023087054 -0.25972936 -0.1269788 -0.023087054 0.09234822 -0.07503293
-0.17315291 -0.09234822 0.7099269 0.733014 -0.28858817 -0.10966351 -0.43865404 0.04617411
-0.24241407 -0.36939287 -0.39247993 -0.20201173 -0.086576454 0.16738114 0.028858818 0.023087054
0.40402347 -0.24241407 -0.30590346 0.41556698 0.5194587 -0.10966351 0.13852233 -0.121207036
-0.34053406 -0.34053406 -0.057717636 0.34630582 0.33476228 -0.35784936 -0.03463058 -0.19046819

p_re_lu_11/p_re_lu_11/Alpha/read i1 [1, 1, 128] scale=0.0055853804 zero_point=0
00000000: d8ef ec16 a1e7 eac0 f0bf 9dd6 dbaf b4f4
00000010: 39b4 c6d3 8dbd e3c8 e2c4 c0b9 d6ee cbbf
00000020: e2cd 8cd5 24db d1af d9fa d458 d2e1 dce1
00000030: 14b8 afb8 c2c8 f7af 9da9 db1c c1d3 d5cd
00000040: d8c3 d2eb a792 99c6 b1ae 83c9 47ba 08a0
00000050: 92b6 f2d6 dfde dc98 add7 b484 eab9 d409
00000060: a81b e8db edd2 c0db 9425 c933 ddd1 dbd0
00000070: f51d c7eb d6d3 cfac c681 cdf2 03e7 e1c8
-0.22341521 -0.094951466 -0.111707605 0.122878365 -0.53061116 -0.1396345 -0.122878365 -0.35746434
-0.089366086 -0.36304972 -0.55295265 -0.23458597 -0.20665908 -0.45241582 -0.4244889 -0.067024566
0.31836668 -0.4244889 -0.32395205 -0.25134212 -0.6423187 -0.3742205 -0.16197602 -0.3127813
-0.16756141 -0.33512282 -0.35746434 -0.396562 -0.23458597 -0.100536846 -0.29602516 -0.36304972
-0.16756141 -0.2848544 -0.6479041 -0.24017136 0.20107369 -0.20665908 -0.26251286 -0.45241582
-0.21782984 -0.033512283 -0.24575673 0.49151346 -0.2569275 -0.17314678 -0.20107369 -0.17314678
0.111707605 -0.40214738 -0.45241582 -0.40214738 -0.34629357 -0.3127813 -0.050268423 -0.45241582
-0.55295265 -0.4859281 -0.20665908 0.15639065 -0.35187897 -0.25134212 -0.24017136 -0.2848544
-0.22341521 -0.3407082 -0.2569275 -0.117292985 -0.49709886 -0.61439186 -0.5752942 -0.32395205
-0.44124505 -0.4580012 -0.69817257 -0.30719593 0.396562 -0.39097664 0.044683043 -0.53619653
-0.61439186 -0.41331816 -0.078195326 -0.23458597 -0.18431756 -0.18990293 -0.20107369 -0.58087957
-0.46358657 -0.2290006 -0.4244889 -0.69258714 -0.122878365 -0.396562 -0.24575673 0.050268423
-0.49151346 0.15080526 -0.13404913 -0.20665908 -0.106122226 -0.2569275 -0.35746434 -0.20665908
-0.60322106 0.20665908 -0.30719593 0.2848544 -0.19548832 -0.26251286 -0.20665908 -0.26809826
-0.061439183 0.16197602 -0.31836668 -0.117292985 -0.23458597 -0.25134212 -0.27368364 -0.46917194
-0.32395205 -0.7093433 -0.2848544 -0.078195326 0.016756142 -0.1396345 -0.17314678 -0.3127813

p_re_lu_12/p_re_lu_12/Alpha/read i1 [1, 1, 128] scale=0.008263826 zero_point=0
00000000: 1934 2353 0a24 4b17 3608 66dc 1c22 332e
00000010: f322 5134 2818 1e33 0e3c 2637 e800 3f01
00000020: 312b d329 137f 3234 f70e 0e01 2e21 f53d
00000030: f430 1035 ffbc 16ee 2cfc 2a2c fb18 ec33
00000040: eee3 f4e8 cf01 b1d8 f915 ca25 fafc 03fe
00000050: f50c 040d 5524 08ce 01ef f024 2e52 db1d
00000060: 14ec e3ee fd40 4457 f4f3 46fc 0bfa 081f
00000070: 1012 1c26 f702 f1ff 91e2 290e 4430 021d
0.20659566 0.42971897 0.28923392 0.6858976 0.08263826 0.29749775 0.619787 0.190068
0.44624662 0.06611061 0.8429103 -0.29749775 0.23138714 0.2809701 0.42145514 0.380136
-0.10742974 0.2809701 0.66936994 0.42971897 0.33055305 0.19833183 0.24791479 0.42145514
0.11569357 0.49582958 0.3140254 0.45451045 -0.19833183 0.0 0.52062106 0.008263826
0.4049275 0.35534453 -0.3718722 0.33881688 0.1570127 1.049506 0.41319132 0.42971897
-0.07437444 0.11569357 0.11569357 0.008263826 0.380136 0.27270627 -0.09090209 0.5040934
-0.09916592 0.39666367 0.13222122 0.4379828 -0.008263826 -0.5619402 0.18180418 -0.14874887
0.36360836 -0.033055305 0.3470807 0.36360836 -0.04131913 0.19833183 -0.16527653 0.42145514
-0.14874887 -0.23965096 -0.09916592 -0.19833183 -0.4049275 0.008263826 -0.6528423 -0.33055305
-0.057846785 0.17354035 -0.44624662 0.30576158 -0.04958296 -0.033055305 0.02479148 -0.016527653
-0.09090209 0.09916592 0.033055305 0.10742974 0.70242524 0.29749775 0.06611061 -0.41319132
0.008263826 -0.14048505 -0.13222122 0.29749775 0.380136 0.67763376 -0.30576158 0.23965096
0.16527653 -0.16527653 -0.23965096 -0.14874887 -0.02479148 0.5288849 0.5619402 0.7189529
-0.09916592 -0.10742974 0.57846785 -0.033055305 0.09090209 -0.04958296 0.06611061 0.25617862
0.13222122 0.14874887 0.23138714 0.3140254 -0.07437444 0.016527653 -0.123957396 -0.008263826
-0.9172847 -0.24791479 0.33881688 0.11569357 0.5619402 0.39666367 0.016527653 0.23965096

p_re_lu_13/p_re_lu_13/Alpha/read i1 [1, 1, 128] scale=0.007315682 zero_point=0
00000000: 3efd 124b 0bfe 0300 420a 59f5 d420 0604
00000010: 0446 033e 0109 dc00 ccf9 1ce6 edce 0681
00000020: cadc 9ff6 ee3e effe fed5 f304 f118 3006
00000030: fafe e0cb 48f3 10ee f097 1743 fff1 c20f
00000040: 0a25 c2d8 fb84 3ef5 00f4 59de eee6 bfd9
00000050: 3ca8 3012 00a8 f9ed f9bc 0bc0 d00b e842
00000060: f208 c1ae e8ea 31e9 9d1c d2f8 fa25 f1d8
00000070: fc16 b405 df55 ecc5 b2ef 2f21 15e9 00de
0.45357227 -0.021947045 0.13168228 0.54867613 0.0804725 -0.014631364 0.021947045 0.0
0.482835 0.07315682 0.6510957 -0.0804725 -0.32189 0.23410182 0.04389409 0.029262727
0.029262727 0.5120977 0.021947045 0.45357227 0.007315682 0.06584114 -0.26336455 0.0
-0.38041544 -0.051209774 0.2048391 -0.19020772 -0.13899796 -0.36578408 0.04389409 -0.9290916
-0.39504683 -0.26336455 -0.70962113 -0.07315682 -0.13168228 0.45357227 -0.12436659 -0.014631364
-0.014631364 -0.31457433 -0.09510386 0.029262727 -0.10973523 0.17557636 0.35115272 0.04389409
-0.04389409 -0.014631364 -0.23410182 -0.38773113 0.5267291 -0.09510386 0.11705091 -0.13168228
-0.11705091 -0.7681466 0.16826068 0.4901507 -0.007315682 -0.10973523 -0.45357227 0.10973523
0.07315682 0.27068022 -0.45357227 -0.29262727 -0.03657841 -0.90714455 0.45357227 -0.0804725
0.0 -0.08778818 0.6510957 -0.24873318 -0.13168228 -0.19020772 -0.47551933 -0.28531158
0.4389409 -0.64378 0.35115272 0.13168228 0.0 -0.64378 -0.051209774 -0.13899796
-0.051209774 -0.49746636 0.0804725 -0.46820363 -0.35115272 0.0804725 -0.17557636 0.482835
-0.10241955 0.058525454 -0.46088794 -0.5998859 -0.17557636 -0.160945 0.3584684 -0.16826068
-0.7242525 0.2048391 -0.33652136 -0.058525454 -0.04389409 0.27068022 -0.10973523 -0.29262727
-0.029262727 0.160945 -0.5559918 0.03657841 -0.2414175 0.62183297 -0.14631364 -0.43162522
-0.57062316 -0.12436659 0.34383705 0.2414175 0.15362932 -0.16826068 0.0 -0.24873318

p_re_lu_14/p_re_lu_14/Alpha/read i1 [1, 1, 128] scale=0.005292979 zero_point=0
00000000: b2f2 abcd deb4 14d2 dbc5 33b6 071d cad6
00000010: f0a4 f8e6 01d4 dfe0 a708 cec9 a9d2 1fe4
00000020: f2a5 cce2 a6af 898d e104 cd34 ccc2 9eb8
00000030: aed5 9e87 8a8e db98 5bd8 f0c9 b8c3 ddff
00000040: df99 3102 bc96 9794 d589 97fc bcbe bba8
00000050: a206 bebd 81c9 a518 d0c1 dac8 02fc b5c8
00000060: b7c2 9da8 a498 c2d4 9f36 d586 c197 cdca
00000070: b8cd a8eb bad2 f42c dfa5 cfa4 d6d8 aae1
-0.41285238 -0.07410171 -0.44990322 -0.26994193 -0.1799613 -0.4022664 0.10585958 -0.24347703
-0.19584022 -0.31228575 0.26994193 -0.39168045 0.037050854 0.1534964 -0.28582087 -0.22230512
-0.084687665 -0.48695406 -0.042343833 -0.13761745 0.005292979 -0.23289108 -0.17466831 -0.16937533
-0.47107515 0.042343833 -0.26464894 -0.29111385 -0.46048918 -0.24347703 0.16408235 -0.14820342
-0.07410171 -0.48166108 -0.2752349 -0.15878937 -0.47636813 -0.4287313 -0.6298645 -0.6086926
-0.16408235 0.021171916 -0.26994193 0.2752349 -0.2752349 -0.3281647 -0.5187119 -0.3810945
-0.43402427 -0.2275981 -0.5187119 -0.6404505 -0.6245715 -0.60339963 -0.19584022 -0.5504698
0.48166108 -0.21171916 -0.084687665 -0.29111385 -0.3810945 -0.3228717 -0.18525426 -0.005292979
-0.17466831 -0.54517686 0.25935596 0.010585958 -0.3599226 -0.5610558 -0.5557628 -0.57164174
-0.2275981 -0.6298645 -0.5557628 -0.021171916 -0.3599226 -0.34933662 -0.36521557 -0.46578217
-0.49754003 0.031757876 -0.34933662 -0.3546296 -0.67220837 -0.29111385 -0.48166108 0.1270315
-0.254063 -0.33345768 -0.2011332 -0.29640684 0.010585958 -0.021171916 -0.39697343 -0.29640684
-0.38638747 -0.3281647 -0.52400494 -0.46578217 -0.48695406 -0.5504698 -0.3281647 -0.23289108
-0.513419 0.28582087 -0.2275981 -0.6457434 -0.33345768 -0.5557628 -0.26994193 -0.28582087
-0.3810945 -0.26994193 -0.46578217 -0.11115256 -0.37050852 -0.24347703 -0.06351575 0.23289108
-0.17466831 -0.48166108 -0.25935596 -0.48695406 -0.22230512 -0.21171916 -0.4551962 -0.16408235

p_re_lu_15/p_re_lu_15/Alpha/read i1 [1, 1, 128] scale=0.011124399 zero_point=0
00000000: 2d07 051e 28ec 1328 1406 3805 dffa 41f2
00000010: f324 187f 132a e13d f6ff 201e 21fc 0900
00000020: 3a3b 340e 202c 1d16 e0d1 df14 d3f9 f83e
00000030: 2edd 3420 f5f5 0be4 3918 232e fee3 f51f
00000040: ed07 1429 eb30 dc11 2505 2eda 0702 1418
00000050: 2dee f1ee 45fe 21f0 0dfe 2cc8 2345 fed8
00000060: 02ff d2f1 041f fd02 2b21 eefc f0ce 02d9
00000070: 2c0e 2ee8 2029 feeb 1b1b 2c26 24e7 f4f6
0.50059795 0.077870786 0.055621993 0.33373195 0.44497594 -0.22248797 0.21136357 0.44497594
0.22248797 0.06674639 0.6229663 0.055621993 -0.36710516 -0.06674639 0.7230859 -0.15574157
-0.14461718 0.40047836 0.26698557 1.4127986 0.21136357 0.46722475 -0.34485635 0.67858833
-0.111243986 -0.011124399 0.35598075 0.33373195 0.36710516 -0.044497594 0.10011959 0.0
0.6452151 0.6563395 0.57846874 0.15574157 0.35598075 0.48947352 0.32260755 0.24473676
-0.35598075 -0.52284676 -0.36710516 0.22248797 -0.50059795 -0.077870786 -0.08899519 0.6897127
0.5117223 -0.38935396 0.57846874 0.35598075 -0.12236838 -0.12236838 0.12236838 -0.31148314
0.6340907 0.26698557 0.38935396 0.5117223 -0.022248797 -0.32260755 -0.12236838 0.34485635
-0.21136357 0.077870786 0.22248797 0.45610034 -0.23361237 0.53397113 -0.40047836 0.18911478
0.41160274 0.055621993 0.5117223 -0.42272714 0.077870786 0.022248797 0.22248797 0.26698557
0.50059795 -0.20023918 -0.16686597 -0.20023918 0.7675835 -0.022248797 0.36710516 -0.17799038
0.14461718 -0.022248797 0.48947352 -0.6229663 0.38935396 0.7675835 -0.022248797 -0.44497594
0.022248797 -0.011124399 -0.5117223 -0.16686597 0.044497594 0.34485635 -0.033373196 0.022248797
0.47834915 0.36710516 -0.20023918 -0.044497594 -0.17799038 -0.55621994 0.022248797 -0.43385154
0.48947352 0.15574157 0.5117223 -0.26698557 0.35598075 0.45610034 -0.022248797 -0.23361237
0.30035877 0.30035877 0.48947352 0.42272714 0.40047836 -0.27810997 -0.13349278 -0.111243986

p_re_lu_16/p_re_lu_16/Alpha/read i1 [1, 1, 128] scale=0.006116563 zero_point=0
00000000: 2245 18f7 5701 f8f3 0a14 26db f7e3 28fb
00000010: 2afd 346c 0861 27cf 0542 ba04 1c5a fa31
00000020: 09b3 97dd 232f b236 39b0 f8da 0b12 fb0c
00000030: bdf1 0a81 4b2f 349a 4a3f c844 a802 3f1e
00000040: f307 353c 49ed 3e09 e227 e114 aa3c 9fc3
00000050: 3120 ad0f f61c 2404 2486 23fa 5701 02da
00000060: da5b 05f4 2b0b d72f e0b2 2e44 1a22 eb8d
00000070: f322 3e1c cd1b 3714 4539 3e51 6edc 0c17
0.20796314 0.42204285 0.14679751 -0.055049066 0.532141 0.006116563 -0.048932504 -0.079515316
0.06116563 0.12233126 0.2324294 -0.22631283 -0.055049066 -0.17738032 0.24466252 -0.030582815
0.25689563 -0.018349689 0.31806126 0.6605888 0.048932504 0.5933066 0.23854595 -0.29971159
0.030582815 0.40369317 -0.42815942 0.024466252 0.17126377 0.5504907 -0.036699377 0.29971159
0.055049066 -0.47097534 -0.6422391 -0.21407971 0.21407971 0.28747845 -0.4770919 0.3302944
0.34864408 -0.48932505 -0.048932504 -0.2324294 0.06728219 0.11009813 -0.030582815 0.073398754
-0.4098097 -0.091748446 0.06116563 -0.7768035 0.45874223 0.28747845 0.31806126 -0.62388945
0.45262566 0.38534346 -0.34252754 0.41592628 -0.53825754 0.012233126 0.38534346 0.18349689
-0.079515316 0.042815942 0.32417783 0.36699378 0.4465091 -0.1162147 0.3792269 0.055049066
-0.18349689 0.23854595 -0.18961345 0.12233126 -0.5260244 0.36699378 -0.5933066 -0.37311035
0.29971159 0.19573002 -0.50767475 0.091748446 -0.06116563 0.17126377 0.22019626 0.024466252
0.22019626 -0.7462207 0.21407971 -0.036699377 0.532141 0.006116563 0.012233126 -0.2324294
-0.2324294 0.55660725 0.030582815 -0.073398754 0.2630122 0.06728219 -0.2507791 0.28747845
-0.19573002 -0.4770919 0.2813619 0.41592628 0.15903063 0.20796314 -0.12844782 -0.7034047
-0.079515316 0.20796314 0.3792269 0.17126377 -0.31194472 0.1651472 0.33641097 0.12233126
0.42204285 0.34864408 0.3792269 0.49544162 0.67282194 -0.22019626 0.073398754 0.14068095

p_re_lu_17/p_re_lu_17/Alpha/read i1 [1, 1, 128] scale=0.0067515243 zero_point=0
00000000: e2b6 f4e8 d30a e6dd ece0 bcea ccd9 aac6
00000010: eec3 bc7f c30f d1e6 c28f ccdd e7b0 ddb3
00000020: f602 f7b6 c2d7 b2b3 cad8 00c0 bbe5 beb6
00000030: ca9b ddf9 c59b d0fe ddc5 fcb2 35fa bfe9
00000040: e2e0 8ad4 d3c1 a115 dddb c8fc cda3 f2f4
00000050: a0bc 0dd5 ead8 eed2 ddf9 d905 dbc2 c2fe
00000060: c10d d9df bdb1 cbfb e8bc bdcd bfca dfcd
00000070: deab b4d5 c1a5 b3f3 a100 b0d1 a2ff e8b4
-0.20254573 -0.4996128 -0.08101829 -0.16203658 -0.30381858 0.06751524 -0.17553963 -0.23630334
-0.13503048 -0.21604878 -0.45910364 -0.14853354 -0.35107926 -0.26330945 -0.5806311 -0.39158842
-0.12152743 -0.41184297 -0.45910364 0.8574436 -0.41184297 0.101272866 -0.31732163 -0.17553963
-0.4185945 -0.7629222 -0.35107926 -0.23630334 -0.1687881 -0.5401219 -0.23630334 -0.51986736
-0.06751524 0.013503049 -0.060763717 -0.4996128 -0.4185945 -0.2768125 -0.5266189 -0.51986736
-0.3645823 -0.27006096 0.0 -0.43209755 -0.46585518 -0.18229115 -0.4456006 -0.4996128
-0.3645823 -0.68190396 -0.23630334 -0.04726067 -0.39833993 -0.68190396 -0.32407317 -0.013503049
-0.23630334 -0.39833993 -0.027006097 -0.5266189 0.3578308 -0.040509146 -0.4388491 -0.15528506
-0.20254573 -0.21604878 -0.79667985 -0.29706708 -0.30381858 -0.42534602 -0.6413948 0.14178202
-0.23630334 -0.2498064 -0.37808537 -0.027006097 -0.34432775 -0.6278918 -0.09452134 -0.08101829
-0.64814633 -0.45910364 0.087769814 -0.29031554 -0.14853354 -0.27006096 -0.12152743 -0.31057012
-0.23630334 -0.04726067 -0.26330945 0.03375762 -0.2498064 -0.4185945 -0.4185945 -0.013503049
-0.42534602 0.087769814 -0.26330945 -0.2228003 -0.45235214 -0.53337044 -0.3578308 -0.03375762
-0.16203658 -0.45910364 -0.45235214 -0.34432775 -0.4388491 -0.3645823 -0.2228003 -0.34432775
-0.22955182 -0.57387954 -0.5131158 -0.29031554 -0.42534602 -0.6143887 -0.51986736 -0.087769814
-0.6413948 0.0 -0.5401219 -0.31732163 -0.63464326 -0.0067515243 -0.16203658 -0.5131158

p_re_lu_18/p_re_lu_18/Alpha/read i1 [1, 1, 32] scale=0.0086671645 zero_point=0
00000000: 0f2e c524 f8e0 172f 42f5 e3ce bfa9 f116
00000010: 0d32 1c18 ffee 1081 0f01 2321 1a10 d2e6
0.13000746 0.39868957 -0.51136273 0.31201792 -0.069337316 -0.27734926 0.19934478 0.40735674
0.57203287 -0.09533881 -0.25134778 -0.43335822 -0.5633657 -0.7540433 -0.13000746 0.19067761
0.11267314 0.43335822 0.24268061 0.20801196 -0.0086671645 -0.15600896 0.13867463 -1.10073
0.13000746 0.0086671645 0.30335075 0.28601643 0.22534628 0.13867463 -0.39868957 -0.22534628

p_re_lu_19/p_re_lu_19/Alpha/read i1 [1, 1, 32] scale=0.0061962465 zero_point=0
00000000: 06dc 2bd8 fc29 14f2 37ec 1701 f639 15fb
00000010: 20ea d6cf 26fd 08ef f62e e102 0d19 0a7f
0.03717748 -0.22306487 0.2664386 -0.24784985 -0.024784986 0.2540461 0.123924926 -0.08674745
0.34079355 -0.123924926 0.14251366 0.0061962465 -0.061962463 0.35318604 0.13012117 -0.030981231
0.19827989 -0.13631742 -0.26024234 -0.30361608 0.23545736 -0.01858874 0.04956997 -0.10533619
-0.061962463 0.28502733 -0.19208364 0.012392493 0.08055121 0.15490617 0.061962463 0.7869233

p_re_lu_2/p_re_lu_2/Alpha/read i1 [1, 1, 16] scale=0.005861949 zero_point=0
00000000: f502 5a16 d2e8 c9fa d711 0b57 81b2 e2bf
-0.06448144 0.011723898 0.52757543 0.12896287 -0.26964965 -0.14068678 -0.32240722 -0.035171695
-0.24033992 0.09965314 0.06448144 0.50998956 -0.74446756 -0.45723203 -0.17585847 -0.3810267

p_re_lu_25/p_re_lu_25/Alpha/read i1 [1, 1, 128] scale=0.007377935 zero_point=0
00000000: 20fd dc1a 19d4 c423 e537 4624 04cf 1a28
00000010: 8d91 8138 fc31 11cd e1ef 9a94 e429 fc14
00000020: c82b e4da ffd4 fecd 00cb f206 4eeb fdfb
00000030: c526 1f14 0504 dadf bcc5 19ee f8fc 3d07
00000040: b727 1a05 acc7 30d2 c81c 0c11 f466 8101
00000050: c2f4 0811 e637 bb33 ff13 f7d8 dcaf a016
00000060: f1e3 ff13 eb90 1600 d810 f8d8 25fe 4e31
00000070: f5fd fa21 dbfd 1ed1 e413 8e0e edb8 1ec0
0.23609392 -0.022133805 -0.26560566 0.19182631 0.18444838 -0.32462916 -0.4426761 0.25822774
-0.19920425 0.40578642 0.5164555 0.26560566 0.02951174 -0.36151883 0.19182631 0.2951174
-0.8484625 -0.8189508 -0.9369978 0.41316438 -0.02951174 0.36151883 0.12542489 -0.3762747
-0.22871599 -0.12542489 -0.7525494 -0.796817 -0.20658219 0.30249533 -0.02951174 0.1475587
-0.41316438 0.3172512 -0.20658219 -0.28036153 -0.007377935 -0.32462916 -0.01475587 -0.3762747
0.0 -0.39103055 -0.103291094 0.04426761 0.5754789 -0.15493664 -0.022133805 -0.036889676
-0.43529817 0.28036153 0.22871599 0.1475587 0.036889676 0.02951174 -0.28036153 -0.24347186
-0.50169957 -0.43529817 0.18444838 -0.13280283 -0.05902348 -0.02951174 0.45005405 0.051645547
-0.53858924 0.28773946 0.19182631 0.036889676 -0.61974657 -0.4205423 0.35414088 -0.339385
-0.41316438 0.20658219 0.08853522 0.12542489 -0.08853522 0.7525494 -0.9369978 0.007377935
-0.45743197 -0.08853522 0.05902348 0.12542489 -0.19182631 0.40578642 -0.50907755 0.3762747
-0.007377935 0.14018077 -0.066401415 -0.2951174 -0.26560566 -0.59761274 -0.70828176 0.16231458
-0.110669024 -0.21396011 -0.007377935 0.14018077 -0.15493664 -0.82632875 0.16231458 0.0
-0.2951174 0.11804696 -0.05902348 -0.2951174 0.2729836 -0.01475587 0.5754789 0.36151883
-0.08115729 -0.022133805 -0.04426761 0.24347186 -0.2729836 -0.022133805 0.22133805 -0.34676296
-0.20658219 0.14018077 -0.8410846 0.103291094 -0.14018077 -0.5312113 0.22133805 -0.47218785

p_re_lu_26/p_re_lu_26/Alpha/read i1 [1, 1, 32] scale=0.0042301565 zero_point=0
00000000: f79a 6b3c 46c8 323b 73d6 386b 6b27 357c
00000010: cf35 17b2 4619 b030 e17f d7e4 1cdb 2b0f
-0.03807141 -0.43147597 0.45262676 0.2538094 0.29611096 -0.23688877 0.21150783 0.24957924
0.48646802 -0.17766657 0.23688877 0.45262676 0.45262676 0.1649761 0.2241983 0.5245394
-0.20727767 0.2241983 0.0972936 -0.3299522 0.29611096 0.10575391 -0.33841252 0.20304751
-0.13113485 0.5372299 -0.17343642 -0.11844438 0.11844438 -0.15651579 0.18189673 0.06345235

p_re_lu_27/p_re_lu_27/Alpha/read i1 [1, 1, 32] scale=0.0035925813 zero_point=0
00000000: d7ed c059 d6c4 e5f8 f3d5 d803 a2f3 de3f
00000010: eb43 8139 e0f2 d3c5 e491 e3e0 d7a2 dfcc
-0.14729583 -0.068259045 -0.2299252 0.31973973 -0.15088841 -0.21555488 -0.0969997 -0.02874065
-0.046703555 -0.154481 -0.14370325 0.0107777435 -0.33770263 -0.046703555 -0.12214776 0.22633262
-0.07544421 0.24070294 -0.45625782 0.20477714 -0.1149626 -0.05029614 -0.16166615 -0.2119623
-0.10059228 -0.39877653 -0.10418486 -0.1149626 -0.14729583 -0.33770263 -0.11855518 -0.18681422

p_re_lu_3/p_re_lu_3/Alpha/read i1 [1, 1, 32] scale=0.009905063 zero_point=0
00000000: 0f06 7ff2 0909 2803 1812 1e10 1f20 f216
00000010: 14f6 e3f5 09f9 04dd 12fb 0afd fc0c fe05
0.14857593 0.059430376 1.2579429 -0.13867088 0.08914556 0.08914556 0.3962025 0.029715188
0.2377215 0.17829113 0.29715186 0.158481 0.30705693 0.316962 -0.13867088 0.21791138
0.19810125 -0.099050626 -0.28724682 -0.10895569 0.08914556 -0.06933544 0.03962025 -0.34667718
0.17829113 -0.049525313 0.099050626 -0.029715188 -0.03962025 0.11886075 -0.019810125 0.049525313

p_re_lu_4/p_re_lu_4/Alpha/read i1 [1, 1, 32] scale=0.008321218 zero_point=0
00000000: fe0d 1209 f938 21ee 1108 1c2d 2611 7f1f
00000010: fcf1 fae1 320d 110d 0ee7 14c9 0f23 0a1c
-0.016642436 0.10817584 0.14978193 0.074890964 -0.058248527 0.46598822 0.2746002 -0.14978193
0.14146072 0.066569746 0.23299411 0.37445483 0.31620628 0.14146072 1.0567948 0.25795776
-0.033284873 -0.12481827 -0.04992731 -0.25795776 0.41606092 0.10817584 0.14146072 0.10817584
0.116497055 -0.20803046 0.16642436 -0.457667 0.12481827 0.29124263 0.08321218 0.23299411

p_re_lu_5/p_re_lu_5/Alpha/read i1 [1, 1, 32] scale=0.008371948 zero_point=0
00000000: 38a7 36d2 f5ef aaf4 e8e2 a808 92c2 a198
00000010: f4bd f6b6 810c c297 2fa5 1ff9 c6e5 c719
0.4688291 -0.7451034 0.4520852 -0.38510963 -0.09209143 -0.14232312 -0.7199876 -0.100463375
-0.20092675 -0.25115845 -0.73673147 0.066975586 -0.9209143 -0.5190608 -0.7953351 -0.8706826
-0.100463375 -0.56092054 -0.083719485 -0.6195242 -1.0632374 0.100463375 -0.5190608 -0.87905455
0.39348158 -0.7618473 0.2595304 -0.058603637 -0.485573 -0.2260426 -0.47720104 0.2092987

p_re_lu_6/p_re_lu_6/Alpha/read i1 [1, 1, 64] scale=0.011777383 zero_point=0
00000000: 18f8 1219 f413 3bf0 0a09 2bf9 0f25 067f
00000010: 2a30 f91f 2102 f814 10e2 04f7 5f2c 1d04
00000020: f4e8 00ff 0fdf c5fa e2eb 0101 0d01 f8e1
00000030: 0e32 fbf6 05fe fa31 eaec 0fe6 e6fe e2f7
0.2826572 -0.094219066 0.2119929 0.29443458 -0.1413286 0.22377028 0.6948656 -0.18843813
0.11777383 0.10599645 0.50642747 -0.08244168 0.17666075 0.43576318 0.0706643 1.4957277
0.4946501 0.5653144 -0.08244168 0.3650989 0.38865364 0.023554767 -0.094219066 0.23554766
0.18843813 -0.3533215 0.047109533 -0.10599645 1.1188514 0.51820487 0.34154412 0.047109533
-0.1413286 -0.2826572 0.0 -0.011777383 0.17666075 -0.38865364 -0.6948656 -0.0706643
-0.3533215 -0.24732505 0.011777383 0.011777383 0.15310599 0.011777383 -0.094219066 -0.3650989
0.16488336 0.58886915 -0.058886915 -0.11777383 0.058886915 -0.023554767 -0.0706643 0.57709175
-0.25910243 -0.23554766 0.17666075 -0.30621198 -0.30621198 -0.023554767 -0.3533215 -0.10599645

p_re_lu_7/p_re_lu_7/Alpha/read i1 [1, 1, 64] scale=0.0069548935 zero_point=0
00000000: c9f2 19fb 27fc 3820 37e6 f439 4504 4363
00000010: 060a 2ac4 2dd8 7f2d 16d0 0df6 140b f6b5
00000020: 0b05 f730 bccc c7ee fae0 dad4 f832 ceff
00000030: b13b dfab b3e4 ccf1 f3f3 eded bd16 2836
-0.38251913 -0.09736851 0.17387234 -0.034774467 0.27124083 -0.027819574 0.38947403 0.22255659
0.38251913 -0.18082723 -0.08345872 0.39642894 0.47988766 0.027819574 0.46597785 0.68853444
0.04172936 0.069548935 0.29210553 -0.4172936 0.31297022 -0.27819574 0.88327146 0.31297022
0.15300766 -0.3338349 0.090413615 -0.069548935 0.13909787 0.07650383 -0.069548935 -0.521617
0.07650383 0.034774467 -0.06259404 0.3338349 -0.47293276 -0.36165446 -0.39642894 -0.12518808
-0.04172936 -0.22255659 -0.26428595 -0.3060153 -0.055639148 0.34774467 -0.34774467 -0.0069548935
-0.54943657 0.4103387 -0.22951148 -0.59116596 -0.5355268 -0.19473702 -0.36165446 -0.1043234
-0.090413615 -0.090413615 -0.13214298 -0.13214298 -0.46597785 0.15300766 0.27819574 0.37556425

p_re_lu_8/p_re_lu_8/Alpha/read i1 [1, 1, 64] scale=0.0065564658 zero_point=0
00000000: 052f e207 05e1 0fc3 1ef1 1033 ebbc d436
00000010: ebfa 0798 c4d5 24b5 b512 fcfa 81e4 a94d
00000020: c2c5 bee6 e005 d8c9 cdb8 b8ae f2d7 e1d9
00000030: e50a d11b db13 aad3 ca02 a9bd f61d d6e9
0.032782327 0.3081539 -0.19669397 0.04589526 0.032782327 -0.20325044 0.098346986 -0.39994442
0.19669397 -0.098346986 0.10490345 0.33437976 -0.13768578 -0.44583967 -0.28848448 0.35404915
-0.13768578 -0.039338794 0.04589526 -0.6818724 -0.39338794 -0.28192803 0.23603277 -0.49173492
-0.49173492 0.118016385 -0.026225863 -0.039338794 -0.83267117 -0.18358104 -0.5704125 0.5048479
-0.40650088 -0.3868315 -0.43272674 -0.1704681 -0.2098069 0.032782327 -0.26225862 -0.36060563
-0.33437976 -0.47206554 -0.47206554 -0.5376302 -0.09179052 -0.2688151 -0.20325044 -0.25570217
-0.17702457 0.065564655 -0.3081539 0.17702457 -0.24258924 0.12457285 -0.56385607 -0.29504097
-0.35404915 0.0131129315 -0.5704125 -0.4392832 -0.065564655 0.1901375 -0.27537155 -0.15079871

p_re_lu_9/p_re_lu_9/Alpha/read i1 [1, 1, 128] scale=0.0056923544 zero_point=0
00000000: f816 2627 4a3f 59f3 4e25 7729 5716 e0fc
00000010: 27da 2714 204c 6ad3 2ce1 312f 5515 0d1a
00000020: d3f7 aa60 a932 372b 0c1f 05d3 0856 2814
00000030: f52c 20f9 e732 3222 1ef7 0a0e 6534 2416
00000040: 9b14 37e1 e6ca e0f1 37c1 940a c2e3 27e4
00000050: 20ec 2d30 f967 4f62 f225 f414 12cd c522
00000060: e6e2 dfdb b153 53f4 3e03 f6d1 1608 39db
00000070: f90c cab7 630e 15e2 2628 dd1d 0509 667f
-0.045538835 0.1252318 0.21630947 0.22200182 0.42123422 0.35861832 0.5066195 -0.074000604
0.44400364 0.21061711 0.67739016 0.23338653 0.49523485 0.1252318 -0.18215534 -0.022769418
0.22200182 -0.21630947 0.22200182 0.11384709 0.18215534 0.43261895 0.60338956 -0.25615594
0.2504636 -0.176463 0.27892536 0.26754066 0.48385012 0.11953944 0.074000604 0.14800121
-0.25615594 -0.05123119 -0.48954248 0.546466 -0.49523485 0.28461772 0.3130795 0.24477124
0.06830825 0.176463 0.028461773 -0.25615594 0.045538835 0.48954248 0.22769418 0.11384709
-0.0626159 0.2504636 0.18215534 -0.03984648 -0.14230886 0.28461772 0.28461772 0.19354005
0.17077063 -0.05123119 0.056923546 0.07969296 0.5749278 0.29600242 0.20492476 0.1252318
-0.5749278 0.11384709 0.3130795 -0.176463 -0.14800121 -0.30738714 -0.18215534 -0.085385315
0.3130795 -0.35861832 -0.6147743 0.056923546 -0.352926 -0.16507828 0.22200182 -0.15938592
0.18215534 -0.11384709 0.25615594 0.273233 -0.03984648 0.58631253 0.449696 0.5578507
-0.07969296 0.21061711 -0.06830825 0.11384709 0.10246238 -0.29031008 -0.3358489 0.19354005
-0.14800121 -0.17077063 -0.18784769 -0.21061711 -0.449696 0.47246543 0.47246543 -0.06830825
0.352926 0.017077062 -0.056923546 -0.26754066 0.1252318 0.045538835 0.3244642 -0.21061711
-0.03984648 0.06830825 -0.30738714 -0.41554186 0.5635431 0.07969296 0.11953944 -0.17077063
0.21630947 0.22769418 -0.1992324 0.16507828 0.028461773 0.05123119 0.58062017 0.722929

conv2d/conv2d i1 [16, 3, 3, 3]
00000000: a308 0f12 f416 e1e8 f8d6 0132 f0f0 32e0
00000010: 1d3d d532 71ef 1d7f 0c16 62f8 bd08 e427
00000020: 2be7 0037 d481 08f6 a80a 0aeb f7e9 a620
00000030: fcd1 1d00 ec0e 3622 1325 0bfa 2f1a 03c4
00000040: ecee 81e8 e2d3 f5f0 d401 ffa4 f7f9 c3ef
00000050: f0e7 1927 0073 51e0 2e3e f30f f227 7f0f
00000060: eb24 27f3 b0bf 2ef2 cd1a e5f9 495b f34d
00000070: f0a5 0dfa 8523 46f8 ec47 cbff 4bdd 117f
00000080: 1abb 4deb a80e f237 1a40 03fe 52e4 0d15
00000090: e49b 00c9 81f4 f0ea f7e2 c116 e8b7 ffeb
000000a0: f709 104c 0b03 2025 cfca f350 7f2d 3439
000000b0: 33d6 f1e8 2e22 0525 1e0c f4d8 e6db d5e8
000000c0: 9981 daba b1d6 fc03 fbcf dcfd d8e4 0a30
000000d0: 2b1a 1c2b 232d 1b31 3634 3403 cc34 fed8
000000e0: 003a 2768 281e 627f 372a 1c47 4a0b 2d3d
000000f0: 5728 09f5 b0b9 dd81 cefd 250e 17a7 be06
-93 8 15 18 -12 22 -31 -24
-8 -42 1 50 -16 -16 50 -32
29 61 -43 50 113 -17 29 127
12 22 98 -8 -67 8 -28 39
43 -25 0 55 -44 -127 8 -10
-88 10 10 -21 -9 -23 -90 32
-4 -47 29 0 -20 14 54 34
19 37 11 -6 47 26 3 -60
-20 -18 -127 -24 -30 -45 -11 -16
-44 1 -1 -92 -9 -7 -61 -17
-16 -25 25 39 0 115 81 -32
46 62 -13 15 -14 39 127 15
-21 36 39 -13 -80 -65 46 -14
-51 26 -27 -7 73 91 -13 77
-16 -91 13 -6 -123 35 70 -8
-20 71 -53 -1 75 -35 17 127
26 -69 77 -21 -88 14 -14 55
26 64 3 -2 82 -28 13 21
-28 -101 0 -55 -127 -12 -16 -22
-9 -30 -63 22 -24 -73 -1 -21
-9 9 16 76 11 3 32 37
-49 -54 -13 80 127 45 52 57
51 -42 -15 -24 46 34 5 37
30 12 -12 -40 -26 -37 -43 -24
-103 -127 -38 -70 -79 -42 -4 3
-5 -49 -36 -3 -40 -28 10 48
43 26 28 43 35 45 27 49
54 52 52 3 -52 52 -2 -40
0 58 39 104 40 30 98 127
55 42 28 71 74 11 45 61
87 40 9 -11 -80 -71 -35 -127
-50 -3 37 14 23 -89 -66 6

depthwise_conv2d/depthwise_conv2d i1 [1, 3, 3, 16]
00000000: d457 03a8 0f39 b3ab 0509 6203 2aa9 816e
00000010: 8178 b58e 2f7f f681 5533 210a 5981 a17d
00000020: 9050 81ce 3550 fddf 3e7f f081 11ab 9b60
00000030: 178d 2a1c 7fd7 8107 dab2 7f4d e312 9f0e
00000040: e2b8 0706 5f19 190c d8c8 e11c 810e 8aec
00000050: ed6d cf17 7539 1ce8 7f35 e129 d0b0 8d02
00000060: 3981 3b7f 5a11 c618 aae1 457a 3067 d2cc
00000070: 38cf 4034 5321 e624 2312 e020 fa2f a981
00000080: 4526 f10b 73c4 fc01 581c 12c7 240d d6a0
-44 87 3 -88 15 57 -77 -85
5 9 98 3 42 -87 -127 110
-127 120 -75 -114 47 127 -10 -127
85 51 33 10 89 -127 -95 125
-112 80 -127 -50 53 80 -3 -33
62 127 -16 -127 17 -85 -101 96
23 -115 42 28 127 -41 -127 7
-38 -78 127 77 -29 18 -97 14
-30 -72 7 6 95 25 25 12
-40 -56 -31 28 -127 14 -118 -20
-19 109 -49 23 117 57 28 -24
127 53 -31 41 -48 -80 -115 2
57 -127 59 127 90 17 -58 24
-86 -31 69 122 48 103 -46 -52
56 -49 64 52 83 33 -26 36
35 18 -32 32 -6 47 -87 -127
69 38 -15 11 115 -60 -4 1
88 28 18 -57 36 13 -42 -96

conv2d_1/conv2d i1 [16, 1, 1, 16]
00000000: 41b8 493f 0445 ded8 e014 147f 3c42 f5c7
00000010: 2703 68f0 0114 307b c681 5470 754a 1e9b
00000020: 0a07 4300 cab9 fe5c 0516 e10a f715 1181
00000030: 81e8 08d9 fee9 5503 f701 1cce f40e 231f
00000040: 3b03 eff6 cd12 0a01 030e e310 7ffb 22cb
00000050: 18e7 0fba 459f fa5d 17f4 e1e4 7f28 c799
00000060: ce09 2847 03be 7e9c 1cff 37e1 be0c f07f
00000070: 4337 8536 0af1 c23b edff 81ed 2a19 f5e8
00000080: d717 da52 c726 f381 ef5b a5fa 1a1d ee3f
00000090: 1214 2eba 9e07 3902 f5f5 26e5 4130 7fd5
000000a0: 7f02 e9d6 b1ca ff50 f4bb fad5 ef5a 759c
000000b0: 47ea e509 cd2a f012 d86f 1381 51a9 a94b
000000c0: b533 8118 c5cd 25e7 e451 09ff 46f7 36af
000000d0: faf4 283b c4d5 e504 fdc3 f27f 492e db1c
000000e0: 5214 1fdc f9cd 3945 1aca 5c5c 9312 2a81
000000f0: e1f9 08da d907 fb12 05db 0ad9 d6e1 9c7f
65 -72 73 63 4 69 -34 -40
-32 20 20 127 60 66 -11 -57
39 3 104 -16 1 20 48 123
-58 -127 84 112 117 74 30 -101
10 7 67 0 -54 -71 -2 92
5 22 -31 10 -9 21 17 -127
-127 -24 8 -39 -2 -23 85 3
-9 1 28 -50 -12 14 35 31
59 3 -17 -10 -51 18 10 1
3 14 -29 16 127 -5 34 -53
24 -25 15 -70 69 -97 -6 93
23 -12 -31 -28 127 40 -57 -103
-50 9 40 71 3 -66 126 -100
28 -1 55 -31 -66 12 -16 127
67 55 -123 54 10 -15 -62 59
-19 -1 -127 -19 42 25 -11 -24
-41 23 -38 82 -57 38 -13 -127
-17 91 -91 -6 26 29 -18 63
18 20 46 -70 -98 7 57 2
-11 -11 38 -27 65 48 127 -43
127 2 -23 -42 -79 -54 -1 80
-12 -69 -6 -43 -17 90 117 -100
71 -22 -27 9 -51 42 -16 18
-40 111 19 -127 81 -87 -87 75
-75 51 -127 24 -59 -51 37 -25
-28 81 9 -1 70 -9 54 -81
-6 -12 40 59 -60 -43 -27 4
-3 -61 -14 127 73 46 -37 28
82 20 31 -36 -7 -51 57 69
26 -54 92 92 -109 18 42 -127
-31 -7 8 -38 -39 7 -5 18
5 -37 10 -39 -42 -31 -100 127

depthwise_conv2d_1/depthwise_conv2d i1 [1, 3, 3, 16]
00000000: 4d2e 1cfc 3f0d e1ec b885 c9db 7fdd 97d2
00000010: 1ade 60d6 fb46 f41a 06a8 d1a1 463f 910a
00000020: cff2 2b98 010d 0d10 3590 af2d 1e6e 8e57
00000030: 3d7e 517f d05b d663 81df 2a81 4e02 d981
00000040: f2e6 4452 c868 817f 0481 7f0e ed28 ad15
00000050: ddd2 aeb6 3237 2c59 0da3 f331 097f 8143
00000060: 7f7f 2326 f9d2 0cce 8ce0 f70f 37c8 1ba7
00000070: 102c 7f29 7f81 3601 f3e3 0b45 b932 250a
00000080: 16e7 0bb4 69cd 34ed 4acd da65 0e41 2523
77 46 28 -4 63 13 -31 -20
-72 -123 -55 -37 127 -35 -105 -46
26 -34 96 -42 -5 70 -12 26
6 -88 -47 -95 70 63 -111 10
-49 -14 43 -104 1 13 13 16
53 -112 -81 45 30 110 -114 87
61 126 81 127 -48 91 -42 99
-127 -33 42 -127 78 2 -39 -127
-14 -26 68 82 -56 104 -127 127
4 -127 127 14 -19 40 -83 21
-35 -46 -82 -74 50 55 44 89
13 -93 -13 49 9 127 -127 67
127 127 35 38 -7 -46 12 -50
-116 -32 -9 15 55 -56 27 -89
16 44 127 41 127 -127 54 1
-13 -29 11 69 -71 50 37 10
22 -25 11 -76 105 -51 52 -19
74 -51 -38 101 14 65 37 35

conv2d_2/conv2d i1 [16, 1, 1, 16]
00000000: 0d10 0733 f9b4 7f96 371b 6c59 041b fa15
00000010: 6481 bf89 c25f 6b04 fdf5 0009 ecda 6be6
00000020: c2df 24be 0ba5 3300 810f ac2e 7645 634b
00000030: fd30 140e e9e5 dd81 f3f7 0604 01e8 2fdf
00000040: 17fe fbcb 8141 64fa 08fd 1af6 0a15 34f0
00000050: 251d 73a4 09fd 7fd7 14f7 f12c 21db 1bee
00000060: 1fdb c99a fbd8 34cb edff 81c0 11e2 ffd1
00000070: 05ca 8188 c922 1bee a2fa b101 07e1 f420
00000080: 2001 ac5c 2181 c8cf 4b1c 1805 1e05 0722
00000090: e8fd c618 26d4 e981 cd3f bf17 f8e1 fbde
000000a0: 0b5c 2817 e9b6 ae38 2c6e ef81 0b61 d4de
000000b0: c9a7 147f 15f9 b30e 5a36 8a1c 4965 1601
000000c0: d7cc 052a 09e9 09f3 02a3 f5f5 0181 1d15
000000d0: 9981 0532 0d06 0818 450b 0be9 270b d8fd
000000e0: b109 2640 3ffd 8160 0427 07d3 105c 4af7
000000f0: df15 be17 c47f 3d18 e747 0211 f61d 09f5
13 16 7 51 -7 -76 127 -106
55 27 108 89 4 27 -6 21
100 -127 -65 -119 -62 95 107 4
-3 -11 0 9 -20 -38 107 -26
-62 -33 36 -66 11 -91 51 0
-127 15 -84 46 118 69 99 75
-3 48 20 14 -23 -27 -35 -127
-13 -9 6 4 1 -24 47 -33
23 -2 -5 -53 -127 65 100 -6
8 -3 26 -10 10 21 52 -16
37 29 115 -92 9 -3 127 -41
20 -9 -15 44 33 -37 27 -18
31 -37 -55 -102 -5 -40 52 -53
-19 -1 -127 -64 17 -30 -1 -47
5 -54 -127 -120 -55 34 27 -18
-94 -6 -79 1 7 -31 -12 32
32 1 -84 92 33 -127 -56 -49
75 28 24 5 30 5 7 34
-24 -3 -58 24 38 -44 -23 -127
-51 63 -65 23 -8 -31 -5 -34
11 92 40 23 -23 -74 -82 56
44 110 -17 -127 11 97 -44 -34
-55 -89 20 127 21 -7 -77 14
90 54 -118 28 73 101 22 1
-41 -52 5 42 9 -23 9 -13
2 -93 -11 -11 1 -127 29 21
-103 -127 5 50 13 6 8 24
69 11 11 -23 39 11 -40 -3
-79 9 38 64 63 -3 -127 96
4 39 7 -45 16 92 74 -9
-33 21 -66 23 -60 127 61 24
-25 71 2 17 -10 29 9 -11

depthwise_conv2d_2/depthwise_conv2d1 i1 [1, 3, 3, 16]
00000000: ce09 42a4 fff4 cd30 c6e0 812b 3159 81b1
00000010: d12d f7a9 392c bc1c 91ed a4f7 115a 9781
00000020: f439 f837 382e dcd7 abd4 cfe3 e32e cfd0
00000030: 30a1 2781 5119 d87f f2e1 867f 7f68 8be8
00000040: 0fef bcf3 7f7f 817e 9532 ca3f 507f 8bee
00000050: 0965 8b75 1d5a 930e 815e b2c3 ee73 a6ec
00000060: 7781 29cf 350f 003f 08ed f65d 6b10 bf3d
00000070: 7fbb 8126 2c2e ba33 eb6c 2078 7122 a160
00000080: 3922 b04d df22 bb05 cf7f e114 0928 db5b
-50 9 66 -92 -1 -12 -51 48
-58 -32 -127 43 49 89 -127 -79
-47 45 -9 -87 57 44 -68 28
-111 -19 -92 -9 17 90 -105 -127
-12 57 -8 55 56 46 -36 -41
-85 -44 -49 -29 -29 46 -49 -48
48 -95 39 -127 81 25 -40 127
-14 -31 -122 127 127 104 -117 -24
15 -17 -68 -13 127 127 -127 126
-107 50 -54 63 80 127 -117 -18
9 101 -117 117 29 90 -109 14
-127 94 -78 -61 -18 115 -90 -20
119 -127 41 -49 53 15 0 63
8 -19 -10 93 107 16 -65 61
127 -69 -127 38 44 46 -70 51
-21 108 32 120 113 34 -95 96
57 34 -80 77 -33 34 -69 5
-49 127 -31 20 9 40 -37 91

conv2d_3/conv2d i1 [32, 1, 1, 16]
00000000: 56b6 d0e5 9981 daeb 1d53 47ff 4c37 e46c
00000010: d049 2a17 18ea 771c 7f13 4a2b d0f8 0db0
00000020: 2cf0 f32c f3e1 eef5 f6eb fc6c 0981 12d8
00000030: 058f 003a d7e9 3481 dcf8 f9e5 bb1d 2529
00000040: ecee d528 e27f 7802 6cf1 1246 dcd8 151d
00000050: 3c14 3598 1acd 4126 5e81 441c 2016 58fc
00000060: eafa b9f6 8dea 2181 e0dd 04f8 fe0e 511a
00000070: 0a7f 074d 21e1 4204 730b 7714 e4a0 53c2
00000080: e666 432a 23d9 1d11 2a47 5f0e 9d0a 7f87
00000090: 811a 07b4 09eb 5c1a 2fa3 d2f5 b0eb dd0b
000000a0: da3c 342e f80e b6bf 4060 7f53 e4ad 07d8
000000b0: 1f08 5be7 10ac de39 1d3e e081 d794 3244
000000c0: 02dd e9c6 81db 29d2 caea 27e9 b728 1b00
000000d0: e7f6 e1f9 ab26 1081 ddfe 07ed e7a9 1c36
000000e0: ea39 df81 ef12 f8c4 2fc5 1335 04c3 5219
000000f0: 49f6 ef7f 0ce7 d2fb f75a 3410 99d5 21ce
86 -74 -48 -27 -103 -127 -38 -21
29 83 71 -1 76 55 -28 108
-48 73 42 23 24 -22 119 28
127 19 74 43 -48 -8 13 -80
44 -16 -13 44 -13 -31 -18 -11
-10 -21 -4 108 9 -127 18 -40
5 -113 0 58 -41 -23 52 -127
-36 -8 -7 -27 -69 29 37 41
-20 -18 -43 40 -30 127 120 2
108 -15 18 70 -36 -40 21 29
60 20 53 -104 26 -51 65 38
94 -127 68 28 32 22 88 -4
-22 -6 -71 -10 -115 -22 33 -127
-32 -35 4 -8 -2 14 81 26
10 127 7 77 33 -31 66 4
115 11 119 20 -28 -96 83 -62
-26 102 67 42 35 -39 29 17
42 71 95 14 -99 10 127 -121
-127 26 7 -76 9 -21 92 26
47 -93 -46 -11 -80 -21 -35 11
-38 60 52 46 -8 14 -74 -65
64 96 127 83 -28 -83 7 -40
31 8 91 -25 16 -84 -34 57
29 62 -32 -127 -41 -108 50 68
2 -35 -23 -58 -127 -37 41 -46
-54 -22 39 -23 -73 40 27 0
-25 -10 -31 -7 -85 38 16 -127
-35 -2 7 -19 -25 -87 28 54
-22 57 -33 -127 -17 18 -8 -60
47 -59 19 53 4 -61 82 25
73 -10 -17 127 12 -25 -46 -5
-9 90 52 16 -103 -43 33 -50

depthwise_conv2d_3/depthwise_conv2d i1 [1, 3, 3, 32]
00000000: cdfa 5e07 23f9 fd1f 8c10 d91e e0d4 98ed
00000010: f3cc dd1e de15 4af1 77f9 fea4 c37f bf0d
00000020: b508 7f25 37fa faf4 88fa dcd6 f681 e902
00000030: 5a0d e120 1cbb 7f0f 7ffe 25d6 8153 f029
00000040: 81eb 29f6 2902 0d2a b0db 16e4 efc9 b0cb
00000050: 15ee f830 edf4 1f0f 820e dc1f 1cbc 0c33
00000060: e0d8 3be5 a17f 78fb e9f0 a91d 815b 365e
00000070: caa4 cbfb e0d1 e637 cef1 96f1 fcf4 88e2
00000080: d332 df81 3059 517f 81a5 6381 f634 ea7f
00000090: 2ea6 8143 8181 09ac df96 f9f5 ac7b c271
000000a0: ac1f e20e 05e6 7f64 e781 4abd 3106 ddf3
000000b0: 491c e007 ee04 2c7f 2fce 7f66 250b 40fc
000000c0: 2805 db2a d6eb f831 ff1a 8130 5cfe 4818
000000d0: dfff d998 06e7 aabc a081 2c7f 28e8 f1c6
000000e0: 2e7f 99f2 81e7 2fd4 0cf4 bbd5 d5bb f53d
000000f0: 817f d081 d5d4 8fd9 56bd 1373 5484 2881
-51 -6 94 7 35 -7 -3 31
-116 16 -39 30 -32 -44 -104 -19
-13 -52 -35 30 -34 21 74 -15
119 -7 -2 -92 -61 127 -65 13
-75 8 127 37 55 -6 -6 -12
-120 -6 -36 -42 -10 -127 -23 2
90 13 -31 32 28 -69 127 15
127 -2 37 -42 -127 83 -16 41
-127 -21 41 -10 41 2 13 42
-80 -37 22 -28 -17 -55 -80 -53
21 -18 -8 48 -19 -12 31 15
-126 14 -36 31 28 -68 12 51
-32 -40 59 -27 -95 127 120 -5
-23 -16 -87 29 -127 91 54 94
-54 -92 -53 -5 -32 -47 -26 55
-50 -15 -106 -15 -4 -12 -120 -30
-45 50 -33 -127 48 89 81 127
-127 -91 99 -127 -10 52 -22 127
46 -90 -127 67 -127 -127 9 -84
-33 -106 -7 -11 -84 123 -62 113
-84 31 -30 14 5 -26 127 100
-25 -127 74 -67 49 6 -35 -13
73 28 -32 7 -18 4 44 127
47 -50 127 102 37 11 64 -4
40 5 -37 42 -42 -21 -8 49
-1 26 -127 48 92 -2 72 24
-33 -1 -39 -104 6 -25 -86 -68
-96 -127 44 127 40 -24 -15 -58
46 127 -103 -14 -127 -25 47 -44
12 -12 -69 -43 -43 -69 -11 61
-127 127 -48 -127 -43 -44 -113 -39
86 -67 19 115 84 -124 40 -127

conv2d_4/conv2d i1 [32, 1, 1, 32]
00000000: 54c5 c91b 05c4 d0ee 5131 e709 eb08 06e8
00000010: e2b9 040a 0f21 7fff 2420 06ed d435 4449
00000020: 7ba6 e5f0 38f4 3f38 81dd 1413 04cf 7505
00000030: 343e 6e09 1a32 3159 df2b a2d9 9568 89e6
00000040: 4639 71df 7fc8 2e3e 07f9 6921 fa1f ddf0
00000050: 0f04 2ccd e62f c4d9 0b1e 0ac4 1cbc f6e9
00000060: 1b00 f04b fa5e 07bc f57f ca5c 461e f9fe
00000070: 4b58 35e4 e802 36b3 587e b10f 48ed 42e4
00000080: 14ef 9411 1407 2d29 fb01 f91d ebe0 46c9
00000090: 1c12 4af5 f25a 26d8 233c 81dc 2011 5ac6
000000a0: 5134 3081 099a 482d dfce 3edd 0d5e 1b0d
000000b0: cedd 5d1d 1b2a ded3 a208 dfbe 12e3 28e3
000000c0: 09d6 f4f9 d6a4 9881 d913 1074 2038 ec02
000000d0: bee6 1bc6 d119 e036 8220 57fb b2d9 d92b
000000e0: 02e8 bd10 2211 fbc0 e010 2b32 81cf 169e
000000f0: 220b 300f ae40 19d6 033b 56ed 4209 5cdc
84 -59 -55 27 5 -60 -48 -18
81 49 -25 9 -21 8 6 -24
-30 -71 4 10 15 33 127 -1
36 32 6 -19 -44 53 68 73
123 -90 -27 -16 56 -12 63 56
-127 -35 20 19 4 -49 117 5
52 62 110 9 26 50 49 89
-33 43 -94 -39 -107 104 -119 -26
70 57 113 -33 127 -56 46 62
7 -7 105 33 -6 31 -35 -16
15 4 44 -51 -26 47 -60 -39
11 30 10 -60 28 -68 -10 -23
27 0 -16 75 -6 94 7 -68
-11 127 -54 92 70 30 -7 -2
75 88 53 -28 -24 2 54 -77
88 126 -79 15 72 -19 66 -28
20 -17 -108 17 20 7 45 41
-5 1 -7 29 -21 -32 70 -55
28 18 74 -11 -14 90 38 -40
35 60 -127 -36 32 17 90 -58
81 52 48 -127 9 -102 72 45
-33 -50 62 -35 13 94 27 13
-50 -35 93 29 27 42 -34 -45
-94 8 -33 -66 18 -29 40 -29
9 -42 -12 -7 -42 -92 -104 -127
-39 19 16 116 32 56 -20 2
-66 -26 27 -58 -47 25 -32 54
-126 32 87 -5 -78 -39 -39 43
2 -24 -67 16 34 17 -5 -64
-32 16 43 50 -127 -49 22 -98
34 11 48 15 -82 64 25 -42
3 59 86 -19 66 9 92 -36

depthwise_conv2d_4/depthwise_conv2d i1 [1, 3, 3, 32]
00000000: e181 e8f6 ce58 04ed 3a7f 95a3 00ba ef4f
00000010: 0f44 14e7 6212 313d a087 217e e2f9 7f3d
00000020: 2ed0 0f1c 29da f319 dd49 b781 f804 1af6
00000030: 7f7a 0f0d 096c 1319 4b9f 3942 8139 4004
00000040: 07c0 303b 0a60 160d 8112 d4aa cf4d 7fd2
00000050: 4760 015d c643 f811 7f0e 792b ee3f 0219
00000060: 81ed 09ed 077f cfdb 98ee 81ef 7f81 1e4a
00000070: a72d 3fc5 8de3 d681 c181 b2d7 8881 0901
00000080: 040d 8257 49aa ce7f 281d f524 e107 f000
00000090: 02be 8102 ef81 81fa 0af9 3881 1239 02d0
000000a0: 29fd 1103 1c45 2fe5 685e 345f 1c71 cf84
000000b0: 3281 cd6b 8105 d513 06f8 7fb7 1727 b930
000000c0: b029 0681 b1da ede0 7c3e e50f fefa 2464
000000d0: 9afb 1c81 a840 230d d18e a0f9 15a4 0c81
000000e0: 1d6c 81cc 0ca8 7fde 0537 4c05 e7ab f3fe
000000f0: 88a4 3207 ea2e 7002 2cda bcf0 71df c20d
-31 -127 -24 -10 -50 88 4 -19
58 127 -107 -93 0 -70 -17 79
15 68 20 -25 98 18 49 61
-96 -121 33 126 -30 -7 127 61
46 -48 15 28 41 -38 -13 25
-35 73 -73 -127 -8 4 26 -10
127 122 15 13 9 108 19 25
75 -97 57 66 -127 57 64 4
7 -64 48 59 10 96 22 13
-127 18 -44 -86 -49 77 127 -46
71 96 1 93 -58 67 -8 17
127 14 121 43 -18 63 2 25
-127 -19 9 -19 7 127 -49 -37
-104 -18 -127 -17 127 -127 30 74
-89 45 63 -59 -115 -29 -42 -127
-63 -127 -78 -41 -120 -127 9 1
4 13 -126 87 73 -86 -50 127
40 29 -11 36 -31 7 -16 0
2 -66 -127 2 -17 -127 -127 -6
10 -7 56 -127 18 57 2 -48
41 -3 17 3 28 69 47 -27
104 94 52 95 28 113 -49 -124
50 -127 -51 107 -127 5 -43 19
6 -8 127 -73 23 39 -71 48
-80 41 6 -127 -79 -38 -19 -32
124 62 -27 15 -2 -6 36 100
-102 -5 28 -127 -88 64 35 13
-47 -114 -96 -7 21 -92 12 -127
29 108 -127 -52 12 -88 127 -34
5 55 76 5 -25 -85 -13 -2
-120 -92 50 7 -22 46 112 2
44 -38 -68 -16 113 -33 -62 13

conv2d_5/conv2d i1 [32, 1, 1, 32]
00000000: 35ea ba3f a83c 0f84 04ea f020 007f e21f
00000010: 0de5 0ff1 ff27 0ce6 127a 190b cd29 bf98
00000020: 245f ddcc db1d df0c 1d64 df38 c804 edee
00000030: a750 0dbc dbd1 0dc8 33f3 0408 3711 8126
00000040: fc31 7fe1 19c6 06f7 fd12 1af7 fe56 ea21
00000050: 0e0b 150b f3a8 373a 2cdf acf3 d3d7 270d
00000060: 3a30 2681 073c fdf1 0522 1336 37a3 0f6d
00000070: a81d 081b 3431 0ed8 2e98 fa45 f537 13f8
00000080: 23f5 2026 891d b3e0 0901 fd27 2fe9 13fe
00000090: 0510 f8d7 e3ff 1222 002f 0a1a 7fe5 0242
000000a0: 2e81 44cf 2d09 24da 7d5e e107 fd1e deee
000000b0: e7ea e8e7 1f3b 26ea 4a25 3e1a 20ef 10e4
000000c0: d50b 06d2 43fe 0a12 8155 2120 5ff3 85f6
000000d0: ebe7 42fa 1847 dc50 ff42 fee6 d6f0 f06e
000000e0: c5eb 33e5 1915 0281 fa0a 0906 0c0e f49d
000000f0: 0205 1d2f f9e4 050d bb1a 23f8 d0c5 2fec
53 -22 -70 63 -88 60 15 -124
4 -22 -16 32 0 127 -30 31
13 -27 15 -15 -1 39 12 -26
18 122 25 11 -51 41 -65 -104
36 95 -35 -52 -37 29 -33 12
29 100 -33 56 -56 4 -19 -18
-89 80 13 -68 -37 -47 13 -56
51 -13 4 8 55 17 -127 38
-4 49 127 -31 25 -58 6 -9
-3 18 26 -9 -2 86 -22 33
14 11 21 11 -13 -88 55 58
44 -33 -84 -13 -45 -41 39 13
58 48 38 -127 7 60 -3 -15
5 34 19 54 55 -93 15 109
-88 29 8 27 52 49 14 -40
46 -104 -6 69 -11 55 19 -8
35 -11 32 38 -119 29 -77 -32
9 1 -3 39 47 -23 19 -2
5 16 -8 -41 -29 -1 18 34
0 47 10 26 127 -27 2 66
46 -127 68 -49 45 9 36 -38
125 94 -31 7 -3 30 -34 -18
-25 -22 -24 -25 31 59 38 -22
74 37 62 26 32 -17 16 -28
-43 11 6 -46 67 -2 10 18
-127 85 33 32 95 -13 -123 -10
-21 -25 66 -6 24 71 -36 80
-1 66 -2 -26 -42 -16 -16 110
-59 -21 51 -27 25 21 2 -127
-6 10 9 6 12 14 -12 -99
2 5 29 47 -7 -28 5 13
-69 26 35 -8 -48 -59 47 -20

depthwise_conv2d_5/depthwise_conv2d i1 [1, 3, 3, 32]
00000000: d2ed 9e59 5995 813d 642c 81b7 c724 c043
00000010: a8e9 18fc d300 84c9 5228 6818 40b8 6dfb
00000020: 13f9 9439 6c81 9b5e 4f7b b4a4 18ea cf7f
00000030: a6f5 56c8 9c90 bcd9 e512 481d 7f81 4d3f
00000040: 5f10 9d12 239e ce54 f645 e7c1 17d4 fc71
00000050: c11c 7fc7 b187 9ccd 1607 3e15 75a6 523a
00000060: 1a9b 907f 3a95 c056 6d3f 8c25 2dda c9f1
00000070: a5a4 41b2 c500 81b4 ed77 2ccc 32ad fa68
00000080: 37b1 8131 7f83 d87f 1b7f 9c35 7f9a 1ff7
00000090: d49e 0da2 81ce e081 ab7f e0e5 6f8e 0a6d
000000a0: 68f0 c108 338c 4e6a 9172 0117 5789 5b26
000000b0: 6ce0 2e81 a781 d192 c62f be09 6092 f67f
000000c0: 5f81 cc38 f3f9 3126 1d2f d358 2ecf 0cb3
000000d0: b8a4 05b1 db42 a7d5 8b79 9581 26f0 8741
000000e0: 7f9f dd0c 0f96 653c ae39 e27f 6581 7f94
000000f0: 0881 d4af c403 e592 8172 99b6 2be9 8165
-46 -19 -98 89 89 -107 -127 61
100 44 -127 -73 -57 36 -64 67
-88 -23 24 -4 -45 0 -124 -55
82 40 104 24 64 -72 109 -5
19 -7 -108 57 108 -127 -101 94
79 123 -76 -92 24 -22 -49 127
-90 -11 86 -56 -100 -112 -68 -39
-27 18 72 29 127 -127 77 63
95 16 -99 18 35 -98 -50 84
-10 69 -25 -63 23 -44 -4 113
-63 28 127 -57 -79 -121 -100 -51
22 7 62 21 117 -90 82 58
26 -101 -112 127 58 -107 -64 86
109 63 -116 37 45 -38 -55 -15
-91 -92 65 -78 -59 0 -127 -76
-19 119 44 -52 50 -83 -6 104
55 -79 -127 49 127 -125 -40 127
27 127 -100 53 127 -102 31 -9
-44 -98 13 -94 -127 -50 -32 -127
-85 127 -32 -27 111 -114 10 109
104 -16 -63 8 51 -116 78 106
-111 114 1 23 87 -119 91 38
108 -32 46 -127 -89 -127 -47 -110
-58 47 -66 9 96 -110 -10 127
95 -127 -52 56 -13 -7 49 38
29 47 -45 88 46 -49 12 -77
-72 -92 5 -79 -37 66 -89 -43
-117 121 -107 -127 38 -16 -121 65
127 -97 -35 12 15 -106 101 60
-82 57 -30 127 101 -127 127 -108
8 -127 -44 -81 -60 3 -27 -110
-127 114 -103 -74 43 -23 -127 101

conv2d_6/conv2d i1 [64, 1, 1, 32]
00000000: 0604 1a33 0705 ebe9 060e 1de1 de7f d10a
00000010: f9fc e021 fc0d fcf0 02de 0b04 0fe4 f51e
00000020: 55c3 2473 d50d ee81 fb49 4208 ad10 e4bc
00000030: 3464 dc9e 2774 85c5 3a2d 13b3 d54c bc35
00000040: 16f0 5503 1510 d5e7 21e2 fd81 e218 f2f5
00000050: e973 3244 01f4 dee1 e6ff 1814 bd19 1f1c
00000060: cd0d 19cb 15ed 06c9 09ee 0f81 f407 d2f4
00000070: 002f 4da4 f208 77ee 3a13 043c eb0a 57cb
00000080: 0472 4bdd b107 0326 c61a 37fe dace eb33
00000090: 78f5 a407 7f23 38f4 2e09 e3e8 c042 c517
000000a0: d1c8 030b d747 0fec 1239 3d9b d5ec 360c
000000b0: 1657 9bb6 6e04 f6eb 7f09 ef1d bc4f fce8
000000c0: e40f 18e3 f211 7f20 1a22 3fe6 f1e0 09eb
000000d0: fc0e c0c4 fb0b 01d6 36b7 f7f2 0f43 fd2d
000000e0: 2309 2de1 d1a9 df7d f2ee 54ff f242 1b4d
000000f0: fe7f c6f4 e4ab b2ec 3b86 9dd2 edfd 0e23
6 4 26 51 7 5 -21 -23
6 14 29 -31 -34 127 -47 10
-7 -4 -32 33 -4 13 -4 -16
2 -34 11 4 15 -28 -11 30
85 -61 36 115 -43 13 -18 -127
-5 73 66 8 -83 16 -28 -68
52 100 -36 -98 39 116 -123 -59
58 45 19 -77 -43 76 -68 53
22 -16 85 3 21 16 -43 -25
33 -30 -3 -127 -30 24 -14 -11
-23 115 50 68 1 -12 -34 -31
-26 -1 24 20 -67 25 31 28
-51 13 25 -53 21 -19 6 -55
9 -18 15 -127 -12 7 -46 -12
0 47 77 -92 -14 8 119 -18
58 19 4 60 -21 10 87 -53
4 114 75 -35 -79 7 3 38
-58 26 55 -2 -38 -50 -21 51
120 -11 -92 7 127 35 56 -12
46 9 -29 -24 -64 66 -59 23
-47 -56 3 11 -41 71 15 -20
18 57 61 -101 -43 -20 54 12
22 87 -101 -74 110 4 -10 -21
127 9 -17 29 -68 79 -4 -24
-28 15 24 -29 -14 17 127 32
26 34 63 -26 -15 -32 9 -21
-4 14 -64 -60 -5 11 1 -42
54 -73 -9 -14 15 67 -3 45
35 9 45 -31 -47 -87 -33 125
-14 -18 84 -1 -14 66 27 77
-2 127 -58 -12 -28 -85 -78 -20
59 -122 -99 -46 -19 -3 14 35

depthwise_conv2d_6/depthwise_conv2d i1 [1, 3, 3, 64]
00000000: 3f40 4331 5995 52e9 cce3 7f17 f935 1d13
00000010: bc76 897f 81da a033 817f a240 d57f c181
00000020: 81d4 ffcd e181 c317 1727 032f 811b ff9d
00000030: 7cac 7f41 e37f b61b 612d 7f81 f319 c815
00000040: fcf4 7f6a 52f7 2fc4 e9db 1257 bc7f 06b4
00000050: a94c c636 fdfd a2c4 852f 8178 ee5b cbdf
00000060: bcef cfb2 ffa0 e1df dc47 fe26 bb2e 8481
00000070: 0fde a702 0753 7fdf f23f b18e c0df 171e
00000080: d427 7c7f fd35 21d4 2f27 30f6 dc5c 65a9
00000090: b666 06f5 5609 ba0a 1504 a95d f195 1427
000000a0: e4bc eacc ecd5 0ae3 7f0b e41b ffd0 a881
000000b0: d96d 8108 6003 77e6 2538 41e7 f28c c045
000000c0: 657f 1fde 0a83 24c4 c6c9 6070 f615 177f
000000d0: f418 8125 cfc4 0d7f 1953 fccd e63e cbe3
000000e0: e981 75cc b0c7 da7f 5278 b464 4b49 81b7
000000f0: fbe7 63bc 27f9 405f 52b2 21ce 3158 0d62
63 64 67 49 89 -107 82 -23
-52 -29 127 23 -7 53 29 19
-68 118 -119 127 -127 -38 -96 51
-127 127 -94 64 -43 127 -63 -127
-127 -44 -1 -51 -31 -127 -61 23
23 39 3 47 -127 27 -1 -99
124 -84 127 65 -29 127 -74 27
97 45 127 -127 -13 25 -56 21
-4 -12 127 106 82 -9 47 -60
-23 -37 18 87 -68 127 6 -76
-87 76 -58 54 -3 -3 -94 -60
-123 47 -127 120 -18 91 -53 -33
-68 -17 -49 -78 -1 -96 -31 -33
-36 71 -2 38 -69 46 -124 -127
15 -34 -89 2 7 83 127 -33
-14 63 -79 -114 -64 -33 23 30
-44 39 124 127 -3 53 33 -44
47 39 48 -10 -36 92 101 -87
-74 102 6 -11 86 9 -70 10
21 4 -87 93 -15 -107 20 39
-28 -68 -22 -52 -20 -43 10 -29
127 11 -28 27 -1 -48 -88 -127
-39 109 -127 8 96 3 119 -26
37 56 65 -25 -14 -116 -64 69
101 127 31 -34 10 -125 36 -60
-58 -55 96 112 -10 21 23 127
-12 24 -127 37 -49 -60 13 127
25 83 -4 -51 -26 62 -53 -29
-23 -127 117 -52 -80 -57 -38 127
82 120 -76 100 75 73 -127 -73
-5 -25 99 -68 39 -7 64 95
82 -78 33 -50 49 88 13 98

conv2d_7/conv2d i1 [64, 1, 1, 64]
00000000: c13c e1f1 bffb 07ab f3d6 dd2b 640d d0c6
00000010: f0d2 eae2 f12c f018 0529 ac25 e8ce 0911
00000020: eade b601 f9f0 c12f 00f0 ea09 0911 0ddf
00000030: 7fc9 0424 b0ff 132d 0423 03ec d513 1eaf
00000040: 04f2 1a37 4c06 e0f3 ce21 060e 3003 00ba
00000050: 1909 6239 22ee 181e 10d5 8107 afc8 2e35
00000060: 4216 e1ac ec2f b40e d1e8 3893 2c1f 5c7d
00000070: cbbe 37e7 e108 17fa 1ff4 f0e1 cc25 1c37
00000080: 032c 260f c7a6 c1f0 add6 ea1b 0a0d a530
00000090: dc44 3bfa d8e0 f527 25af 2308 c223 25f7
000000a0: 2d32 4ff1 3715 1eb7 14fa 1dbd b5a4 520a
000000b0: 4cd4 8162 d7dd f575 143c f83a bebc 36d4
000000c0: 300a feda 7f03 390e e902 21e3 13f3 df26
000000d0: 2911 f7dd 3ee1 db04 19ed 1add 28ba ce10
000000e0: 1634 cef0 ebe6 1327 f438 6409 2e04 ccf6
000000f0: 021b 0025 aaf5 0810 c16a 05f7 15cf facf
-63 60 -31 -15 -65 -5 7 -85
-13 -42 -35 43 100 13 -48 -58
-16 -46 -22 -30 -15 44 -16 24
5 41 -84 37 -24 -50 9 17
-22 -34 -74 1 -7 -16 -63 47
0 -16 -22 9 9 17 13 -33
127 -55 4 36 -80 -1 19 45
4 35 3 -20 -43 19 30 -81
4 -14 26 55 76 6 -32 -13
-50 33 6 14 48 3 0 -70
25 9 98 57 34 -18 24 30
16 -43 -127 7 -81 -56 46 53
66 22 -31 -84 -20 47 -76 14
-47 -24 56 -109 44 31 92 125
-53 -66 55 -25 -31 8 23 -6
31 -12 -16 -31 -52 37 28 55
3 44 38 15 -57 -90 -63 -16
-83 -42 -22 27 10 13 -91 48
-36 68 59 -6 -40 -32 -11 39
37 -81 35 8 -62 35 37 -9
45 50 79 -15 55 21 30 -73
20 -6 29 -67 -75 -92 82 10
76 -44 -127 98 -41 -35 -11 117
20 60 -8 58 -66 -68 54 -44
48 10 -2 -38 127 3 57 14
-23 2 33 -29 19 -13 -33 38
41 17 -9 -35 62 -31 -37 4
25 -19 26 -35 40 -70 -50 16
22 52 -50 -16 -21 -26 19 39
-12 56 100 9 46 4 -52 -10
2 27 0 37 -86 -11 8 16
-63 106 5 -9 21 -49 -6 -49
