lib/models/yolo_lc_192.tflite (tflite, 339448 bytes, 13 tensors)

st_yolo_lc_v1/conv2d/Conv2D i1 [16, 3, 3, 3]
0	0x0c	12
1	0xf5	-11
2	0x27	39
3	0x13	19
4	0xe9	-23
5	0x23	35
6	0xff	-1
7	0xcc	-52
8	0x0c	12
9	0xcb	-53
10	0xf9	-7
11	0xff	-1
12	0xe1	-31
13	0xe0	-32
14	0x24	36
15	0x14	20
16	0xe8	-24
17	0x1c	28
18	0x81	-127
19	0xe0	-32
20	0xdf	-33
21	0xaf	-81
22	0xe3	-29
23	0xfc	-4
24	0x33	51
25	0xe3	-29
26	0x29	41
27	0xda	-38
28	0x29	41
29	0xf5	-11
30	0x81	-127
31	0x48	72
32	0x4c	76
33	0xae	-82
34	0x28	40
35	0x3b	59
36	0xf7	-9
37	0x2b	43
38	0xd6	-42
39	0x97	-105
40	0x37	55
41	0x38	56
42	0xc3	-61
43	0x1b	27
44	0x22	34
45	0x3b	59
46	0x05	5
47	0xbb	-69
48	0x0b	11
49	0x05	5
50	0xe9	-23
51	0x0e	14
52	0x0d	13
53	0xe1	-31
54	0x87	-121
55	0xbe	-66
56	0xb5	-75
57	0x81	-127
58	0xb6	-74
59	0xb4	-76
60	0xc9	-55
61	0xd3	-45
62	0xd4	-44
63	0x16	22
64	0x09	9
65	0x06	6
66	0xf7	-9
67	0x1d	29
68	0x01	1
69	0x2a	42
70	0xf3	-13
71	0x0a	10
72	0x68	104
73	0x34	52
74	0x43	67
75	0x7b	123
76	0x2b	43
77	0x4d	77
78	0x1f	31
79	0x34	52
80	0x24	36
81	0x08	8
82	0x20	32
83	0xec	-20
84	0xb7	-73
85	0xc7	-57
86	0x81	-127
87	0xfb	-5
88	0x0b	11
89	0xda	-38
90	0xf9	-7
91	0x13	19
92	0xc4	-60
93	0xc2	-62
94	0xcf	-49
95	0xca	-54
96	0x06	6
97	0xfb	-5
98	0x07	7
99	0x2b	43
100	0x24	36
101	0x97	-105
102	0x0d	13
103	0xe9	-23
104	0x98	-104
105	0x34	52
106	0x27	39
107	0xe4	-28
108	0x64	100
109	0x4a	74
110	0x62	98
111	0x2b	43
112	0xe1	-31
113	0x08	8
114	0x2b	43
115	0xea	-22
116	0xeb	-21
117	0x53	83
118	0x20	32
119	0x66	102
120	0xe9	-23
121	0xa6	-90
122	0xeb	-21
123	0xd0	-48
124	0x90	-112
125	0xb2	-78
126	0x37	55
127	0x44	68
128	0x7f	127
129	0xdb	-37
130	0xac	-84
131	0x10	16
132	0x90	-112
133	0x88	-120
134	0xba	-70
135	0x59	89
136	0x3e	62
137	0x1c	28
138	0x6c	108
139	0x69	105
140	0x37	55
141	0x58	88
142	0x4d	77
143	0x1e	30
144	0x05	5
145	0x04	4
146	0x1b	27
147	0x0e	14
148	0x14	20
149	0xf5	-11
150	0x18	24
151	0xe7	-25
152	0x0b	11
153	0xad	-83
154	0xaf	-81
155	0xca	-54
156	0x81	-127
157	0x95	-107
158	0xc5	-59
159	0x93	-109
160	0xc3	-61
161	0xe4	-28
162	0x2f	47
163	0xb2	-78
164	0x18	24
165	0x51	81
166	0x93	-109
167	0x25	37
168	0x1b	27
169	0xc3	-61
170	0x1f	31
171	0x35	53
172	0xb1	-79
173	0x17	23
174	0x5c	92
175	0x81	-127
176	0x2d	45
177	0x1d	29
178	0xb1	-79
179	0x2d	45
180	0x16	22
181	0xc8	-56
182	0x1e	30
183	0x29	41
184	0xa5	-91
185	0x2f	47
186	0xeb	-21
187	0xd8	-40
188	0x39	57
189	0xcb	-53
190	0x5b	91
191	0xdd	-35
192	0xe1	-31
193	0x6e	110
194	0xae	-82
195	0xe7	-25
196	0x57	87
197	0xb1	-79
198	0xc7	-57
199	0x68	104
200	0xda	-38
201	0xf9	-7
202	0x7f	127
203	0x8f	-113
204	0xe5	-27
205	0x4b	75
206	0xce	-50
207	0xbc	-68
208	0x4a	74
209	0x03	3
210	0xe3	-29
211	0x53	83
212	0xcf	-49
213	0xee	-18
214	0x29	41
215	0xe6	-26
216	0xf5	-11
217	0xaa	-86
218	0xec	-20
219	0x26	38
220	0xd9	-39
221	0xe9	-23
222	0x59	89
223	0x4f	79
224	0x47	71
225	0xbe	-66
226	0x81	-127
227	0xbc	-68
228	0xdc	-36
229	0xa7	-89
230	0xfe	-2
231	0x6b	107
232	0x38	56
233	0x45	69
234	0xb1	-79
235	0xcd	-51
236	0xf7	-9
237	0xf9	-7
238	0xdd	-35
239	0xf9	-7
240	0x33	51
241	0x70	112
242	0x41	65
243	0x8e	-114
244	0x00	0
245	0x5c	92
246	0xcd	-51
247	0x34	52
248	0x5d	93
249	0xd3	-45
250	0x2f	47
251	0x17	23
252	0xdc	-36
253	0x12	18
254	0x32	50
255	0x1c	28

st_yolo_lc_v1/conv2d_1/Conv2D i1 [32, 3, 3, 16]
0	0xeb	-21
1	0x04	4
2	0xf5	-11
3	0x43	67
4	0xed	-19
5	0x04	4
6	0x09	9
7	0x07	7
8	0x07	7
9	0x29	41
10	0xfa	-6
11	0x3c	60
12	0x05	5
13	0xff	-1
14	0x02	2
15	0x1d	29
16	0x9f	-97
17	0x0d	13
18	0xf4	-12
19	0x35	53
20	0xe0	-32
21	0xfb	-5
22	0xf0	-16
23	0x34	52
24	0xfa	-6
25	0x02	2
26	0xc3	-61
27	0x00	0
28	0x04	4
29	0xf7	-9
30	0x0b	11
31	0x1b	27
32	0x81	-127
33	0xff	-1
34	0xff	-1
35	0x29	41
36	0xfc	-4
37	0xf7	-9
38	0x04	4
39	0x21	33
40	0xf5	-11
41	0xee	-18
42	0xb7	-73
43	0x11	17
44	0x09	9
45	0xf0	-16
46	0x08	8
47	0xfa	-6
48	0xf5	-11
49	0x06	6
50	0xfc	-4
51	0x27	39
52	0xec	-20
53	0x02	2
54	0x12	18
55	0xfd	-3
56	0x07	7
57	0x38	56
58	0x11	17
59	0x1f	31
60	0x05	5
61	0xf5	-11
62	0x01	1
63	0x1c	28
64	0xac	-84
65	0x0c	12
66	0xf6	-10
67	0x13	19
68	0xd1	-47
69	0x07	7
70	0xa1	-95
71	0x31	49
72	0xf1	-15
73	0x18	24
74	0xc5	-59
75	0xd4	-44
76	0x0d	13
77	0xc8	-56
78	0x0f	15
79	0x17	23
80	0x8d	-115
81	0x04	4
82	0xff	-1
83	0x15	21
84	0xf3	-13
85	0x05	5
86	0x95	-107
87	0x09	9
88	0xe8	-24
89	0xe5	-27
90	0xc0	-64
91	0xf7	-9
92	0x0e	14
93	0xd1	-47
94	0x0f	15
95	0xf0	-16
96	0x10	16
97	0x06	6
98	0x07	7
99	0x2b	43
100	0x05	5
101	0xfb	-5
102	0x1a	26
103	0xf6	-10
104	0x06	6
105	0x35	53
106	0x1d	29
107	0x14	20
108	0x01	1
109	0x0a	10
110	0xf8	-8
111	0x02	2
112	0xf4	-12
113	0x0f	15
114	0x00	0
115	0x28	40
116	0x00	0
117	0x03	3
118	0x12	18
119	0x26	38
120	0x00	0
121	0x27	39
122	0x02	2
123	0xf1	-15
124	0xff	-1
125	0xec	-20
126	0x05	5
127	0x0e	14
128	0xe9	-23
129	0x18	24
130	0x00	0
131	0x2e	46
132	0x00	0
133	0x06	6
134	0xf0	-16
135	0x0e	14
136	0xfb	-5
137	0xe8	-24
138	0xff	-1
139	0xf9	-7
140	0x00	0
141	0xe3	-29
142	0x09	9
143	0xf9	-7
144	0x22	34
145	0x0e	14
146	0xe7	-25
147	0x32	50
148	0x02	2
149	0xd8	-40
150	0xd6	-42
151	0xc8	-56
152	0x25	37
153	0xf5	-11
154	0x98	-104
155	0xe6	-26
156	0xbd	-67
157	0x19	25
158	0x16	22
159	0xf2	-14
160	0x04	4
161	0x0c	12
162	0x0f	15
163	0x00	0
164	0xc2	-62
165	0xf6	-10
166	0xfb	-5
167	0xf1	-15
168	0x2b	43
169	0x05	5
170	0x21	33
171	0x08	8
172	0xe5	-27
173	0xf9	-7
174	0x35	53
175	0xda	-38
176	0xde	-34
177	0xf9	-7
178	0xff	-1
179	0xbe	-66
180	0xd1	-47
181	0x09	9
182	0x1a	26
183	0x31	49
184	0x05	5
185	0x0a	10
186	0x79	121
187	0x15	21
188	0x0b	11
189	0xe6	-26
190	0x42	66
191	0xea	-22
192	0x21	33
193	0x06	6
194	0xf0	-16
195	0x39	57
196	0x0f	15
197	0xb5	-75
198	0xd5	-43
199	0xb4	-76
200	0x4c	76
201	0xd0	-48
202	0x81	-127
203	0xd9	-39
204	0xc4	-60
205	0x11	17
206	0x11	17
207	0xe8	-24
208	0xfe	-2
209	0xfb	-5
210	0x04	4
211	0x01	1
212	0xb2	-78
213	0xdc	-36
214	0x01	1
215	0xf6	-10
216	0x3b	59
217	0x07	7
218	0x18	24
219	0x00	0
220	0xd6	-42
221	0x08	8
222	0x2f	47
223	0xca	-54
224	0xc8	-56
225	0xef	-17
226	0x07	7
227	0xb0	-80
228	0xc2	-62
229	0xe1	-31
230	0x23	35
231	0x30	48
232	0x03	3
233	0x14	20
234	0x6c	108
235	0x15	21
236	0x0c	12
237	0xfa	-6
238	0x59	89
239	0xde	-34
240	0x31	49
241	0xfb	-5
242	0xfa	-6
243	0x49	73
244	0x04	4
245	0xde	-34
246	0xef	-17
247	0xe9	-23
248	0x3a	58
249	0xd5	-43
250	0x87	-121
251	0xf5	-11
252	0xfa	-6
253	0x07	7
254	0x0d	13
255	0x02	2

st_yolo_lc_v1/conv2d_2/Conv2D i1 [64, 3, 3, 32]
0	0x0e	14
1	0xe8	-24
2	0xca	-54
3	0x03	3
4	0xda	-38
5	0x4e	78
6	0x1a	26
7	0xed	-19
8	0xea	-22
9	0xfb	-5
10	0xf7	-9
11	0x1d	29
12	0x0a	10
13	0xc9	-55
14	0xb5	-75
15	0x28	40
16	0xdc	-36
17	0xf7	-9
18	0x28	40
19	0xfd	-3
20	0xb4	-76
21	0xd4	-44
22	0x14	20
23	0xfc	-4
24	0xfd	-3
25	0x00	0
26	0xee	-18
27	0x04	4
28	0xb2	-78
29	0x02	2
30	0x03	3
31	0x1f	31
32	0x0e	14
33	0xe5	-27
34	0xd9	-39
35	0x1e	30
36	0x17	23
37	0x09	9
38	0xff	-1
39	0xed	-19
40	0x3e	62
41	0x1c	28
42	0xe1	-31
43	0xd1	-47
44	0xd4	-44
45	0x51	81
46	0xd1	-47
47	0x10	16
48	0x34	52
49	0x93	-109
50	0x2d	45
51	0x0f	15
52	0xe8	-24
53	0x3b	59
54	0xbe	-66
55	0xc8	-56
56	0xb3	-77
57	0x1f	31
58	0x52	82
59	0xb9	-71
60	0x39	57
61	0x24	36
62	0x11	17
63	0xcb	-53
64	0x25	37
65	0xe3	-29
66	0xeb	-21
67	0xef	-17
68	0x2b	43
69	0xbd	-67
70	0xe5	-27
71	0x23	35
72	0x33	51
73	0x2c	44
74	0xf6	-10
75	0xde	-34
76	0xeb	-21
77	0x3d	61
78	0xf5	-11
79	0xea	-22
80	0x2b	43
81	0xe3	-29
82	0xe9	-23
83	0x17	23
84	0x35	53
85	0x3f	63
86	0xf1	-15
87	0xc8	-56
88	0xce	-50
89	0xe1	-31
90	0x77	119
91	0xc6	-58
92	0x7b	123
93	0xe8	-24
94	0xf8	-8
95	0xc5	-59
96	0x14	20
97	0xec	-20
98	0xf9	-7
99	0xfb	-5
100	0xd8	-40
101	0x37	55
102	0x15	21
103	0x1e	30
104	0xf1	-15
105	0x03	3
106	0x1c	28
107	0x1c	28
108	0x0f	15
109	0xc2	-62
110	0xe8	-24
111	0x00	0
112	0xcf	-49
113	0xfa	-6
114	0xfc	-4
115	0xfa	-6
116	0xf7	-9
117	0xd7	-41
118	0x0d	13
119	0x1f	31
120	0x15	21
121	0xe3	-29
122	0xf6	-10
123	0x2a	42
124	0xec	-20
125	0x19	25
126	0xf3	-13
127	0xfb	-5
128	0xed	-19
129	0xf5	-11
130	0xc8	-56
131	0xf1	-15
132	0xd9	-39
133	0x56	86
134	0xdf	-33
135	0xdf	-33
136	0x21	33
137	0xbd	-67
138	0xdc	-36
139	0xf4	-12
140	0xf8	-8
141	0xd7	-41
142	0xc7	-57
143	0x55	85
144	0x09	9
145	0xe7	-25
146	0x36	54
147	0xf1	-15
148	0xd2	-46
149	0xe0	-32
150	0xbb	-69
151	0xda	-38
152	0xc4	-60
153	0x20	32
154	0x22	34
155	0xd0	-48
156	0xcd	-51
157	0xfe	-2
158	0xca	-54
159	0xfe	-2
160	0x05	5
161	0x11	17
162	0xef	-17
163	0xfd	-3
164	0x27	39
165	0xe4	-28
166	0xba	-70
167	0x1c	28
168	0x3c	60
169	0x22	34
170	0xee	-18
171	0xdd	-35
172	0xe9	-23
173	0x40	64
174	0xfe	-2
175	0x2b	43
176	0x1f	31
177	0xeb	-21
178	0xfb	-5
179	0x09	9
180	0x1e	30
181	0x47	71
182	0xb9	-71
183	0xd0	-48
184	0xd7	-41
185	0x21	33
186	0x7f	127
187	0xc4	-60
188	0x2c	44
189	0xdd	-35
190	0xfd	-3
191	0xb5	-75
192	0xf8	-8
193	0xfc	-4
194	0x00	0
195	0x00	0
196	0x0a	10
197	0xe6	-26
198	0x0e	14
199	0x2f	47
200	0xef	-17
201	0x18	24
202	0x15	21
203	0x02	2
204	0xfb	-5
205	0x06	6
206	0x0a	10
207	0xce	-50
208	0xd6	-42
209	0xf1	-15
210	0xb6	-74
211	0xf9	-7
212	0x25	37
213	0xf6	-10
214	0x18	24
215	0x12	18
216	0x31	49
217	0xf6	-10
218	0x0b	11
219	0x25	37
220	0x2c	44
221	0x04	4
222	0x04	4
223	0xd0	-48
224	0xc8	-56
225	0xff	-1
226	0xee	-18
227	0xee	-18
228	0xcd	-51
229	0x31	49
230	0xf5	-11
231	0x13	19
232	0xeb	-21
233	0xca	-54
234	0x07	7
235	0x37	55
236	0x0c	12
237	0xb9	-71
238	0xea	-22
239	0x29	41
240	0xc6	-58
241	0xfb	-5
242	0x14	20
243	0xe6	-26
244	0xe9	-23
245	0xc2	-62
246	0xfe	-2
247	0x05	5
248	0x05	5
249	0xde	-34
250	0x04	4
251	0x07	7
252	0xa4	-92
253	0x10	16
254	0xcb	-53
255	0x10	16

st_yolo_lc_v1/conv2d_3/Conv2D i1 [128, 3, 3, 64]
0	0x01	1
1	0x11	17
2	0xe2	-30
3	0xfe	-2
4	0x01	1
5	0x09	9
6	0x2e	46
7	0xeb	-21
8	0x25	37
9	0x1b	27
10	0x12	18
11	0x2b	43
12	0xfc	-4
13	0x20	32
14	0x1b	27
15	0xe9	-23
16	0x06	6
17	0x21	33
18	0x29	41
19	0x2a	42
20	0x31	49
21	0x35	53
22	0x09	9
23	0x18	24
24	0xea	-22
25	0x0a	10
26	0xf2	-14
27	0x17	23
28	0x5e	94
29	0x24	36
30	0xd4	-44
31	0xf7	-9
32	0x37	55
33	0x3a	58
34	0x3d	61
35	0x5b	91
36	0xde	-34
37	0x20	32
38	0x05	5
39	0xd5	-43
40	0x3d	61
41	0x21	33
42	0xee	-18
43	0x07	7
44	0x04	4
45	0x07	7
46	0x1b	27
47	0x1a	26
48	0x19	25
49	0x00	0
50	0xdf	-33
51	0xfd	-3
52	0x35	53
53	0xd4	-44
54	0xd4	-44
55	0xe4	-28
56	0x00	0
57	0x1b	27
58	0x2b	43
59	0x1e	30
60	0x34	52
61	0xea	-22
62	0x0d	13
63	0xfc	-4
64	0xe1	-31
65	0x0c	12
66	0xb4	-76
67	0x2c	44
68	0x19	25
69	0xd6	-42
70	0x28	40
71	0xd7	-41
72	0x22	34
73	0x03	3
74	0x19	25
75	0x41	65
76	0xd0	-48
77	0x22	34
78	0x3b	59
79	0x04	4
80	0xf6	-10
81	0x08	8
82	0x05	5
83	0x2a	42
84	0x3a	58
85	0x6f	111
86	0x1d	29
87	0x2d	45
88	0xf4	-12
89	0xfd	-3
90	0xe2	-30
91	0x1a	26
92	0x6f	111
93	0x1b	27
94	0xc0	-64
95	0xda	-38
96	0x3b	59
97	0x30	48
98	0x7f	127
99	0x77	119
100	0xe6	-26
101	0x1c	28
102	0xbf	-65
103	0xce	-50
104	0x01	1
105	0x26	38
106	0xfb	-5
107	0xf8	-8
108	0x00	0
109	0x14	20
110	0x0d	13
111	0x20	32
112	0x1e	30
113	0xfc	-4
114	0xf2	-14
115	0xee	-18
116	0x4a	74
117	0xed	-19
118	0x9d	-99
119	0xc3	-61
120	0xdb	-37
121	0x29	41
122	0x13	19
123	0x5a	90
124	0x22	34
125	0x18	24
126	0x1b	27
127	0xd5	-43
128	0xee	-18
129	0x16	22
130	0xda	-38
131	0x0b	11
132	0x33	51
133	0xc6	-58
134	0xed	-19
135	0xdb	-37
136	0x1f	31
137	0x18	24
138	0x02	2
139	0x21	33
140	0xd8	-40
141	0x1a	26
142	0x1b	27
143	0xda	-38
144	0xeb	-21
145	0xeb	-21
146	0x00	0
147	0x13	19
148	0x01	1
149	0x42	66
150	0xf6	-10
151	0x30	48
152	0xf6	-10
153	0x05	5
154	0x08	8
155	0x14	20
156	0x33	51
157	0x0b	11
158	0xdf	-33
159	0xef	-17
160	0x20	32
161	0x19	25
162	0x28	40
163	0x40	64
164	0x08	8
165	0x12	18
166	0xd6	-42
167	0xfa	-6
168	0xdd	-35
169	0x0e	14
170	0x0b	11
171	0xe9	-23
172	0xe1	-31
173	0x11	17
174	0xee	-18
175	0x22	34
176	0x35	53
177	0x08	8
178	0xf8	-8
179	0x04	4
180	0x2d	45
181	0xde	-34
182	0xb3	-77
183	0xd4	-44
184	0xdd	-35
185	0x2c	44
186	0x03	3
187	0x46	70
188	0x06	6
189	0xfb	-5
190	0xf8	-8
191	0xed	-19
192	0x27	39
193	0x21	33
194	0xdf	-33
195	0xef	-17
196	0x29	41
197	0xff	-1
198	0x3a	58
199	0xdd	-35
200	0x19	25
201	0xce	-50
202	0x33	51
203	0x1e	30
204	0xdd	-35
205	0x1e	30
206	0x14	20
207	0xe6	-26
208	0x18	24
209	0xf2	-14
210	0x06	6
211	0x3b	59
212	0x4d	77
213	0x28	40
214	0xc6	-58
215	0x18	24
216	0xda	-38
217	0xf3	-13
218	0x05	5
219	0x5a	90
220	0x46	70
221	0x30	48
222	0xba	-70
223	0xec	-20
224	0x33	51
225	0x30	48
226	0x2c	44
227	0x6c	108
228	0xd9	-39
229	0x1e	30
230	0x15	21
231	0xd8	-40
232	0x16	22
233	0xd8	-40
234	0xf9	-7
235	0xf4	-12
236	0xd9	-39
237	0xe8	-24
238	0x43	67
239	0x48	72
240	0xde	-34
241	0x17	23
242	0xb7	-73
243	0xdd	-35
244	0x0a	10
245	0xe2	-30
246	0xd0	-48
247	0x17	23
248	0x02	2
249	0x42	66
250	0xd2	-46
251	0x30	48
252	0x31	49
253	0x22	34
254	0x11	17
255	0x08	8

st_yolo_lc_v1/batch_normalization_4/FusedBatchNormV3;st_yolo_lc_v1/depthwise_conv2d/depthwise;st_yolo_lc_v1/depthwise_conv2d_3/depthwise i1 [1, 3, 3, 128]
0	0x15	21
1	0xf9	-7
2	0x12	18
3	0xe3	-29
4	0x81	-127
5	0x20	32
6	0x81	-127
7	0x41	65
8	0xf4	-12
9	0xf8	-8
10	0x67	103
11	0xe9	-23
12	0x9e	-98
13	0x21	33
14	0xea	-22
15	0x7f	127
16	0x24	36
17	0x81	-127
18	0x8b	-117
19	0x93	-109
20	0x8e	-114
21	0xd5	-43
22	0xbe	-66
23	0x7f	127
24	0x81	-127
25	0x3f	63
26	0x81	-127
27	0x7f	127
28	0x07	7
29	0xb0	-80
30	0x0a	10
31	0xd7	-41
32	0xdd	-35
33	0xcb	-53
34	0x81	-127
35	0xb7	-73
36	0x81	-127
37	0xe6	-26
38	0xcf	-49
39	0x81	-127
40	0x9b	-101
41	0xe3	-29
42	0x7f	127
43	0x7f	127
44	0x1e	30
45	0x46	70
46	0x81	-127
47	0x2a	42
48	0x61	97
49	0x0b	11
50	0x7f	127
51	0xe7	-25
52	0x81	-127
53	0x7f	127
54	0xe9	-23
55	0x81	-127
56	0x81	-127
57	0x17	23
58	0x52	82
59	0x46	70
60	0xdc	-36
61	0x81	-127
62	0x48	72
63	0xe2	-30
64	0x64	100
65	0xb8	-72
66	0x12	18
67	0x60	96
68	0xaa	-86
69	0x7f	127
70	0x5b	91
71	0x07	7
72	0x75	117
73	0x81	-127
74	0x7f	127
75	0x52	82
76	0x7f	127
77	0x7f	127
78	0xbc	-68
79	0x7f	127
80	0x81	-127
81	0x04	4
82	0x17	23
83	0x96	-106
84	0x35	53
85	0x13	19
86	0x24	36
87	0x7f	127
88	0x8f	-113
89	0x15	21
90	0xfd	-3
91	0x27	39
92	0xd8	-40
93	0xdf	-33
94	0x7f	127
95	0xdd	-35
96	0xc1	-63
97	0x7f	127
98	0xf8	-8
99	0x29	41
100	0xe5	-27
101	0x7f	127
102	0x44	68
103	0x7f	127
104	0x7f	127
105	0x7f	127
106	0x0e	14
107	0x16	22
108	0x14	20
109	0x07	7
110	0x7f	127
111	0x81	-127
112	0x81	-127
113	0x2d	45
114	0x36	54
115	0x81	-127
116	0x81	-127
117	0xec	-20
118	0xcb	-53
119	0xd4	-44
120	0xd4	-44
121	0xce	-50
122	0x9b	-101
123	0x7f	127
124	0xc6	-58
125	0x74	116
126	0x7f	127
127	0x2c	44
128	0x29	41
129	0xce	-50
130	0x4d	77
131	0xeb	-21
132	0x47	71
133	0x31	49
134	0xef	-17
135	0x7f	127
136	0x81	-127
137	0x49	73
138	0x7f	127
139	0x7f	127
140	0x81	-127
141	0x2c	44
142	0x81	-127
143	0xe5	-27
144	0x59	89
145	0x98	-104
146	0x07	7
147	0x81	-127
148	0x81	-127
149	0x22	34
150	0xc2	-62
151	0x3b	59
152	0xcb	-53
153	0x7f	127
154	0x64	100
155	0xfd	-3
156	0x81	-127
157	0xce	-50
158	0x81	-127
159	0x47	71
160	0x81	-127
161	0x9b	-101
162	0xa8	-88
163	0x02	2
164	0xe3	-29
165	0x81	-127
166	0x02	2
167	0x10	16
168	0x11	17
169	0x7f	127
170	0x7c	124
171	0x98	-104
172	0xfa	-6
173	0x73	115
174	0xde	-34
175	0xe8	-24
176	0x7f	127
177	0x7f	127
178	0xa5	-91
179	0x81	-127
180	0x3e	62
181	0x72	114
182	0xf3	-13
183	0x62	98
184	0xa1	-95
185	0x39	57
186	0x7f	127
187	0x66	102
188	0xf7	-9
189	0xbd	-67
190	0x7f	127
191	0x18	24
192	0x7f	127
193	0x81	-127
194	0x38	56
195	0x01	1
196	0x7f	127
197	0xf8	-8
198	0x7f	127
199	0x7f	127
200	0x03	3
201	0x86	-122
202	0x27	39
203	0xae	-82
204	0x7f	127
205	0xab	-85
206	0x81	-127
207	0xe2	-30
208	0xa0	-96
209	0x81	-127
210	0xd2	-46
211	0x81	-127
212	0xd2	-46
213	0x7f	127
214	0x1b	27
215	0x5c	92
216	0x81	-127
217	0x7f	127
218	0x57	87
219	0x81	-127
220	0xef	-17
221	0x81	-127
222	0x68	104
223	0xf4	-12
224	0xb1	-79
225	0xa4	-92
226	0xeb	-21
227	0x4e	78
228	0x09	9
229	0x5c	92
230	0x81	-127
231	0x22	34
232	0x51	81
233	0x3a	58
234	0x14	20
235	0x01	1
236	0x81	-127
237	0x7f	127
238	0x62	98
239	0x18	24
240	0xb7	-73
241	0x85	-123
242	0x6f	111
243	0xd0	-48
244	0x95	-107
245	0x07	7
246	0xd3	-45
247	0x81	-127
248	0xd7	-41
249	0x81	-127
250	0x82	-126
251	0xaa	-86
252	0x81	-127
253	0x21	33
254	0x36	54
255	0x7f	127

st_yolo_lc_v1/conv2d_4/Conv2D i1 [256, 1, 1, 128]
0	0xd4	-44
1	0x25	37
2	0xfb	-5
3	0x0a	10
4	0x09	9
5	0xf1	-15
6	0x24	36
7	0xdc	-36
8	0x12	18
9	0xec	-20
10	0xea	-22
11	0xf8	-8
12	0x07	7
13	0x19	25
14	0xed	-19
15	0xf9	-7
16	0xeb	-21
17	0xfc	-4
18	0x01	1
19	0xf3	-13
20	0xec	-20
21	0xff	-1
22	0x08	8
23	0x0c	12
24	0xfa	-6
25	0x0b	11
26	0x04	4
27	0x04	4
28	0x0d	13
29	0xe9	-23
30	0xe4	-28
31	0x0c	12
32	0x05	5
33	0x0f	15
34	0xff	-1
35	0xfa	-6
36	0x1b	27
37	0x0e	14
38	0x12	18
39	0xfb	-5
40	0xf3	-13
41	0xff	-1
42	0x03	3
43	0x01	1
44	0xf5	-11
45	0xe5	-27
46	0x37	55
47	0x0a	10
48	0xff	-1
49	0x1c	28
50	0x05	5
51	0xf8	-8
52	0x08	8
53	0xfb	-5
54	0x8e	-114
55	0x06	6
56	0xf8	-8
57	0x06	6
58	0x03	3
59	0x7f	127
60	0xf4	-12
61	0x17	23
62	0xf1	-15
63	0xf4	-12
64	0xf4	-12
65	0xf5	-11
66	0x03	3
67	0x27	39
68	0xfc	-4
69	0x03	3
70	0xea	-22
71	0xfe	-2
72	0x0d	13
73	0x21	33
74	0x13	19
75	0x11	17
76	0xe6	-26
77	0x28	40
78	0x18	24
79	0x24	36
80	0xd2	-46
81	0xf9	-7
82	0xe3	-29
83	0xfa	-6
84	0x0a	10
85	0xeb	-21
86	0x73	115
87	0xee	-18
88	0x18	24
89	0x04	4
90	0x02	2
91	0x1d	29
92	0xe8	-24
93	0x1b	27
94	0xee	-18
95	0xeb	-21
96	0xe7	-25
97	0x05	5
98	0xe1	-31
99	0x7d	125
100	0x1f	31
101	0xff	-1
102	0x13	19
103	0x26	38
104	0xdf	-33
105	0xf8	-8
106	0xee	-18
107	0xf5	-11
108	0xee	-18
109	0x17	23
110	0x16	22
111	0x14	20
112	0x0a	10
113	0x0c	12
114	0x7b	123
115	0xf2	-14
116	0x25	37
117	0x0b	11
118	0xf2	-14
119	0x11	17
120	0xf2	-14
121	0x44	68
122	0x02	2
123	0xf1	-15
124	0xfa	-6
125	0xf3	-13
126	0xec	-20
127	0x00	0
128	0x0c	12
129	0xf1	-15
130	0xe8	-24
131	0x2b	43
132	0xc7	-57
133	0x12	18
134	0x00	0
135	0x0a	10
136	0xfa	-6
137	0x1f	31
138	0xe5	-27
139	0xc0	-64
140	0x11	17
141	0xf6	-10
142	0xed	-19
143	0xaf	-81
144	0x08	8
145	0xff	-1
146	0x1b	27
147	0x16	22
148	0x05	5
149	0x3e	62
150	0x15	21
151	0x02	2
152	0x4a	74
153	0xff	-1
154	0xd3	-45
155	0xd9	-39
156	0x10	16
157	0xd6	-42
158	0x0d	13
159	0x0e	14
160	0x08	8
161	0xd9	-39
162	0x03	3
163	0xb8	-72
164	0xd6	-42
165	0x67	103
166	0x30	48
167	0xb7	-73
168	0x18	24
169	0xd4	-44
170	0x2d	45
171	0xcc	-52
172	0x04	4
173	0x12	18
174	0xf4	-12
175	0x1c	28
176	0x1b	27
177	0x14	20
178	0x04	4
179	0xfb	-5
180	0x62	98
181	0x29	41
182	0xf2	-14
183	0xf6	-10
184	0xd0	-48
185	0xbc	-68
186	0x13	19
187	0x0d	13
188	0xed	-19
189	0x05	5
190	0xe1	-31
191	0xb8	-72
192	0xdb	-37
193	0xfd	-3
194	0x50	80
195	0xb3	-77
196	0xef	-17
197	0xe8	-24
198	0x0c	12
199	0x1f	31
200	0x12	18
201	0xee	-18
202	0xa4	-92
203	0x67	103
204	0xe1	-31
205	0xe2	-30
206	0x2f	47
207	0xc8	-56
208	0x16	22
209	0xdc	-36
210	0x14	20
211	0xcb	-53
212	0x16	22
213	0xea	-22
214	0xfb	-5
215	0xdd	-35
216	0x08	8
217	0xd5	-43
218	0x2a	42
219	0xf2	-14
220	0xd2	-46
221	0xa6	-90
222	0x33	51
223	0x97	-105
224	0x08	8
225	0xf2	-14
226	0x1a	26
227	0x07	7
228	0x2c	44
229	0xf9	-7
230	0xf7	-9
231	0xb7	-73
232	0x09	9
233	0x13	19
234	0xe2	-30
235	0x4b	75
236	0x21	33
237	0xf6	-10
238	0xe3	-29
239	0xab	-85
240	0xea	-22
241	0x02	2
242	0xeb	-21
243	0x01	1
244	0xf2	-14
245	0xf7	-9
246	0xda	-38
247	0x08	8
248	0x23	35
249	0xda	-38
250	0xed	-19
251	0x7f	127
252	0x6d	109
253	0xf0	-16
254	0xdf	-33
255	0xe0	-32

st_yolo_lc_v1/batch_normalization_6/FusedBatchNormV3;st_yolo_lc_v1/depthwise_conv2d_1/depthwise;st_yolo_lc_v1/conv2d_7/Conv2D i1 [1, 3, 3, 256]
0	0x17	23
1	0xfc	-4
2	0x81	-127
3	0x99	-103
4	0xc9	-55
5	0x81	-127
6	0x36	54
7	0x33	51
8	0xfc	-4
9	0x8c	-116
10	0xf2	-14
11	0x8d	-115
12	0x27	39
13	0x04	4
14	0xdb	-37
15	0x81	-127
16	0x7f	127
17	0xf0	-16
18	0xf6	-10
19	0xce	-50
20	0x03	3
21	0x23	35
22	0xe3	-29
23	0x1c	28
24	0xcc	-52
25	0xff	-1
26	0xdf	-33
27	0x81	-127
28	0xfe	-2
29	0x52	82
30	0x19	25
31	0x18	24
32	0x1f	31
33	0xf2	-14
34	0x24	36
35	0x81	-127
36	0x28	40
37	0xb9	-71
38	0x04	4
39	0x01	1
40	0xd0	-48
41	0xf5	-11
42	0x81	-127
43	0x06	6
44	0xdb	-37
45	0x5d	93
46	0x30	48
47	0xe5	-27
48	0x10	16
49	0x77	119
50	0x29	41
51	0x12	18
52	0xd7	-41
53	0x7f	127
54	0x56	86
55	0x7f	127
56	0x7f	127
57	0x48	72
58	0x7f	127
59	0x3d	61
60	0x73	115
61	0xfd	-3
62	0xe9	-23
63	0x00	0
64	0x4a	74
65	0xe5	-27
66	0x8e	-114
67	0xc5	-59
68	0x28	40
69	0x81	-127
70	0xb4	-76
71	0xba	-70
72	0x3a	58
73	0x7b	123
74	0x60	96
75	0xd2	-46
76	0x13	19
77	0x7f	127
78	0xef	-17
79	0x61	97
80	0xd8	-40
81	0x81	-127
82	0x1b	27
83	0xe7	-25
84	0x7f	127
85	0x60	96
86	0x7f	127
87	0x81	-127
88	0x12	18
89	0xde	-34
90	0x7f	127
91	0x81	-127
92	0x81	-127
93	0xf5	-11
94	0x93	-109
95	0xf2	-14
96	0x9c	-100
97	0x6f	111
98	0x27	39
99	0x32	50
100	0x72	114
101	0xfd	-3
102	0x7f	127
103	0xd5	-43
104	0x4b	75
105	0x81	-127
106	0xe4	-28
107	0x02	2
108	0x81	-127
109	0xe3	-29
110	0x30	48
111	0x81	-127
112	0x4a	74
113	0x65	101
114	0x03	3
115	0x3a	58
116	0x39	57
117	0x7f	127
118	0xee	-18
119	0x7f	127
120	0x7f	127
121	0xe8	-24
122	0xf0	-16
123	0xff	-1
124	0x9e	-98
125	0xfd	-3
126	0x15	21
127	0x7f	127
128	0xfd	-3
129	0x08	8
130	0xe1	-31
131	0x5f	95
132	0xd1	-47
133	0xe3	-29
134	0x3f	63
135	0x2e	46
136	0x00	0
137	0x05	5
138	0x05	5
139	0xd1	-47
140	0xe0	-32
141	0x7f	127
142	0x51	81
143	0xa4	-92
144	0x7f	127
145	0x4c	76
146	0xd9	-39
147	0x81	-127
148	0x7e	126
149	0x0e	14
150	0xec	-20
151	0xaa	-86
152	0x5e	94
153	0xe4	-28
154	0xf0	-16
155	0xce	-50
156	0xcc	-52
157	0x7f	127
158	0xeb	-21
159	0xf5	-11
160	0x3c	60
161	0x81	-127
162	0x91	-111
163	0x4a	74
164	0x46	70
165	0x7f	127
166	0x27	39
167	0x14	20
168	0xa0	-96
169	0x45	69
170	0x4d	77
171	0xbd	-67
172	0xe8	-24
173	0xac	-84
174	0xbf	-65
175	0x81	-127
176	0x0e	14
177	0x1c	28
178	0x7f	127
179	0x7f	127
180	0x81	-127
181	0x16	22
182	0x77	119
183	0x7f	127
184	0xb0	-80
185	0xaa	-86
186	0x59	89
187	0x7f	127
188	0xee	-18
189	0x31	49
190	0x2f	47
191	0xfc	-4
192	0x81	-127
193	0x17	23
194	0x64	100
195	0x61	97
196	0x26	38
197	0x0f	15
198	0x83	-125
199	0xb5	-75
200	0xdb	-37
201	0xb2	-78
202	0x0a	10
203	0xf5	-11
204	0xe3	-29
205	0x53	83
206	0x81	-127
207	0xab	-85
208	0xe3	-29
209	0x45	69
210	0x02	2
211	0xf7	-9
212	0x12	18
213	0x3a	58
214	0xc3	-61
215	0x95	-107
216	0xe8	-24
217	0x0c	12
218	0xbd	-67
219	0x11	17
220	0x05	5
221	0xf5	-11
222	0x0b	11
223	0xe9	-23
224	0xcf	-49
225	0xc1	-63
226	0x1e	30
227	0xf2	-14
228	0x81	-127
229	0xd6	-42
230	0xfb	-5
231	0x01	1
232	0x77	119
233	0xd8	-40
234	0x81	-127
235	0x7f	127
236	0xa4	-92
237	0x4d	77
238	0x73	115
239	0x81	-127
240	0x2b	43
241	0x2f	47
242	0xdb	-37
243	0x7f	127
244	0x81	-127
245	0xff	-1
246	0x81	-127
247	0x63	99
248	0xfa	-6
249	0x81	-127
250	0x95	-107
251	0xf2	-14
252	0x1e	30
253	0xf8	-8
254	0x66	102
255	0x81	-127

st_yolo_lc_v1/conv2d_5/Conv2D i1 [256, 1, 1, 256]
0	0xd6	-42
1	0x2b	43
2	0x1f	31
3	0xf4	-12
4	0x2b	43
5	0x42	66
6	0xf7	-9
7	0x34	52
8	0xfc	-4
9	0xe3	-29
10	0x15	21
11	0xdb	-37
12	0xbd	-67
13	0x05	5
14	0xbc	-68
15	0xff	-1
16	0x18	24
17	0x5c	92
18	0xdf	-33
19	0x43	67
20	0xf2	-14
21	0xff	-1
22	0x16	22
23	0xff	-1
24	0x01	1
25	0x18	24
26	0x3a	58
27	0xfc	-4
28	0x13	19
29	0xf6	-10
30	0x3c	60
31	0x02	2
32	0xfd	-3
33	0xfd	-3
34	0xf9	-7
35	0x07	7
36	0xfb	-5
37	0x0d	13
38	0xca	-54
39	0x2a	42
40	0xfa	-6
41	0x00	0
42	0x42	66
43	0x7f	127
44	0xdc	-36
45	0xbf	-65
46	0x96	-106
47	0x39	57
48	0xac	-84
49	0x1b	27
50	0xf7	-9
51	0xd1	-47
52	0x12	18
53	0x07	7
54	0x32	50
55	0xd4	-44
56	0x08	8
57	0x0c	12
58	0xeb	-21
59	0xf1	-15
60	0xfd	-3
61	0xf2	-14
62	0x3f	63
63	0x2f	47
64	0x08	8
65	0x00	0
66	0x2b	43
67	0x0c	12
68	0xf0	-16
69	0xe8	-24
70	0xff	-1
71	0x27	39
72	0x30	48
73	0x16	22
74	0xc1	-63
75	0xdd	-35
76	0x03	3
77	0xff	-1
78	0x1b	27
79	0x2f	47
80	0xcf	-49
81	0x0a	10
82	0x1a	26
83	0x1f	31
84	0xf7	-9
85	0x15	21
86	0x21	33
87	0xf5	-11
88	0xeb	-21
89	0xf9	-7
90	0xf9	-7
91	0x21	33
92	0x11	17
93	0xfe	-2
94	0xf9	-7
95	0x03	3
96	0xa3	-93
97	0x0a	10
98	0x75	117
99	0x12	18
100	0x22	34
101	0xe8	-24
102	0xf1	-15
103	0xc5	-59
104	0x33	51
105	0xf7	-9
106	0xfd	-3
107	0xe9	-23
108	0xdd	-35
109	0x0c	12
110	0x1c	28
111	0x1a	26
112	0x37	55
113	0xcd	-51
114	0x19	25
115	0xce	-50
116	0x01	1
117	0x45	69
118	0x07	7
119	0x04	4
120	0x21	33
121	0xb8	-72
122	0x07	7
123	0xf4	-12
124	0x19	25
125	0xdb	-37
126	0x05	5
127	0x20	32
128	0xf2	-14
129	0xbf	-65
130	0xee	-18
131	0x2b	43
132	0xe1	-31
133	0xdc	-36
134	0x11	17
135	0xda	-38
136	0x07	7
137	0xe5	-27
138	0xf5	-11
139	0xfa	-6
140	0x2a	42
141	0x12	18
142	0xf4	-12
143	0xe9	-23
144	0xf0	-16
145	0xe7	-25
146	0x07	7
147	0xea	-22
148	0x30	48
149	0x0a	10
150	0x29	41
151	0x13	19
152	0x1d	29
153	0x08	8
154	0xfd	-3
155	0xdd	-35
156	0xdd	-35
157	0xf9	-7
158	0x0d	13
159	0x2d	45
160	0xf9	-7
161	0xfd	-3
162	0x0e	14
163	0x00	0
164	0xfd	-3
165	0x1a	26
166	0xfe	-2
167	0xfc	-4
168	0x10	16
169	0xda	-38
170	0xef	-17
171	0xf1	-15
172	0x24	36
173	0xeb	-21
174	0x0f	15
175	0x11	17
176	0x01	1
177	0xfd	-3
178	0x09	9
179	0xf4	-12
180	0xe0	-32
181	0xe6	-26
182	0xf5	-11
183	0x06	6
184	0x02	2
185	0x04	4
186	0xf6	-10
187	0x12	18
188	0xf1	-15
189	0xc3	-61
190	0x00	0
191	0xf8	-8
192	0x26	38
193	0xf7	-9
194	0x09	9
195	0xa1	-95
196	0x02	2
197	0x79	121
198	0xd0	-48
199	0x03	3
200	0xec	-20
201	0xf0	-16
202	0xef	-17
203	0x4a	74
204	0x1b	27
205	0xf2	-14
206	0xf1	-15
207	0xcc	-52
208	0x23	35
209	0xf3	-13
210	0xe3	-29
211	0xf4	-12
212	0xcd	-51
213	0x14	20
214	0x96	-106
215	0xfb	-5
216	0xf3	-13
217	0x1e	30
218	0x46	70
219	0x03	3
220	0xef	-17
221	0xf4	-12
222	0x17	23
223	0xd0	-48
224	0xb6	-74
225	0x1c	28
226	0xcd	-51
227	0x20	32
228	0xf7	-9
229	0x58	88
230	0x0d	13
231	0xf3	-13
232	0xe6	-26
233	0xfb	-5
234	0x01	1
235	0xe9	-23
236	0x21	33
237	0xdd	-35
238	0xd0	-48
239	0xdd	-35
240	0xe5	-27
241	0x09	9
242	0xe5	-27
243	0xe6	-26
244	0x16	22
245	0xe8	-24
246	0xed	-19
247	0xe8	-24
248	0xe9	-23
249	0xfe	-2
250	0x23	35
251	0xe1	-31
252	0xec	-20
253	0x1c	28
254	0xdf	-33
255	0x13	19

st_yolo_lc_v1/batch_normalization_8/FusedBatchNormV3;st_yolo_lc_v1/depthwise_conv2d_2/depthwise;st_yolo_lc_v1/conv2d_7/Conv2D i1 [1, 3, 3, 256]
0	0xa5	-91
1	0xf7	-9
2	0x81	-127
3	0x37	55
4	0x7f	127
5	0x2d	45
6	0xd1	-47
7	0x81	-127
8	0x81	-127
9	0xf0	-16
10	0x81	-127
11	0x0e	14
12	0x81	-127
13	0x35	53
14	0x08	8
15	0xe8	-24
16	0x33	51
17	0x81	-127
18	0x25	37
19	0x81	-127
20	0x7f	127
21	0xfd	-3
22	0xed	-19
23	0x17	23
24	0x81	-127
25	0x9f	-97
26	0x78	120
27	0xf8	-8
28	0x0b	11
29	0x81	-127
30	0x7f	127
31	0xf5	-11
32	0x81	-127
33	0x81	-127
34	0x5d	93
35	0x40	64
36	0x7f	127
37	0xe3	-29
38	0x01	1
39	0x97	-105
40	0x81	-127
41	0x81	-127
42	0x02	2
43	0xfd	-3
44	0x81	-127
45	0x10	16
46	0x42	66
47	0xc5	-59
48	0xf1	-15
49	0x81	-127
50	0x7f	127
51	0x81	-127
52	0xe0	-32
53	0xcc	-52
54	0x5e	94
55	0x7f	127
56	0x81	-127
57	0x46	70
58	0x2f	47
59	0x8b	-117
60	0x81	-127
61	0xce	-50
62	0x97	-105
63	0x79	121
64	0xf5	-11
65	0x46	70
66	0xc2	-62
67	0xe3	-29
68	0xf4	-12
69	0x81	-127
70	0xec	-20
71	0x81	-127
72	0xef	-17
73	0x06	6
74	0x81	-127
75	0xdd	-35
76	0x7f	127
77	0x0d	13
78	0xd8	-40
79	0x87	-121
80	0x25	37
81	0x9f	-97
82	0x03	3
83	0x7f	127
84	0x01	1
85	0x8e	-114
86	0xfb	-5
87	0x03	3
88	0x7f	127
89	0x78	120
90	0x15	21
91	0x08	8
92	0x3d	61
93	0x7f	127
94	0xca	-54
95	0x21	33
96	0x58	88
97	0xe7	-25
98	0xd5	-43
99	0x08	8
100	0xde	-34
101	0x81	-127
102	0xd4	-44
103	0x7f	127
104	0x08	8
105	0x81	-127
106	0xa1	-95
107	0x7f	127
108	0x1a	26
109	0x7f	127
110	0x7f	127
111	0xcd	-51
112	0xf3	-13
113	0x3b	59
114	0x12	18
115	0xce	-50
116	0xfc	-4
117	0xff	-1
118	0x7f	127
119	0x7f	127
120	0xf5	-11
121	0xa6	-90
122	0x7f	127
123	0xec	-20
124	0xec	-20
125	0x2f	47
126	0x7f	127
127	0x33	51
128	0x81	-127
129	0xf8	-8
130	0x11	17
131	0x81	-127
132	0x69	105
133	0xe7	-25
134	0x1d	29
135	0xef	-17
136	0x55	85
137	0x81	-127
138	0x0d	13
139	0x21	33
140	0xe2	-30
141	0x05	5
142	0x81	-127
143	0x10	16
144	0xda	-38
145	0xe3	-29
146	0xce	-50
147	0x1d	29
148	0x81	-127
149	0x81	-127
150	0xf6	-10
151	0x61	97
152	0x15	21
153	0x61	97
154	0xfe	-2
155	0x26	38
156	0x35	53
157	0x65	101
158	0x7f	127
159	0x7f	127
160	0xf1	-15
161	0xf7	-9
162	0x9f	-97
163	0x81	-127
164	0xd6	-42
165	0x89	-119
166	0x20	32
167	0xd1	-47
168	0xf4	-12
169	0x43	67
170	0x88	-120
171	0x02	2
172	0xe1	-31
173	0x81	-127
174	0x7f	127
175	0x23	35
176	0x4a	74
177	0x81	-127
178	0x7f	127
179	0xde	-34
180	0x7f	127
181	0x06	6
182	0x0a	10
183	0x2f	47
184	0x7f	127
185	0x43	67
186	0x37	55
187	0xcb	-53
188	0x41	65
189	0x2a	42
190	0x81	-127
191	0x06	6
192	0xc4	-60
193	0x1f	31
194	0xd2	-46
195	0xcd	-51
196	0x7f	127
197	0x7f	127
198	0x1c	28
199	0xea	-22
200	0x56	86
201	0x7c	124
202	0x98	-104
203	0x7f	127
204	0xf2	-14
205	0x39	57
206	0x7f	127
207	0x81	-127
208	0x81	-127
209	0xda	-38
210	0x32	50
211	0x81	-127
212	0xf1	-15
213	0x86	-122
214	0x44	68
215	0x7f	127
216	0xb4	-76
217	0x02	2
218	0xdb	-37
219	0xdd	-35
220	0x81	-127
221	0x81	-127
222	0x1c	28
223	0x2a	42
224	0xa2	-94
225	0x81	-127
226	0xf1	-15
227	0xe8	-24
228	0x71	113
229	0x20	32
230	0xfa	-6
231	0x1a	26
232	0x81	-127
233	0x7f	127
234	0x79	121
235	0x81	-127
236	0x81	-127
237	0x88	-120
238	0x96	-106
239	0xe2	-30
240	0x81	-127
241	0xe2	-30
242	0x7f	127
243	0x7f	127
244	0xf6	-10
245	0x41	65
246	0x5c	92
247	0x2d	45
248	0x7f	127
249	0x14	20
250	0xf8	-8
251	0x3b	59
252	0xeb	-21
253	0x56	86
254	0x02	2
255	0x0f	15

st_yolo_lc_v1/conv2d_6/Conv2D i1 [128, 1, 1, 256]
0	0x0e	14
1	0xfd	-3
2	0xf9	-7
3	0x10	16
4	0x0a	10
5	0xe7	-25
6	0xf4	-12
7	0xf7	-9
8	0x0b	11
9	0x0e	14
10	0x18	24
11	0x0b	11
12	0x12	18
13	0x0a	10
14	0xf6	-10
15	0xfb	-5
16	0xd8	-40
17	0x13	19
18	0xd4	-44
19	0x0e	14
20	0xef	-17
21	0x2e	46
22	0x01	1
23	0x81	-127
24	0x08	8
25	0xfe	-2
26	0x17	23
27	0xfd	-3
28	0xf8	-8
29	0x08	8
30	0xe7	-25
31	0xfc	-4
32	0x19	25
33	0xf4	-12
34	0xf4	-12
35	0x20	32
36	0x04	4
37	0x01	1
38	0xdd	-35
39	0x0f	15
40	0xf6	-10
41	0xea	-22
42	0x0b	11
43	0x2b	43
44	0x32	50
45	0xff	-1
46	0xdf	-33
47	0x01	1
48	0x10	16
49	0xe0	-32
50	0xf5	-11
51	0x06	6
52	0x11	17
53	0x01	1
54	0x0c	12
55	0xf5	-11
56	0x01	1
57	0xf9	-7
58	0xf8	-8
59	0xfe	-2
60	0x0a	10
61	0x1a	26
62	0x12	18
63	0x14	20
64	0x27	39
65	0x1e	30
66	0x05	5
67	0x07	7
68	0xe5	-27
69	0x06	6
70	0xf2	-14
71	0xe0	-32
72	0xfa	-6
73	0xfc	-4
74	0x03	3
75	0x05	5
76	0x03	3
77	0x0c	12
78	0x0e	14
79	0x0a	10
80	0xcd	-51
81	0x0c	12
82	0x02	2
83	0x11	17
84	0x1b	27
85	0x08	8
86	0xdb	-37
87	0x00	0
88	0x00	0
89	0xf3	-13
90	0x05	5
91	0xfe	-2
92	0x09	9
93	0x00	0
94	0x02	2
95	0xd6	-42
96	0xf2	-14
97	0x1d	29
98	0xff	-1
99	0x00	0
100	0x37	55
101	0x17	23
102	0x0f	15
103	0x00	0
104	0x07	7
105	0x05	5
106	0x10	16
107	0xf4	-12
108	0x30	48
109	0x05	5
110	0xf6	-10
111	0x0b	11
112	0xe1	-31
113	0xf7	-9
114	0x20	32
115	0xfe	-2
116	0x07	7
117	0xf7	-9
118	0x04	4
119	0xf6	-10
120	0x07	7
121	0xf7	-9
122	0xfc	-4
123	0xd4	-44
124	0x11	17
125	0xec	-20
126	0xef	-17
127	0x28	40
128	0x0d	13
129	0xfe	-2
130	0x03	3
131	0x04	4
132	0x07	7
133	0xea	-22
134	0xfa	-6
135	0x12	18
136	0xd5	-43
137	0xfd	-3
138	0x0a	10
139	0xf4	-12
140	0xd5	-43
141	0xdf	-33
142	0xed	-19
143	0xfc	-4
144	0xff	-1
145	0x07	7
146	0x21	33
147	0xfc	-4
148	0x0a	10
149	0xf6	-10
150	0xf3	-13
151	0xfc	-4
152	0x29	41
153	0x2a	42
154	0x01	1
155	0xf5	-11
156	0x02	2
157	0xd0	-48
158	0x0f	15
159	0x06	6
160	0xf2	-14
161	0x15	21
162	0x08	8
163	0xfa	-6
164	0x0c	12
165	0xe3	-29
166	0xf5	-11
167	0xfe	-2
168	0x11	17
169	0xf6	-10
170	0x0d	13
171	0xce	-50
172	0x0c	12
173	0x06	6
174	0x03	3
175	0x08	8
176	0x04	4
177	0xfe	-2
178	0xdd	-35
179	0xef	-17
180	0xe8	-24
181	0x03	3
182	0xf3	-13
183	0x12	18
184	0x04	4
185	0x05	5
186	0xd9	-39
187	0x05	5
188	0xdf	-33
189	0x38	56
190	0x00	0
191	0x0f	15
192	0x1a	26
193	0x0c	12
194	0x03	3
195	0x10	16
196	0x1c	28
197	0xfb	-5
198	0x05	5
199	0xf0	-16
200	0x03	3
201	0x03	3
202	0x09	9
203	0xea	-22
204	0xe7	-25
205	0xe7	-25
206	0x06	6
207	0xf8	-8
208	0xfd	-3
209	0x21	33
210	0x01	1
211	0xe8	-24
212	0x0a	10
213	0xcf	-49
214	0xfa	-6
215	0xff	-1
216	0x0a	10
217	0xf9	-7
218	0xf9	-7
219	0xfa	-6
220	0x02	2
221	0xec	-20
222	0x05	5
223	0x11	17
224	0x0c	12
225	0x1c	28
226	0x04	4
227	0x1a	26
228	0x1a	26
229	0xfe	-2
230	0xfa	-6
231	0xf2	-14
232	0x02	2
233	0x00	0
234	0x0d	13
235	0xfe	-2
236	0x00	0
237	0xed	-19
238	0xf9	-7
239	0x06	6
240	0x03	3
241	0xf8	-8
242	0x02	2
243	0xfb	-5
244	0x06	6
245	0xfa	-6
246	0xf0	-16
247	0xf4	-12
248	0x08	8
249	0xf8	-8
250	0xc8	-56
251	0x0c	12
252	0x06	6
253	0xec	-20
254	0x07	7
255	0x2a	42

st_yolo_lc_v1/batch_normalization_10/FusedBatchNormV3;st_yolo_lc_v1/depthwise_conv2d_3/depthwise i1 [1, 3, 3, 128]
0	0x0d	13
1	0x81	-127
2	0x36	54
3	0x82	-126
4	0x7f	127
5	0x04	4
6	0x81	-127
7	0x7f	127
8	0xf2	-14
9	0xdc	-36
10	0xf6	-10
11	0x93	-109
12	0x6a	106
13	0xbd	-67
14	0x7f	127
15	0xfd	-3
16	0xea	-22
17	0x15	21
18	0x2c	44
19	0xae	-82
20	0xa1	-95
21	0xfb	-5
22	0x28	40
23	0xfe	-2
24	0x81	-127
25	0x0e	14
26	0x38	56
27	0x81	-127
28	0x0d	13
29	0x68	104
30	0xdf	-33
31	0x38	56
32	0x04	4
33	0x7f	127
34	0x33	51
35	0x7f	127
36	0xaa	-86
37	0x3a	58
38	0x81	-127
39	0x59	89
40	0x89	-119
41	0x82	-126
42	0xfb	-5
43	0x62	98
44	0x81	-127
45	0xeb	-21
46	0x0e	14
47	0xb0	-80
48	0xda	-38
49	0x25	37
50	0x06	6
51	0x57	87
52	0x7f	127
53	0x0c	12
54	0x81	-127
55	0x81	-127
56	0x08	8
57	0xec	-20
58	0x89	-119
59	0x22	34
60	0x03	3
61	0x89	-119
62	0x3f	63
63	0x5a	90
64	0x7f	127
65	0xa1	-95
66	0x7f	127
67	0x67	103
68	0x12	18
69	0x7f	127
70	0x7a	122
71	0x62	98
72	0xd2	-46
73	0x14	20
74	0x7d	125
75	0xc1	-63
76	0x00	0
77	0xe3	-29
78	0x0b	11
79	0xf5	-11
80	0x1b	27
81	0x19	25
82	0xfd	-3
83	0x92	-110
84	0x20	32
85	0x3b	59
86	0x7f	127
87	0x06	6
88	0x7f	127
89	0xb9	-71
90	0x7f	127
91	0xee	-18
92	0x88	-120
93	0x06	6
94	0x79	121
95	0x81	-127
96	0xd1	-47
97	0x8d	-115
98	0xcb	-53
99	0xf3	-13
100	0xc2	-62
101	0x2b	43
102	0x62	98
103	0x8f	-113
104	0x52	82
105	0x06	6
106	0x82	-126
107	0x9c	-100
108	0xc0	-64
109	0x0d	13
110	0xdf	-33
111	0x6d	109
112	0x85	-123
113	0xff	-1
114	0x0c	12
115	0x3c	60
116	0x1e	30
117	0xc4	-60
118	0x7f	127
119	0x20	32
120	0x81	-127
121	0x97	-105
122	0x76	118
123	0xf9	-7
124	0xef	-17
125	0x51	81
126	0xf2	-14
127	0x2c	44
128	0x03	3
129	0x21	33
130	0x5c	92
131	0x94	-108
132	0xeb	-21
133	0xfd	-3
134	0xeb	-21
135	0xfb	-5
136	0xe5	-27
137	0xf4	-12
138	0xf2	-14
139	0xb9	-71
140	0x69	105
141	0xc3	-61
142	0x69	105
143	0xdd	-35
144	0x1d	29
145	0x7f	127
146	0x1b	27
147	0xb2	-78
148	0x81	-127
149	0xb8	-72
150	0x33	51
151	0xaf	-81
152	0xb0	-80
153	0xdd	-35
154	0x15	21
155	0xa3	-93
156	0x20	32
157	0x7f	127
158	0xa9	-87
159	0x78	120
160	0x27	39
161	0x4c	76
162	0xb5	-75
163	0x28	40
164	0x81	-127
165	0x1a	26
166	0x12	18
167	0x7f	127
168	0x81	-127
169	0xce	-50
170	0x00	0
171	0x7e	126
172	0xd0	-48
173	0x36	54
174	0x0e	14
175	0x95	-107
176	0x81	-127
177	0x78	120
178	0xf7	-9
179	0x7f	127
180	0x21	33
181	0xe3	-29
182	0xd1	-47
183	0xa8	-88
184	0xdd	-35
185	0xdd	-35
186	0xd7	-41
187	0x11	17
188	0x1b	27
189	0x9b	-101
190	0x7f	127
191	0x7f	127
192	0x7b	123
193	0xcc	-52
194	0x27	39
195	0x55	85
196	0x38	56
197	0x63	99
198	0x62	98
199	0x55	85
200	0x81	-127
201	0x0b	11
202	0x0a	10
203	0x08	8
204	0xff	-1
205	0xf9	-7
206	0xfc	-4
207	0x7f	127
208	0xfc	-4
209	0x21	33
210	0xe7	-25
211	0x81	-127
212	0x71	113
213	0x77	119
214	0x6c	108
215	0x7f	127
216	0x4a	74
217	0x08	8
218	0x44	68
219	0x1f	31
220	0xc8	-56
221	0xc6	-58
222	0x10	16
223	0x97	-105
224	0x33	51
225	0x05	5
226	0x81	-127
227	0x9c	-100
228	0xe9	-23
229	0x29	41
230	0x81	-127
231	0xfd	-3
232	0x7f	127
233	0x15	21
234	0xa5	-91
235	0x09	9
236	0x7f	127
237	0x78	120
238	0x37	55
239	0x67	103
240	0x81	-127
241	0x1e	30
242	0x04	4
243	0x6e	110
244	0x7f	127
245	0x44	68
246	0xe4	-28
247	0xc4	-60
248	0xe3	-29
249	0xe5	-27
250	0x60	96
251	0x2a	42
252	0x82	-126
253	0x07	7
254	0x01	1
255	0xe7	-25

st_yolo_lc_v1/conv2d_7/Conv2D i1 [256, 1, 1, 128]
0	0xeb	-21
1	0xf9	-7
2	0x0b	11
3	0x01	1
4	0x01	1
5	0xf9	-7
6	0x04	4
7	0xff	-1
8	0xeb	-21
9	0x0f	15
10	0xf6	-10
11	0xf6	-10
12	0xf0	-16
13	0x13	19
14	0xfa	-6
15	0xf9	-7
16	0xdd	-35
17	0xf9	-7
18	0xde	-34
19	0x1a	26
20	0xf6	-10
21	0xf7	-9
22	0x01	1
23	0xfa	-6
24	0x0d	13
25	0xfc	-4
26	0xde	-34
27	0x7f	127
28	0x3c	60
29	0x15	21
30	0x0c	12
31	0x78	120
32	0xfe	-2
33	0xf3	-13
34	0x00	0
35	0xfe	-2
36	0xfc	-4
37	0xcd	-51
38	0x04	4
39	0x07	7
40	0x13	19
41	0x04	4
42	0x0d	13
43	0x01	1
44	0xf5	-11
45	0x04	4
46	0xfa	-6
47	0x0f	15
48	0xfc	-4
49	0x05	5
50	0x06	6
51	0x05	5
52	0xed	-19
53	0xf1	-15
54	0xff	-1
55	0xef	-17
56	0x03	3
57	0xfa	-6
58	0x18	24
59	0xd3	-45
60	0x1a	26
61	0x0f	15
62	0x0c	12
63	0x17	23
64	0xda	-38
65	0xdf	-33
66	0xf7	-9
67	0xfe	-2
68	0x08	8
69	0x07	7
70	0x74	116
71	0xef	-17
72	0x37	55
73	0xeb	-21
74	0xfe	-2
75	0x1b	27
76	0xec	-20
77	0x11	17
78	0x03	3
79	0x0e	14
80	0xf1	-15
81	0x15	21
82	0x2a	42
83	0x1b	27
84	0x06	6
85	0xfa	-6
86	0x10	16
87	0x07	7
88	0x06	6
89	0x0e	14
90	0xef	-17
91	0xe4	-28
92	0xed	-19
93	0xee	-18
94	0x19	25
95	0x09	9
96	0x1a	26
97	0x12	18
98	0x02	2
99	0xdf	-33
100	0xa2	-94
101	0xeb	-21
102	0xef	-17
103	0x01	1
104	0x00	0
105	0xed	-19
106	0x06	6
107	0x17	23
108	0x0f	15
109	0xf9	-7
110	0xfb	-5
111	0x08	8
112	0xde	-34
113	0xf8	-8
114	0x1b	27
115	0xef	-17
116	0x09	9
117	0x05	5
118	0xe3	-29
119	0xfc	-4
120	0x02	2
121	0xe9	-23
122	0x07	7
123	0x5d	93
124	0x0f	15
125	0xfc	-4
126	0xfc	-4
127	0xeb	-21
128	0x3d	61
129	0xfb	-5
130	0x00	0
131	0xe2	-30
132	0x0b	11
133	0x44	68
134	0xfe	-2
135	0xfa	-6
136	0xfb	-5
137	0x02	2
138	0x19	25
139	0x10	16
140	0xf0	-16
141	0x0f	15
142	0xec	-20
143	0xef	-17
144	0x16	22
145	0x2e	46
146	0xeb	-21
147	0x2b	43
148	0x33	51
149	0x30	48
150	0x1e	30
151	0x01	1
152	0x2e	46
153	0xd0	-48
154	0x32	50
155	0x9b	-101
156	0xe1	-31
157	0x0e	14
158	0xf2	-14
159	0x93	-109
160	0x1d	29
161	0xeb	-21
162	0xfd	-3
163	0xf7	-9
164	0x4b	75
165	0x05	5
166	0x01	1
167	0x10	16
168	0x03	3
169	0x0b	11
170	0xf6	-10
171	0x0b	11
172	0x09	9
173	0x11	17
174	0xf7	-9
175	0x0c	12
176	0x07	7
177	0xf9	-7
178	0xe8	-24
179	0x06	6
180	0xad	-83
181	0x1f	31
182	0xd1	-47
183	0xf7	-9
184	0x18	24
185	0x06	6
186	0x1f	31
187	0x16	22
188	0xf8	-8
189	0xf3	-13
190	0xcf	-49
191	0xdb	-37
192	0xdd	-35
193	0x37	55
194	0x09	9
195	0xde	-34
196	0xed	-19
197	0x01	1
198	0x81	-127
199	0xe2	-30
200	0x29	41
201	0x1c	28
202	0xd8	-40
203	0xc4	-60
204	0xd5	-43
205	0x0c	12
206	0x2c	44
207	0x19	25
208	0x10	16
209	0xfb	-5
210	0x1c	28
211	0x24	36
212	0xf9	-7
213	0x19	25
214	0xc7	-57
215	0x19	25
216	0x04	4
217	0xe6	-26
218	0xe5	-27
219	0xf6	-10
220	0xea	-22
221	0x05	5
222	0x0e	14
223	0x04	4
224	0x14	20
225	0xd1	-47
226	0xe9	-23
227	0x1b	27
228	0x33	51
229	0xde	-34
230	0x0f	15
231	0x49	73
232	0xfe	-2
233	0x2f	47
234	0x28	40
235	0x19	25
236	0x12	18
237	0xf9	-7
238	0x32	50
239	0xe7	-25
240	0xdd	-35
241	0x37	55
242	0x40	64
243	0xee	-18
244	0xd5	-43
245	0x19	25
246	0x25	37
247	0x10	16
248	0xf9	-7
249	0x33	51
250	0xcb	-53
251	0x0c	12
252	0xf7	-9
253	0xf3	-13
254	0xe9	-23
255	0xdc	-36

st_yolo_lc_v1/conv2d_8/Conv2D i1 [30, 1, 1, 256]
0	0xfe	-2
1	0x01	1
2	0x0d	13
3	0xfd	-3
4	0xfc	-4
5	0x07	7
6	0x04	4
7	0xfc	-4
8	0xfd	-3
9	0x05	5
10	0x02	2
11	0x04	4
12	0xfc	-4
13	0x01	1
14	0xff	-1
15	0x02	2
16	0x00	0
17	0xfe	-2
18	0x02	2
19	0x01	1
20	0xfd	-3
21	0xfe	-2
22	0x01	1
23	0xfd	-3
24	0xff	-1
25	0xfc	-4
26	0x07	7
27	0xfd	-3
28	0x02	2
29	0x09	9
30	0xff	-1
31	0xfd	-3
32	0xea	-22
33	0xfe	-2
34	0xff	-1
35	0xff	-1
36	0x02	2
37	0x01	1
38	0xf4	-12
39	0xfd	-3
40	0xf8	-8
41	0x02	2
42	0x07	7
43	0x02	2
44	0x01	1
45	0x06	6
46	0xff	-1
47	0x05	5
48	0xfe	-2
49	0x07	7
50	0x03	3
51	0xfd	-3
52	0xfd	-3
53	0xfd	-3
54	0xfd	-3
55	0x02	2
56	0xff	-1
57	0xff	-1
58	0xfe	-2
59	0x03	3
60	0xff	-1
61	0x01	1
62	0x01	1
63	0xfe	-2
64	0x06	6
65	0xfa	-6
66	0xfa	-6
67	0xfe	-2
68	0x01	1
69	0x01	1
70	0x81	-127
71	0xfc	-4
72	0xfe	-2
73	0x02	2
74	0xfc	-4
75	0xfc	-4
76	0xfe	-2
77	0xfb	-5
78	0x04	4
79	0xfd	-3
80	0x25	37
81	0x00	0
82	0x00	0
83	0xfe	-2
84	0xfc	-4
85	0xfb	-5
86	0xff	-1
87	0xfa	-6
88	0x00	0
89	0xfd	-3
90	0xf9	-7
91	0xfd	-3
92	0xfe	-2
93	0xff	-1
94	0x00	0
95	0x03	3
96	0x05	5
97	0x0c	12
98	0x03	3
99	0x01	1
100	0x00	0
101	0xfd	-3
102	0x01	1
103	0xfc	-4
104	0x00	0
105	0x02	2
106	0x21	33
107	0x02	2
108	0x00	0
109	0xfe	-2
110	0xff	-1
111	0xfb	-5
112	0x00	0
113	0xfc	-4
114	0x01	1
115	0xff	-1
116	0x07	7
117	0xfe	-2
118	0xfe	-2
119	0x02	2
120	0xfd	-3
121	0xff	-1
122	0x02	2
123	0x00	0
124	0x02	2
125	0x03	3
126	0x01	1
127	0xfe	-2
128	0xfa	-6
129	0x01	1
130	0x01	1
131	0xfe	-2
132	0x02	2
133	0x19	25
134	0x04	4
135	0xee	-18
136	0x00	0
137	0xff	-1
138	0xfe	-2
139	0x01	1
140	0xf4	-12
141	0xfe	-2
142	0xff	-1
143	0xff	-1
144	0x08	8
145	0xfe	-2
146	0x02	2
147	0xfb	-5
148	0xfe	-2
149	0x01	1
150	0xff	-1
151	0x01	1
152	0x01	1
153	0xff	-1
154	0xff	-1
155	0x00	0
156	0xff	-1
157	0x02	2
158	0xec	-20
159	0x17	23
160	0x02	2
161	0xf2	-14
162	0x00	0
163	0x03	3
164	0x00	0
165	0xe8	-24
166	0xfa	-6
167	0x03	3
168	0xfa	-6
169	0x00	0
170	0x03	3
171	0xfb	-5
172	0x00	0
173	0xfe	-2
174	0x05	5
175	0x01	1
176	0x00	0
177	0x00	0
178	0x08	8
179	0x00	0
180	0x00	0
181	0xf7	-9
182	0x02	2
183	0xfd	-3
184	0xfa	-6
185	0x00	0
186	0x52	82
187	0x02	2
188	0xfc	-4
189	0x00	0
190	0xfd	-3
191	0x00	0
192	0x02	2
193	0xe9	-23
194	0x00	0
195	0x00	0
196	0x01	1
197	0xff	-1
198	0xff	-1
199	0xff	-1
200	0x02	2
201	0xf9	-7
202	0xfb	-5
203	0x03	3
204	0x01	1
205	0x22	34
206	0x01	1
207	0xf8	-8
208	0xff	-1
209	0x04	4
210	0xfc	-4
211	0xfa	-6
212	0xff	-1
213	0x03	3
214	0x00	0
215	0x04	4
216	0xf8	-8
217	0xff	-1
218	0xfb	-5
219	0x05	5
220	0xf6	-10
221	0x08	8
222	0xf6	-10
223	0x06	6
224	0x00	0
225	0x01	1
226	0x01	1
227	0xff	-1
228	0xf5	-11
229	0x02	2
230	0xff	-1
231	0x01	1
232	0x06	6
233	0x18	24
234	0xfd	-3
235	0x02	2
236	0xfe	-2
237	0xfe	-2
238	0x02	2
239	0xf2	-14
240	0x03	3
241	0x03	3
242	0x04	4
243	0xfd	-3
244	0x03	3
245	0x00	0
246	0x08	8
247	0x05	5
248	0x02	2
249	0xff	-1
250	0x00	0
251	0x00	0
252	0xf1	-15
253	0xff	-1
254	0x03	3
255	0x1e	30
