src/lib/libtf/models/ei-human-detection-1-object-detection-tensorflow-lite-int8-quantized-model.lite (tflite, 56736 bytes, 21 tensors)

model_1/logits/Conv2D i1 [5, 1, 1, 32]
56 102 -20 15 -41 74 56 23
62 -51 -90 90 -43 86 92 127
-28 -72 -17 -62 24 46 -70 -99
11 -50 77 -78 29 48 6 13
-10 79 62 37 39 73 -10 -34
-51 -51 67 -20 -74 37 -127 18
13 33 11 24 -65 66 72 -29
-10 57 14 73 52 -79 39 -69
-29 -73 -53 -40 -9 49 120 -69
96 120 -44 117 79 115 -125 -52
-7 -5 113 2 -41 -90 109 -100
84 64 75 26 -44 -44 96 127
51 -81 1 -25 100 -29 -32 -79
38 -56 -36 -127 -9 -31 -79 -58
-91 -44 -10 41 2 26 -30 17
40 101 8 -22 22 62 90 -67
-43 -81 83 -15 1 44 -76 -98
84 85 83 -113 22 -97 104 1
75 -56 -20 93 8 -77 -16 109
-16 -68 -90 -71 -127 124 -2 -112
00000000: 3866 ec0f d74a 3817 3ecd a65a d556 5c7f
00000010: e4b8 efc2 182e ba9d 0bce 4db2 1d30 060d
00000020: f64f 3e25 2749 f6de cdcd 43ec b625 8112
00000030: 0d21 0b18 bf42 48e3 f639 0e49 34b1 27bb
00000040: e3b7 cbd8 f731 78bb 6078 d475 4f73 83cc
00000050: f9fb 7102 d7a6 6d9c 5440 4b1a d4d4 607f
00000060: 33af 01e7 64e3 e0b1 26c8 dc81 f7e1 b1c6
00000070: a5d4 f629 021a e211 2865 08ea 163e 5abd
00000080: d5af 53f1 012c b49e 5455 538f 169f 6801
00000090: 4bc8 ec5d 08b3 f06d f0bc a6b9 817c fe90

model_1/head/Conv2D i1 [32, 1, 1, 96]
-36 -60 92 13 102 -24 -98 -102
50 -103 -112 -16 60 -5 -49 40
-73 -42 -73 -71 -79 -112 -6 92
-113 7 63 -62 84 -10 -28 -86
93 -64 -85 56 -120 -87 -91 19
60 -86 -112 92 39 -115 100 -34
15 -75 -41 86 -86 -44 -106 97
20 58 127 -118 -86 64 -53 45
8 3 58 84 42 85 75 -111
92 -100 33 72 -117 2 -69 28
38 8 78 -14 -70 -49 -94 90
11 99 -30 -111 3 52 14 10
-58 32 -57 -6 -37 102 41 0
77 -104 -105 97 44 -30 31 61
116 -42 32 108 -60 -1 44 35
34 5 -41 127 2 -34 97 -63
54 103 4 34 59 57 -13 -72
-67 7 -21 -92 -37 29 -39 -53
-26 -121 92 56 16 83 -76 -66
49 77 67 83 -75 121 -56 -92
-73 30 84 31 110 25 35 3
-124 87 -36 59 75 -33 -39 69
-83 77 -67 -126 28 118 -78 -75
71 74 101 34 72 96 15 0
55 28 -69 103 -15 -41 100 82
-88 81 -29 108 71 -3 88 -112
-70 -9 -20 84 -94 -11 106 22
-11 73 117 -11 -75 97 77 102
-67 -6 -62 -127 -107 108 96 -17
-111 -71 7 -25 -73 126 -13 -76
104 53 122 -70 -77 90 25 30
-48 83 -60 7 10 49 -16 69
00000000: dcc4 5c0d 66e8 9e9a 3299 90f0 3cfb cf28
00000010: b7d6 b7b9 b190 fa5c 8f07 3fc2 54f6 e4aa
00000020: 5dc0 ab38 88a9 a513 3caa 905c 278d 64de
00000030: 0fb5 d756 aad4 9661 143a 7f8a aa40 cb2d
00000040: 0803 3a54 2a55 4b91 5c9c 2148 8b02 bb1c
00000050: 2608 4ef2 bacf a25a 0b63 e291 0334 0e0a
00000060: c620 c7fa db66 2900 4d98 9761 2ce2 1f3d
00000070: 74d6 206c c4ff 2c23 2205 d77f 02de 61c1
00000080: 3667 0422 3b39 f3b8 bd07 eba4 db1d d9cb
00000090: e687 5c38 1053 b4be 314d 4353 b579 c8a4
000000a0: b71e 541f 6e19 2303 8457 dc3b 4bdf d945
000000b0: ad4d bd82 1c76 b2b5 474a 6522 4860 0f00
000000c0: 371c bb67 f1d7 6452 a851 e36c 47fd 5890
000000d0: baf7 ec54 a2f5 6a16 f549 75f5 b561 4d66
000000e0: bdfa c281 956c 60ef 91b9 07e7 b77e f3b4
000000f0: 6835 7aba b35a 191e d053 c407 0a31 f045

model_1/block_6_expand/Conv2D i1 [96, 1, 1, 16]
-34 111 -18 -127 -34 -21 -34 -74
7 33 -28 87 33 -72 -26 74
-53 10 -82 -28 -27 -36 7 -114
61 27 -63 20 -8 16 42 -127
11 -18 -14 36 60 4 -92 -99
127 -93 8 -14 -3 126 -74 18
12 -22 -12 -72 -2 -13 -21 10
63 14 5 18 16 13 -2 127
-127 76 41 35 -34 -40 9 33
-28 -5 33 -39 -127 -42 -3 7
9 54 61 14 9 71 -68 61
-33 65 -12 -3 22 -28 -127 12
13 -62 127 -111 12 -11 -92 91
-81 -69 72 -38 -38 94 -21 68
25 127 -6 -93 78 -8 2 -70
112 113 -20 -34 24 -34 109 88
0 -94 15 -111 32 -65 1 -67
23 53 72 -21 -3 127 67 76
31 -25 12 127 47 -6 27 -62
-57 89 18 -31 20 -69 -1 -1
-27 42 -77 -127 23 8 -5 19
31 -14 -3 -46 -20 -55 -1 40
-16 16 5 -39 115 -29 85 -68
-99 36 -14 22 -14 127 -82 10
67 7 -126 -19 67 -120 26 -25
31 42 -113 -42 -53 127 -9 66
-20 9 -20 15 -3 -127 -6 17
7 -6 18 2 7 -8 15 7
46 -24 100 -13 48 19 -127 -65
6 -40 35 53 16 -54 -31 -45
-106 50 -44 -35 1 39 127 91
-47 77 38 9 25 116 25 6
00000000: de6f ee81 deeb deb6 0721 e457 21b8 e64a
00000010: cb0a aee4 e5dc 078e 3d1b c114 f810 2a81
00000020: 0bee f224 3c04 a49d 7fa3 08f2 fd7e b612
00000030: 0cea f4b8 fef3 eb0a 3f0e 0512 100d fe7f
00000040: 814c 2923 ded8 0921 e4fb 21d9 81d6 fd07
00000050: 0936 3d0e 0947 bc3d df41 f4fd 16e4 810c
00000060: 0dc2 7f91 0cf5 a45b afbb 48da da5e eb44
00000070: 197f faa3 4ef8 02ba 7071 ecde 18de 6d58
00000080: 00a2 0f91 20bf 01bd 1735 48eb fd7f 434c
00000090: 1fe7 0c7f 2ffa 1bc2 c759 12e1 14bb ffff
000000a0: e52a b381 1708 fb13 1ff2 fdd2 ecc9 ff28
000000b0: f010 05d9 73e3 55bc 9d24 f216 f27f ae0a
000000c0: 4307 82ed 4388 1ae7 1f2a 8fd6 cb7f f742
000000d0: ec09 ec0f fd81 fa11 07fa 1202 07f8 0f07
000000e0: 2ee8 64f3 3013 81bf 06d8 2335 10ca e1d3
000000f0: 9632 d4dd 0127 7f5b d14d 2609 1974 1906

model_1/block_5_project/Conv2D i1 [16, 1, 1, 96]
-27 -4 5 -26 5 -16 -28 3
14 -2 -9 0 10 -1 -24 15
-2 5 0 -17 15 -38 -2 -2
7 6 -4 127 39 -29 38 3
0 22 3 9 -12 13 -19 0
-3 -1 8 34 23 24 16 4
16 7 -13 19 27 -14 -5 78
-4 10 -19 -23 2 24 -1 -20
-31 -44 -15 30 7 -6 24 -12
1 -31 2 -6 -26 8 -3 8
-2 -11 22 32 -14 -3 6 -89
6 -5 12 -7 45 -32 -20 -23
17 -89 -106 -76 118 -68 69 53
-38 -91 -32 -32 21 1 -64 74
-76 2 30 16 -12 14 -23 -58
-1 -23 -5 -51 41 -31 -57 4
-28 6 10 39 18 -29 5 11
-44 13 -63 0 -40 55 5 -47
18 -65 -19 -11 -51 46 35 67
-43 -19 -67 -30 36 2 -7 -47
-62 120 -3 -64 -3 -20 -1 24
71 -127 -40 12 42 -67 16 7
-6 -61 14 44 -52 20 -28 -7
52 -49 15 60 49 -57 48 89
-20 91 -50 -21 66 69 81 97
10 -97 -7 -3 33 11 31 14
16 -8 -36 73 54 -20 89 -23
46 4 -12 -20 37 18 56 -22
45 55 -4 47 -112 -53 47 61
30 -87 41 -16 42 3 -7 59
-35 20 -14 4 127 -34 -19 126
16 -2 54 0 47 13 53 -15
00000000: e5fc 05e6 05f0 e403 0efe f700 0aff e80f
00000010: fe05 00ef 0fda fefe 0706 fc7f 27e3 2603
00000020: 0016 0309 f40d ed00 fdff 0822 1718 1004
00000030: 1007 f313 1bf2 fb4e fc0a ede9 0218 ffec
00000040: e1d4 f11e 07fa 18f4 01e1 02fa e608 fd08
00000050: fef5 1620 f2fd 06a7 06fb 0cf9 2de0 ece9
00000060: 11a7 96b4 76bc 4535 daa5 e0e0 1501 c04a
00000070: b402 1e10 f40e e9c6 ffe9 fbcd 29e1 c704
00000080: e406 0a27 12e3 050b d40d c100 d837 05d1
00000090: 12bf edf5 cd2e 2343 d5ed bde2 2402 f9d1
000000a0: c278 fdc0 fdec ff18 4781 d80c 2abd 1007
000000b0: fac3 0e2c cc14 e4f9 34cf 0f3c 31c7 3059
000000c0: ec5b ceeb 4245 5161 0a9f f9fd 210b 1f0e
000000d0: 10f8 dc49 36ec 59e9 2e04 f4ec 2512 38ea
000000e0: 2d37 fc2f 90cb 2f3d 1ea9 29f0 2a03 f93b
000000f0: dd14 f204 7fde ed7e 10fe 3600 2f0d 35f1

model_1/block_5_depthwise_BN/FusedBatchNormV3;model_1/block_5_depthwise/depthwise;model_1/block_6_expand/Conv2D i1 [1, 3, 3, 96]
-52 -72 -14 127 22 68 92 -61
-15 -19 -12 1 -25 -3 37 4
-5 -41 27 16 20 -127 127 10
-88 7 46 -28 -127 -127 38 24
13 29 57 -17 -30 -10 33 -3
-16 28 -111 75 25 -78 37 46
-17 51 -28 21 15 -9 18 50
-97 -47 -60 -16 -10 1 13 42
65 -23 73 18 -15 19 21 127
22 27 30 0 -9 23 127 -1
-15 15 -28 21 127 19 -76 -16
-4 -31 -18 -42 1 -23 -17 26
127 -125 69 108 -42 127 45 -119
67 3 -14 127 127 -107 -12 17
13 127 127 -114 127 -76 83 72
-127 -108 -68 -35 -59 47 -59 -20
-90 56 -127 -81 -40 -15 -51 63
1 127 127 86 -51 -124 -117 -52
-15 -127 40 85 79 -32 44 88
-52 42 -83 -108 -43 -40 -61 67
69 -59 25 37 -88 34 -19 87
118 127 11 25 4 63 -36 55
68 127 127 -21 -7 73 -113 127
-119 -95 4 -127 -93 -127 -40 108
-80 -17 27 -83 15 -19 82 -9
77 -34 -26 23 -14 -11 -8 -5
-4 -15 7 -10 -15 -115 29 5
-120 91 5 -57 115 51 -15 8
3 21 13 -31 -8 34 21 15
25 12 -125 62 19 -21 37 14
-14 7 -18 5 -3 -1 -3 26
-74 4 -36 53 5 42 34 0
00000000: ccb8 f27f 1644 5cc3 f1ed f401 e7fd 2504
00000010: fbd7 1b10 1481 7f0a a807 2ee4 8181 2618
00000020: 0d1d 39ef e2f6 21fd f01c 914b 19b2 252e
00000030: ef33 e415 0ff7 1232 9fd1 c4f0 f601 0d2a
00000040: 41e9 4912 f113 157f 161b 1e00 f717 7fff
00000050: f10f e415 7f13 b4f0 fce1 eed6 01e9 ef1a
00000060: 7f83 456c d67f 2d89 4303 f27f 7f95 f411
00000070: 0d7f 7f8e 7fb4 5348 8194 bcdd c52f c5ec
00000080: a638 81af d8f1 cd3f 017f 7f56 cd84 8bcc
00000090: f181 2855 4fe0 2c58 cc2a ad94 d5d8 c343
000000a0: 45c5 1925 a822 ed57 767f 0b19 043f dc37
000000b0: 447f 7feb f949 8f7f 89a1 0481 a381 d86c
000000c0: b0ef 1bad 0fed 52f7 4dde e617 f2f5 f8fb
000000d0: fcf1 07f6 f18d 1d05 885b 05c7 7333 f108
000000e0: 0315 0de1 f822 150f 190c 833e 13eb 250e
000000f0: f207 ee05 fdff fd1a b604 dc35 052a 2200

model_1/block_5_expand/Conv2D i1 [96, 1, 1, 16]
-4 59 28 78 -8 48 -38 -33
18 13 -45 111 19 -101 10 -127
-7 107 22 -14 52 -14 127 -106
-1 118 -59 -32 3 -35 -18 66
-91 50 -78 -127 -27 -61 34 113
-36 75 95 -34 -62 73 99 21
-118 82 18 48 -74 -12 77 90
-23 38 -127 6 93 -42 -63 -36
15 -44 55 62 -51 73 -27 60
50 -42 22 35 83 -11 -127 -5
-6 -16 54 -27 30 11 -46 18
-46 51 -16 -127 17 11 -35 -26
12 29 47 -35 35 68 -53 -81
-38 38 52 -37 127 -57 -32 -69
11 13 127 12 -17 -46 -8 -34
-86 61 -97 -18 18 23 24 21
39 50 82 58 -35 65 -20 22
58 8 53 -61 -20 8 -87 -127
85 -126 101 90 54 -45 36 69
112 19 41 79 -22 -22 -127 -49
-62 -106 9 1 -53 10 -51 39
127 116 11 -37 -65 115 111 -7
9 17 2 -114 33 -44 -110 -127
-58 64 -16 -8 -12 -50 56 -70
-6 -19 -13 -90 -6 -58 -59 4
-49 -64 -33 38 -17 127 100 104
-1 -66 -18 9 -11 -20 -31 -47
38 -11 31 -26 32 21 127 4
-18 -71 47 13 21 2 11 127
29 43 29 -7 38 60 -25 108
25 -39 16 50 1 -7 127 -10
-17 -121 5 -47 6 -33 31 -34
00000000: fc3b 1c4e f830 dadf 120d d36f 139b 0a81
00000010: f96b 16f2 34f2 7f96 ff76 c5e0 03dd ee42
00000020: a532 b281 e5c3 2271 dc4b 5fde c249 6315
00000030: 8a52 1230 b6f4 4d5a e926 8106 5dd6 c1dc
00000040: 0fd4 373e cd49 e53c 32d6 1623 53f5 81fb
00000050: faf0 36e5 1e0b d212 d233 f081 110b dde6
00000060: 0c1d 2fdd 2344 cbaf da26 34db 7fc7 e0bb
00000070: 0b0d 7f0c efd2 f8de aa3d 9fee 1217 1815
00000080: 2732 523a dd41 ec16 3a08 35c3 ec08 a981
00000090: 5582 655a 36d3 2445 7013 294f eaea 81cf
000000a0: c296 0901 cb0a cd27 7f74 0bdb bf73 6ff9
000000b0: 0911 028e 21d4 9281 c640 f0f8 f4ce 38ba
000000c0: faed f3a6 fac6 c504 cfc0 df26 ef7f 6468
000000d0: ffbe ee09 f5ec e1d1 26f5 1fe6 2015 7f04
000000e0: eeb9 2f0d 1502 0b7f 1d2b 1df9 263c e76c
000000f0: 19d9 1032 01f9 7ff6 ef87 05d1 06df 1fde

model_1/block_4_project/Conv2D i1 [16, 1, 1, 96]
-5 32 -15 9 47 56 -44 -8
35 15 8 9 -6 12 20 72
14 -6 -12 -3 82 -34 4 -23
-24 -25 -32 -93 12 3 42 51
108 -11 0 8 -2 -4 -15 20
-25 4 28 -35 -7 -21 15 27
-22 24 13 -24 -47 -7 29 -11
39 20 3 -34 -65 28 -15 -3
-6 11 65 15 23 13 8 -26
-59 -17 -10 1 6 -78 28 -18
56 -17 -59 -55 33 -16 -2 14
5 -16 13 -32 28 21 12 127
45 -95 44 75 -6 -78 6 1
-39 -88 16 14 13 -49 -44 -57
-59 -2 -16 15 -42 -83 -46 36
127 -30 -53 12 -40 99 -3 22
-11 -12 -71 -6 -13 -1 34 11
25 -69 92 -9 -44 -2 33 6
30 12 -1 -29 48 -40 48 -43
-11 7 12 -84 17 -55 5 -48
-21 -49 4 25 27 43 -27 -15
-99 40 -19 59 44 80 39 1
59 34 -44 12 -68 77 -15 50
-21 -24 6 12 16 -40 32 11
14 61 23 -39 -8 -15 -19 71
52 -26 -9 53 3 -21 50 -27
-29 2 14 -11 -49 -29 15 -60
-3 -24 -16 46 -8 35 84 -63
21 -47 0 66 10 123 -45 12
17 -34 8 40 -36 -41 -43 10
57 55 -15 -46 40 31 -7 -40
-34 3 21 28 0 1 84 127
00000000: fb20 f109 2f38 d4f8 230f 0809 fa0c 1448
00000010: 0efa f4fd 52de 04e9 e8e7 e0a3 0c03 2a33
00000020: 6cf5 0008 fefc f114 e704 1cdd f9eb 0f1b
00000030: ea18 0de8 d1f9 1df5 2714 03de bf1c f1fd
00000040: fa0b 410f 170d 08e6 c5ef f601 06b2 1cee
00000050: 38ef c5c9 21f0 fe0e 05f0 0de0 1c15 0c7f
00000060: 2da1 2c4b fab2 0601 d9a8 100e 0dcf d4c7
00000070: c5fe f00f d6ad d224 7fe2 cb0c d863 fd16
00000080: f5f4 b9fa f3ff 220b 19bb 5cf7 d4fe 2106
00000090: 1e0c ffe3 30d8 30d5 f507 0cac 11c9 05d0
000000a0: ebcf 0419 1b2b e5f1 9d28 ed3b 2c50 2701
000000b0: 3b22 d40c bc4d f132 ebe8 060c 10d8 200b
000000c0: 0e3d 17d9 f8f1 ed47 34e6 f735 03eb 32e5
000000d0: e302 0ef5 cfe3 0fc4 fde8 f02e f823 54c1
000000e0: 15d1 0042 0a7b d30c 11de 0828 dcd7 d50a
000000f0: 3937 f1d2 281f f9d8 de03 151c 0001 547f

model_1/block_4_depthwise_BN/FusedBatchNormV3;model_1/block_4_depthwise/depthwise;model_1/block_6_expand/Conv2D i1 [1, 3, 3, 96]
-18 8 -21 109 -18 29 -63 -53
17 -6 103 -11 4 -9 -2 65
7 15 -35 5 76 0 31 -35
1 15 45 47 22 16 22 48
-4 30 9 -13 4 49 -57 -30
21 8 29 15 -80 -56 26 -6
-11 -19 -6 -9 48 6 -11 0
-4 -36 25 -29 27 -1 127 25
-11 -10 7 -54 64 37 7 -9
76 -39 71 4 18 -127 27 62
-2 17 127 -11 41 29 -34 -20
37 -2 -17 79 0 18 -3 14
-50 16 -9 12 49 -3 -9 -127
36 11 -127 -6 -18 -12 4 98
18 -33 -19 -16 81 -97 127 26
-61 -31 -105 -16 32 39 -51 15
118 15 -11 0 -25 127 -50 -127
8 -20 -28 12 48 -127 127 -46
-76 51 52 4 38 -62 32 54
35 42 -103 89 127 36 8 -19
45 -37 -103 -3 35 -30 -16 41
-49 -54 110 -5 -30 -59 -35 63
-67 63 -14 12 -11 48 51 -38
-25 57 -15 73 -127 -34 23 -127
-1 -1 -24 -75 7 25 40 23
-4 -3 4 57 -1 -11 -9 17
-14 14 -17 16 9 23 23 -31
-1 -31 11 11 -4 5 43 -82
46 21 9 -21 12 5 -33 -23
7 2 -15 7 25 -33 21 -1
7 -6 7 -8 5 6 -5 6
-11 42 6 2 12 -16 10 -16
00000000: ee08 eb6d ee1d c1cb 11fa 67f5 04f7 fe41
00000010: 070f dd05 4c00 1fdd 010f 2d2f 1610 1630
00000020: fc1e 09f3 0431 c7e2 1508 1d0f b0c8 1afa
00000030: f5ed faf7 3006 f500 fcdc 19e3 1bff 7f19
00000040: f5f6 07ca 4025 07f7 4cd9 4704 1281 1b3e
00000050: fe11 7ff5 291d deec 25fe ef4f 0012 fd0e
00000060: ce10 f70c 31fd f781 240b 81fa eef4 0462
00000070: 12df edf0 519f 7f1a c3e1 97f0 2027 cd0f
00000080: 760f f500 e77f ce81 08ec e40c 3081 7fd2
00000090: b433 3404 26c2 2036 232a 9959 7f24 08ed
000000a0: 2ddb 99fd 23e2 f029 cfca 6efb e2c5 dd3f
000000b0: bd3f f20c f530 33da e739 f149 81de 1781
000000c0: ffff e8b5 0719 2817 fcfd 0439 fff5 f711
000000d0: f20e ef10 0917 17e1 ffe1 0b0b fc05 2bae
000000e0: 2e15 09eb 0c05 dfe9 0702 f107 19df 15ff
000000f0: 07fa 07f8 0506 fb06 f52a 0602 0cf0 0af0

model_1/block_4_expand/Conv2D i1 [96, 1, 1, 16]
51 -13 68 111 50 -14 45 -45
127 -12 -77 -58 47 122 -34 -72
10 57 5 -21 77 0 12 7
28 55 21 127 19 -34 53 -69
58 -84 -14 44 -38 104 -78 82
-74 -115 2 101 22 -127 114 -121
99 127 4 29 -125 -8 -46 -25
-10 -3 97 -92 -51 72 -34 -30
-19 -15 44 11 -39 80 -11 67
-52 -41 4 -12 -5 -127 88 18
83 -49 -9 -7 -15 -127 -45 -15
-12 -12 -109 -20 -14 -22 21 29
-122 -10 11 67 -80 -19 -39 30
-100 -127 -42 -37 10 35 18 97
-16 4 -75 35 27 -127 -24 28
-9 -67 44 0 3 12 -20 10
16 -51 3 -41 -12 4 -58 -46
-43 -12 -59 -1 -127 4 12 40
16 -49 36 127 -4 89 3 -96
124 -88 17 -9 -1 43 -125 56
-94 -28 5 -31 127 74 72 60
111 -23 -90 52 63 -125 -111 44
66 6 -127 43 54 35 -34 52
-8 -42 -15 10 16 33 -65 6
107 -35 11 2 -24 -62 -44 -7
39 24 -127 8 -27 -1 -43 50
21 -39 31 -11 126 35 -85 -127
90 -92 16 -23 -37 7 86 -14
-59 26 -78 -69 70 -127 48 -51
46 44 3 -84 22 110 2 30
33 -7 107 34 51 -35 -13 -6
26 -72 -51 -30 -127 -46 -1 30
00000000: 33f3 446f 32f2 2dd3 7ff4 b3c6 2f7a deb8
00000010: 0a39 05eb 4d00 0c07 1c37 157f 13de 35bb
00000020: 3aac f22c da68 b252 b68d 0265 1681 7287
00000030: 637f 041d 83f8 d2e7 f6fd 61a4 cd48 dee2
00000040: edf1 2c0b d950 f543 ccd7 04f4 fb81 5812
00000050: 53cf f7f9 f181 d3f1 f4f4 93ec f2ea 151d
00000060: 86f6 0b43 b0ed d91e 9c81 d6db 0a23 1261
00000070: f004 b523 1b81 e81c f7bd 2c00 030c ec0a
00000080: 10cd 03d7 f404 c6d2 d5f4 c5ff 8104 0c28
00000090: 10cf 247f fc59 03a0 7ca8 11f7 ff2b 8338
000000a0: a2e4 05e1 7f4a 483c 6fe9 a634 3f83 912c
000000b0: 4206 812b 3623 de34 f8d6 f10a 1021 bf06
000000c0: 6bdd 0b02 e8c2 d4f9 2718 8108 e5ff d532
000000d0: 15d9 1ff5 7e23 ab81 5aa4 10e9 db07 56f2
000000e0: c51a b2bb 4681 30cd 2e2c 03ac 166e 021e
000000f0: 21f9 6b22 33dd f3fa 1ab8 cde2 81d2 ff1e

model_1/block_3_project/Conv2D i1 [16, 1, 1, 48]
-27 20 -26 8 10 7 9 119
-60 29 25 -8 16 -7 -17 17
18 -12 -12 -15 71 -12 18 127
-24 98 10 -7 18 -26 22 -35
-12 50 16 -52 21 38 33 -10
-112 -14 12 31 33 26 -126 -55
-25 -11 12 10 -38 14 0 57
-43 -38 11 -43 -34 -14 -4 0
-21 105 -9 32 9 19 -32 -16
23 -33 8 23 -33 -75 -37 15
-11 -16 42 1 8 -34 6 10
-29 -25 127 5 18 2 27 -2
-24 -12 -15 -27 -3 -65 0 -24
12 9 18 28 14 17 -10 3
2 -20 -26 -18 -8 -4 -3 -127
-8 75 -11 4 1 -22 -1 -5
-4 51 13 4 25 3 28 4
-37 9 -19 -11 -11 -13 24 2
-3 44 -4 -32 -5 5 9 -6
-20 3 -8 39 -127 15 -4 6
0 17 -13 -5 -27 3 9 12
-11 -5 7 30 -8 15 8 8
8 -1 11 27 -14 30 44 12
9 7 22 -37 11 -7 0 16
31 -25 6 7 21 24 20 -16
-26 9 0 -18 -5 16 -3 10
10 -13 -73 12 -5 8 6 71
-5 -19 10 45 7 -63 12 7
21 -37 37 -127 14 35 4 13
-23 15 12 -24 -13 -15 6 8
35 4 -16 60 13 -13 9 25
-7 9 31 10 7 57 8 8
00000000: e514 e608 0a07 0977 c41d 19f8 10f9 ef11
00000010: 12f4 f4f1 47f4 127f e862 0af9 12e6 16dd
00000020: f432 10cc 1526 21f6 90f2 0c1f 211a 82c9
00000030: e7f5 0c0a da0e 0039 d5da 0bd5 def2 fc00
00000040: eb69 f720 0913 e0f0 17df 0817 dfb5 db0f
00000050: f5f0 2a01 08de 060a e3e7 7f05 1202 1bfe
00000060: e8f4 f1e5 fdbf 00e8 0c09 121c 0e11 f603
00000070: 02ec e6ee f8fc fd81 f84b f504 01ea fffb
00000080: fc33 0d04 1903 1c04 db09 edf5 f5f3 1802
00000090: fd2c fce0 fb05 09fa ec03 f827 810f fc06
000000a0: 0011 f3fb e503 090c f5fb 071e f80f 0808
000000b0: 08ff 0b1b f21e 2c0c 0907 16db 0bf9 0010
000000c0: 1fe7 0607 1518 14f0 e609 00ee fb10 fd0a
000000d0: 0af3 b70c fb08 0647 fbed 0a2d 07c1 0c07
000000e0: 15db 2581 0e23 040d e90f 0ce8 f3f1 0608
000000f0: 2304 f03c 0df3 0919 f909 1f0a 0739 0808

model_1/block_3_depthwise_BN/FusedBatchNormV3;model_1/block_3_depthwise/depthwise i1 [1, 3, 3, 48]
72 -92 95 72 53 -34 105 -67
58 -92 -83 49 51 -43 -72 -90
103 82 52 80 67 -71 -82 54
-31 -40 -65 -65 -67 63 -62 -111
-17 40 71 65 -64 55 -51 -23
52 -75 61 63 -95 11 78 -34
83 -91 127 84 -80 -69 -60 -83
96 -103 -65 75 80 -111 -96 92
-40 97 83 127 83 -111 52 71
-51 -78 -67 -80 57 80 -28 -127
-86 78 82 83 -83 83 -83 -16
76 -98 84 91 -72 -127 92 -98
36 -45 68 38 17 -41 -48 -40
41 -35 3 35 31 -79 -55 -4
-55 37 36 74 34 -52 28 27
-28 -46 -46 -24 34 32 89 -87
-81 44 35 35 -31 41 -38 -11
42 -44 36 44 -7 -10 38 -72
94 -115 -43 91 56 -82 127 -88
88 -114 -71 81 83 -110 -15 -127
127 111 77 -38 85 109 -127 72
72 -77 -96 -100 -127 88 -67 -9
-88 72 106 95 -88 78 -81 88
83 -103 88 94 -86 105 93 -92
127 -127 -65 127 -127 -127 -91 -127
127 -127 -127 127 127 -127 -23 98
-67 127 127 -53 127 127 70 127
127 -127 -127 -127 53 127 -29 14
-127 127 127 127 -127 127 -127 127
127 -127 127 127 -127 -12 127 -127
63 -79 -34 69 39 -62 -46 -62
55 -50 -62 58 50 -55 -16 9
00000000: 48a4 5f48 35de 69bd 3aa4 ad31 33d5 b8a6
00000010: 6752 3450 43b9 ae36 e1d8 bfbf bd3f c291
00000020: ef28 4741 c037 cde9 34b5 3d3f a10b 4ede
00000030: 53a5 7f54 b0bb c4ad 6099 bf4b 5091 a05c
00000040: d861 537f 5391 3447 cdb2 bdb0 3950 e481
00000050: aa4e 5253 ad53 adf0 4c9e 545b b881 5c9e
00000060: 24d3 4426 11d7 d0d8 29dd 0323 1fb1 c9fc
00000070: c925 244a 22cc 1c1b e4d2 d2e8 2220 59a9
00000080: af2c 2323 e129 daf5 2ad4 242c f9f6 26b8
00000090: 5e8d d55b 38ae 7fa8 588e b951 5392 f181
000000a0: 7f6f 4dda 556d 8148 48b3 a09c 8158 bdf7
000000b0: a848 6a5f a84e af58 5399 585e aa69 5da4
000000c0: 7f81 bf7f 8181 a581 7f81 817f 7f81 e962
000000d0: bd7f 7fcb 7f7f 467f 7f81 8181 357f e30e
000000e0: 817f 7f7f 817f 817f 7f81 7f7f 81f4 7f81
000000f0: 3fb1 de45 27c2 d2c2 37ce c23a 32c9 f009

model_1/block_3_expand/Conv2D i1 [48, 1, 1, 8]
-127 0 3 63 -36 40 30 -29
33 51 27 12 14 -26 83 127
-37 -13 -1 0 -127 -1 11 5
91 -7 10 -127 -127 27 26 -32
-127 88 -10 -29 100 -45 42 17
-83 -19 3 -7 -127 13 15 85
-33 -127 33 -22 29 -7 5 51
-76 -11 5 103 127 -31 -38 11
70 21 18 -127 5 -18 -33 -53
-7 -127 1 -13 9 89 -45 106
-76 0 5 21 -127 77 59 -25
102 13 37 4 -46 -38 -32 -127
-1 10 55 -16 13 -85 127 67
73 -45 -8 -25 127 103 114 -12
127 34 -24 -1 -92 30 -45 -3
-11 -127 19 -13 1 9 15 39
-42 -18 10 10 -127 -8 5 4
-19 106 -127 7 -13 -121 93 -94
127 -26 -57 14 -63 31 23 119
127 -47 -38 -10 55 -23 26 21
127 27 -15 120 7 39 8 -52
4 48 -53 0 -51 105 -127 -89
-127 6 14 -22 -15 24 -54 -25
-36 -59 13 23 -127 60 69 -21
127 -12 -22 15 -45 -11 -4 13
15 -12 11 -17 127 54 47 -34
0 -99 34 -36 6 -127 72 -40
-17 -127 25 -14 -4 -53 29 -12
-123 62 18 -15 -5 3 127 67
2 46 5 20 -12 37 -88 -127
116 -21 1 31 -127 -1 -50 -32
2 -34 73 -25 71 -125 127 97
00000000: 8100 033f dc28 1ee3 2133 1b0c 0ee6 537f
00000010: dbf3 ff00 81ff 0b05 5bf9 0a81 811b 1ae0
00000020: 8158 f6e3 64d3 2a11 aded 03f9 810d 0f55
00000030: df81 21ea 1df9 0533 b4f5 0567 7fe1 da0b
00000040: 4615 1281 05ee dfcb f981 01f3 0959 d36a
00000050: b400 0515 814d 3be7 660d 2504 d2da e081
00000060: ff0a 37f0 0dab 7f43 49d3 f8e7 7f67 72f4
00000070: 7f22 e8ff a41e d3fd f581 13f3 0109 0f27
00000080: d6ee 0a0a 81f8 0504 ed6a 8107 f387 5da2
00000090: 7fe6 c70e c11f 1777 7fd1 daf6 37e9 1a15
000000a0: 7f1b f178 0727 08cc 0430 cb00 cd69 81a7
000000b0: 8106 0eea f118 cae7 dcc5 0d17 813c 45eb
000000c0: 7ff4 ea0f d3f5 fc0d 0ff4 0bef 7f36 2fde
000000d0: 009d 22dc 0681 48d8 ef81 19f2 fccb 1df4
000000e0: 853e 12f1 fb03 7f43 022e 0514 f425 a881
000000f0: 74eb 011f 81ff cee0 02de 49e7 4783 7f61

model_1/block_2_project/Conv2D i1 [8, 1, 1, 48]
-83 -17 -50 31 12 -20 -10 7
-109 107 -63 126 105 30 97 -17
-1 -38 2 18 11 -12 -31 -46
32 -116 7 71 -8 14 8 -28
-7 -61 127 17 2 -24 -7 -8
114 -13 66 -57 -29 35 -9 -11
7 28 127 -2 -5 -22 -4 -73
35 8 20 6 -31 -2 -3 -124
18 -72 10 3 -37 42 12 -27
-25 -17 9 -2 0 -14 20 -3
-2 11 6 13 1 -29 78 -72
7 47 -13 24 -14 9 24 -16
-1 -50 18 -40 31 22 -9 -35
-1 4 0 16 -1 57 6 -7
-57 127 -25 -28 -17 22 -42 -2
122 3 2 -7 -36 -10 1 -45
-8 -12 0 12 -7 3 -10 6
14 -12 -19 -1 -2 34 -29 -42
4 -87 -1 5 5 -11 -11 0
-13 -12 13 25 13 -15 55 -4
0 -25 3 26 -7 31 -21 0
7 47 -4 4 -8 1 127 -1
11 10 -6 -2 -21 -21 -11 6
-8 9 -11 26 1 -7 -2 29
-117 6 -7 3 0 -53 -1 17
50 -58 28 -27 -43 -2 -12 4
1 9 2 39 26 -39 15 11
-7 65 24 127 7 8 -9 -44
0 -126 -29 17 13 -6 -19 -11
-67 -13 -14 22 -66 6 8 5
-30 21 9 0 -36 22 -5 53
24 -1 -5 18 -13 -42 11 19
00000000: adef ce1f 0cec f607 936b c17e 691e 61ef
00000010: ffda 0212 0bf4 e1d2 208c 0747 f80e 08e4
00000020: f9c3 7f11 02e8 f9f8 72f3 42c7 e323 f7f5
00000030: 071c 7ffe fbea fcb7 2308 1406 e1fe fd84
00000040: 12b8 0a03 db2a 0ce5 e7ef 09fe 00f2 14fd
00000050: fe0b 060d 01e3 4eb8 072f f318 f209 18f0
00000060: ffce 12d8 1f16 f7dd ff04 0010 ff39 06f9
00000070: c77f e7e4 ef16 d6fe 7a03 02f9 dcf6 01d3
00000080: f8f4 000c f903 f606 0ef4 edff fe22 e3d6
00000090: 04a9 ff05 05f5 f500 f3f4 0d19 0df1 37fc
000000a0: 00e7 031a f91f eb00 072f fc04 f801 7fff
000000b0: 0b0a fafe ebeb f506 f809 f51a 01f9 fe1d
000000c0: 8b06 f903 00cb ff11 32c6 1ce5 d5fe f404
000000d0: 0109 0227 1ad9 0f0b f941 187f 0708 f7d4
000000e0: 0082 e311 0dfa edf5 bdf3 f216 be06 0805
000000f0: e215 0900 dc16 fb35 18ff fb12 f3d6 0b13

model_1/block_2_depthwise_BN/FusedBatchNormV3;model_1/block_2_depthwise/depthwise;model_1/block_3_depthwise/depthwise i1 [1, 3, 3, 48]
4 -3 19 112 4 80 -2 26
15 7 10 8 -7 -9 -45 8
-2 8 -20 -117 -6 -22 127 -8
-2 4 -6 8 -7 3 16 100
21 28 39 -28 1 33 -3 4
18 -70 -8 -7 18 0 -7 -10
127 10 14 -127 28 86 10 9
123 127 7 43 -50 -25 6 7
127 -56 -56 -58 -102 27 -109 16
16 68 -32 -86 21 20 11 -125
5 -60 127 11 -40 -47 -8 117
-78 -99 -32 3 -33 -9 -127 23
-31 -3 7 15 -1 63 4 16
29 8 -14 32 -15 -4 16 4
-101 28 -1 77 -32 -10 -17 -6
-4 -60 -4 29 -17 5 4 -21
7 -23 16 -18 -1 47 39 -13
50 38 -18 12 -42 1 -3 -4
126 7 0 -101 13 -28 33 -17
9 9 -12 54 -6 0 18 -33
1 -49 -58 -86 11 -75 -125 -16
6 97 -15 -127 -10 31 12 -108
17 -54 -3 127 -3 55 -41 44
-61 -127 39 -87 -44 -14 -12 -5
28 -127 -127 116 -127 -127 -127 -127
-127 -97 127 -127 127 127 36 -127
-81 127 127 -105 127 127 112 127
127 -127 -127 30 -127 -127 94 127
-127 127 -30 -42 127 -127 127 127
127 -79 127 127 127 -120 101 106
56 5 48 -14 5 -61 42 17
-23 14 -105 -8 0 -40 127 5
00000000: 04fd 1370 0450 fe1a 0f07 0a08 f9f7 d308
00000010: fe08 ec8b faea 7ff8 fe04 fa08 f903 1064
00000020: 151c 27e4 0121 fd04 12ba f8f9 1200 f9f6
00000030: 7f0a 0e81 1c56 0a09 7b7f 072b cee7 0607
00000040: 7fc8 c8c6 9a1b 9310 1044 e0aa 1514 0b83
00000050: 05c4 7f0b d8d1 f875 b29d e003 dff7 8117
00000060: e1fd 070f ff3f 0410 1d08 f220 f1fc 1004
00000070: 9b1c ff4d e0f6 effa fcc4 fc1d ef05 04eb
00000080: 07e9 10ee ff2f 27f3 3226 ee0c d601 fdfc
00000090: 7e07 009b 0de4 21ef 0909 f436 fa00 12df
000000a0: 01cf c6aa 0bb5 83f0 0661 f181 f61f 0c94
000000b0: 11ca fd7f fd37 d72c c381 27a9 d4f2 f4fb
000000c0: 1c81 8174 8181 8181 819f 7f81 7f7f 2481
000000d0: af7f 7f97 7f7f 707f 7f81 811e 8181 5e7f
000000e0: 817f e2d6 7f81 7f7f 7fb1 7f7f 7f88 656a
000000f0: 3805 30f2 05c3 2a11 e90e 97f8 00d8 7f05

model_1/block_2_expand/Conv2D i1 [48, 1, 1, 8]
75 29 -1 4 127 4 -44 -9
-5 8 5 127 22 1 7 2
44 -127 -18 51 2 -89 101 13
127 -47 -16 4 -32 -48 31 31
1 -45 127 -19 -5 -65 25 -103
86 -4 -6 -4 127 10 -20 6
-7 95 -22 127 23 31 -67 -37
-13 127 3 6 -6 6 4 -12
127 69 -6 1 -55 -20 3 -44
-127 16 14 49 60 12 -9 7
-64 10 11 127 40 0 -7 10
-127 6 10 -84 45 18 -58 -57
127 28 -2 8 -22 0 -9 -57
6 60 -127 4 -1 93 -62 62
-61 -17 3 127 21 -10 1 -8
-8 127 -1 -2 4 -20 15 -47
-2 -127 -14 -16 -28 -90 102 0
27 127 -6 -15 8 77 -100 -18
-11 41 -127 -13 5 37 -20 58
-61 4 -3 24 -127 2 35 24
-127 9 3 -8 69 -35 23 -26
-57 -8 6 9 -127 4 7 -7
-127 -15 1 -20 90 4 42 26
-11 -25 -7 -9 9 77 -127 -89
-12 31 -127 4 13 52 -24 87
80 -44 -1 127 -49 -7 -15 -46
-1 -17 2 -2 -20 118 127 -32
60 -12 -3 17 127 21 36 -14
-6 127 -44 4 17 66 -34 116
-3 15 -6 -5 5 78 -127 -90
1 -1 -3 -127 -3 -11 0 -11
-75 4 -5 -4 -127 13 24 -18
00000000: 4b1d ff04 7f04 d4f7 fb08 057f 1601 0702
00000010: 2c81 ee33 02a7 650d 7fd1 f004 e0d0 1f1f
00000020: 01d3 7fed fbbf 1999 56fc fafc 7f0a ec06
00000030: f95f ea7f 171f bddb f37f 0306 fa06 04f4
00000040: 7f45 fa01 c9ec 03d4 8110 0e31 3c0c f707
00000050: c00a 0b7f 2800 f90a 8106 0aac 2d12 c6c7
00000060: 7f1c fe08 ea00 f7c7 063c 8104 ff5d c23e
00000070: c3ef 037f 15f6 01f8 f87f fffe 04ec 0fd1
00000080: fe81 f2f0 e4a6 6600 1b7f faf1 084d 9cee
00000090: f529 81f3 0525 ec3a c304 fd18 8102 2318
000000a0: 8109 03f8 45dd 17e6 c7f8 0609 8104 07f9
000000b0: 81f1 01ec 5a04 2a1a f5e7 f9f7 094d 81a7
000000c0: f41f 8104 0d34 e857 50d4 ff7f cff9 f1d2
000000d0: ffef 02fe ec76 7fe0 3cf4 fd11 7f15 24f2
000000e0: fa7f d404 1142 de74 fd0f fafb 054e 81a6
000000f0: 01ff fd81 fdf5 00f5 b504 fbfc 810d 18ee

model_1/block_1_project/Conv2D i1 [8, 1, 1, 48]
-8 -1 11 -92 7 30 11 7
3 4 1 4 98 0 2 -1
0 -11 -4 0 81 -4 -3 1
29 40 11 6 1 5 5 -127
9 1 -2 2 -26 9 -10 31
12 -26 -5 0 5 -5 6 4
-45 -7 -2 -7 48 34 -38 86
20 11 -27 -26 8 0 19 40
0 49 22 -49 -1 23 127 20
-26 0 63 10 26 1 18 -16
12 -8 -10 -16 -3 -57 11 4
-4 -9 -94 -9 -43 8 -53 -101
-61 21 6 16 38 -2 29 37
-11 55 4 4 2 0 7 53
0 24 -127 24 -3 14 7 -9
-37 3 41 2 11 27 17 5
3 -17 -8 -11 12 1 8 4
40 -4 -33 4 25 -54 21 10
-1 0 4 5 -5 28 0 -2
61 14 0 3 25 0 -30 -8
0 -2 -13 -4 -1 3 6 -16
-7 2 -5 -17 -7 -8 -2 -6
-41 38 -56 -2 6 2 13 -127
0 0 -4 -47 -2 -1 2 5
-4 -5 81 37 5 -20 1 -1
7 -5 1 -14 -88 0 -13 3
0 7 4 4 65 7 7 -3
-17 33 -3 66 -13 -2 -6 103
8 7 2 -7 10 -17 -12 -18
-3 -127 1 1 -1 0 -6 -4
-9 51 1 -6 3 44 26 14
-22 36 7 59 25 0 -127 -5
00000000: f8ff 0ba4 071e 0b07 0304 0104 6200 02ff
00000010: 00f5 fc00 51fc fd01 1d28 0b06 0105 0581
00000020: 0901 fe02 e609 f61f 0ce6 fb00 05fb 0604
00000030: d3f9 fef9 3022 da56 140b e5e6 0800 1328
00000040: 0031 16cf ff17 7f14 e600 3f0a 1a01 12f0
00000050: 0cf8 f6f0 fdc7 0b04 fcf7 a2f7 d508 cb9b
00000060: c315 0610 26fe 1d25 f537 0404 0200 0735
00000070: 0018 8118 fd0e 07f7 db03 2902 0b1b 1105
00000080: 03ef f8f5 0c01 0804 28fc df04 19ca 150a
00000090: ff00 0405 fb1c 00fe 3d0e 0003 1900 e2f8
000000a0: 00fe f3fc ff03 06f0 f902 fbef f9f8 fefa
000000b0: d726 c8fe 0602 0d81 0000 fcd1 feff 0205
000000c0: fcfb 5125 05ec 01ff 07fb 01f2 a800 f303
000000d0: 0007 0404 4107 07fd ef21 fd42 f3fe fa67
000000e0: 0807 02f9 0aef f4ee fd81 0101 ff00 fafc
000000f0: f733 01fa 032c 1a0e ea24 073b 1900 81fb

model_1/block_1_depthwise_BN/FusedBatchNormV3;model_1/block_1_depthwise/depthwise;model_1/block_3_depthwise/depthwise i1 [1, 3, 3, 48]
-41 -24 -7 -16 7 -39 -79 -71
-26 -51 9 63 35 -71 114 -41
-113 -85 37 -4 -2 -72 -110 -80
-35 -122 -64 -24 68 15 96 26
-127 -92 -5 56 16 46 -127 81
-76 -14 107 -110 -4 -37 -87 105
76 12 -29 -29 58 -127 -127 -81
60 -76 -113 107 38 -82 -1 61
-52 -115 59 9 10 -111 -127 -71
-4 -127 -120 -44 -55 21 -57 54
29 -127 64 86 11 72 -91 127
-127 7 126 -127 0 -25 -126 91
-32 46 7 -5 -64 -108 -58 -17
88 -7 -127 38 9 -71 -101 -11
-127 -25 26 11 -17 -75 -36 -25
-10 -27 -58 -11 -12 18 -24 9
109 -90 70 29 13 35 -4 18
-79 3 4 -82 -19 4 -55 13
-86 -127 -45 -42 -10 55 98 -106
-24 -111 -21 109 90 -64 25 -96
-121 -94 89 -77 41 -88 -102 -127
42 -117 -76 -40 127 -59 127 83
-42 -86 -13 82 -36 -77 -111 91
41 60 108 -110 -92 -118 83 119
127 -83 -127 -127 127 41 93 -127
103 -127 -110 127 127 -14 -7 127
-60 -127 127 -127 127 -127 -119 -119
127 -98 -127 -127 -117 -127 -71 127
29 -113 127 127 -68 -127 -99 90
60 127 127 -119 -115 -127 127 127
-53 31 -60 -84 -120 -23 30 -38
127 -20 -75 35 57 -70 -26 -44
00000000: d7e8 f9f0 07d9 b1b9 e6cd 093f 23b9 72d7
00000010: 8fab 25fc feb8 92b0 dd86 c0e8 440f 601a
00000020: 81a4 fb38 102e 8151 b4f2 6b92 fcdb a969
00000030: 4c0c e3e3 3a81 81af 3cb4 8f6b 26ae ff3d
00000040: cc8d 3b09 0a91 81b9 fc81 88d4 c915 c736
00000050: 1d81 4056 0b48 a57f 8107 7e81 00e7 825b
00000060: e02e 07fb c094 c6ef 58f9 8126 09b9 9bf5
00000070: 81e7 1a0b efb5 dce7 f6e5 c6f5 f412 e809
00000080: 6da6 461d 0d23 fc12 b103 04ae ed04 c90d
00000090: aa81 d3d6 f637 6296 e891 eb6d 5ac0 19a0
000000a0: 87a2 59b3 29a8 9a81 2a8b b4d8 7fc5 7f53
000000b0: d6aa f352 dcb3 915b 293c 6c92 a48a 5377
000000c0: 7fad 8181 7f29 5d81 6781 927f 7ff2 f97f
000000d0: c481 7f81 7f81 8989 7f9e 8181 8b81 b97f
000000e0: 1d8f 7f7f bc81 9d5a 3c7f 7f89 8d81 7f7f
000000f0: cb1f c4ac 88e9 1eda 7fec b523 39ba e6d4

model_1/block_1_expand/Conv2D i1 [48, 1, 1, 8]
18 -127 53 -49 27 -17 -50 21
85 88 -18 -102 3 -16 -90 127
34 -1 -50 127 50 127 53 95
70 62 -87 127 -96 -7 -7 14
-39 -124 80 8 12 39 -51 -127
15 12 -41 43 -1 -35 38 127
66 -51 -127 -119 127 20 61 -33
127 18 17 -26 32 -8 79 -58
7 -92 15 117 4 27 -4 -127
118 -120 19 8 -10 14 -127 101
-127 -35 -105 12 -5 5 -91 37
-27 -44 -5 -101 -127 -19 49 -12
15 3 -40 70 -93 -26 60 127
0 0 0 0 0 0 0 0
-4 -35 -7 13 51 127 38 47
39 8 20 -127 68 39 -55 73
0 0 0 0 0 0 0 0
16 31 127 23 -24 3 19 29
88 -127 26 34 -14 2 -115 -12
-127 -27 37 75 -46 -72 -113 79
31 25 -42 110 -33 -127 -7 59
58 19 127 19 -11 -14 64 12
-71 -12 -127 6 5 14 -91 9
-100 116 -22 -14 8 -19 127 -76
12 -51 -50 88 -5 -71 91 127
5 38 39 33 117 127 -68 -49
-77 -28 -127 4 6 12 -96 0
-4 -36 -18 -1 -39 127 48 37
5 -16 -18 36 36 127 51 55
71 35 127 0 -29 -8 73 -29
-86 127 -25 -36 18 -11 99 -50
-34 -102 -27 -1 34 -60 127 100
00000000: 1281 35cf 1bef ce15 5558 ee9a 03f0 a67f
00000010: 22ff ce7f 327f 355f 463e a97f a0f9 f90e
00000020: d984 5008 0c27 cd81 0f0c d72b ffdd 267f
00000030: 42cd 8189 7f14 3ddf 7f12 11e6 20f8 4fc6
00000040: 07a4 0f75 041b fc81 7688 1308 f60e 8165
00000050: 81dd 970c fb05 a525 e5d4 fb9b 81ed 31f4
00000060: 0f03 d846 a3e6 3c7f 0000 0000 0000 0000
00000070: fcdd f90d 337f 262f 2708 1481 4427 c949
00000080: 0000 0000 0000 0000 101f 7f17 e803 131d
00000090: 5881 1a22 f202 8df4 81e5 254b d2b8 8f4f
000000a0: 1f19 d66e df81 f93b 3a13 7f13 f5f2 400c
000000b0: b9f4 8106 050e a509 9c74 eaf2 08ed 7fb4
000000c0: 0ccd ce58 fbb9 5b7f 0526 2721 757f bccf
000000d0: b3e4 8104 060c a000 fcdc eeff d97f 3025
000000e0: 05f0 ee24 247f 3337 4723 7f00 e3f8 49e3
000000f0: aa7f e7dc 12f5 63ce de9a e5ff 22c4 7f64

model_1/expanded_conv_project/Conv2D i1 [8, 1, 1, 16]
0 -22 1 -3 127 -7 -1 -6
-1 -121 -91 -6 0 120 -9 0
0 -26 5 86 74 11 24 6
1 -5 127 -41 0 26 -13 0
0 3 1 -11 -54 7 12 -1
-1 7 -18 1 0 127 -6 0
0 -16 -15 -127 82 20 63 12
-2 62 -1 44 0 -4 13 0
0 54 -20 39 -58 30 127 3
1 -62 18 -6 0 -7 11 0
0 -11 -10 0 -22 -24 -13 10
-1 11 -6 -45 0 -4 127 0
0 14 -1 2 49 -22 -28 -7
-1 -116 114 69 0 127 65 0
0 9 -20 127 11 -1 17 9
0 67 -56 74 0 -9 42 0
00000000: 00ea 01fd 7ff9 fffa ff87 a5fa 0078 f700
00000010: 00e6 0556 4a0b 1806 01fb 7fd7 001a f300
00000020: 0003 01f5 ca07 0cff ff07 ee01 007f fa00
00000030: 00f0 f181 5214 3f0c fe3e ff2c 00fc 0d00
00000040: 0036 ec27 c61e 7f03 01c2 12fa 00f9 0b00
00000050: 00f5 f600 eae8 f30a ff0b fad3 00fc 7f00
00000060: 000e ff02 31ea e4f9 ff8c 7245 007f 4100
00000070: 0009 ec7f 0bff 1109 0043 c84a 00f7 2a00

model_1/expanded_conv_depthwise_BN/FusedBatchNormV3;model_1/expanded_conv_depthwise/depthwise;model_1/block_5_project/Conv2D i1 [1, 3, 3, 16]
-108 18 -82 -126 39 -68 80 -76
-90 -3 -8 29 -127 5 54 -73
51 25 -127 127 127 -127 127 -127
-85 127 -127 51 -105 5 127 -25
24 -24 93 -2 -73 65 -93 77
-95 -28 4 -16 61 1 -101 -29
-127 127 -22 13 -44 13 -28 14
-28 0 3 -109 -49 9 -29 -14
-78 -41 -57 -15 -8 -28 9 -27
-108 -89 21 -12 -104 -127 1 23
14 1 66 2 2 31 -24 33
-127 6 -2 1 -21 12 -3 43
-115 -72 70 2 -6 35 -38 52
-76 0 0 4 40 1 -26 23
23 -4 32 -2 -27 37 -33 20
-125 -13 0 84 -58 -1 -28 -111
21 -7 20 0 4 12 10 22
-115 4 -1 -127 107 2 17 -127
00000000: 9412 ae82 27bc 50b4 a6fd f81d 8105 36b7
00000010: 3319 817f 7f81 7f81 ab7f 8133 9705 7fe7
00000020: 18e8 5dfe b741 a34d a1e4 04f0 3d01 9be3
00000030: 817f ea0d d40d e40e e400 0393 cf09 e3f2
00000040: b2d7 c7f1 f8e4 09e5 94a7 15f4 9881 0117
00000050: 0e01 4202 021f e821 8106 fe01 eb0c fd2b
00000060: 8db8 4602 fa23 da34 b400 0004 2801 e617
00000070: 17fc 20fe e525 df14 83f3 0054 c6ff e491
00000080: 15f9 1400 040c 0a16 8d04 ff81 6b02 1181

model_1/Conv1/Conv2D i1 [16, 3, 3, 3]
0 0 0 0 0 0 0 0
0 0 0 0 0 0 0 0
0 0 0 0 0 0 0 0
0 0 0 38 -15 40 -15 -33
37 -127 -117 -25 -13 -21 3 -41
-15 4 -7 -43 33 -19 1 0
-23 -11 0 32 -31 27 33 -14
-12 66 114 -8 46 -49 6 22
8 -5 70 127 -41 25 -10 -12
77 -72 25 95 -56 -31 43 -66
12 10 31 -7 36 94 11 -1
2 -11 25 38 -3 67 127 14
-20 -27 -6 15 12 6 31 31
6 -4 -8 -3 24 73 -13 10
86 -7 -18 8 -4 19 86 50
15 122 38 26 56 -8 51 85
44 40 127 24 -25 24 22 4
2 -121 -6 3 -100 -4 31 -22
5 -36 -127 -3 -43 -119 -5 8
-29 1 14 -14 5 1 -10 3
13 -11 25 -61 38 48 -85 43
10 -19 11 35 -96 63 63 -127
73 7 -28 18 21 -33 14 14
-44 26 -13 6 -1 -35 10 1
-108 -44 -1 -21 22 0 -21 -17
-4 -127 -97 -7 -7 -8 1 -24
27 -9 -11 11 2 -18 26 -2
124 123 127 121 117 119 111 76
55 122 119 116 119 113 108 109
75 55 121 118 117 118 109 106
105 71 54 -16 9 20 -11 3
9 -4 4 -12 107 125 -8 73
00000000: 0000 0000 0000 0000 0000 0000 0000 0000
00000010: 0000 0000 0000 0000 0000 0026 f128 f1df
00000020: 2581 8be7 f3eb 03d7 f104 f9d5 21ed 0100
00000030: e9f5 0020 e11b 21f2 f442 72f8 2ecf 0616
00000040: 08fb 467f d719 f6f4 4db8 195f c8e1 2bbe
00000050: 0c0a 1ff9 245e 0bff 02f5 1926 fd43 7f0e
00000060: ece5 fa0f 0c06 1f1f 06fc f8fd 1849 f30a
00000070: 56f9 ee08 fc13 5632 0f7a 261a 38f8 3355
00000080: 2c28 7f18 e718 1604 0287 fa03 9cfc 1fea
00000090: 05dc 81fd d589 fb08 e301 0ef2 0501 f603
000000a0: 0df5 19c3 2630 ab2b 0aed 0b23 a03f 3f81
000000b0: 4907 e412 15df 0e0e d41a f306 ffdd 0a01
000000c0: 94d4 ffeb 1600 ebef fc81 9ff9 f9f8 01e8
000000d0: 1bf7 f50b 02ee 1afe 7c7b 7f79 7577 6f4c
000000e0: 377a 7774 7771 6c6d 4b37 7976 7576 6d6a
000000f0: 6947 36f0 0914 f503 09fc 04f4 6b7d f849
