src/lib/libtf/models/ei-human-detection-1-object-detection-tensorflow-lite-float32-model.lite (tflite, 84980 bytes, 42 tensors)

model_1/bn_Conv1/FusedBatchNormV3 f4 [16]
0	0xbfb412b2	-1.4068205
1	0x408b461d	4.3523088
2	0xc1974046	-18.906384
3	0x3ef6bce8	0.48191
4	0x403ad02a	2.9189553
5	0x40a8a370	5.269951
6	0x404eb5df	3.2298505
7	0x4091b112	4.552865
8	0xbf9ff04e	-1.249521
9	0x3fad663c	1.3546824
10	0x403e8609	2.9769309
11	0x40bbc8e6	5.8682737
12	0xbf9e8538	-1.2384405
13	0x407976f6	3.8978858
14	0x4022e649	2.5453055
15	0xbe08b5e3	-0.13350634

model_1/expanded_conv_depthwise_BN/FusedBatchNormV3 f4 [16]
0	0xbe9a29c6	-0.30109996
1	0x40290973	2.6412017
2	0x407f7d94	3.9920397
3	0x405fa950	3.494709
4	0x3ff0f822	1.8825724
5	0x4053e1d0	3.3106575
6	0x40978498	4.7349358
7	0x4078fcf6	3.8904395
8	0xbe645280	-0.22297096
9	0x3fea25e5	1.8292814
10	0x40b9f582	5.811219
11	0x4124d688	10.302376
12	0xbea5de69	-0.32396248
13	0x40c91a26	6.284442
14	0x3fff1bd9	1.9930373
15	0xbed5362b	-0.4164289

model_1/block_1_expand_BN/FusedBatchNormV3 f4 [48]
0	0x4004da9e	2.0758433
1	0x3d0e6841	0.034767393
2	0x40498c44	3.1491861
3	0x3ff2d87e	1.8972318
4	0x40004ba6	2.0046172
5	0x400449a3	2.0669944
6	0x4075c214	3.8399706
7	0xbd008525	-0.031376977
8	0x3b0e2846	0.0021691485
9	0xbf47b7b3	-0.7801468
10	0x3fbc9ce4	1.4735379
11	0x3f66065c	0.89853454
12	0x400f17d9	2.2358305
13	0xbe261379	-0.16218366
14	0x40292f44	2.6435099
15	0x40530072	3.2969022
16	0xbe0610b2	-0.13092306
17	0xbf34ff54	-0.707021
18	0xbe5fc187	-0.21851169
19	0x407612c7	3.844896
20	0x3f8b9c4f	1.0907077
21	0xbd80498a	-0.062640265
22	0xb9a7be68	-0.00031994586
23	0x3f1569d7	0.58364624
24	0x4071a8b1	3.775921
25	0xbf06fd96	-0.5273069
26	0x3e3347da	0.17507878
27	0x3f9d099e	1.226856
28	0x3f963341	1.1734391
29	0x403b9ca0	2.9314346
30	0x403e13f8	2.9699688
31	0x40163a59	2.3473113
32	0x3f43e98a	0.7652823
33	0x404a643c	3.1623678
34	0x3ded2eaa	0.11581166
35	0xbf9543ca	-1.1661313
36	0x3fb7c7dd	1.4357868
37	0x3fa4dcb1	1.287985
38	0xbecbdd9d	-0.39817515
39	0x405d8dab	3.4617717
40	0x40374f37	2.86421
41	0x400ded6b	2.2176158
42	0xbe34b475	-0.17646964
43	0xbf62151e	-0.8831347
44	0x409fdc2c	4.9956264
45	0x3d177e9a	0.03698597
46	0x40329b38	2.7907238
47	0x3f5f67fc	0.8726804

model_1/block_1_depthwise_BN/FusedBatchNormV3 f4 [48]
0	0x40c23bfd	6.069823
1	0x40801de0	4.003647
2	0x411c720a	9.777842
3	0x409d748b	4.9204764
4	0x3c8b843d	0.01703083
5	0x4021f1ff	2.5303953
6	0x3ecfd42f	0.4059157
7	0x3fe75692	1.8073294
8	0x4014af48	2.3231983
9	0x3f7c13ed	0.98467904
10	0x40199a16	2.4000297
11	0x3e3147fc	0.17312616
12	0xc10d1c9c	-8.819485
13	0xbf348171	-0.7051001
14	0x4024a038	2.572279
15	0x3df42d63	0.11922719
16	0xbf0f7295	-0.56034213
17	0x3f662c66	0.89911497
18	0x3e21ee4c	0.1581356
19	0x3e6ee32a	0.23328844
20	0xbfd3cc2a	-1.6546681
21	0x3fcd39e8	1.6033297
22	0x40bb3c48	5.8511086
23	0x3f960e75	1.1723162
24	0xc00086ca	-2.0082269
25	0x402f3a16	2.7379203
26	0x3fb83fb1	1.4394437
27	0x3f997e30	1.1991634
28	0xbf1f2204	-0.6216128
29	0x3f428261	0.7598019
30	0xbeb6758f	-0.35636565
31	0xc11ce4b4	-9.805836
32	0x40191d74	2.3924227
33	0x3f91a384	1.1378026
34	0x401d21f5	2.4551976
35	0x3e712956	0.23550925
36	0x3f5e354c	0.86800075
37	0x3bfa5100	0.0076390505
38	0x409309fa	4.594968
39	0xc00d2c12	-2.2058148
40	0x3f6239dc	0.88369536
41	0xc09abfbe	-4.835906
42	0x3e8203c4	0.25393498
43	0x3f86fccc	1.0545897
44	0x3df66da4	0.12032631
45	0x40bb7465	5.8579583
46	0x3d91ad14	0.0711309
47	0xc03a7371	-2.913296

model_1/block_2_expand_BN/FusedBatchNormV3 f4 [48]
0	0x4088ab99	4.270947
1	0x400db6c8	2.214281
2	0x3fcb8500	1.5899963
3	0x404eefe0	3.2333908
4	0x40101c3f	2.251724
5	0x40a077f3	5.0146422
6	0xbff37960	-1.9021416
7	0xbe6ac037	-0.22924887
8	0x3f059142	0.5217477
9	0x3fac544e	1.3463228
10	0x4011626f	2.271633
11	0x3e15fa83	0.14646344
12	0x3f78ebe2	0.9723493
13	0xbeeea5fb	-0.46611008
14	0x3ed2f4b1	0.4120231
15	0xc068ae30	-3.6356316
16	0x3fd6a058	1.6767683
17	0x40898d51	4.2985005
18	0xbf053f9c	-0.52050185
19	0x402e786c	2.7261
20	0x3f95d9f3	1.1707138
21	0x3f873c2e	1.056524
22	0x407cc664	3.9496088
23	0xbee1cbdc	-0.44100845
24	0x3f9542e5	1.166104
25	0x3fa09596	1.254565
26	0x4080cead	4.025229
27	0x406d4e6e	3.707912
28	0xbd612ef9	-0.054976437
29	0xc0276ee5	-2.6161435
30	0x3db10fdb	0.08645602
31	0x3f5a3ef2	0.85252297
32	0xbffb0c24	-1.961308
33	0x400c6375	2.1935704
34	0x3f893e61	1.0722162
35	0x3ff69c9e	1.9266546
36	0x40678bdb	3.617911
37	0x3fabbe4e	1.3417451
38	0x4016b59c	2.3548346
39	0x4090f4ad	4.5298676
40	0xbf1b29c8	-0.6061063
41	0x4032615b	2.787192
42	0x3ee47a98	0.44624782
43	0x3fbfa073	1.497084
44	0x3f9b960d	1.2155167
45	0x3f8d27d1	1.1027776
46	0xbf8ff298	-1.1245909
47	0x402cb1d0	2.6983528

model_1/block_2_depthwise_BN/FusedBatchNormV3 f4 [48]
0	0xc183afcc	-16.460838
1	0xbcdc4198	-0.026886746
2	0x3fcd446e	1.6036508
3	0x3c8085cd	0.015688801
4	0x3f250210	0.6445627
5	0xbede732e	-0.4344725
6	0x3f9ad22b	1.2095388
7	0x40659f3d	3.5878441
8	0x3e064ce4	0.13115269
9	0x409d5705	4.9168725
10	0xbe7bfd38	-0.24608314
11	0x408993d5	4.299296
12	0xbfe73d2c	-1.8065543
13	0xbe4a2e54	-0.19744235
14	0x401d8a79	2.4615767
15	0x3fc996cd	1.5749146
16	0x3ddd985a	0.108200744
17	0x4081a152	4.0509424
18	0x400d92d0	2.2120857
19	0x3fe9b7bf	1.82592
20	0x3da07e39	0.07836575
21	0xbd725f62	-0.059172995
22	0x3d85291b	0.06501981
23	0x3ffff01b	1.9995149
24	0xbfb0d276	-1.3814228
25	0x406df475	3.7180455
26	0x41c67a0d	24.809595
27	0x405cb978	3.44882
28	0x3f424018	0.7587905
29	0x3f540570	0.82820797
30	0xbda0a098	-0.07843131
31	0x3e485397	0.19563137
32	0x3f59eb48	0.85124636
33	0x40360469	2.8440192
34	0xbfa1e13a	-1.2646859
35	0x401f2400	2.4865723
36	0xc0787182	-3.881928
37	0x402543d5	2.5822651
38	0xc0c0b25d	-6.021773
39	0x401cf58d	2.4524872
40	0x404c808a	3.1953454
41	0x3f871740	1.055397
42	0x3fe6264b	1.7980436
43	0xbe98887a	-0.29791623
44	0x401493ec	2.3215284
45	0x3ec3a913	0.3821493
46	0x3ea2518e	0.31702846
47	0xbd1e2504	-0.03860952

model_1/block_3_expand_BN/FusedBatchNormV3 f4 [48]
0	0x3e8284a7	0.2549183
1	0x3f30e516	0.6909956
2	0x3f27f329	0.6560541
3	0x3e7eea69	0.24894108
4	0x4009f686	2.1556716
5	0x4081f8f1	4.0616384
6	0x3f8aef3f	1.0854262
7	0xbce40aa8	-0.027837113
8	0xbe9750fd	-0.29553977
9	0xbeecb07a	-0.4622839
10	0x3f7a6609	0.97811943
11	0x3e98e045	0.29858604
12	0x3fa64678	1.2990255
13	0x3f3bc709	0.7335058
14	0x40674f2c	3.6142073
15	0x3f9dbe5c	1.2323718
16	0x3f0953e7	0.5364365
17	0xbef8949c	-0.4855088
18	0xbde6d1c8	-0.11270481
19	0x3f729feb	0.94775265
20	0xbf1123e8	-0.56695414
21	0x4020c314	2.5119066
22	0x40695fa1	3.6464617
23	0x3fc13baf	1.5096339
24	0x3fcf0eb0	1.6176357
25	0x3da2b95a	0.07945509
26	0x40dfc6e2	6.9930277
27	0x3fec7b62	1.8475153
28	0x3fe030ac	1.7514853
29	0xbe80dbbd	-0.25167647
30	0x4024f035	2.577161
31	0x3f9ec233	1.2403015
32	0x3ed1041e	0.40823454
33	0xbc7cb5be	-0.01542419
34	0x406eca5c	3.731101
35	0x3fe49431	1.7857724
36	0xbfafacb9	-1.3724586
37	0x3dba8636	0.0910763
38	0xbdfee682	-0.124463096
39	0x3ff07f48	1.8788843
40	0x3dc82073	0.09771814
41	0xbdfa7f4b	-0.122313105
42	0xbe83f44b	-0.25772318
43	0x3bd0c424	0.006371038
44	0x3ffa907f	1.9575347
45	0x3fb34281	1.400467
46	0x3e7894b9	0.24275483
47	0x3f9536ab	1.1657308

model_1/block_3_depthwise_BN/FusedBatchNormV3 f4 [48]
0	0x3e9cff04	0.3066331
1	0x3fbc87a8	1.4728899
2	0xbe22f8e8	-0.15915263
3	0x40105dfb	2.255736
4	0x3f2da558	0.6783042
5	0x4104b23e	8.293516
6	0xbeae49c9	-0.3404067
7	0x40b79579	5.736996
8	0x3e3794b8	0.17927825
9	0x3fa0d8f5	1.256621
10	0x3f9473e4	1.1597867
11	0x3de7c640	0.1131711
12	0x3e670728	0.22561324
13	0x3f63ecbb	0.890331
14	0xbdefd080	-0.1170969
15	0xbec6625a	-0.3874691
16	0xbd9f84db	-0.07789012
17	0xbd2d72d8	-0.04234585
18	0x3e516240	0.20447636
19	0xbebfbe80	-0.37450027
20	0x3cad23c0	0.021135211
21	0xbf77442d	-0.96588403
22	0xbdb38138	-0.08764881
23	0xbfd1e17f	-1.6396941
24	0xbef31844	-0.4747945
25	0x408ded58	4.4352226
26	0x403b7489	2.9289877
27	0x40ddd94c	6.9327755
28	0x3e6d8c8e	0.23198149
29	0x3f3a8df6	0.72872865
30	0xbe986b5a	-0.29769403
31	0x3e8d963c	0.27653682
32	0x3f8e2b0c	1.1106887
33	0x3dac14f8	0.08402437
34	0x3f9a9332	1.207617
35	0xbd009a00	-0.031396866
36	0x40bb2b32	5.849023
37	0x3e952298	0.29127955
38	0x40b787e3	5.7353377
39	0x3e6954ea	0.22786298
40	0x3e8ee468	0.27908635
41	0x40bb2965	5.848803
42	0xbdbf2b60	-0.09334445
43	0x3e8f234e	0.27956623
44	0x3fbe9771	1.4889966
45	0x3e0336a2	0.1281381
46	0x3e309390	0.1724379
47	0x3fd341ed	1.6504494

model_1/block_4_expand_BN/FusedBatchNormV3 f4 [96]
0	0x4028fdda	2.6404939
1	0x3e9eb7ff	0.30999753
2	0x3fa79415	1.3092066
3	0xbf0ffddb	-0.5624673
4	0x3fc6ba5a	1.552562
5	0x3f6a3b39	0.91496617
6	0x404aa1bc	3.1661215
7	0x40646b84	3.5690622
8	0xbee199e6	-0.44062728
9	0x3fe4d118	1.787631
10	0x3fb9c57e	1.4513395
11	0x3f527f38	0.8222537
12	0x402e3226	2.7218108
13	0x409b6a00	4.8566895
14	0xbe352ecb	-0.17693631
15	0xbf366684	-0.71250176
16	0x400de04c	2.216815
17	0x4012b675	2.2923863
18	0x3ec75410	0.38931322
19	0xbe3268c2	-0.17422774
20	0xbeb31a34	-0.3498093
21	0x401f93d0	2.4933968
22	0x3fc6d200	1.5532837
23	0x3f3f3d26	0.7470268
24	0x3fe23e56	1.7675273
25	0x400492c8	2.0714588
26	0x3fb35ed6	1.4013317
27	0x3f691394	0.910455
28	0x3d8a7411	0.06760419
29	0x3a37d528	0.0007012659
30	0x3fbc5cd9	1.4715835
31	0x3ff101d0	1.8828678
32	0x4000fa57	2.0152795
33	0x3f887ba0	1.0662727
34	0x3fca5f1b	1.5810274
35	0xbe921a51	-0.28535703
36	0x40143980	2.3160095
37	0x4027701a	2.6162171
38	0x3ef79b1a	0.4836052
39	0x3f822dfa	1.0170281
40	0x3f043895	0.5164884
41	0x3ff0dfca	1.8818295
42	0x40086095	2.130895
43	0x3f29a73c	0.66270804
44	0x3f8c22f7	1.094817
45	0x4051de6a	3.2792
46	0x403a93fa	2.9152818
47	0x3fc4075a	1.5314744
48	0x3fcfdf37	1.6239995
49	0x3f61bddf	0.88180345
50	0x3e1126bc	0.14174932
51	0xbf1c3d12	-0.61030686
52	0x402bed44	2.6863565
53	0x3fc5380f	1.5407733
54	0x4014ba4f	2.3238714
55	0x3fea914a	1.8325589
56	0xbd85cdbc	-0.06533381
57	0x3fd97b4a	1.699075
58	0x3f4c1375	0.7971719
59	0x3fcb962c	1.5905204
60	0x3fdecb14	1.7405725
61	0x3faf9a00	1.3718872
62	0x3f81aefe	1.0131528
63	0x402d981f	2.7124097
64	0x3f868c75	1.0511614
65	0x3f923995	1.1423823
66	0x3ff7b2a8	1.9351397
67	0xbea19183	-0.3155633
68	0x402d5b0e	2.7086825
69	0x3f9321ab	1.149465
70	0x3ffb3db0	1.96282
71	0xbf0170b4	-0.50562596
72	0xbee5b9b7	-0.44868252
73	0x3fa3ce77	1.2797383
74	0x3eee044d	0.46487656
75	0x3f9c8a76	1.2229755
76	0x40161bb8	2.3454418
77	0x408eaca3	4.458574
78	0x3fd6031f	1.6719702
79	0xbf9b270b	-1.212129
80	0x3f8b07ad	1.0861717
81	0xc00598ec	-2.0874586
82	0xbede8a61	-0.4346495
83	0x3e739db9	0.23790635
84	0x3fc8d5db	1.5690264
85	0x3fc83fd5	1.564448
86	0x3fd76a89	1.6829387
87	0x3fb16ead	1.38619
88	0x3fd50afa	1.6643975
89	0x3fc23437	1.5172185
90	0x3fb5fd1c	1.4217868
91	0x3fdb57be	1.7136152
92	0x400901df	2.1407392
93	0x40327586	2.788423
94	0xc03bb668	-2.9330082
95	0x4053ddda	3.3104157

model_1/block_4_depthwise_BN/FusedBatchNormV3 f4 [96]
0	0x400145ec	2.0198927
1	0xbf8f4091	-1.1191579
2	0x3f36c5a4	0.71395326
3	0x400aeb7e	2.1706233
4	0xbeadabfa	-0.3392027
5	0xbf5e8de0	-0.86935234
6	0xc05e2697	-3.4711053
7	0xbc4367b0	-0.0119265765
8	0xbec34616	-0.3813941
9	0x3f035f9c	0.51317763
10	0x3ee52736	0.44756478
11	0xbe849e40	-0.25901985
12	0x3cab29c8	0.020893946
13	0xc010696e	-2.256435
14	0x3f79d200	0.9758606
15	0xbf5bb2c4	-0.8581965
16	0xbe329328	-0.17438948
17	0x408ae2e5	4.340197
18	0x3fc04c54	1.5023293
19	0x3ed3fc21	0.41403297
20	0x3e1cadf2	0.1530073
21	0xbe8019d6	-0.2501971
22	0x3e4cddd6	0.20006499
23	0xbd9463a0	-0.072455645
24	0x407479a0	3.8199234
25	0x3d649d80	0.055814266
26	0xbe44563c	-0.19173521
27	0xbf1cdac9	-0.6127134
28	0xbf4cfa22	-0.8006917
29	0xbf5452d6	-0.829389
30	0x3f69d013	0.9133312
31	0xbfc7be57	-1.5604962
32	0xbec41d82	-0.38303763
33	0xbe82b308	-0.25527215
34	0xbe81e66a	-0.25371104
35	0x400ee5ee	2.2327838
36	0x3f243807	0.6414799
37	0xbf20e792	-0.6285335
38	0x3f8ca706	1.0988472
39	0x3e476d46	0.19475278
40	0x3c246130	0.010032937
41	0x3f48bce7	0.7841324
42	0xc079462d	-3.8949082
43	0xbf8e561c	-1.1120028
44	0xbfc0180c	-1.5007339
45	0x4048a0fe	3.1348262
46	0xbe1427ed	-0.14468355
47	0x405c18d7	3.439016
48	0x402071c0	2.5069427
49	0xc00a6faf	-2.1630666
50	0xbe0b2a06	-0.1359025
51	0x3fb4be86	1.4120643
52	0x3fe7251d	1.8058201
53	0xbe97da17	-0.29658577
54	0xbfbe7f9e	-1.4882696
55	0x3fb04ff3	1.3774399
56	0xc0706ec8	-3.7567616
57	0x3eb4b7f6	0.352966
58	0x3e55164c	0.20809287
59	0xbf1ec41a	-0.6201798
60	0xbf01f255	-0.50760394
61	0xbe3e23cc	-0.18568343
62	0xc04f9ddc	-3.24401
63	0xbe8444a1	-0.2583361
64	0x3e8d9a86	0.27656955
65	0x403197b9	2.7748854
66	0x40112c98	2.2683468
67	0x3fe69ab9	1.8015968
68	0xc0848966	-4.1417723
69	0xbb280900	-0.002564013
70	0xbff488b9	-1.9104224
71	0xbe3dc0f5	-0.18530639
72	0x40bb8599	5.8600583
73	0x3fc52376	1.5401447
74	0x3d8109bc	0.06300685
75	0x3d9643c0	0.07337141
76	0x410a18bf	8.631042
77	0x3fe04b20	1.7522926
78	0x3e5cac63	0.21550135
79	0xbfeb890d	-1.84012
80	0xbe807789	-0.25091198
81	0xc0065fee	-2.099605
82	0x3e062375	0.13099463
83	0xbf1e8173	-0.61916274
84	0x3db2b71f	0.08726334
85	0x3daa2bb0	0.08309114
86	0x3e41a26a	0.18909612
87	0x3df24c4a	0.11830957
88	0x3e9a7760	0.301692
89	0xbedbdb7a	-0.42940885
90	0x3db836e6	0.08994846
91	0x3cdf410e	0.0272527
92	0xbe556520	-0.20839357
93	0x3d6e6fc0	0.05821204
94	0x3fad5cd0	1.3543949
95	0x4066a90e	3.6040683

model_1/block_5_expand_BN/FusedBatchNormV3 f4 [96]
0	0x3ecc7650	0.39934015
1	0x3fb1765c	1.3864245
2	0x3fe83d9b	1.81438
3	0x40160f52	2.344685
4	0x403ffc8c	2.9997892
5	0xbf870eff	-1.0551451
6	0xbf6473ae	-0.89239013
7	0x3fcea2da	1.6143448
8	0x4015992d	2.337474
9	0xbfb7b3b1	-1.4351712
10	0x402874c8	2.6321278
11	0x3f61cc56	0.88202417
12	0x3fa1198f	1.2585925
13	0x40162a06	2.346315
14	0x401c6448	2.4436207
15	0x3f0f10e1	0.5588513
16	0x3f0cdf13	0.55027884
17	0x3f9b2fd6	1.2123973
18	0x4011ac38	2.2761364
19	0x3f991c45	1.1961752
20	0xbdce1a6b	-0.100636326
21	0x3eac5548	0.33658814
22	0x40027fd4	2.039052
23	0xbf30a1e4	-0.68997025
24	0x4024da40	2.575821
25	0xbd0de3c2	-0.034641035
26	0x401261a0	2.2872086
27	0x3fba4cfe	1.4554746
28	0x3fc9dc0d	1.5770279
29	0x4063da20	3.5601883
30	0x403772b1	2.8663752
31	0x4021f80d	2.5307648
32	0x3fd3684d	1.6516205
33	0xbe63b5e4	-0.22237355
34	0x3ffe9e70	1.9892101
35	0x3f16cd10	0.5890665
36	0x3eef62dd	0.46755114
37	0x3fbade47	1.4599084
38	0x402cb54a	2.698565
39	0xbf006502	-0.50154126
40	0x3ff6b28d	1.9273239
41	0x3fd0a791	1.6301137
42	0x402f9eab	2.7440593
43	0xbf86392e	-1.04862
44	0x404e0288	3.2189045
45	0x3fc8fcf1	1.5702192
46	0x3fe22ae2	1.7669337
47	0x402a6e5d	2.662986
48	0x40824b68	4.071705
49	0x4004e3dc	2.0764074
50	0xbd99bb4f	-0.075064294
51	0x3fd0e3b6	1.6319492
52	0xbf82ecd1	-1.0228521
53	0x3d5cfa4d	0.053949643
54	0xbf78f323	-0.97246
55	0x3f80aa4c	1.005197
56	0xbe0d481b	-0.13797037
57	0x3ff4f2de	1.9136617
58	0x400204f9	2.0315535
59	0x3fbb66c2	1.4640734
60	0x3fccece0	1.6009789
61	0x3faee0b3	1.3662323
62	0x3fbc45f1	1.4708844
63	0x3f7b5452	0.9817554
64	0x401bc34d	2.4337952
65	0x3ff57f25	1.9179426
66	0x3fa452cc	1.2837768
67	0xbfb0a451	-1.3800145
68	0x3fdea979	1.7395469
69	0xbf32a0fa	-0.6977688
70	0x3f97b5dc	1.1852374
71	0x3fc9f48f	1.5777758
72	0x4005a7f2	2.0883756
73	0x3f83a6e2	1.0285304
74	0xbfbea7d4	-1.4894967
75	0xbfaa2a8b	-1.3294233
76	0x3fd01a30	1.6257992
77	0x3da3b446	0.07993369
78	0x3f3cfc4a	0.7382246
79	0xbee12fbc	-0.4398173
80	0x4000aef7	2.010679
81	0x3fd5d7db	1.6706499
82	0x3f572bfc	0.8405149
83	0x3fed6de9	1.8549167
84	0x3f8e6fcb	1.1127867
85	0x3dadb261	0.08481289
86	0x4011f0ea	2.2803292
87	0x40728c7e	3.789825
88	0x3fb9a305	1.4502875
89	0x4011c80b	2.2778347
90	0x3fa682e3	1.3008693
91	0xbe31cb49	-0.17362703
92	0x3fc2538e	1.5181749
93	0x3fcfaf82	1.6225436
94	0x3f967ee4	1.1757474
95	0x3fd7601d	1.6826206

model_1/block_5_depthwise_BN/FusedBatchNormV3 f4 [96]
0	0x401edff9	2.4824202
1	0x40b49eff	5.6444087
2	0x3e512dc5	0.20427616
3	0xbd01ad58	-0.031659454
4	0x40582deb	3.3778026
5	0xbf4418ae	-0.7660016
6	0xbd512f90	-0.05107075
7	0xbd5d9d06	-0.054104827
8	0x3feea583	1.864426
9	0x4021b2c5	2.5265362
10	0xbf9fd0f4	-1.2485642
11	0x3c6ae8b0	0.014337704
12	0x3daaadbc	0.083339185
13	0x3f7e2388	0.99272966
14	0x3fea1b80	1.8289642
15	0xbfa8571c	-1.3151584
16	0xbf6afa43	-0.9178812
17	0xbe9cc8f8	-0.30622077
18	0x3cae776e	0.021297183
19	0x3fb2f9ba	1.398246
20	0xbf4b9ae8	-0.79533243
21	0x3f7d0fa8	0.98852015
22	0xbeabd5e2	-0.33561617
23	0x3f2c6f94	0.67357755
24	0x3ffe55be	1.9869916
25	0xbcb222fa	-0.021745194
26	0xbf6b7b5c	-0.91985106
27	0x404993f8	3.1496563
28	0x3f91d81c	1.1394076
29	0xc114397c	-9.264034
30	0x3f4a72e4	0.7908156
31	0x40b7f68a	5.748845
32	0x402323b3	2.549054
33	0xbfcaa084	-1.5830235
34	0x3eeaeebb	0.45885262
35	0x3e7f2af8	0.24918735
36	0xbd8da710	-0.0691663
37	0xbe468d70	-0.19389892
38	0x3f9b36da	1.2126114
39	0xbf45de52	-0.7729236
40	0xbf79fd7a	-0.976524
41	0x3d179b87	0.037013557
42	0xc0345125	-2.8174527
43	0xbc5f9120	-0.01364544
44	0x41142b6d	9.260602
45	0xbe638bc3	-0.22221284
46	0x3faaa8c2	1.3332751
47	0xbe78d708	-0.24300778
48	0xc11ca420	-9.79007
49	0x3e84fbf3	0.25973472
50	0xbe4aa2fc	-0.19788736
51	0x3d69b2cc	0.05705528
52	0xbef59169	-0.47962502
53	0x4036a30e	2.853702
54	0xbf63cb47	-0.8898205
55	0x3fd1c1a6	1.6387222
56	0x40366c73	2.8503692
57	0x3e5b66a6	0.21425876
58	0x3fc39b0a	1.5281689
59	0xbe188dab	-0.14897792
60	0xc02a7402	-2.6633306
61	0xbf13ca21	-0.577303
62	0x3e05a134	0.13049775
63	0xbd581d2a	-0.052762188
64	0xbe8a94cb	-0.27066645
65	0x3fd74f0e	1.6821
66	0xbe282804	-0.16421515
67	0xc0092fc7	-2.143541
68	0xbeaaa2bc	-0.3332728
69	0x3e8fa9ea	0.28059322
70	0xbd0e7970	-0.03478378
71	0xbed6f4ad	-0.41983548
72	0x3ea7ed0e	0.32798046
73	0xbe11f0c4	-0.14252001
74	0xbf2eccc5	-0.68281204
75	0xbfee6364	-1.8624082
76	0xbdb17940	-0.08665705
77	0xbe665358	-0.2249273
78	0x402a312d	2.6592515
79	0xbfa6cfe3	-1.3032192
80	0xbfddfd48	-1.734292
81	0xc0283bb7	-2.6286447
82	0xbd2675e4	-0.040639773
83	0xbe36b61d	-0.17842908
84	0x406185a0	3.5237808
85	0xbfab69df	-1.3391684
86	0xbf852fd3	-1.040522
87	0xc14e0090	-12.875137
88	0xbfe58c2b	-1.7933401
89	0x3f97743e	1.1832349
90	0xbf07200a	-0.5278326
91	0x3f8fcb6e	1.1233957
92	0x3daaf7dc	0.08348057
93	0xbe8888d9	-0.26666906
94	0xbf6f65fd	-0.93514997
95	0xbd8b3f8a	-0.067992285

model_1/block_6_expand_BN/FusedBatchNormV3 f4 [96]
0	0xbf1a12d4	-0.6018498
1	0x3fca0157	1.5781659
2	0x40187b82	2.3825383
3	0x3f63f90d	0.89051896
4	0xbf80e779	-1.007064
5	0xbfb85be7	-1.4403046
6	0x40537278	3.3038616
7	0x3f3b28f5	0.7310937
8	0x3f1e5414	0.61847043
9	0xbf2f0ddb	-0.68380517
10	0x3ffe4457	1.9864606
11	0xbcdebbdd	-0.02718919
12	0xc0205a85	-2.5055249
13	0x4032f792	2.7963605
14	0x404503d1	3.078358
15	0x3f942474	1.1573625
16	0x3feeec20	1.866581
17	0x3fb9840c	1.4493423
18	0xbff7b110	-1.935091
19	0xbfd9129c	-1.6958804
20	0x3f20f254	0.62869763
21	0x402dcafa	2.7155137
22	0x4045417b	3.0821216
23	0x3fd7ad05	1.6849676
24	0x3e505c27	0.20347653
25	0x3eed3d34	0.46335757
26	0x403d5857	2.9585168
27	0x3f8ea82d	1.1145073
28	0x3f047aa5	0.5174964
29	0xbffe3af4	-1.9861741
30	0x3fb974ee	1.4488809
31	0xbf372224	-0.7153647
32	0xbbc2272c	-0.00592508
33	0x3f90e0da	1.1318619
34	0x3d16b203	0.03679086
35	0x3e6fc451	0.23414733
36	0x3ff52faa	1.9155171
37	0x3f88c74d	1.0685822
38	0xbf1db008	-0.6159673
39	0x3fe44c90	1.7835865
40	0x3fa3feb6	1.2812107
41	0x40268810	2.6020546
42	0x3fc11233	1.5083679
43	0x4013bb33	2.3083007
44	0x3ff6ebab	1.929067
45	0x3f840439	1.0313789
46	0x3f00e87f	0.5035476
47	0x400b2a49	2.174456
48	0x3facef2a	1.3510487
49	0xbfaeef4c	-1.3666778
50	0xbfbf5908	-1.4949045
51	0x3db88b69	0.090109654
52	0xbe230fb1	-0.15923955
53	0xbeaa48e9	-0.3325875
54	0x3f3f8cfc	0.748245
55	0x3b492451	0.0030691812
56	0x3dc1f7e5	0.0947111
57	0xbe794842	-0.2434397
58	0xbfc56acd	-1.5423218
59	0x3feee01c	1.8662143
60	0xbf30129f	-0.68778414
61	0x3f308a22	0.68960774
62	0xbe871f23	-0.26390943
63	0xbf46c403	-0.7764284
64	0xbfe6f5a9	-1.804372
65	0x3ff94e0d	1.9476944
66	0x400b5f8d	2.177707
67	0x3ed61ef8	0.41820502
68	0xbf8e0748	-1.1095972
69	0x3ebe444b	0.37161478
70	0x3ebe32b4	0.37148058
71	0x3f01d3a0	0.5071354
72	0x3fb0c418	1.3809843
73	0xbecddb56	-0.40206403
74	0x3e10fb62	0.14158395
75	0x40095434	2.1457644
76	0xbda3e26b	-0.0800217
77	0x3fed85c4	1.8556447
78	0x3fe96e42	1.8236773
79	0xbe338c6c	-0.17534035
80	0x3fbd33be	1.4781415
81	0x3ea8209b	0.32837376
82	0xbda64b9d	-0.08119891
83	0x3e8728d2	0.2639833
84	0x3fe820a4	1.8134961
85	0x4018e944	2.3892374
86	0x401622d5	2.345876
87	0x3e83508d	0.25647393
88	0x3f329ba3	0.6976873
89	0x400234f3	2.0344818
90	0xbd9f71bb	-0.07785364
91	0xbffdc1a8	-1.9824724
92	0x3e5298d5	0.20566113
93	0xbf82f2b6	-1.023032
94	0xbf1ee8d3	-0.6207401
95	0xbeb9ee92	-0.36314827

model_1/head/BiasAdd/ReadVariableOp f4 [32]
0	0xbc94a144	-0.018143304
1	0x3c227a71	0.009916888
2	0x3b44d713	0.003003542
3	0xbc32e246	-0.010918206
4	0x3cfaf716	0.030635398
5	0x3c151d9a	0.009101296
6	0xbc1519f8	-0.00910043
7	0x3b9a5f92	0.0047111
8	0x3c1006d2	0.008790689
9	0x3c79a95f	0.015238135
10	0xbc454fb4	-0.0120429285
11	0x3cc69f62	0.024245922
12	0x3b32d8ee	0.0027289945
13	0xbbfdb735	-0.0077427872
14	0x3cc92857	0.024555368
15	0x3be87a7a	0.0070946785
16	0xbc6a5ca7	-0.014304317
17	0xbc58cde3	-0.013232681
18	0x3c8dc819	0.017307328
19	0x3c5f468c	0.0136276595
20	0xbb997fd8	-0.0046844296
21	0x3a470841	0.00075924775
22	0x3cc74902	0.024326805
23	0xbbc2e5d4	-0.005947808
24	0x3c3ebb6c	0.011641365
25	0x3d1924a2	0.03738845
26	0x3bdb3d54	0.0066906605
27	0xbb7a68f5	-0.0038209532
28	0x3d254cc9	0.04035643
29	0x3b2a2048	0.0025959183
30	0xbbd64a3e	-0.006539612
31	0x3c1e7413	0.009671229

model_1/expanded_conv_depthwise_BN/FusedBatchNormV3;model_1/expanded_conv_depthwise/depthwise;model_1/block_5_project/Conv2D f4 [1, 3, 3, 16]
0	0xc1091ce8	-8.569557
1	0x3d9f95b7	0.07792228
2	0xbe98c2dd	-0.2983617
3	0xbfbee685	-1.4914099
4	0x3e84f296	0.25966328
5	0xbe03f3bf	-0.1288595
6	0x3fa8e9e9	1.3196384
7	0xbe3045e7	-0.17214166
8	0xbd991e18	-0.07476443
9	0xbd1ff209	-0.039049182
10	0xbd8466fc	-0.06464955
11	0x3f66dd4c	0.9018142
12	0xc07b37ea	-3.9252877
13	0x3d3f5a4a	0.046716966
14	0x3ed166fb	0.4089888
15	0xc141c20a	-12.109873
16	0x4080db16	4.026744
17	0x3dd68053	0.10473695
18	0xbeebfd55	-0.46091715
19	0x3fbfcf4a	1.4985135
20	0x3f5b0b1f	0.85563844
21	0xbe76cba7	-0.24101125
22	0x4006612d	2.0996811
23	0xbe9370a1	-0.28796867
24	0xbd902985	-0.07039169
25	0x3fc57e16	1.5429103
26	0xbf86c2b6	-1.0528171
27	0x3fcb5a43	1.5886921
28	0xc04f84e0	-3.242485
29	0x3d5ce0b8	0.053925246
30	0x3f753daa	0.95797217
31	0xc0829e39	-4.0818143
32	0x3ff42133	1.9072632
33	0xbdd11b33	-0.10210266
34	0x3eac5a4a	0.33662635
35	0xbcbf595d	-0.023358041
36	0xbefabff0	-0.48974562
37	0x3dfb9a45	0.12285284
38	0xbfc4f9ff	-1.5388793
39	0x3e332ed1	0.17498328
40	0xbda15e00	-0.07879257
41	0xbeab1e69	-0.3342164
42	0x3cfd86fd	0.030948156
43	0xbefb7402	-0.49111944
44	0x3ff29476	1.8951557
45	0x3c4712e6	0.012150502
46	0xbf42d4f0	-0.76106167
47	0xc0990719	-4.7821164
48	0xc12165ba	-10.087336
49	0x3f09e885	0.5387042
50	0xbda35b2d	-0.07976375
51	0x3e22617d	0.15857501
52	0xbe97baa2	-0.29634577
53	0x3cc9d431	0.024637314
54	0xbeeb3782	-0.45940787
55	0x3d014930	0.031563938
56	0xbcbd7a2d	-0.023129547
57	0x3b9039b2	0.004401409
58	0x3cca2ade	0.024678644
59	0xc057df4e	-3.3730044
60	0xbfc1f83c	-1.515388
61	0x3db110d1	0.086457856
62	0xbe60d1da	-0.21955052
63	0xc01372ac	-2.303874
64	0xc0c6f999	-6.2179685
65	0xbe33e492	-0.17567661
66	0xbe540d00	-0.20708084
67	0xbe2f618d	-0.17127056
68	0xbd560af7	-0.05225655
69	0xbd55c537	-0.05219003
70	0x3e141431	0.14460827
71	0xbd7f428f	-0.062319335
72	0xbdb7f3b2	-0.08982028
73	0xbf8ab5b6	-1.0836704
74	0x3e2f9bc7	0.17149268
75	0xbebbb464	-0.36661065
76	0xc04de688	-3.2171955
77	0xbfa15459	-1.2603866
78	0x3c10ec6f	0.008845433
79	0x4073c551	3.8089182
80	0x3f8e5354	1.111918
81	0x3b96c94d	0.0046016336
82	0x3e771410	0.24128747
83	0x3ccdcc65	0.025121877
84	0x3c840f97	0.016120715
85	0x3d746535	0.05966683
86	0xbecd4121	-0.40088752
87	0x3d99c95f	0.075091116
88	0xbdd8723f	-0.10568666
89	0x3d9dd2fa	0.07706256
90	0xbc784e7f	-0.015155434
91	0x3d1bca28	0.038034588
92	0xbf297662	-0.6619626
93	0x3dee2997	0.116290264
94	0xbcd79335	-0.026315311
95	0x40e5bf96	7.179637
96	0xc1127c81	-9.155396
97	0xbe9d18d0	-0.30682993
98	0x3e828bad	0.2549719
99	0x3ccf56cc	0.025309943
100	0xbd32f68f	-0.043692168
101	0x3d89367e	0.06699847
102	0xbf2227ce	-0.6334199
103	0x3df0a8da	0.11750956
104	0xbd82535b	-0.06363555
105	0x3b0c3efb	0.0021399844
106	0xbb1261c9	-0.0022336117
107	0x3e058d61	0.13042213
108	0x3f9eb3b8	1.2398596
109	0x3c5e2adb	0.013560022
110	0xbe4c4a9c	-0.19950336
111	0x4070455c	3.7542334
112	0x3fe8505f	1.8149527
113	0xbc9176ba	-0.017756809
114	0x3df04fba	0.11733957
115	0xbc9c001f	-0.019043026
116	0xbe3b4472	-0.18287829
117	0x3d8e5332	0.06949462
118	0xbf0b9c4e	-0.5453538
119	0x3d3ddf5b	0.046355586
120	0xbdd53799	-0.10410995
121	0xbe23a211	-0.15979792
122	0xbb5c83d3	-0.003364791
123	0x40261d43	2.595536
124	0xbfe4784e	-1.7849214
125	0xbbe48ede	-0.006975039
126	0xbe58267f	-0.21108435
127	0xc1937042	-18.429813
128	0x3fd0fd67	1.6327332
129	0xbcf91d26	-0.030409407
130	0x3d943f59	0.07238645
131	0xba074b2e	-0.0005161044
132	0x3cdb72a6	0.026788067
133	0x3cb9892e	0.02264842
134	0x3e26f4ab	0.16304271
135	0x3d4c89ca	0.049936093
136	0xbdc4001d	-0.09570334
137	0x3d52b31a	0.051440336
138	0xbbed883c	-0.0072489064
139	0xc07ba0b6	-3.931684
140	0x4053acb2	3.3074155
141	0x3cb2335c	0.021753006
142	0x3e05e154	0.13074237
143	0xc1a8b9aa	-21.090656

model_1/expanded_conv_project_BN/FusedBatchNormV3 f4 [8]
0	0x4052b682	3.2923894
1	0xc2bdcab6	-94.89592
2	0xc1beeecd	-23.866602
3	0xc1322190	-11.133194
4	0xc21c40b8	-39.0632
5	0xc05e86bf	-3.4769742
6	0xc201632d	-32.34685
7	0xc1c181d4	-24.188393

model_1/block_1_depthwise_BN/FusedBatchNormV3;model_1/block_1_depthwise/depthwise;model_1/block_3_depthwise/depthwise f4 [1, 3, 3, 48]
0	0xbe17b208	-0.14814007
1	0xbd9fb89d	-0.07798884
2	0xbd4aaa95	-0.049479086
3	0xbda09587	-0.0784102
4	0x3d095968	0.03353253
5	0xbe9fa933	-0.31183776
6	0xbeedb5b4	-0.4642769
7	0xbe37d786	-0.1795331
8	0xbda5b731	-0.080915816
9	0xbd994cc1	-0.07485343
10	0x3d04e9c5	0.032449502
11	0x3d9231cd	0.07138405
12	0x3e8d9200	0.27650452
13	0xc185894f	-16.692045
14	0x3eadba2b	0.33931097
15	0xbeb17dbc	-0.3466624
16	0xc1535754	-13.20882
17	0xbda647d0	-0.08119166
18	0x3e1f3ee3	0.15551333
19	0xbd0477f2	-0.03234095
20	0xbc39c1ab	-0.011337678
21	0xbeee4ee4	-0.46544564
22	0xbf0f78c9	-0.5604368
23	0xbdefd69a	-0.11710854
24	0xbe0e1ca9	-0.1387812
25	0xbee87136	-0.45398873
26	0xbdc1b882	-0.0945902
27	0xbd34479b	-0.0440136
28	0x3f6c8d9d	0.92403585
29	0x3d04b018	0.0323945
30	0x3e384e5f	0.17998646
31	0x3e5ca1e3	0.2154613
32	0xbf8d67f0	-1.1047344
33	0xbd28136c	-0.041034147
34	0xbc9caa7c	-0.019124262
35	0x3eefc834	0.4683243
36	0x3c27c7ba	0.01024049
37	0x3f78e79c	0.9722841
38	0xbe2a3c59	-0.16624583
39	0x3e97c268	0.29640508
40	0xbe47be8e	-0.19506285
41	0xbdd288bd	-0.10279987
42	0x3f019846	0.50622976
43	0xbd5251f1	-0.051347677
44	0xbcb93ef9	-0.022613036
45	0xbdfec113	-0.1243917
46	0xbf39ce9d	-0.7258089
47	0x3f171a43	0.5902445
48	0x3e8d0aa8	0.27547193
49	0x3d1dba12	0.03850753
50	0xbe456478	-0.19276607
51	0xbe0d8ec9	-0.13824
52	0x3e9004ce	0.28128666
53	0xbf8073b2	-1.0035307
54	0xbf3ed131	-0.7453795
55	0xbe51e3a4	-0.20496994
56	0x3e3f671d	0.18691678
57	0xbde19488	-0.11014658
58	0xbec8eb73	-0.39242133
59	0x3df753be	0.120765194
60	0x3e98caaa	0.2984212
61	0xc199cffa	-19.226551
62	0xbb44dcc1	-0.0030038806
63	0x3f039421	0.513979
64	0xc0c1d58a	-6.057317
65	0xbde13b93	-0.10997691
66	0x3e7ae26a	0.24500433
67	0x3d80c1ae	0.062869415
68	0x3d41b844	0.04729487
69	0xbf36bba4	-0.71380067
70	0xbf25b4c4	-0.6472895
71	0xbdd43844	-0.10362294
72	0xbc8ee11e	-0.017441329
73	0xbef17f4f	-0.4716744
74	0xbe34bd53	-0.17650346
75	0xbda73e21	-0.08166147
76	0xbf40403f	-0.7509803
77	0x3d334d22	0.04377473
78	0xbddc1697	-0.10746496
79	0x3ee51f60	0.447505
80	0x3e7e4c4e	0.24833795
81	0xbd672bad	-0.056438137
82	0x3e6ce0d6	0.23132643
83	0x3f392cbc	0.72333884
84	0x3bdb2aa9	0.006688435
85	0x3fc1fe18	1.5155668
86	0xbdf4509e	-0.11929439
87	0x3eeea245	0.46608177
88	0xbea61938	-0.32441115
89	0x3d4cbce3	0.049984824
90	0x3f192311	0.5981913
91	0xbd726121	-0.05917466
92	0xba151304	-0.00056867325
93	0xbdac07ea	-0.08399947
94	0xbf876368	-1.0577211
95	0x3f0320b9	0.51221806
96	0xbdeb6870	-0.11494529
97	0x3e1a91ec	0.15094727
98	0x3d41d196	0.047319017
99	0xbcb4efc7	-0.022086991
100	0xbe9f1d8b	-0.31077227
101	0xbf5a86ce	-0.85361946
102	0xbeaf36f7	-0.34221622
103	0xbd35f57a	-0.044423558
104	0x3e8d6260	0.27614117
105	0xbc2aeb3e	-0.010432063
106	0xbee26c60	-0.4422331
107	0x3d2dc750	0.042426407
108	0x3d98c06b	0.07458576
109	0xc185e608	-16.73732
110	0xbe9ad6d2	-0.3024202
111	0xbdc00487	-0.093758635
112	0xc16d5a72	-14.834581
113	0xbcc19be1	-0.0236339
114	0x3dda1a55	0.10649554
115	0x3da57a34	0.08079949
116	0xbd9fce60	-0.07803035
117	0xbef6b092	-0.48181587
118	0xbe3d9923	-0.18515448
119	0xbd164c33	-0.036693763
120	0xbd20162f	-0.039083656
121	0xbdcc7ba2	-0.099845186
122	0xbdb03670	-0.08604133
123	0xbca2db83	-0.019880062
124	0xbe20112a	-0.15631548
125	0x3d1a30cf	0.037644204
126	0xbd35cd4a	-0.044385232
127	0x3d97708b	0.07394513
128	0x3f72af76	0.9479898
129	0xbd23105b	-0.03981052
130	0x3e80d514	0.25162566
131	0x3e7abd00	0.2448616
132	0x3c03ca54	0.008043844
133	0x3f3ae232	0.73001397
134	0xbbb1b215	-0.0054228404
135	0x3d846288	0.06464106
136	0xbe4e2def	-0.2013471
137	0x3cb02157	0.021500273
138	0x3ca09273	0.019601082
139	0xbd1cdbf5	-0.038295705
140	0xbdf1d59d	-0.118083216
141	0x3c5b3ca9	0.013381162
142	0xbee9c489	-0.45657757
143	0x3d93e0f4	0.07220641
144	0xbe9f127f	-0.310688
145	0xbed6f29f	-0.4198198
146	0xbe9b7c11	-0.30368093
147	0xbe503e2b	-0.20336215
148	0xbd497787	-0.049186256
149	0x3edecd82	0.43516165
150	0x3f12f5ed	0.574065
151	0xbe8a00d0	-0.26953745
152	0xbd9ccc8a	-0.076562
153	0xbe25ac16	-0.16178927
154	0xbd92cb09	-0.07167632
155	0x3dfb0bbd	0.12258098
156	0x3f3606b7	0.71103996
157	0xc172b6c8	-15.169624
158	0x3d9a6dc7	0.075404696
159	0xbf4e0bc0	-0.8048668
160	0xc162cf9d	-14.175687
161	0xbdb81ec8	-0.08990246
162	0x3ebe6a13	0.37190303
163	0xbf0e1964	-0.55507493
164	0x3e43a5f3	0.19106273
165	0xbf110980	-0.5665512
166	0xbf0493a6	-0.51787794
167	0xbe3d4fcb	-0.1848747
168	0x3e2a1589	0.16609778
169	0xbedf3f64	-0.4360305
170	0xbde43049	-0.11142022
171	0xbd99ad7b	-0.07503792
172	0x3fdc47d6	1.7209423
173	0xbe014298	-0.1262306
174	0x3e7514ec	0.23933762
175	0x3f2feee9	0.6872392
176	0xbeb9edb0	-0.36314154
177	0xbd1ca530	-0.038243473
178	0xbd44aa47	-0.04801395
179	0x3f318d0d	0.6935585
180	0xbcb95975	-0.022625664
181	0xbfcef3fd	-1.6168209
182	0xbe142605	-0.14467628
183	0x3eabd04a	0.3355735
184	0x3dd40d83	0.1035414
185	0x3ee8eb36	0.45491952
186	0x3f032165	0.5122283
187	0xbd51cf09	-0.051222835
188	0xbf146e7b	-0.5798108
189	0xbecb2bd2	-0.3968187
190	0x3f31f40a	0.69513
191	0x3f2a58b3	0.66541594
192	0x3eeab3c0	0.45840263
193	0xbe8c46ac	-0.27397668
194	0xbf5bdae0	-0.8588085
195	0xbf1d891f	-0.61537355
196	0x3f1e53b5	0.61846477
197	0x3ea4f637	0.32219097
198	0x3f0b6187	0.5444569
199	0xbea54235	-0.32277074
200	0x3ea5848b	0.32327685
201	0xbe3dacb4	-0.18522912
202	0xbec36595	-0.38163438
203	0x3e1280fe	0.14307019
204	0x3f806918	1.0032072
205	0xc0591f9c	-3.3925543
206	0xbcb2d2cf	-0.021829037
207	0x3f887690	1.0661182
208	0xc0dfeb98	-6.997509
209	0xbdf7a8c6	-0.12092738
210	0x3f073b39	0.5282474
211	0xbf6af560	-0.9178066
212	0x3f18dcc4	0.5971186
213	0xbf51202c	-0.81689715
214	0xbf1acff8	-0.60473585
215	0xbe31ad5e	-0.1735129
216	0x3f0079c7	0.5018582
217	0xbeb9b1a6	-0.36268348
218	0xbe3fe7e4	-0.18740803
219	0xbe711bb8	-0.2354573
220	0xbfcb2414	-1.5870385
221	0xbe8ac9a6	-0.2710697
222	0xbe099790	-0.13436723
223	0x3f8657e7	1.0495576
224	0x3e815e15	0.2526709
225	0xbd4df8c8	-0.050286084
226	0x3ee97f90	0.45605135
227	0x3f892277	1.0713643
228	0xbd316e32	-0.04331798
229	0xc02a0e31	-2.6571162
230	0xbe041bd7	-0.12901245
231	0x3ea98230	0.33107138
232	0x3e1d0ae0	0.1533618
233	0x3f766c02	0.96258557
234	0x3f1a6c93	0.6032192
235	0xbd62578d	-0.055259276
236	0xbf38c71a	-0.72178805
237	0xbeda622c	-0.42653024
238	0x3f87fcc8	1.0624018
239	0x3f367f38	0.7128787
240	0xbe4321da	-0.19055882
241	0x3dd46054	0.10369936
242	0xbed0a702	-0.40752417
243	0xbecf3dbd	-0.4047679
244	0xbf1520fe	-0.5825347
245	0xbe390997	-0.18070064
246	0x3e3349c5	0.1750861
247	0xbdc42af0	-0.09578502
248	0x3ecc3e1f	0.39891145
249	0xbcf04f63	-0.02933473
250	0xbe861976	-0.261913
251	0x3d22a78a	0.03971056
252	0x3ee610fd	0.44934836
253	0xc18332fc	-16.399895
254	0xbda0cac2	-0.07851173
255	0xbebbc2e1	-0.36672118

model_1/block_1_project_BN/FusedBatchNormV3 f4 [8]
0	0xc0d5ffae	-6.687461
1	0xc15e02cb	-13.875682
2	0x41ff18f4	31.887184
3	0x41be6ebf	23.804075
4	0x3fa741bd	1.3066937
5	0x3f1e7012	0.61889756
6	0x41f91155	31.133463
7	0x41093382	8.575075

model_1/block_2_depthwise_BN/FusedBatchNormV3;model_1/block_2_depthwise/depthwise;model_1/block_3_depthwise/depthwise f4 [1, 3, 3, 48]
0	0x3d46554b	0.048421185
1	0xbcfc5d5e	-0.03080624
2	0x3e1c3e1e	0.15258071
3	0x3f8afdf3	1.0858749
4	0x3ca0603c	0.019577138
5	0x3eb0053a	0.34378988
6	0xbd7c6334	-0.061618045
7	0x3e2dbd7e	0.16966817
8	0x3daa76bc	0.08323428
9	0x3d25697e	0.04038381
10	0x3d0151e7	0.03157225
11	0x3d7e6a88	0.062113315
12	0xbda87c6f	-0.08226859
13	0xbd81c4b2	-0.06336345
14	0xbe465228	-0.19367278
15	0x3d81caf9	0.06337542
16	0xbcbc0a23	-0.022954052
17	0x3db13188	0.086520255
18	0xbd4fe3a7	-0.050754216
19	0xbf4aa255	-0.7915395
20	0xbd72ac6d	-0.05924647
21	0xbe53056a	-0.20607534
22	0x3f559829	0.834353
23	0xbd401ca5	-0.046902318
24	0xbc6c4920	-0.014421731
25	0x3cd0f2dc	0.02550643
26	0xbe0fdb2c	-0.14048451
27	0x3d102f8e	0.0352016
28	0xbd5b99e0	-0.053613544
29	0x3df0da83	0.11760428
30	0x3d83000e	0.06396495
31	0x3f62effa	0.88647425
32	0x3f0e2448	0.5552411
33	0x3e3036d7	0.1720842
34	0x3e9886d1	0.29790357
35	0xbe3a19dd	-0.18173929
36	0x3c6e52cf	0.01454611
37	0x3e4761d6	0.19470915
38	0xbd042a85	-0.032267112
39	0x3b640d2d	0.0034797892
40	0x3de00019	0.109375186
41	0xbe25f682	-0.16207317
42	0xbd1f7457	-0.03892931
43	0xbd24695f	-0.040139552
44	0x3df476c9	0.11936719
45	0x3b16ebda	0.0023028762
46	0xbd457074	-0.048202947
47	0xbd3aceb9	-0.045607302
48	0x3fd80d10	1.6878986
49	0x3df891ca	0.12137182
50	0x3de0a3fa	0.10968776
51	0xbf9e061f	-1.2345618
52	0x3e0a5d57	0.13512169
53	0x3ebd7484	0.37002957
54	0x3e927fe0	0.28613186
55	0x3d6b2998	0.057412714
56	0x3f2ec1c6	0.68264425
57	0x3f3f26fe	0.7466887
58	0x3cb7d13f	0.022438644
59	0x3eb2dbee	0.34933418
60	0xbf0f4b7b	-0.5597455
61	0xbe3361e2	-0.17517808
62	0x3cc3e006	0.023910534
63	0x3d67e347	0.056613233
64	0x3fa504a6	1.2892044
65	0xbf15ee2c	-0.58566546
66	0xbe11e123	-0.14246039
67	0xbec90a0b	-0.39265475
68	0xbf7935a9	-0.97347504
69	0x3e7fb568	0.24971545
70	0xbf3804ba	-0.7188221
71	0x3dcf6ec5	0.101285495
72	0x3df38f5a	0.118925765
73	0x3ecb0952	0.39655548
74	0xbf3b8a32	-0.73257744
75	0xbeba574e	-0.36394733
76	0x3e2bfc78	0.16795528
77	0x3f382e12	0.719453
78	0x3d325061	0.043533687
79	0xbf8d9c90	-1.1063404
80	0x3e13a788	0.14419377
81	0xbebaa155	-0.36451212
82	0x3f7b6aa1	0.9820958
83	0x3d91f88f	0.07127487
84	0xbf1e432d	-0.6182125
85	0xbe8f866a	-0.28032237
86	0xbdc0ef14	-0.094206005
87	0x3dcd4533	0.10022964
88	0xbef31149	-0.47474125
89	0xbe69e470	-0.22841048
90	0xbe244a13	-0.16043882
91	0x3c87af74	0.016563155
92	0xbe61267f	-0.21987341
93	0xbd3354fc	-0.04378222
94	0xbf620fac	-0.88305163
95	0x3dd7f359	0.10544462
96	0xbed1c784	-0.4097253
97	0xbcfc4585	-0.030794868
98	0x3d5b8ba3	0.053599965
99	0x3e196460	0.14979696
100	0xbb820633	-0.003968024
101	0x3e8ae802	0.27130133
102	0x3dcbe6f6	0.09956162
103	0x3dd2cf45	0.1029344
104	0x3e2495f4	0.16072828
105	0x3d3a417b	0.045472603
106	0xbd32c5d6	-0.043645702
107	0x3e81fe90	0.25389528
108	0xbe2db1c9	-0.16962351
109	0xbcf12d93	-0.029440677
110	0x3d8e6628	0.069530785
111	0x3cf5d66e	0.030009475
112	0xbf831977	-1.0242146
113	0x3e990934	0.29889834
114	0xbb620998	-0.0034490582
115	0x3f0600e9	0.5234514
116	0xbe9b336d	-0.30312672
117	0xbdc86e1b	-0.09786626
118	0xbde84873	-0.113419436
119	0xbd0fec97	-0.03513774
120	0xbd0165ea	-0.031591333
121	0xbeb23480	-0.3480568
122	0xbda60abf	-0.081075184
123	0x3df8f29b	0.12155648
124	0xbe08fac1	-0.13376905
125	0x3e3d04cb	0.1845886
126	0x3c886d28	0.016653612
127	0xbe3fb16c	-0.18720025
128	0x3e332694	0.17495185
129	0xbe0c179c	-0.13680881
130	0x3df78e84	0.120877296
131	0xbdf16d35	-0.11788408
132	0xbc1307b4	-0.008974005
133	0x3e8e9419	0.27847365
134	0x3eea8af7	0.45809147
135	0xbc320fa1	-0.010867984
136	0x3e99fe01	0.30076602
137	0x3db328a4	0.08747986
138	0xbdbaf4e6	-0.09128742
139	0x3d8a8dec	0.06765351
140	0xbe8d4f0f	-0.2759938
141	0x3b9998e0	0.0046874136
142	0xbcacc4c3	-0.021089917
143	0xbca83cfe	-0.020536896
144	0x3fd72119	1.6806976
145	0x3da2ea39	0.07954831
146	0xb7d2ecea	-2.5144273e-05
147	0xbf7ac1e1	-0.97952086
148	0x3d8450b1	0.06460703
149	0xbdf7b286	-0.120945975
150	0x3f6cbc79	0.92475086
151	0xbde2877a	-0.11060996
152	0x3d48ccd8	0.04902348
153	0x3d5782fb	0.052615147
154	0xbd1b8a83	-0.037973892
155	0x3ede867e	0.43461984
156	0xbd8c15a8	-0.06840068
157	0x3b275d09	0.002553763
158	0x3d9d458c	0.07679281
159	0xbe86aa34	-0.2630173
160	0x3bc2fb5c	0.0059503745
161	0xbf04b1be	-0.51833713
162	0xbe177268	-0.14789736
163	0xbf146a5b	-0.57974786
164	0x3dd87766	0.105696484
165	0xbf34da2b	-0.706454
166	0xbf51f161	-0.8200894
167	0xbdc91a46	-0.098194644
168	0x3d3ff136	0.046860896
169	0x3f11b20e	0.56912315
170	0xbeb47659	-0.35246542
171	0xbf09f8c8	-0.53895235
172	0xbda08449	-0.078377314
173	0x3f91e8ff	1.139923
174	0x3d4334c0	0.04765773
175	0xbf75bcdb	-0.95991296
176	0x3eee1c28	0.46505857
177	0xbea75d65	-0.32688442
178	0xbcb88aaf	-0.022527067
179	0x3f562de0	0.8366375
180	0xbd34aa8b	-0.044107955
181	0x3ea8de12	0.32981926
182	0xbef71ffb	-0.48266587
183	0x3d1933cc	0.037402913
184	0xbebe7f06	-0.37206286
185	0xbe9663f6	-0.2937314
186	0x3e49878a	0.1968061
187	0xbef756e1	-0.4830847
188	0xbe953c49	-0.29147556
189	0xbd87ec3b	-0.06636854
190	0xbda65cf1	-0.08123196
191	0xbcbd5c1d	-0.023115212
192	0x3ebf1ecf	0.37328193
193	0xbfbf0773	-1.4924148
194	0xbf8356e1	-1.0260888
195	0x3f90acf2	1.1302779
196	0xbf1dc14d	-0.6162308
197	0xbf0c399a	-0.54775393
198	0xc06115a4	-3.5169458
199	0xbf505b28	-0.81389093
200	0xbf3452af	-0.70438665
201	0xbf118e6f	-0.5685796
202	0x3ecb8dbc	0.39756572
203	0xbf828e8b	-1.0199751
204	0x3fb67a00	1.4255981
205	0x3f67946f	0.90460867
206	0x3e1c3128	0.15253127
207	0xbf814bd6	-1.0101268
208	0xbf52a84a	-0.8228804
209	0x3fab2026	1.3369186
210	0x3ea640cc	0.3247131
211	0xbf36a025	-0.7133811
212	0x3f9b9359	1.2154342
213	0x3f9874d2	1.1910651
214	0x3f3c3f99	0.7353454
215	0x3f49db12	0.788499
216	0x3f73298b	0.94985265
217	0xbf3e1d3a	-0.74263346
218	0xc03a9158	-2.915121
219	0x3e00c512	0.12575176
220	0xbf827a90	-1.0193653
221	0xc094fee7	-4.656116
222	0x3ec1234b	0.3772224
223	0x3f9023d8	1.1260939
224	0xc0585cec	-3.3806715
225	0x3f4544d4	0.7705815
226	0xbe6dae6c	-0.23211068
227	0xbe8e91c3	-0.27845582
228	0x3ff954c3	1.9478992
229	0xbf4155cd	-0.75521547
230	0x3fbde159	1.4834396
231	0x3dde236a	0.108465984
232	0x3f44bf28	0.7685418
233	0xbe3acf98	-0.18243253
234	0x3f22c969	0.6358858
235	0x3f3421a4	0.7036383
236	0x3f568e1f	0.8381061
237	0xbf0f223a	-0.559116
238	0x3f33aed3	0.70188636
239	0x3ef7996c	0.4835924
240	0x3f3d2a83	0.7389299
241	0x3d6258e0	0.05526054
242	0x3ec84209	0.3911288
243	0xbe0f50e0	-0.13995695
244	0x3cce819a	0.025208283
245	0xbe85eb4d	-0.26156083
246	0x3f95eea5	1.1713454
247	0x3de06f8f	0.10958778
248	0xbe01dd28	-0.1268202
249	0x3da9969e	0.08280681
250	0xbea8e99d	-0.32990733
251	0xbd78d3d1	-0.06074888
252	0x3b9a3b69	0.0047067893
253	0xbe9248ef	-0.2857127
254	0x3f0b0ac1	0.54313284
255	0x3d144ecb	0.036207955

model_1/block_2_project_BN/FusedBatchNormV3 f4 [8]
0	0xc1854af1	-16.661592
1	0x41a7c5a4	20.971504
2	0xc1aadfee	-21.35934
3	0xc1869c68	-16.82637
4	0x41567acf	13.404983
5	0xbcd7fd84	-0.026366003
6	0x41ac5c3e	21.54504
7	0x4232ac58	44.668304

model_1/block_3_depthwise_BN/FusedBatchNormV3;model_1/block_3_depthwise/depthwise f4 [1, 3, 3, 48]
0	0x3e5c8291	0.21534182
1	0xbe0c3ad8	-0.13694322
2	0x3f33edd4	0.7028477
3	0x3e1c5282	0.15265849
4	0x3e9db0c0	0.30798912
5	0xbdbbb3ef	-0.09165179
6	0x3f19062a	0.5977503
7	0xbeaa3ad7	-0.33248016
8	0x3e5f8b17	0.21830402
9	0xbe10e624	-0.14150292
10	0xbe223405	-0.15840156
11	0x3e524c02	0.20536807
12	0x3da1992e	0.07890545
13	0xbd6cf3d6	-0.057849728
14	0xbeef2773	-0.46709785
15	0xbf28f84a	-0.6600386
16	0x3f455ea6	0.7709755
17	0x3e88a425	0.26687732
18	0x3e9888b8	0.29791808
19	0x3f0756ea	0.52866995
20	0x3e75e493	0.24012975
21	0xbf197391	-0.59941965
22	0xbe979dd6	-0.29612607
23	0x3e758a0d	0.23978443
24	0xbe15f397	-0.14643703
25	0xbe2f9e9c	-0.17150348
26	0xbd84e6d1	-0.06489337
27	0xbe3d525f	-0.18488453
28	0xbeabf3de	-0.33584493
29	0x3e4b3eb6	0.19848141
30	0xbe8afdba	-0.27146703
31	0xbf4b29ce	-0.79360664
32	0xbd103bfe	-0.035213463
33	0x3e4ca9e5	0.19986685
34	0x3da1b2d0	0.07895434
35	0x3e1a8cbe	0.15092751
36	0xbe8d568a	-0.27605087
37	0x3e39054a	0.18068424
38	0xbe574e55	-0.21025975
39	0xbdba3074	-0.09091273
40	0x3e4874c4	0.19575793
41	0xbe8a2e4b	-0.26988444
42	0x3e5aa926	0.21353588
43	0x3e6c82da	0.23096791
44	0xbdfc9fb5	-0.12335149
45	0x3da8606f	0.08221518
46	0x3ead0da5	0.33799472
47	0xbd49cb27	-0.049266007
48	0x3e7fee81	0.24993326
49	0xbe0be88a	-0.13662925
50	0x3f70cb7e	0.94060504
51	0x3e369350	0.17829633
52	0xbeed77aa	-0.4638036
53	0xbe4179c5	-0.18894108
54	0xbeae1ad9	-0.34004858
55	0xbed195e8	-0.40934682
56	0x3eb9e23a	0.3630541
57	0xbe229746	-0.15878019
58	0xbdfd281e	-0.12361167
59	0x3ea02082	0.31274801
60	0x3dfd09aa	0.12355359
61	0xbe1a013b	-0.15039532
62	0xbf1f696f	-0.62270254
63	0x3f2c50c9	0.6731077
64	0xbe9abe4f	-0.3022332
65	0x3ea29c77	0.31759998
66	0x3ef5739f	0.47939774
67	0x3f57dad1	0.8431826
68	0x3e981102	0.29700476
69	0xbf6fb443	-0.9363443
70	0x3e3f4821	0.18679859
71	0x3ea37355	0.3192393
72	0xbe792f1a	-0.24334374
73	0xbeac9afa	-0.33711988
74	0xbd892934	-0.06697312
75	0xbe66f2f5	-0.22553618
76	0x3e918009	0.28417996
77	0x3e8095ab	0.25114188
78	0xbdf90185	-0.12158493
79	0xbf694edb	-0.9113595
80	0xbe3689f5	-0.17826064
81	0x3ec81421	0.39077857
82	0x3dbb3ffa	0.09143062
83	0x3e453a7b	0.1926059
84	0xbeb6423b	-0.35597405
85	0x3e8d6c8f	0.27621886
86	0xbeafdeb2	-0.3434959
87	0xbd775e83	-0.060392868
88	0x3e9300e5	0.2871162
89	0xbeb5b509	-0.3548968
90	0x3e97c15d	0.29639712
91	0x3ea9d25d	0.33168307
92	0xbdbefb85	-0.09325317
93	0xbf7b4c17	-0.9816298
94	0x3ecc0f60	0.3985548
95	0xbe0fa2b3	-0.14026909
96	0x3ddf66dd	0.109082915
97	0xbd8a2989	-0.067462035
98	0x3f019538	0.50618315
99	0x3da456ad	0.080243446
100	0x3dc9b993	0.098498486
101	0xbde68da4	-0.112574846
102	0xbe8c43fd	-0.2739562
103	0xbe4a2fb0	-0.19744754
104	0x3e2035d9	0.15645541
105	0xbd5ca73a	-0.053870417
106	0x3ba18d3e	0.0049301675
107	0x3e14a1b1	0.14514805
108	0x3d410dd7	0.04713234
109	0xbddc3e20	-0.10754037
110	0xbeb6358b	-0.35587725
111	0xbcf970ab	-0.030449232
112	0xbed20689	-0.4102061
113	0x3df7d534	0.12101212
114	0x3e533876	0.20627007
115	0x3efc4f41	0.49279216
116	0x3df6ea52	0.12056412
117	0xbee16dec	-0.44029176
118	0x3dd1bebd	0.102414586
119	0x3df545e5	0.11976222
120	0xbe080549	-0.13283266
121	0xbe4ba30d	-0.19886418
122	0xbd3bb893	-0.04583032
123	0xbd898a63	-0.06715848
124	0x3e2d57c0	0.16928005
125	0x3dcf4e96	0.10122411
126	0x3ec83852	0.3910547
127	0xbf203e58	-0.6259513
128	0xbe2bae7e	-0.16765782
129	0x3e647231	0.22309186
130	0x3d20d652	0.03926689
131	0x3da708c7	0.08155971
132	0xbe07d289	-0.13263907
133	0x3e0b778d	0.13619824
134	0xbe207042	-0.15667823
135	0xbd2e80ae	-0.042603187
136	0x3e21026a	0.15723577
137	0xbe22c80d	-0.15896626
138	0x3e02db54	0.1277898
139	0x3e25a571	0.16176392
140	0xbc1d1b07	-0.009588963
141	0xbd9f880f	-0.07789623
142	0x3e26b06a	0.16278234
143	0xbdd46776	-0.10371296
144	0x3e8fd81e	0.28094572
145	0xbe303ed0	-0.17211461
146	0xbea444a6	-0.32083625
147	0x3e4541a6	0.19263324
148	0x3ea3f819	0.3202522
149	0xbe658050	-0.22412229
150	0x3f38a01a	0.72119296
151	0xbedf2643	-0.4358388
152	0x3eaa7fba	0.33300573
153	0xbe33de05	-0.17565162
154	0xbe0aa9f2	-0.13541391
155	0x3ead1d1b	0.33811268
156	0x3e03cfe1	0.12872268
157	0xbe185c39	-0.1487893
158	0xbdc1611c	-0.0944235
159	0xbf6f0eaa	-0.9338175
160	0x3f7334bf	0.9500236
161	0x3eb965b5	0.3621041
162	0x3ee150a5	0.4400684
163	0xbe80bdbf	-0.25144765
164	0x3e9a93f2	0.30190998
165	0x3f6b3f94	0.9189389
166	0xbeeaac2e	-0.45834488
167	0x3ea42693	0.3206068
168	0x3eb161a9	0.3464482
169	0xbeaa580e	-0.33270305
170	0xbdc3a8b0	-0.09553659
171	0xbe916c31	-0.28402856
172	0xbf227302	-0.6345674
173	0x3e8d866a	0.27641612
174	0xbe95929a	-0.2921341
175	0xbd89a3f4	-0.06720725
176	0xbe3a0ea7	-0.18169652
177	0x3eb908b3	0.3613945
178	0x3df0769b	0.11741372
179	0x3e623d5e	0.22093722
180	0xbec16b95	-0.3777739
181	0x3e837474	0.25674784
182	0xbeabc483	-0.33548364
183	0x3eaf98f0	0.3429637
184	0x3e9eff76	0.31054276
185	0xbebf1577	-0.37321064
186	0x3e9f167a	0.31071836
187	0x3eaeb705	0.34124008
188	0xbde355c8	-0.11100346
189	0x3f50710c	0.81422496
190	0x3ecda65b	0.40165982
191	0xbe07668c	-0.13222712
192	0x3ec2a7b6	0.38018578
193	0xbe423d8c	-0.18968791
194	0xbef59430	-0.4796462
195	0x3e8a06fc	0.26958454
196	0xbf3b89f0	-0.7325735
197	0xbeb17f89	-0.34667614
198	0xbf03e255	-0.5151723
199	0xbf20dda9	-0.62838227
200	0x3ef6425e	0.4809751
201	0xbe48c90d	-0.19607945
202	0xbe76be78	-0.24096096
203	0x3f072eab	0.52805585
204	0x3e48b7da	0.19601384
205	0xbe302c48	-0.17204392
206	0xbe1b4fca	-0.15167156
207	0x3f385f69	0.72020584
208	0xbeffd66c	-0.49968278
209	0x3ed429c6	0.4143812
210	0x3f3af6a2	0.7303258
211	0xbeb37cdd	-0.350562
212	0x3ee7fbbe	0.45309252
213	0x3f897f09	1.0741893
214	0x3e81ff28	0.2538998
215	0x3f1170cc	0.5681274
216	0x3f1b6d10	0.6071329
217	0xbf0cb149	-0.54958016
218	0xbe020c9a	-0.1270012
219	0xbeb85c93	-0.3600813
220	0x3e86ab16	0.26302403
221	0x3ecb8471	0.39749482
222	0xbe011c8a	-0.12608543
223	0x3dcf2706	0.10114865
224	0xbe86dca5	-0.26340213
225	0x3f23ebd5	0.64031726
226	0x3e104873	0.14090137
227	0x3e966ec5	0.29381385
228	0xbf0b4c08	-0.5441289
229	0x3ed7377f	0.42034528
230	0xbf061fdb	-0.5239236
231	0x3efd08c1	0.4942074
232	0x3ef48db0	0.4776435
233	0xbeeb4e63	-0.45958242
234	0x3ee57954	0.4481913
235	0x3eed03fa	0.46292096
236	0xbe27f9c3	-0.1640387
237	0xbdbe0ebe	-0.092801556
238	0x3f0c4e16	0.5480665
239	0xbe3acf81	-0.18243219
240	0x3e4049e9	0.18778194
241	0xbdf0a121	-0.11749483
242	0xbe80b179	-0.251354
243	0x3e1670ac	0.14691418
244	0x3e646752	0.22305039
245	0xbe2e29ba	-0.17008105
246	0xbe84c1f2	-0.2592922
247	0xbe9d113a	-0.30677205
248	0x3e54475b	0.20730345
249	0xbd9ca564	-0.07648733
250	0xbdefc784	-0.117079765
251	0x3e77ea3d	0.24210449
252	0x3d9c9b87	0.07646852
253	0xbd982cc2	-0.07430412
254	0xbdd3c200	-0.10339737
255	0x3d821d32	0.06353225

model_1/block_3_project_BN/FusedBatchNormV3 f4 [16]
0	0xc1dcc478	-27.595932
1	0xc060bb34	-3.511426
2	0xbf7679d0	-0.9627962
3	0xc11495bf	-9.286559
4	0xc02a3690	-2.6595802
5	0xc09c4c67	-4.8843265
6	0xc1454699	-12.329736
7	0xc1c3601f	-24.421934
8	0x402896f6	2.634214
9	0x416435c8	14.26313
10	0x41f11a6d	30.137903
11	0xbe598251	-0.21241118
12	0x402272e8	2.5382633
13	0xc1bd80a8	-23.68782
14	0x41ca1c07	25.263685
15	0xc197417b	-18.906973
