src/lib/libtf/models/obj_detection.tflite (tflite, 56736 bytes, 21 tensors)

model_1/logits/Conv2D i1 [5, 1, 1, 32]
000000 40 16 ec ea c6 35 fb dc 2a 30 9e d7 d0 33 34 32
       64 22 -20 -22 -58 53 -5 -36 42 48 -98 -41 -48 51 52 50
000010 ce aa f1 cc e5 0c 9a a2 21 ff 3a 81 12 23 09 d1
       -50 -86 -15 -52 -27 12 -102 -94 33 -1 58 -127 18 35 9 -47
000020 20 36 6e 49 4b 79 24 06 dd a9 1c e0 c3 04 af 3b
       32 54 110 73 75 121 36 6 -35 -87 28 -32 -61 4 -81 59
000030 30 3c fc e7 8c 22 77 fe e9 31 35 27 3f bc 32 81
       48 60 -4 -25 -116 34 119 -2 -23 49 53 39 63 -68 50 -127
000040 d0 ee f9 be 1b 44 7f f1 65 33 ff 77 56 76 a6 fb
       -48 -18 -7 -66 27 68 127 -15 101 51 -1 119 86 118 -90 -5
000050 17 26 32 20 05 dc 2e d5 24 19 56 36 e5 fe 48 7d
       23 38 50 32 5 -36 46 -43 36 25 86 54 -27 -2 72 125
000060 39 e5 1b 0a 7f fe 00 d5 43 be fa d7 14 fd 11 ef
       57 -27 27 10 127 -2 0 -43 67 -66 -6 -41 20 -3 17 -17
000070 c6 f9 f3 04 1f 3f d7 ea 21 4d 25 d4 18 5c 5c d6
       -58 -7 -13 4 31 63 -41 -22 33 77 37 -44 24 92 92 -42
000080 c3 e5 5e 16 1f 40 eb d9 62 1f 5e ce 31 d9 3c 22
       -61 -27 94 22 31 64 -21 -39 98 31 94 -50 49 -39 60 34
000090 58 a4 cd 23 27 b3 d3 77 e6 b1 e1 a6 8f 7f f7 d7
       88 -92 -51 35 39 -77 -45 119 -26 -79 -31 -90 -113 127 -9 -41

model_1/head/Conv2D i1 [32, 1, 1, 96]
000000 0d 10 75 35 3e 0b f8 df 58 d4 e9 26 3a 38 19 52
       13 16 117 53 62 11 -8 -33 88 -44 -23 38 58 56 25 82
000010 0b 1d e0 f3 ff ed 35 76 cf 35 66 0e 72 fe 23 dd
       11 29 -32 -13 -1 -19 53 118 -49 53 102 14 114 -2 35 -35
000020 67 07 e9 55 e6 fa d4 44 61 f9 ed 72 53 e7 76 24
       103 7 -23 85 -26 -6 -44 68 97 -7 -19 114 83 -25 118 36
000030 3e ed f9 60 f7 06 ec 73 36 59 6b e8 fb 62 f7 4a
       62 -19 -7 96 -9 6 -20 115 54 89 107 -24 -5 98 -9 74
000040 fb 3a 5f 6b 49 69 61 d8 74 e4 3e 68 ce 38 09 42
       -5 58 95 107 73 105 97 -40 116 -28 62 104 -50 56 9 66
000050 53 33 66 27 09 15 fa 6a 40 7f 20 b5 2d 4f 3d 2b
       83 51 102 39 9 21 -6 106 64 127 32 -75 45 79 61 43
000060 a7 e1 9e ca b3 ff e3 d1 ff 8a 89 0f f5 bb db f5
       -89 -31 -98 -54 -77 -1 -29 -47 -1 -118 -119 15 -11 -69 -37 -11
000070 11 b1 49 17 ad c8 e3 dd e2 d7 b1 10 d2 ce 0b a2
       17 -79 73 23 -83 -56 -29 -35 -30 -41 -79 16 -46 -50 11 -94
000080 f2 0e c5 de ed f2 c4 a2 a4 d0 bd 8e b5 e3 b8 a9
       -14 14 -59 -34 -19 -14 -60 -94 -92 -48 -67 -114 -75 -29 -72 -87
000090 bd 94 14 f1 3a 01 99 ab dd 0c f2 00 a6 15 a1 99
       -67 -108 20 -15 58 1 -103 -85 -35 12 -14 0 -90 21 -95 -103
0000a0 a6 e2 fc e6 0e dd d7 d2 83 07 ac ea 00 ae b1 fb
       -90 -30 -4 -26 14 -35 -41 -46 -125 7 -84 -22 0 -82 -79 -5
0000b0 98 02 aa 81 dd 16 a0 a1 fe ff 07 dc 01 05 dd c8
       -104 2 -86 -127 -35 22 -96 -95 -2 -1 7 -36 1 5 -35 -56
0000c0 e8 e3 0d 07 26 0e 6d 07 8b 6c b4 7e 05 c1 69 84
       -24 -29 13 7 38 14 109 7 -117 108 -76 126 5 -63 105 -124
0000d0 0f 23 e3 57 8d 2b 7c 42 bf 67 77 3a 07 fe 67 07
       15 35 -29 87 -115 43 124 66 -65 103 119 58 7 -2 103 7
0000e0 08 be f9 86 fd 71 0f b9 81 9a d4 31 ff 16 bb 03
       8 -66 -7 -122 -3 113 15 -71 -127 -102 -44 49 -1 22 -69 3
0000f0 75 4c 04 fb ad f4 42 3f 08 08 a3 37 c0 5a 1e 61
       117 76 4 -5 -83 -12 66 63 8 8 -93 55 -64 90 30 97

model_1/block_6_expand/Conv2D i1 [96, 1, 1, 16]
000000 c6 19 d8 81 08 11 10 f7 19 32 db 0f 34 b1 22 fd
       -58 25 -40 -127 8 17 16 -9 25 50 -37 15 52 -79 34 -3
000010 bd 38 ff 27 c2 c3 e9 9d 54 fb 01 36 d9 2b f3 81
       -67 56 -1 39 -62 -61 -23 -99 84 -5 1 54 -39 43 -13 -127
000020 39 ce 23 4d 50 43 18 14 7f 25 c6 3e 2f 6e a0 d5
       57 -50 35 77 80 67 24 20 127 37 -58 62 47 110 -96 -43
000030 e9 09 39 82 3b 23 30 34 7f 34 fb e7 30 e8 42 1d
       -23 9 57 -126 59 35 48 52 127 52 -5 -25 48 -24 66 29
000040 81 66 47 5d 41 2b 39 5d c8 43 d6 29 d1 30 b7 dc
       -127 102 71 93 65 43 57 93 -56 67 -42 41 -47 48 -73 -36
000050 32 60 7f 33 e0 09 f9 66 09 64 1f 19 4a 10 d6 3f
       50 96 127 51 -32 9 -7 102 9 100 31 25 74 16 -42 63
000060 e3 b1 7b 81 4b 33 19 6e 9f f6 54 1e 35 04 26 fe
       -29 -79 123 -127 75 51 25 110 -97 -10 84 30 53 4 38 -2
000070 54 20 b4 9c 7f 42 3b 12 28 10 b3 47 dd b6 f7 5b
       84 32 -76 -100 127 66 59 18 40 16 -77 71 -35 -74 -9 91
000080 e6 9f 2a e5 33 fa 2f ee 35 4f 12 1d 2f 7f 5c 08
       -26 -97 42 -27 51 -6 47 -18 53 79 18 29 47 127 92 8
000090 27 0a 1e 7f 40 1b fc b2 af 30 f5 cf da f3 d9 1c
       39 10 30 127 64 27 -4 -78 -81 48 -11 -49 -38 -13 -39 28
0000a0 49 6f 1b b7 5f 53 a2 7f d4 83 c3 8d 99 1e ab d1
       73 111 27 -73 95 83 -94 127 -44 -125 -61 -115 -103 30 -85 -47
0000b0 df ea 33 15 18 c8 1b b4 e6 3e 21 39 22 7f f1 c7
       -33 -22 51 21 24 -56 27 -76 -26 62 33 57 34 127 -15 -57
0000c0 e9 ad f1 3e 5e 11 5b 58 c3 71 81 27 2d 11 b7 ce
       -23 -83 -15 62 94 17 91 88 -61 113 -127 39 45 17 -73 -50
0000d0 0a ef d4 f1 1b 81 15 26 ec df ee e8 21 dd 20 20
       10 -17 -44 -15 27 -127 21 38 -20 -33 -18 -24 33 -35 32 32
0000e0 5d a2 10 9d 7f 4c d3 f2 a9 1f d3 57 4e 82 36 29
       93 -94 16 -99 127 76 -45 -14 -87 31 -45 87 78 -126 54 41
0000f0 81 cb b0 21 bb 45 14 e4 2a 63 79 31 c4 f7 70 bd
       -127 -53 -80 33 -69 69 20 -28 42 99 121 49 -60 -9 112 -67

model_1/block_5_project/Conv2D i1 [16, 1, 1, 96]
000000 d8 db 1d 02 28 e0 c7 1b f2 1e dd 1e e0 14 d1 ea
       -40 -37 29 2 40 -32 -57 27 -14 30 -35 30 -32 20 -47 -22
000010 e4 e9 18 e4 ed 01 e9 1e 1e ee 1e 7f 34 fe 3b dd
       -28 -23 24 -28 -19 1 -23 30 30 -18 30 127 52 -2 59 -35
000020 1a ea ea 1c 13 f0 c7 e2 12 20 1b 02 1f 26 25 e9
       26 -22 -22 28 19 -16 -57 -30 18 32 27 2 31 38 37 -23
000030 2e 1b 15 ec 28 0c dd 25 e9 ec cf ff 17 2e 1a 07
       46 27 21 -20 40 12 -35 37 -23 -20 -49 -1 23 46 26 7
000040 c6 e8 0a 03 20 23 28 da 15 01 17 08 d1 29 e7 20
       -58 -24 10 3 32 35 40 -38 21 1 23 8 -47 41 -25 32
000050 de 06 2f f6 18 de df d2 1d 0f 1f e2 3f 01 ca dc
       -34 6 47 -10 24 -34 -33 -46 29 15 31 -30 63 1 -54 -36
000060 41 a9 a5 b2 7f 1f 02 43 1b ec b1 cc 2b 25 00 f1
       65 -87 -91 -78 127 31 2 67 27 -20 -79 -52 43 37 0 -15
000070 fa 2d f7 46 e4 43 cc b2 32 d2 21 a8 ee ca af 42
       -6 45 -9 70 -28 67 -52 -78 50 -46 33 -88 -18 -54 -81 66
000080 1a ed 2c d8 dd d2 2a e5 c3 ef bc c9 0e 14 de dd
       26 -19 44 -40 -35 -46 42 -27 -61 -17 -68 -55 14 20 -34 -35
000090 e9 a5 31 0d 1b f2 4b e0 03 c9 c0 c0 39 cb d8 ba
       -23 -91 49 13 27 -14 75 -32 3 -55 -64 -64 57 -53 -40 -70
0000a0 9e 1e 17 c9 25 16 1b 34 4d 90 15 d9 40 b5 47 2d
       -98 30 23 -55 37 22 27 52 77 -112 21 -39 64 -75 71 45
0000b0 dc 17 e9 29 06 3f cc 3b ec 0e d6 de e9 df ee 1a
       -36 23 -23 41 6 63 -52 59 -20 14 -42 -34 -23 -33 -18 26
0000c0 d4 f7 9c 26 67 60 e6 5c 2b ec 2c c8 d0 2d e4 e2
       -44 -9 -100 38 103 96 -26 92 43 -20 44 -56 -48 45 -28 -30
0000d0 33 23 b4 fc 3a 2c 01 3a 4d 3d 2a ba e8 27 4a af
       51 35 -76 -4 58 44 1 58 77 61 42 -70 -24 39 74 -81
0000e0 42 ea 1d 43 81 f8 e3 e6 2f 10 38 c6 3a 18 2e 58
       66 -22 29 67 -127 -8 -29 -26 47 16 56 -58 58 24 46 88
0000f0 1b 39 1d cc 65 ce cd f5 e7 34 e6 30 3c 3c 42 c1
       27 57 29 -52 101 -50 -51 -11 -25 52 -26 48 60 60 66 -63

model_1/block_5_depthwise_BN/FusedBatchNormV3;model_1/block_5_depthwise/depthwise;model_1/block_6_expand/Conv2D i1 [1, 3, 3, 96]
000000 d6 b6 f7 7e 12 36 45 c2 ec e9 f7 04 ea f6 2a f9
       -42 -74 -9 126 18 54 69 -62 -20 -23 -9 4 -22 -10 42 -7
000010 fc ca 15 0f 07 81 75 0e b3 fb 3c df 83 81 1f 12
       -4 -54 21 15 7 -127 117 14 -77 -5 60 -33 -125 -127 31 18
000020 02 23 48 f5 de fb 23 ed ed 22 a4 38 14 c3 2a 27
       2 35 72 -11 -34 -5 35 -19 -19 34 -92 56 20 -61 42 39
000030 f2 2b ee 19 fc ff 1a 39 b2 d5 d4 e5 ef f9 05 2f
       -14 43 -18 25 -4 -1 26 57 -78 -43 -44 -27 -17 -7 5 47
000040 4d e2 46 06 00 08 0f 7f 1e 12 14 f8 f1 19 7f f2
       77 -30 70 6 0 8 15 127 30 18 20 -8 -15 25 127 -14
000050 ea 18 db 18 7f 0a b0 f5 09 e9 ea e7 fb ed eb 13
       -22 24 -37 24 127 10 -80 -11 9 -23 -22 -25 -5 -19 -21 19
000060 7f 81 58 76 d9 7f 3a 97 3c 00 f4 7f 7f a6 f7 16
       127 -127 88 118 -39 127 58 -105 60 0 -12 127 127 -90 -9 22
000070 05 7f 78 9c 7f ca 55 50 8f 81 c2 d9 c3 36 c2 e3
       5 127 120 -100 127 -54 85 80 -113 -127 -62 -39 -61 54 -62 -29
000080 b6 3b 81 b6 dd ed d4 2b f9 7f 7f 54 c4 81 9b d5
       -74 59 -127 -74 -35 -19 -44 43 -7 127 127 84 -60 -127 -101 -43
000090 f5 81 23 5d 36 dd 39 51 db 30 c3 81 cc cd bf 4e
       -11 -127 35 93 54 -35 57 81 -37 48 -61 -127 -52 -51 -65 78
0000a0 53 bd 24 15 a7 25 f3 5d 7f 7f 08 1c fc 36 e7 39
       83 -67 36 21 -89 37 -13 93 127 127 8 28 -4 54 -25 57
0000b0 3d 6f 7f ef ff 3d a1 7f 99 a8 ff 8b 9c 81 d3 60
       61 111 127 -17 -1 61 -95 127 -103 -88 -1 -117 -100 -127 -45 96
0000c0 ac ef 18 b0 12 f3 56 ff 46 d7 eb 19 f3 05 fb fc
       -84 -17 24 -80 18 -13 86 -1 70 -41 -21 25 -13 5 -5 -4
0000d0 fd f7 02 03 d9 9b 15 07 93 6d 01 c4 61 3a ec 11
       -3 -9 2 3 -39 -101 21 7 -109 109 1 -60 97 58 -20 17
0000e0 f8 02 17 ea fd 1b 18 fe 13 07 9b 32 0c e4 1d 12
       -8 2 23 -22 -3 27 24 -2 19 7 -101 50 12 -28 29 18
0000f0 f6 04 f6 0a ef fd 06 1c c9 00 d7 30 fd 24 19 07
       -10 4 -10 10 -17 -3 6 28 -55 0 -41 48 -3 36 25 7

model_1/block_5_expand/Conv2D i1 [96, 1, 1, 16]
000000 3a 65 29 6e d8 dc 42 30 4f 51 12 7f 3d e5 e4 e6
       58 101 41 110 -40 -36 66 48 79 81 18 127 61 -27 -28 -26
000010 46 60 c4 b9 4a 1b 3a d7 35 7f 28 24 d0 a2 50 3e
       70 96 -60 -71 74 27 58 -41 53 127 40 36 -48 -94 80 62
000020 81 4c 26 2d c7 35 e5 6c 28 e5 75 2f 15 41 4b 1d
       -127 76 38 45 -57 53 -27 108 40 -27 117 47 21 65 75 29
000030 9a e1 5b 63 26 5f e7 02 cd e4 81 c3 57 99 91 21
       -102 -31 91 99 38 95 -25 2 -51 -28 -127 -61 87 -103 -111 33
000040 49 c3 e9 7f b1 07 c1 6b 42 b4 c2 c0 dc c0 b6 ad
       73 -61 -23 127 -79 7 -63 107 66 -76 -62 -64 -36 -64 -74 -83
000050 cc 1d 53 c3 d6 c1 cd e2 a5 10 1d 81 c8 3e 0d c1
       -52 29 83 -61 -42 -63 -51 -30 -91 16 29 -127 -56 62 13 -63
000060 49 c6 5c 2e 64 76 81 f1 be c4 f6 b8 49 af b6 15
       73 -58 92 46 100 118 -127 -15 -66 -60 -10 -72 73 -81 -74 21
000070 4d 47 2c b9 2a a4 ca 36 83 da 81 17 45 be 58 be
       77 71 44 -71 42 -92 -54 54 -125 -38 -127 23 69 -66 88 -66
000080 d3 d8 f3 ed a8 68 44 53 df cb ce 94 b3 cb 81 0d
       -45 -40 -13 -19 -88 104 68 83 -33 -53 -50 -108 -77 -53 -127 13
000090 d3 fa 61 dc 47 2c c1 cd 0b c2 6f 46 b1 c5 81 ae
       -45 -6 97 -36 71 44 -63 -51 11 -62 111 70 -79 -59 -127 -82
0000a0 2b 86 c0 b2 81 c3 b5 65 7d 09 5e ad ac 69 ee 3f
       43 -122 -64 -78 -127 -61 -75 101 125 9 94 -83 -84 105 -18 63
0000b0 e0 31 c9 02 45 b3 81 ee 1b 55 be 29 4f 2d 55 9d
       -32 49 -55 2 69 -77 -127 -18 27 85 -66 41 79 45 85 -99
0000c0 2d 39 3c b3 22 b3 93 2c 1c a0 bd d3 d8 7f fd 51
       45 57 60 -77 34 -77 -109 44 28 -96 -67 -45 -40 127 -3 81
0000d0 22 fd 0f db c5 a3 ca bc e8 d1 c3 c2 43 d6 7f 48
       34 -3 15 -37 -59 -93 -54 -68 -24 -47 -61 -62 67 -42 127 72
0000e0 37 14 57 47 43 49 d0 7f d6 ea d1 1f d3 4f a7 0f
       55 20 87 71 67 73 -48 127 -42 -22 -47 31 -45 79 -89 15
0000f0 e3 a2 39 7f 49 c6 3c 36 3c 9d 47 0c 37 1d c1 0b
       -29 -94 57 127 73 -58 60 54 60 -99 71 12 55 29 -63 11

model_1/block_4_project/Conv2D i1 [16, 1, 1, 96]
000000 27 38 1f e9 50 65 09 0f 50 2b e3 2f 1f 34 ec 14
       39 56 31 -23 80 101 9 15 80 43 -29 47 31 52 -20 20
000010 d9 d2 d1 22 7f f7 df 1a 14 b8 b3 84 23 24 51 53
       -39 -46 -47 34 127 -9 -33 26 20 -72 -77 -124 35 36 81 83
000020 3f 23 2c d6 e0 16 17 30 0b 34 39 0d db bd cc ee
       63 35 44 -42 -32 22 23 48 11 52 57 13 -37 -67 -52 -18
000030 1d e9 2a d0 b9 1c de 25 4a ec c5 c1 f4 f2 cf 1b
       29 -23 42 -48 -71 28 -34 37 74 -20 -59 -63 -12 -14 -49 27
000040 34 31 5a 29 33 2c 29 c0 a1 25 d6 da 22 da de 18
       52 49 90 41 51 44 41 -64 -95 37 -42 -38 34 -38 -34 24
000050 4a c7 f5 b2 42 1d 2d ee 22 2b e9 0d 3d ea f5 48
       74 -57 -11 -78 66 29 45 -18 34 43 -23 13 61 -22 -11 72
000060 05 ee 49 5c cc 02 c9 b7 c3 98 cf 3e da ab 16 b0
       5 -18 73 92 -52 2 -55 -73 -61 -104 -49 62 -38 -85 22 -80
000070 9c d0 e3 3b 15 8d 13 e4 7f 03 a3 de 1b 10 c9 4e
       -100 -48 -29 59 21 -115 19 -28 127 3 -93 -34 27 16 -55 78
000080 34 35 b7 3c c6 cc f4 1c d4 a1 5c 17 08 37 51 2a
       52 53 -73 60 -58 -52 -12 28 -44 -95 92 23 8 55 81 42
000090 44 3b d3 ff 56 fa ed 1f 37 3f 22 e8 eb 01 39 0c
       68 59 -45 -1 86 -6 -19 31 55 63 34 -24 -21 1 57 12
0000a0 30 f7 43 f1 47 4e 13 d4 ee ed c5 58 45 11 df c5
       48 -9 67 -15 71 78 19 -44 -18 -19 -59 88 69 17 -33 -59
0000b0 48 d7 a2 44 9d 56 d2 fc b7 db 3a d9 d7 0f 1a d4
       72 -41 -94 68 -99 86 -46 -4 -73 -37 58 -39 -41 15 26 -44
0000c0 3b e5 30 13 2a 26 20 41 54 ce e3 58 26 2d 48 dd
       59 -27 48 19 42 38 32 65 84 -50 -29 88 38 45 72 -35
0000d0 1f d0 e3 22 19 fa 2b fe 26 1c 14 eb d4 35 7f af
       31 -48 -29 34 25 -6 43 -2 38 28 20 -21 -44 53 127 -81
0000e0 34 a6 16 04 33 7e 09 16 28 1a 23 40 b9 b6 ae ea
       52 -90 22 4 51 126 9 22 40 26 35 64 -71 -74 -82 -22
0000f0 3b ee 10 0f eb 26 24 c4 14 28 24 f5 db 2b 0f 67
       59 -18 16 15 -21 38 36 -60 20 40 36 -11 -37 43 15 103

model_1/block_4_depthwise_BN/FusedBatchNormV3;model_1/block_4_depthwise/depthwise;model_1/block_6_expand/Conv2D i1 [1, 3, 3, 96]
000000 ea ff f0 69 e8 1c ca c1 0d 00 58 f2 fd fd 01 29
       -22 -1 -16 105 -24 28 -54 -63 13 0 88 -14 -3 -3 1 41
000010 0b 15 e9 0a 59 0a 27 db ff 18 37 3a 0f 05 12 2c
       11 21 -23 10 89 10 39 -37 -1 24 55 58 15 5 18 44
000020 02 23 02 ed 09 34 d0 ed 18 04 1f 1a ad d2 1d fe
       2 35 2 -19 9 52 -48 -19 24 4 31 26 -83 -46 29 -2
000030 f1 e2 fd fe 2b 09 f1 06 f7 e0 12 d8 20 04 7f 1f
       -15 -30 -3 -2 43 9 -15 6 -9 -32 18 -40 32 4 127 31
000040 f8 f9 fe d6 39 24 0a f2 57 e9 52 09 15 81 22 34
       -8 -7 -2 -42 57 36 10 -14 87 -23 82 9 21 -127 34 52
000050 fa 05 7f ec 21 17 d9 e5 1e 00 f8 5b 0a 1a fe 06
       -6 5 127 -20 33 23 -39 -27 30 0 -8 91 10 26 -2 6
000060 ca 04 fc 04 30 fe fb 81 1f 09 81 f6 e8 f9 09 4c
       -54 4 -4 4 48 -2 -5 -127 31 9 -127 -10 -24 -7 9 76
000070 0c e8 ff f6 48 a1 7f 13 be da 99 e9 16 1e cc 0d
       12 -24 -1 -10 72 -95 127 19 -66 -38 -103 -23 22 30 -52 13
000080 69 13 eb 03 ed 7f a3 81 04 e9 e8 16 2b 8b 7f d8
       105 19 -21 3 -19 127 -93 -127 4 -23 -24 22 43 -117 127 -40
000090 ad 3d 38 0b 21 be 1b 3a 1d 26 9a 51 7f 27 fd f2
       -83 61 56 11 33 -66 27 58 29 38 -102 81 127 39 -3 -14
0000a0 2e df 88 07 1e de f7 33 d6 da 79 01 e8 cd e7 33
       46 -33 -120 7 30 -34 -9 51 -42 -38 121 1 -24 -51 -25 51
0000b0 b3 30 f8 04 ef 29 42 ce dc 39 f9 52 83 e5 17 84
       -77 48 -8 4 -17 41 66 -50 -36 57 -7 82 -125 -27 23 -124
0000c0 05 f5 ed bf 02 17 29 10 f7 f8 0b 47 07 f0 fb fc
       5 -11 -19 -65 2 23 41 16 -9 -8 11 71 7 -16 -5 -4
0000d0 ec 16 e0 18 10 13 13 e8 04 db 13 13 f2 0d 28 a7
       -20 22 -32 24 16 19 19 -24 4 -37 19 19 -14 13 40 -89
0000e0 33 19 01 e5 07 09 c9 f2 0c fe f6 10 1e d6 18 04
       51 25 1 -27 7 9 -55 -14 12 -2 -10 16 30 -42 24 4
0000f0 0b 00 0b f7 09 0a f4 0c f3 34 fe f6 11 e9 fc f5
       11 0 11 -9 9 10 -12 12 -13 52 -2 -10 17 -23 -4 -11

model_1/block_4_expand/Conv2D i1 [96, 1, 1, 16]
000000 de b4 0e 7f ec b0 d3 2d 0a b7 9f 95 52 73 a9 91
       -34 -76 14 127 -20 -80 -45 45 10 -73 -97 -107 82 115 -87 -111
000010 4a f7 c5 c8 6b c8 3c 46 56 61 22 7f 37 bb 6d 00
       74 -9 -59 -56 107 -56 60 70 86 97 34 127 55 -69 109 0
000020 53 1d 44 bc 95 d4 9b 7f 88 06 4a 79 3d ee f5 05
       83 29 68 -68 -107 -44 -101 127 -120 6 74 121 61 -18 -11 5
000030 7f 7d 2d 47 e1 26 06 c0 d1 2e 16 03 ac 6b b3 b9
       127 125 45 71 -31 38 6 -64 -47 46 22 3 -84 107 -77 -71
000040 2e 29 e2 db 1a e9 ca 47 00 bc 28 29 d2 81 e5 2c
       46 41 -30 -37 26 -23 -54 71 0 -68 40 41 -46 -127 -27 44
000050 1e 14 bd cf c7 81 bc d8 ca d4 e3 ca dc c9 2f 45
       30 20 -67 -49 -57 -127 -68 -40 -54 -44 -29 -54 -36 -55 47 69
000060 81 9d bd f6 a8 3e 25 d2 fe 9c 18 23 d1 e3 39 f9
       -127 -99 -67 -10 -88 62 37 -46 -2 -100 24 35 -47 -29 57 -7
000070 1c e1 a5 f8 f3 81 18 f4 df c3 33 25 28 e4 bc e2
       28 -31 -91 -8 -13 -127 24 -12 -33 -61 51 37 40 -28 -68 -30
000080 f2 02 1e 1d e2 39 b1 ae d3 2e f3 e1 81 db dc ec
       -14 2 30 29 -30 57 -79 -82 -45 46 -13 -31 -127 -37 -36 -20
000090 46 1a ea 7f ca d5 c5 0e 7e 95 39 bc 34 54 11 42
       70 26 -22 127 -54 -43 -59 14 126 -107 57 -68 52 84 17 66
0000a0 10 28 45 a1 eb 5e 5e 6a ed 27 8f 58 76 15 81 dc
       16 40 69 -95 -21 94 94 106 -19 39 -113 88 118 21 -127 -36
0000b0 45 20 81 e3 f9 e6 c8 45 ce 13 22 d2 d5 e4 ba d9
       69 32 -127 -29 -7 -26 -56 69 -50 19 34 -46 -43 -28 -70 -39
0000c0 09 aa 3a 37 32 11 a8 bc 4c ca 81 2a ad 2d cb ee
       9 -86 58 55 50 17 -88 -68 76 -54 -127 42 -83 45 -53 -18
0000d0 5c 1e c6 97 ef 4e 81 03 5c 91 53 4f 2b b0 54 48
       92 30 -58 -105 -17 78 -127 3 92 -111 83 79 43 -80 84 72
0000e0 0c e3 96 b3 0a 81 f8 08 55 f0 2a f0 e0 7a c5 40
       12 -29 -106 -77 10 -127 -8 8 85 -16 42 -16 -32 122 -59 64
0000f0 dd bc 7a 66 70 96 17 b5 d7 00 81 ba b3 8e 2f f8
       -35 -68 122 102 112 -106 23 -75 -41 0 -127 -70 -77 -114 47 -8

model_1/block_3_project/Conv2D i1 [16, 1, 1, 48]
000000 d9 e3 09 22 2e 19 1c 38 f3 f2 3c 16 28 d8 db f0
       -39 -29 9 34 46 25 28 56 -13 -14 60 22 40 -40 -37 -16
000010 26 10 14 17 4e 15 2b 7f 0e 2a e2 da 2f 0e 2e d1
       38 16 20 23 78 21 43 127 14 42 -30 -38 47 14 46 -47
000020 d8 44 f5 f5 f2 40 f3 11 c6 d1 2b 3d 02 30 b8 bd
       -40 68 -11 -11 -14 64 -13 17 -58 -47 43 61 2 48 -72 -67
000030 f8 0d fa 22 ce f2 18 45 bc cd ee f3 05 09 e9 15
       -8 13 -6 34 -50 -14 24 69 -68 -51 -18 -13 5 9 -23 21
000040 03 4b 0f f7 1e f0 d2 0a 2c f4 25 fd d4 a3 ca 28
       3 75 15 -9 30 -16 -46 10 44 -12 37 -3 -44 -93 -54 40
000050 d8 13 31 e7 14 c7 18 f7 07 fe 7f f3 f1 e8 fc df
       -40 19 49 -25 20 -57 24 -9 7 -2 127 -13 -15 -24 -4 -33
000060 dc e7 e2 f4 11 db 17 00 13 f8 20 29 20 1f e9 f4
       -36 -25 -30 -12 17 -37 23 0 19 -8 32 41 32 31 -23 -12
000070 0f 01 fe 07 0f ed 12 81 e3 2d e1 f1 12 dd 10 e9
       15 1 -2 7 15 -19 18 -127 -29 45 -31 -15 18 -35 16 -23
000080 e8 1c f7 11 01 f7 04 13 f1 f0 dd 0d ed 0a 1f f4
       -24 28 -9 17 1 -9 4 19 -15 -16 -35 13 -19 10 31 -12
000090 0c 11 ee c8 ea ec ee e7 d5 11 ec 17 81 f2 e5 e9
       12 17 -18 -56 -22 -20 -18 -25 -43 17 -20 23 -127 -14 -27 -23
0000a0 16 1a d6 e9 c8 1e f2 27 e3 de 19 31 0a 01 1a ff
       22 26 -42 -23 -56 30 -14 39 -29 -34 25 49 10 1 26 -1
0000b0 19 16 fe 2b 09 0a 44 f0 21 f2 06 ca 1e e5 f0 2a
       25 22 -2 43 9 10 68 -16 33 -14 6 -54 30 -27 -16 42
0000c0 0a d1 1b 1d 25 03 27 00 fb ef 0a 04 15 1e 15 fa
       10 -47 27 29 37 3 39 0 -5 -17 10 4 21 30 21 -6
0000d0 fe 0d d1 ef 10 1d 20 51 ed fd f1 15 1b ae 24 f2
       -2 13 -47 -17 16 29 32 81 -19 -3 -15 21 27 -82 36 -14
0000e0 f7 f7 07 81 f6 0a eb 23 04 fc 1b d9 e3 db f4 f1
       -9 -9 7 -127 -10 10 -21 35 4 -4 27 -39 -29 -37 -12 -15
0000f0 04 16 da 1b ea 0f f0 2a 17 12 37 f1 ed 16 ec ec
       4 22 -38 27 -22 15 -16 42 23 18 55 -15 -19 22 -20 -20

model_1/block_3_depthwise_BN/FusedBatchNormV3;model_1/block_3_depthwise/depthwise i1 [1, 3, 3, 48]
000000 50 b2 6e 3c 38 e2 69 c8 32 b5 a2 2c 30 dd ae 9c
       80 -78 110 60 56 -30 105 -56 50 -75 -94 44 48 -35 -82 -100
000010 71 44 2a 59 4d c0 a4 39 e5 d4 cc b8 c0 45 b9 8e
       113 68 42 89 77 -64 -92 57 -27 -44 -52 -72 -64 69 -71 -114
000020 eb 2d 3d 47 c7 2d c7 e1 2f b4 31 36 a0 11 49 d3
       -21 45 61 71 -57 45 -57 -31 47 -76 49 54 -96 17 73 -45
000030 4f 9e 7f 57 bb be c0 b4 61 a9 b4 47 4d 85 a2 66
       79 -98 127 87 -69 -66 -64 -76 97 -87 -76 71 77 -123 -94 102
000040 df 5f 4a 7f 60 98 31 4f d1 bc b8 b2 40 4d da 81
       -33 95 74 127 96 -104 49 79 -47 -68 -72 -78 64 77 -38 -127
000050 b9 45 53 51 ac 54 a5 e8 54 ac 49 5b c5 81 68 9b
       -71 69 83 81 -84 84 -91 -24 84 -84 73 91 -59 -127 104 -101
000060 2b cd 42 2a 0c d0 c7 d6 22 ea fd 1e 23 a4 cd 05
       43 -51 66 42 12 -48 -57 -42 34 -22 -3 30 35 -92 -51 5
000070 ce 1c 1c 50 2a c6 27 16 dc cf df ee 26 1a 56 a5
       -50 28 28 80 42 -58 39 22 -36 -49 -33 -18 38 26 86 -91
000080 a9 2f 26 28 e9 20 df ee 25 e0 1b 2e f1 fd 20 a9
       -87 47 38 40 -23 32 -33 -18 37 -32 27 46 -15 -3 32 -87
000090 5a 92 db 52 3a a6 7f a5 59 8e b9 5a 51 95 eb 81
       90 -110 -37 82 58 -90 127 -91 89 -114 -71 90 81 -107 -21 -127
0000a0 7f 60 42 dc 5f 6d 81 46 54 be a1 94 81 5f b2 f1
       127 96 66 -36 95 109 -127 70 84 -66 -95 -108 -127 95 -78 -15
0000b0 a5 3f 6b 5e b4 46 a7 57 5d 9a 4d 51 b7 76 5c 95
       -91 63 107 94 -76 70 -89 87 93 -102 77 81 -73 118 92 -107
0000c0 7f 81 b4 7f 81 81 99 81 7f 81 81 7f 7f 81 e2 6c
       127 -127 -76 127 -127 -127 -103 -127 127 -127 -127 127 127 -127 -30 108
0000d0 c3 7f 7f d1 7f 7f 42 7f 7f 81 81 81 3d 7f dc 09
       -61 127 127 -47 127 127 66 127 127 -127 -127 -127 61 127 -36 9
0000e0 81 7f 7f 7f 81 7f 81 7f 7f 81 7f 7f 81 fa 7f 81
       -127 127 127 127 -127 127 -127 127 127 -127 127 127 -127 -6 127 -127
0000f0 4a bf d5 45 1f c4 d3 ca 2f d1 b8 41 37 bf f6 11
       74 -65 -43 69 31 -60 -45 -54 47 -47 -72 65 55 -65 -10 17

model_1/block_3_expand/Conv2D i1 [48, 1, 1, 8]
000000 81 e8 e6 24 fb 3a fc d0 eb 66 f9 e4 e1 b2 7f 39
       -127 -24 -26 36 -5 58 -4 -48 -21 102 -7 -28 -31 -78 127 57
000010 81 45 49 b8 93 a6 57 bd 27 20 d5 84 81 2f f8 d1
       -127 69 73 -72 -109 -90 87 -67 39 32 -43 -124 -127 47 -8 -47
000020 81 4a 22 cd 5a 24 f1 e1 81 c4 ef d4 b1 2b e5 29
       -127 74 34 -51 90 36 -15 -31 -127 -60 -17 -44 -79 43 -27 41
000030 a2 81 6d a0 5a 4a 41 ee 81 27 30 53 73 aa 00 db
       -94 -127 109 -96 90 74 65 -18 -127 39 48 83 115 -86 0 -37
000040 16 24 22 81 21 0f bf c6 2c bd c8 2d d2 1e a0 7f
       22 36 34 -127 33 15 -65 -58 44 -67 -56 45 -46 30 -96 127
000050 df d9 22 33 81 10 51 17 6c 3e 66 42 81 95 03 84
       -33 -39 34 51 -127 16 81 23 108 62 102 66 -127 -107 3 -124
000060 1a f2 3b e1 ee dc 7f 18 05 c5 24 1f 7f 2f 7b 0b
       26 -14 59 -31 -18 -36 127 24 5 -59 36 31 127 47 123 11
000070 25 5f c1 d8 81 29 b6 28 d4 81 2d d5 24 24 e3 f9
       37 95 -63 -40 -127 41 -74 40 -44 -127 45 -43 36 36 -29 -7
000080 ff d1 27 db 81 24 e6 df 11 7b c8 dc e3 be 7f df
       -1 -47 39 -37 -127 36 -26 -33 17 123 -56 -36 -29 -66 127 -33
000090 7f d1 c4 f2 e9 2e f0 39 50 81 2c b4 7c 45 e1 c3
       127 -47 -60 -14 -23 46 -16 57 80 -127 44 -76 124 69 -31 -61
0000a0 7f ec cf 31 23 3e dc b3 dd ee ff 2c 18 16 81 ed
       127 -20 -49 49 35 62 -36 -77 -35 -18 -1 44 24 22 -127 -19
0000b0 81 e7 3d d4 11 29 05 17 ac e1 27 3f 8e 26 7f 12
       -127 -25 61 -44 17 41 5 23 -84 -31 39 63 -114 38 127 18
0000c0 2f c2 2f 28 81 30 39 3f fc 0c 18 03 7f 41 13 ce
       47 -62 47 40 -127 48 57 63 -4 12 24 3 127 65 19 -50
0000d0 d7 81 2d b6 2e bc 1c fd df 81 04 e2 0f e2 2d 0b
       -41 -127 45 -74 46 -68 28 -3 -33 -127 4 -30 15 -30 45 11
0000e0 92 49 24 d5 2b 23 7f 05 dc 3c 25 1e 19 08 c7 81
       -110 73 36 -43 43 35 127 5 -36 60 37 30 25 8 -57 -127
0000f0 30 ab c4 cc 81 3d 9f 28 cd 1b 56 22 df e2 7f 58
       48 -85 -60 -52 -127 61 -97 40 -51 27 86 34 -33 -30 127 88

model_1/block_2_project/Conv2D i1 [8, 1, 1, 48]
000000 fa d6 07 ea e3 0f df e0 cc 7f c2 34 35 e4 14 d1
       -6 -42 7 -22 -29 15 -33 -32 -52 127 -62 52 53 -28 20 -47
000010 da c6 26 e2 d9 db 11 c5 f0 db e6 51 18 e9 2f c3
       -38 -58 38 -30 -39 -37 17 -59 -16 -37 -26 81 24 -23 47 -61
000020 1f a5 71 30 de 1d 1d d2 34 dc 01 10 c8 34 d2 14
       31 -91 113 48 -34 29 29 -46 52 -36 1 16 -56 52 -46 20
000030 e7 03 7f ec e4 04 e9 a5 ff 17 2a 1c 07 ee e4 b8
       -25 3 127 -20 -28 4 -23 -91 -1 23 42 28 7 -18 -28 -72
000040 f0 ec ef 1c d3 32 fb cc da e2 f3 e9 f1 e6 f2 17
       -16 -20 -17 28 -45 50 -5 -52 -38 -30 -13 -23 -15 -26 -14 23
000050 14 f2 25 22 0e fd 1d e9 21 05 e0 fd 0c ef fc 17
       20 -14 37 34 14 -3 29 -23 33 5 -32 -3 12 -17 -4 23
000060 17 e9 21 ee 2f 29 0d fa 18 ed 11 f9 0a 20 f2 11
       23 -23 33 -18 47 41 13 -6 24 -19 17 -7 10 32 -14 17
000070 f2 7f d8 f5 05 26 f2 e5 56 ef ed 0d fa ed ef f0
       -14 127 -40 -11 5 38 -14 -27 86 -17 -19 13 -6 -19 -17 -16
000080 e6 e1 ee 1b 0a 11 07 19 fb 01 03 ed 14 28 fd f1
       -26 -31 -18 27 10 17 7 25 -5 1 3 -19 20 40 -3 -15
000090 14 a3 ea 1a ef e8 0b 12 e6 09 fb 25 f7 0c 3d ee
       20 -93 -22 26 -17 -24 11 18 -26 9 -5 37 -9 12 61 -18
0000a0 0c db ef ff e7 fe d9 16 19 40 14 f2 0d f1 7f ed
       12 -37 -17 -1 -25 -2 -39 22 25 64 20 -14 13 -15 127 -19
0000b0 1e f3 11 13 db 08 e6 f6 0c 19 0c 03 e6 ed ec 09
       30 -13 17 19 -37 8 -26 -10 12 25 12 3 -26 -19 -20 9
0000c0 8b 21 1b e6 1b f8 e6 eb 0a f9 f7 d5 fe e7 da dd
       -117 33 27 -26 27 -8 -26 -21 10 -7 -9 -43 -2 -25 -38 -35
0000d0 e7 21 e6 fc ed cb f2 1d 15 44 eb 7f e7 19 15 fe
       -25 33 -26 -4 -19 -53 -14 29 21 68 -21 127 -25 25 21 -2
0000e0 1b a6 fe 25 e8 e0 1c 1c b7 e0 db 2a e7 1e ea eb
       27 -90 -2 37 -24 -32 28 28 -73 -32 -37 42 -25 30 -22 -21
0000f0 09 f9 f6 ea f7 ed e2 40 f5 1f ef 21 e0 f8 21 00
       9 -7 -10 -22 -9 -19 -30 64 -11 31 -17 33 -32 -8 33 0

model_1/block_2_depthwise_BN/FusedBatchNormV3;model_1/block_2_depthwise/depthwise;model_1/block_3_depthwise/depthwise i1 [1, 3, 3, 48]
000000 00 00 16 66 01 49 fc 1f 14 0c 05 0b fd f4 d9 0b
       0 0 22 102 1 73 -4 31 20 12 5 11 -3 -12 -39 11
000010 fa 07 e4 96 f5 ee 7f f9 fa 01 f8 0c f7 07 0c 5c
       -6 7 -28 -106 -11 -18 127 -7 -6 1 -8 12 -9 7 12 92
000020 18 19 23 e8 04 25 03 07 0f c5 fd f3 0d 07 f5 f9
       24 25 35 -24 4 37 3 7 15 -59 -3 -13 13 7 -11 -7
000030 7f 0d 11 81 1f 4e 07 0d 7f 7f 02 30 d4 e5 00 0a
       127 13 17 -127 31 78 7 13 127 127 2 48 -44 -27 0 10
000040 7f c5 cd cf 93 1c 9a 11 0d 3f dd b3 1c 13 0e 81
       127 -59 -51 -49 -109 28 -102 17 13 63 -35 -77 28 19 14 -127
000050 09 bd 7f 0d dc d6 fd 7d ac a9 e8 ff d7 fd 81 19
       9 -67 127 13 -36 -42 -3 125 -84 -87 -24 -1 -41 -3 -127 25
000060 dd fa 0a 0a 02 39 00 14 20 0c ed 24 f7 fa 13 01
       -35 -6 10 10 2 57 0 20 32 12 -19 36 -9 -6 19 1
000070 92 1b 03 53 db f8 f2 fc f8 c2 fa 20 f3 04 01 e5
       -110 27 3 83 -37 -8 -14 -4 -8 -62 -6 32 -13 4 1 -27
000080 0c e4 15 f1 fd 2a 30 ee 30 2a f6 07 cf 08 fa fd
       12 -28 21 -15 -3 42 48 -18 48 42 -10 7 -49 8 -6 -3
000090 75 04 fe 9d 11 e1 1e f2 03 06 ee 3a fe fe 16 e2
       117 4 -2 -99 17 -31 30 -14 3 6 -18 58 -2 -2 22 -30
0000a0 fc cc c1 a5 06 bd 84 f1 01 5a ee 81 f4 23 10 91
       -4 -52 -63 -91 6 -67 -124 -15 1 90 -18 -127 -12 35 16 -111
0000b0 15 c6 f9 7f fb 3d da 25 be 81 2a a1 cd f7 ef ff
       21 -58 -7 127 -5 61 -38 37 -66 -127 42 -95 -51 -9 -17 -1
0000c0 1e 86 81 6b 81 81 81 81 88 9a 7f 81 7f 7f 1d 81
       30 -122 -127 107 -127 -127 -127 -127 -120 -102 127 -127 127 127 29 -127
0000d0 a7 7f 7f 9e 7f 7f 70 7f 7f 81 81 1f 81 81 5c 79
       -89 127 127 -98 127 127 112 127 127 -127 -127 31 -127 -127 92 121
0000e0 81 7f de db 7f 81 7f 7f 7f ba 7f 7f 7f 90 5d 64
       -127 127 -34 -37 127 -127 127 127 127 -70 127 127 127 -112 93 100
0000f0 38 02 2d ef 08 c1 27 11 ee 0b 8e fb 05 d4 7f 02
       56 2 45 -17 8 -63 39 17 -18 11 -114 -5 5 -44 127 2

model_1/block_2_expand/Conv2D i1 [48, 1, 1, 8]
000000 0e 3b 26 d5 7f 39 06 c8 18 e2 1e 7f eb df e9 28
       14 59 38 -43 127 57 6 -56 24 -30 30 127 -21 -33 -23 40
000010 f1 a5 c0 fe 26 8d 7f 39 7f 0b 1c ea 1b 09 37 e3
       -15 -91 -64 -2 38 -115 127 57 127 11 28 -22 27 9 55 -29
000020 de 00 49 1f 21 ab e1 81 7f c9 3b 36 4a 48 2f 39
       -34 0 73 31 33 -85 -31 -127 127 -55 59 54 74 72 47 57
000030 25 0d ca 7f e3 4e 00 0c 13 7f 15 1a e8 0d f4 e6
       37 13 -54 127 -29 78 0 12 19 127 21 26 -24 13 -12 -26
000040 7f 00 d9 28 00 14 dc 0a 97 4d 43 e0 7f d2 bb c7
       127 0 -39 40 0 20 -36 10 -105 77 67 -32 127 -46 -69 -57
000050 f6 d3 e1 7f 42 3b cf d6 81 26 e3 ad f3 2a 15 bb
       -10 -45 -31 127 66 59 -49 -42 -127 38 -29 -83 -13 42 21 -69
000060 7f f0 23 2e 00 19 e2 01 1e 10 81 20 de 6d f3 0f
       127 -16 35 46 0 25 -30 1 30 16 -127 32 -34 109 -13 15
000070 03 13 1c 7f e9 e1 d6 c9 eb 7f 14 eb 12 06 f6 c2
       3 19 28 127 -23 -31 -42 -55 -21 127 20 -21 18 6 -10 -62
000080 c8 db 23 33 2b e5 7f bc 3b 5b 27 1a df 28 81 14
       -56 -37 35 51 43 -27 127 -68 59 91 39 26 -33 40 -127 20
000090 da 00 81 20 26 49 08 0e fa e1 d6 d6 81 2d 39 3c
       -38 0 -127 32 38 73 8 14 -6 -31 -42 -42 -127 45 57 60
0000a0 81 c7 2a 2b 08 16 46 2b f3 dc 21 23 81 db 30 e2
       -127 -57 42 43 8 22 70 43 -13 -36 33 35 -127 -37 48 -30
0000b0 81 16 d9 25 14 1c 40 49 d5 09 16 15 1a 25 81 d5
       -127 22 -39 37 20 28 64 73 -43 9 22 21 26 37 -127 -43
0000c0 0e 0c 81 18 f2 3d 06 54 11 16 2d 7f fe ca d8 b3
       14 12 -127 24 -14 61 6 84 17 22 45 127 -2 -54 -40 -77
0000d0 eb 06 15 e9 10 7f 55 d0 11 d8 1f e7 7f f3 f8 14
       -21 6 21 -23 16 127 85 -48 17 -40 31 -25 127 -13 -8 20
0000e0 29 31 a7 db db 10 13 7f 1a e9 1a da df 62 81 e0
       41 49 -89 -37 -37 16 19 127 26 -23 26 -38 -33 98 -127 -32
0000f0 eb 13 e8 81 12 e7 e3 d7 f4 26 26 de 81 e3 e6 dd
       -21 19 -24 -127 18 -25 -29 -41 -12 38 38 -34 -127 -29 -26 -35

model_1/block_1_project/Conv2D i1 [8, 1, 1, 48]
000000 06 0f 18 bf 19 07 15 f6 f2 f5 f2 ec 45 00 11 15
       6 15 24 -65 25 7 21 -10 -14 -11 -14 -20 69 0 17 21
000010 00 e9 eb 10 54 ed f0 f4 09 0f 1b 1a 14 14 13 81
       0 -23 -21 16 84 -19 -16 -12 9 15 27 26 20 20 19 -127
000020 f9 f6 10 f0 d8 11 e2 0d 17 d9 09 f4 f2 0f 14 f2
       -7 -10 16 -16 -40 17 -30 13 23 -39 9 -12 -14 15 20 -14
000030 cf e7 ec e9 14 29 d5 2f 24 f3 f8 ff 1c 00 22 0d
       -49 -25 -20 -23 20 41 -43 47 36 -13 -8 -1 28 0 34 13
000040 00 10 fd c6 ee 00 7f ff fa 10 40 f1 ff ec fd e4
       0 16 -3 -58 -18 0 127 -1 -6 16 64 -15 -1 -20 -3 -28
000050 fa e7 e7 01 f2 bf 1a f1 e8 0c aa e7 f7 f4 e9 bf
       -6 -25 -25 1 -14 -65 26 -15 -24 12 -86 -25 -9 -12 -23 -65
000060 b9 f8 ea f4 11 0b 2d 01 0d 43 1c 10 17 00 1a 18
       -71 -8 -22 -12 17 11 45 1 13 67 28 16 23 0 26 24
000070 00 f5 81 ff 15 f6 1a de fa 16 34 ef 1c 2e ff ee
       0 -11 -127 -1 21 -10 26 -34 -6 22 52 -17 28 46 -1 -18
000080 f1 0f e2 0a f5 ef 18 ec 0b 0f d2 eb 00 bb 2a f7
       -15 15 -30 10 -11 -17 24 -20 11 15 -46 -21 0 -69 42 -9
000090 14 13 ed f5 e9 06 ee eb 25 fd ef eb 04 00 d4 0c
       20 19 -19 -11 -23 6 -18 -21 37 -3 -17 -21 4 0 -44 12
0000a0 00 13 e6 ef eb 13 f3 df e3 0d e6 ec e6 10 ed e6
       0 19 -26 -17 -21 19 -13 -33 -29 13 -26 -20 -26 16 -19 -26
0000b0 e8 38 e4 ec 18 12 15 81 12 16 ee c2 10 ec 12 f3
       -24 56 -28 -20 24 18 21 -127 18 22 -18 -62 16 -20 18 -13
0000c0 16 e6 6c 3b 19 01 14 e6 ed e6 14 0d c1 00 0a 1a
       22 -26 108 59 25 1 20 -26 -19 -26 20 13 -63 0 10 26
0000d0 00 f4 1d 16 5c 1a eb e5 06 0b e4 1b 0f 15 16 7f
       0 -12 29 22 92 26 -21 -27 6 11 -28 27 15 21 22 127
0000e0 ee ee 15 14 fb 0a de 03 13 8f ee ed e9 13 16 17
       -18 -18 21 20 -5 10 -34 3 19 -113 -18 -19 -23 19 22 23
0000f0 0c 1f 18 0a 17 48 0a 21 d6 35 f4 52 30 00 81 eb
       12 31 24 10 23 72 10 33 -42 53 -12 82 48 0 -127 -21

model_1/block_1_depthwise_BN/FusedBatchNormV3;model_1/block_1_depthwise/depthwise;model_1/block_3_depthwise/depthwise i1 [1, 3, 3, 48]
000000 db ef f6 e9 02 dc b7 ba ec ca 0e 38 29 b9 72 cf
       -37 -17 -10 -23 2 -36 -73 -70 -20 -54 14 56 41 -71 114 -49
000010 8f b8 2b fe 04 cc 94 ae da 94 ba f5 42 14 61 21
       -113 -72 43 -2 4 -52 -108 -82 -38 -108 -70 -11 66 20 97 33
000020 81 a5 f3 2c 0d 2b 81 55 b5 f6 5d 84 f9 e2 a8 61
       -127 -91 -13 44 13 43 -127 85 -75 -10 93 -124 -7 -30 -88 97
000030 4d 06 e1 dd 35 81 81 b8 3f b2 81 61 2c ae fc 3b
       77 6 -31 -35 53 -127 -127 -72 63 -78 -127 97 44 -82 -4 59
000040 cc 8e 38 0b 06 95 83 c4 f7 81 81 e2 c3 1a ce 3f
       -52 -114 56 11 6 -107 -125 -60 -9 -127 -127 -30 -61 26 -50 63
000050 17 81 3d 48 08 42 ad 7f 81 09 6f 81 fd e7 81 60
       23 -127 61 72 8 66 -83 127 -127 9 111 -127 -3 -25 -127 96
000060 e6 34 02 00 b9 8c c4 f5 59 f3 83 2a 03 b9 95 f0
       -26 52 2 0 -71 -116 -60 -11 89 -13 -125 42 3 -71 -107 -16
000070 81 e1 21 08 f5 c7 d7 f0 fa ed cd ed fc 17 ed 10
       -127 -31 33 8 -11 -57 -41 -16 -6 -19 -51 -19 -4 23 -19 16
000080 6b a8 43 17 09 26 01 0c b3 07 0d b5 ea 09 c6 09
       107 -88 67 23 9 38 1 12 -77 7 13 -75 -22 9 -58 9
000090 b2 81 d1 d8 f1 3d 63 96 ec 9f e3 64 63 c0 1f 97
       -78 -127 -47 -40 -15 61 99 -106 -20 -97 -29 100 99 -64 31 -105
0000a0 87 af 58 b5 30 a5 92 81 2d 89 b8 d4 7c c6 7f 52
       -121 -81 88 -75 48 -91 -110 -127 45 -119 -72 -44 124 -58 127 82
0000b0 d2 b8 eb 56 d6 b9 94 61 2f 36 69 84 9d 93 4b 78
       -46 -72 -21 86 -42 -71 -108 97 47 54 105 -124 -99 -109 75 120
0000c0 7f a2 81 81 7c 2e 57 81 5b 81 85 7f 7f f2 f6 7f
       127 -94 -127 -127 124 46 87 -127 91 -127 -123 127 127 -14 -10 127
0000d0 c4 81 7f 81 7f 81 81 95 7f 9b 88 81 81 81 c0 7f
       -60 -127 127 -127 127 -127 -127 -107 127 -101 -120 -127 -127 -127 -64 127
0000e0 17 90 7e 7f b3 81 a9 59 43 7f 7f 8c 87 81 75 7f
       23 -112 126 127 -77 -127 -87 89 67 127 127 -116 -121 -127 117 127
0000f0 d2 26 c1 ad 81 e4 1a d7 7f e7 b7 28 35 ba e3 ce
       -46 38 -63 -83 -127 -28 26 -41 127 -25 -73 40 53 -70 -29 -50

model_1/block_1_expand/Conv2D i1 [48, 1, 1, 8]
000000 26 81 10 c4 fe 0b bf fa 77 72 1b d4 da 25 81 4c
       38 -127 16 -60 -2 11 -65 -6 119 114 27 -44 -38 37 -127 76
000010 f8 24 fc 7e 09 7f 43 28 1f 19 a3 7f d7 dc 18 ec
       -8 36 -4 126 9 127 67 40 31 25 -93 127 -41 -36 24 -20
000020 0f 81 11 dc 30 ee b0 c4 f2 e8 c9 04 1f cb 3b 7f
       15 -127 17 -36 48 -18 -80 -60 -14 -24 -55 4 31 -53 59 127
000030 65 27 ce 81 23 42 60 19 7f f4 f7 07 31 e1 5e ea
       101 39 -50 -127 35 66 96 25 127 -12 -9 7 49 -31 94 -22
000040 32 dc 2c 6e de 35 1a 81 6e 81 2c 20 18 2c c9 62
       50 -36 44 110 -34 53 26 -127 110 -127 44 32 24 44 -55 98
000050 81 be 88 e3 22 2d e5 4d d1 bc 13 81 a1 fb 12 d5
       -127 -66 -120 -29 34 45 -27 77 -47 -68 19 -127 -95 -5 18 -43
000060 e9 33 a5 7f cd b9 73 74 00 00 00 00 00 00 00 00
       -23 51 -91 127 -51 -71 115 116 0 0 0 0 0 0 0 0
000070 1f ab cf e5 0f 7f 15 0d 62 d1 45 9d 7f fc 8d 25
       31 -85 -49 -27 15 127 21 13 98 -47 69 -99 127 -4 -115 37
000080 00 00 00 00 00 00 00 00 e4 f0 7f ed a9 c2 59 5a
       0 0 0 0 0 0 0 0 -28 -16 127 -19 -87 -62 89 90
000090 27 ba 34 fb 1c f0 81 e2 81 24 3e 05 06 06 eb 02
       39 -70 52 -5 28 -16 -127 -30 -127 36 62 5 6 6 -21 2
0000a0 fb fa ff 38 0e 81 dd 10 13 f7 7f ed 0f 12 4f 23
       -5 -6 -1 56 14 -127 -35 16 19 -9 127 -19 15 18 79 35
0000b0 d3 d1 a5 e4 23 eb 81 e5 93 42 d3 d0 26 d8 7f a5
       -45 -47 -91 -28 35 -21 -127 -27 -109 66 -45 -48 38 -40 127 -91
0000c0 e2 a2 ee 7f 1a 9c 45 64 2c 44 3d 3a 3c 7f ea fc
       -30 -94 -18 127 26 -100 69 100 44 68 61 58 60 127 -22 -4
0000d0 89 c1 9c de 26 2e 81 e0 cf b0 0e 3a 00 63 7f 07
       -119 -63 -100 -34 38 46 -127 -32 -49 -80 14 58 0 99 127 7
0000e0 21 12 11 3e 31 7f 07 0d 1c f1 7f de 17 d2 62 d8
       33 18 17 62 49 127 7 13 28 -15 127 -34 23 -46 98 -40
0000f0 e0 7f 0b ce ea de 2f f8 fd 8d cd 24 3d e5 4b 7f
       -32 127 11 -50 -22 -34 47 -8 -3 -115 -51 36 61 -27 75 127

model_1/expanded_conv_project/Conv2D i1 [8, 1, 1, 16]
000000 00 d9 ff 14 7f ec 14 ec 14 aa c7 11 00 53 13 00
       0 -39 -1 20 127 -20 20 -20 20 -86 -57 17 0 83 19 0
000010 00 f8 06 38 2d 1d 02 17 12 ea 7f c9 00 2b 07 00
       0 -8 6 56 45 29 2 23 18 -22 127 -55 0 43 7 0
000020 00 f2 fc 04 db f5 fb f3 0f 11 e2 10 00 7f 08 00
       0 -14 -4 4 -37 -11 -5 -13 15 17 -30 16 0 127 8 0
000030 00 0b f1 81 30 28 26 22 14 1f 13 0d 00 eb fc 00
       0 11 -15 -127 48 40 38 34 20 31 19 13 0 -21 -4 0
000040 00 15 e3 09 e6 2f 7f 1d ec e2 fa 0d 00 e6 22 00
       0 21 -29 9 -26 47 127 29 -20 -30 -6 13 0 -26 34 0
000050 00 e4 f6 f2 f9 f8 e8 1c 0d 16 09 e6 00 09 7f 00
       0 -28 -10 -14 -7 -8 -24 28 13 22 9 -26 0 9 127 0
000060 00 2a fb e8 17 d2 02 e0 19 81 54 54 00 61 53 00
       0 42 -5 -24 23 -46 2 -32 25 -127 84 84 0 97 83 0
000070 00 30 f0 7f 28 1b f7 2a 1f 73 de 7d 00 15 1e 00
       0 48 -16 127 40 27 -9 42 31 115 -34 125 0 21 30 0

model_1/expanded_conv_depthwise_BN/FusedBatchNormV3;model_1/expanded_conv_depthwise/depthwise;model_1/block_5_project/Conv2D i1 [1, 3, 3, 16]
000000 94 11 ae 81 26 bc 4f b5 a5 fe f9 1a 81 04 35 b7
       -108 17 -82 -127 38 -68 79 -75 -91 -2 -7 26 -127 4 53 -73
000010 33 17 81 7e 7f 81 7f 81 ab 7f 81 30 97 04 7f e7
       51 23 -127 126 127 -127 127 -127 -85 127 -127 48 -105 4 127 -25
000020 18 e6 5b fd b6 3e 9f 53 a0 e6 03 f3 3d 00 99 e3
       24 -26 91 -3 -74 62 -97 83 -96 -26 3 -13 61 0 -103 -29
000030 81 7f ea 0d d3 0c e2 11 e3 01 04 92 cf 07 e1 f2
       -127 127 -22 13 -45 12 -30 17 -29 1 4 -110 -49 7 -31 -14
000040 b2 d5 c7 f1 f7 e4 07 e7 93 a8 14 f2 98 81 00 17
       -78 -43 -57 -15 -9 -28 7 -25 -109 -88 20 -14 -104 -127 0 23
000050 0e 00 41 01 02 1e e5 25 81 07 fd 04 eb 0b fb 2b
       14 0 65 1 2 30 -27 37 -127 7 -3 4 -21 11 -5 43
000060 8d b5 45 01 f9 23 d7 38 b4 01 01 02 28 01 e4 17
       -115 -75 69 1 -7 35 -41 56 -76 1 1 2 40 1 -28 23
000070 17 fa 1f fe e4 24 dc 18 84 f4 ff 50 c6 ff e2 91
       23 -6 31 -2 -28 36 -36 24 -124 -12 -1 80 -58 -1 -30 -111
000080 15 f7 13 ff 03 0b 08 1a 8f 05 fe 81 6b 02 10 81
       21 -9 19 -1 3 11 8 26 -113 5 -2 -127 107 2 16 -127

model_1/Conv1/Conv2D i1 [16, 3, 3, 3]
000000 00 00 00 00 00 00 00 00 00 00 00 00 00 00 00 00
       0 0 0 0 0 0 0 0 0 0 0 0 0 0 0 0
000010 00 00 00 00 00 00 00 00 00 00 00 06 de f8 1a cf
       0 0 0 0 0 0 0 0 0 0 0 6 -34 -8 26 -49
000020 ec b9 81 ab e3 dd e0 d0 e3 dd e2 c8 e5 de ee df
       -20 -71 -127 -85 -29 -35 -32 -48 -29 -35 -30 -56 -27 -34 -18 -33
000030 de e6 df 01 d2 eb 1e fa fa 4d 72 01 29 d9 08 0a
       -34 -26 -33 1 -46 -21 30 -6 -6 77 114 1 41 -39 8 10
000040 0c ff 47 7f e4 15 fb fa 32 be 14 4b d5 eb 22 ca
       12 -1 71 127 -28 21 -5 -6 50 -66 20 75 -43 -21 34 -54
000050 0f e7 41 23 02 7f 35 e2 e7 dd f6 44 26 25 61 3b
       15 -25 65 35 2 127 53 -30 -25 -35 -10 68 38 37 97 59
000060 d4 ce e5 e7 e4 24 fc fb 29 e0 dd e4 4a 61 28 de
       -44 -50 -27 -25 -28 36 -4 -5 41 -32 -35 -28 74 97 40 -34
000070 0c 27 c7 d8 d0 4d 6e 51 e9 27 44 e7 f5 c7 53 63
       12 39 -57 -40 -48 77 110 81 -23 39 68 -25 -11 -57 83 99
000080 45 4d 7f 37 c2 e0 3a e6 e0 be dc e0 8a da f6 c8
       69 77 127 55 -62 -32 58 -26 -32 -66 -36 -32 -118 -38 -10 -56
000090 e3 bc b9 de ba 81 de e9 cc dd e6 13 e1 dd d6 e0
       -29 -68 -71 -34 -70 -127 -34 -23 -52 -35 -26 19 -31 -35 -42 -32
0000a0 ea d6 38 ce 43 53 b1 4a 25 02 25 46 a7 64 67 81
       -22 -42 56 -50 67 83 -79 74 37 2 37 70 -89 100 103 -127
0000b0 70 23 f8 2e 33 f1 2a 2b e5 39 0b 24 19 c5 ec e1
       112 35 -8 46 51 -15 42 43 -27 57 11 36 25 -59 -20 -31
0000c0 81 bc de c9 f1 df d2 d7 de b6 d3 1c d8 d9 e2 ca
       -127 -68 -34 -55 -15 -33 -46 -41 -34 -74 -45 28 -40 -39 -30 -54
0000d0 f7 d6 17 2c 22 0f 38 20 7f 7f 7d 7f 7e 5f 7f 7c
       -9 -42 23 44 34 15 56 32 127 127 125 127 126 95 127 124
0000e0 85 7f 7f 7d 7f 7e 2c 7f 7c 84 7d 7d 6e 7e 5a 85
       -123 127 127 125 127 126 44 127 124 -124 125 125 110 126 90 -123
0000f0 7e 86 83 b5 cd dd c0 ca d2 d8 d8 c6 53 6b c7 37
       126 -122 -125 -75 -51 -35 -64 -54 -46 -40 -40 -58 83 107 -57 55
