src/lib/libtf/models/pirmas.tflite (tflite, 40912 bytes, 21 tensors)

model_1/Conv1/Conv2D i1 [8, 3, 3, 3]
0	0x14	20
1	0x07	7
2	0x18	24
3	0x13	19
4	0xf0	-16
5	0x2b	43
6	0x17	23
7	0xf0	-16
8	0x21	33
9	0x35	53
10	0x2a	42
11	0x27	39
12	0x51	81
13	0x1e	30
14	0x4a	74
15	0x24	36
16	0xe6	-26
17	0x33	51
18	0xf4	-12
19	0xa6	-90
20	0xfd	-3
21	0xea	-22
22	0x81	-127
23	0x09	9
24	0x02	2
25	0xce	-50
26	0x1d	29
27	0x26	38
28	0x52	82
29	0x21	33
30	0x0e	14
31	0x12	18
32	0x07	7
33	0xea	-22
34	0xc6	-58
35	0xef	-17
36	0x3b	59
37	0x7f	127
38	0x2f	47
39	0x0b	11
40	0x09	9
41	0x06	6
42	0xd3	-45
43	0x8e	-114
44	0xe3	-29
45	0x25	37
46	0x35	53
47	0x14	20
48	0x0d	13
49	0x08	8
50	0x09	9
51	0xe9	-23
52	0xd6	-42
53	0x06	6
54	0x23	35
55	0x59	89
56	0x00	0
57	0x2f	47
58	0x7f	127
59	0x02	2
60	0x07	7
61	0x23	35
62	0xf4	-12
63	0xc1	-63
64	0x9a	-102
65	0xd6	-42
66	0x9d	-99
67	0x8f	-113
68	0xcb	-53
69	0xd3	-45
70	0xee	-18
71	0xde	-34
72	0xf5	-11
73	0x00	0
74	0xfc	-4
75	0xfa	-6
76	0x06	6
77	0xf4	-12
78	0xf6	-10
79	0x01	1
80	0xed	-19
81	0x1f	31
82	0xda	-38
83	0xe7	-25
84	0x3d	61
85	0xd5	-43
86	0xd2	-46
87	0x12	18
88	0xe7	-25
89	0xea	-22
90	0x3f	63
91	0xc3	-61
92	0xd4	-44
93	0x7f	127
94	0xd9	-39
95	0xc7	-57
96	0x2c	44
97	0xdc	-36
98	0xdb	-37
99	0x07	7
100	0xe3	-29
101	0xf2	-14
102	0x1b	27
103	0xdc	-36
104	0xe7	-25
105	0x04	4
106	0xec	-20
107	0xf4	-12
108	0xfa	-6
109	0xef	-17
110	0xf7	-9
111	0x1f	31
112	0x30	48
113	0x0e	14
114	0xf6	-10
115	0xea	-22
116	0x01	1
117	0xea	-22
118	0xcc	-52
119	0xfc	-4
120	0x42	66
121	0x7f	127
122	0x17	23
123	0xe4	-28
124	0xca	-54
125	0xfe	-2
126	0xfc	-4
127	0xf9	-7
128	0x08	8
129	0x19	25
130	0x1d	29
131	0x02	2
132	0xfa	-6
133	0xf9	-7
134	0x03	3
135	0xba	-70
136	0x9e	-98
137	0xbe	-66
138	0xa4	-92
139	0x81	-127
140	0xaa	-86
141	0xae	-82
142	0xbd	-67
143	0xc6	-58
144	0xdf	-33
145	0xad	-83
146	0xf1	-15
147	0xc4	-60
148	0x94	-108
149	0xdf	-33
150	0xe8	-24
151	0xb6	-74
152	0xfe	-2
153	0x1f	31
154	0x25	37
155	0x16	22
156	0x1d	29
157	0x1f	31
158	0x1a	26
159	0x1d	29
160	0x2a	42
161	0x22	34
162	0x51	81
163	0xf3	-13
164	0xcb	-53
165	0xeb	-21
166	0xd9	-39
167	0xfb	-5
168	0xac	-84
169	0xdc	-36
170	0x01	1
171	0x6e	110
172	0x10	16
173	0xc1	-63
174	0xe0	-32
175	0xd9	-39
176	0x08	8
177	0x81	-127
178	0xdd	-35
179	0x0d	13
180	0x21	33
181	0xfb	-5
182	0xdc	-36
183	0xde	-34
184	0xf5	-11
185	0xef	-17
186	0xcb	-53
187	0xfb	-5
188	0xcf	-49
189	0xf2	-14
190	0x09	9
191	0xf6	-10
192	0xf7	-9
193	0x1f	31
194	0x00	0
195	0x00	0
196	0x1e	30
197	0xff	-1
198	0x0a	10
199	0x51	81
200	0xf2	-14
201	0x10	16
202	0x7f	127
203	0xe0	-32
204	0xf5	-11
205	0x38	56
206	0xdb	-37
207	0xda	-38
208	0xc3	-61
209	0xe3	-29
210	0xcb	-53
211	0xc1	-63
212	0xd5	-43
213	0xe3	-29
214	0xfc	-4
215	0xe4	-28

model_1/expanded_conv_depthwise_BN/FusedBatchNormV3;model_1/expanded_conv_depthwise/depthwise;model_1/block_5_project/Conv2D i1 [1, 3, 3, 8]
0	0xde	-34
1	0x06	6
2	0xf2	-14
3	0xf9	-7
4	0xf2	-14
5	0x20	32
6	0x18	24
7	0x1c	28
8	0x1a	26
9	0xf4	-12
10	0x14	20
11	0xf2	-14
12	0xfd	-3
13	0x7f	127
14	0x2a	42
15	0x7f	127
16	0x12	18
17	0x0b	11
18	0x16	22
19	0xf1	-15
20	0x0a	10
21	0x16	22
22	0x1f	31
23	0xeb	-21
24	0xf6	-10
25	0x81	-127
26	0xe6	-26
27	0x0a	10
28	0xe7	-25
29	0x01	1
30	0x96	-106
31	0xdb	-37
32	0x81	-127
33	0x75	117
34	0x98	-104
35	0x7f	127
36	0x81	-127
37	0xff	-1
38	0x7f	127
39	0xaf	-81
40	0x19	25
41	0x0a	10
42	0x0d	13
43	0xb5	-75
44	0x06	6
45	0x08	8
46	0x59	89
47	0xc4	-60
48	0x04	4
49	0x09	9
50	0xf0	-16
51	0x02	2
52	0xf4	-12
53	0xf1	-15
54	0x20	32
55	0x1c	28
56	0x24	36
57	0xf3	-13
58	0x7f	127
59	0xe3	-29
60	0x00	0
61	0x9c	-100
62	0xe3	-29
63	0x2c	44
64	0xf9	-7
65	0x0b	11
66	0xe8	-24
67	0xf1	-15
68	0xf3	-13
69	0xf3	-13
70	0xde	-34
71	0x20	32

model_1/expanded_conv_project/Conv2D i1 [8, 1, 1, 8]
0	0xff	-1
1	0xfe	-2
2	0xf6	-10
3	0x03	3
4	0xef	-17
5	0x81	-127
6	0x12	18
7	0x19	25
8	0xb9	-71
9	0x08	8
10	0x96	-106
11	0x7f	127
12	0xf9	-7
13	0x48	72
14	0xfc	-4
15	0x34	52
16	0xfd	-3
17	0xec	-20
18	0x0b	11
19	0x08	8
20	0x02	2
21	0x81	-127
22	0x00	0
23	0x0d	13
24	0x0a	10
25	0x3a	58
26	0x23	35
27	0x7f	127
28	0x02	2
29	0xe7	-25
30	0xcd	-51
31	0x01	1
32	0x02	2
33	0x3f	63
34	0x07	7
35	0xfc	-4
36	0x81	-127
37	0x06	6
38	0x0a	10
39	0x07	7
40	0x29	41
41	0xdd	-35
42	0x7f	127
43	0xb1	-79
44	0x1e	30
45	0xda	-38
46	0x07	7
47	0xe5	-27
48	0x24	36
49	0x7f	127
50	0x22	34
51	0xd4	-44
52	0x27	39
53	0xeb	-21
54	0xb9	-71
55	0xf7	-9
56	0xdb	-37
57	0xd5	-43
58	0xc5	-59
59	0xfb	-5
60	0xe6	-26
61	0x81	-127
62	0x0a	10
63	0x3b	59

model_1/block_1_expand/Conv2D i1 [48, 1, 1, 8]
0	0x1f	31
1	0x29	41
2	0x19	25
3	0xd8	-40
4	0x7e	126
5	0xd1	-47
6	0x7f	127
7	0x0f	15
8	0x7f	127
9	0x29	41
10	0x55	85
11	0xf2	-14
12	0x11	17
13	0xc5	-59
14	0x18	24
15	0x7a	122
16	0xcb	-53
17	0x24	36
18	0x15	21
19	0x7f	127
20	0x21	33
21	0xd5	-43
22	0xbe	-66
23	0x5c	92
24	0x40	64
25	0xf7	-9
26	0xa3	-93
27	0xeb	-21
28	0xeb	-21
29	0xc5	-59
30	0x00	0
31	0x7f	127
32	0x81	-127
33	0x64	100
34	0xb3	-77
35	0xd2	-46
36	0xee	-18
37	0xf8	-8
38	0xbf	-65
39	0xf9	-7
40	0x67	103
41	0xfd	-3
42	0xef	-17
43	0xe2	-30
44	0xf3	-13
45	0xd7	-41
46	0x14	20
47	0x81	-127
48	0xf7	-9
49	0xe8	-24
50	0x0b	11
51	0x11	17
52	0x81	-127
53	0xf3	-13
54	0x4f	79
55	0xf4	-12
56	0xf3	-13
57	0xb8	-72
58	0xf3	-13
59	0x0a	10
60	0xee	-18
61	0x0b	11
62	0x81	-127
63	0xf5	-11
64	0x0d	13
65	0x3b	59
66	0x44	68
67	0xdc	-36
68	0x7f	127
69	0xf7	-9
70	0x9a	-102
71	0x04	4
72	0x7f	127
73	0xf8	-8
74	0x00	0
75	0x17	23
76	0xe4	-28
77	0xd0	-48
78	0x38	56
79	0x71	113
80	0x6b	107
81	0xfb	-5
82	0xf0	-16
83	0xe8	-24
84	0x09	9
85	0x15	21
86	0x0b	11
87	0x81	-127
88	0xe3	-29
89	0xf1	-15
90	0xee	-18
91	0x7f	127
92	0xef	-17
93	0xe9	-23
94	0xd1	-47
95	0x2d	45
96	0xb7	-73
97	0xdd	-35
98	0xe1	-31
99	0xd2	-46
100	0xee	-18
101	0x7f	127
102	0xf0	-16
103	0xb6	-74
104	0x7f	127
105	0x13	19
106	0x71	113
107	0xff	-1
108	0xec	-20
109	0x07	7
110	0x0b	11
111	0x3b	59
112	0x96	-106
113	0x06	6
114	0x19	25
115	0x03	3
116	0xf5	-11
117	0xe8	-24
118	0xfb	-5
119	0x7f	127
120	0x58	88
121	0xe1	-31
122	0xeb	-21
123	0x81	-127
124	0x14	20
125	0x19	25
126	0x00	0
127	0x82	-126
128	0x2f	47
129	0xcb	-53
130	0x7f	127
131	0x39	57
132	0x11	17
133	0x93	-109
134	0x49	73
135	0x6e	110
136	0x20	32
137	0xe3	-29
138	0xa9	-87
139	0x7f	127
140	0x14	20
141	0x02	2
142	0x0d	13
143	0x54	84
144	0xf9	-7
145	0xbc	-68
146	0x8a	-118
147	0x19	25
148	0x07	7
149	0x1e	30
150	0x49	73
151	0x7f	127
152	0x0b	11
153	0x22	34
154	0xe4	-28
155	0x7f	127
156	0x07	7
157	0x13	19
158	0xc0	-64
159	0xbe	-66
160	0xf7	-9
161	0x4a	74
162	0x46	70
163	0x81	-127
164	0xec	-20
165	0xa7	-89
166	0xed	-19
167	0xad	-83
168	0x10	16
169	0xf1	-15
170	0x05	5
171	0xf4	-12
172	0x81	-127
173	0xfe	-2
174	0x48	72
175	0x0e	14
176	0x0a	10
177	0x2b	43
178	0x07	7
179	0xee	-18
180	0xfa	-6
181	0x7f	127
182	0xed	-19
183	0x09	9
184	0x7f	127
185	0x07	7
186	0x09	9
187	0x69	105
188	0x0d	13
189	0x11	17
190	0xe8	-24
191	0x9b	-101
192	0x81	-127
193	0xfb	-5
194	0x9e	-98
195	0xf7	-9
196	0xf9	-7
197	0xf8	-8
198	0xbf	-65
199	0xb5	-75
200	0xb5	-75
201	0xe2	-30
202	0xd1	-47
203	0xb6	-74
204	0x1f	31
205	0x81	-127
206	0xf6	-10
207	0xe2	-30
208	0xb4	-76
209	0xfb	-5
210	0x81	-127
211	0xf9	-7
212	0x18	24
213	0xf4	-12
214	0xfe	-2
215	0xd4	-44
216	0x68	104
217	0x17	23
218	0x7f	127
219	0x23	35
220	0x0c	12
221	0x15	21
222	0xfb	-5
223	0x36	54
224	0x19	25
225	0xa7	-89
226	0xf9	-7
227	0x3c	60
228	0x0c	12
229	0x81	-127
230	0xf0	-16
231	0x22	34
232	0xed	-19
233	0x05	5
234	0x0a	10
235	0x81	-127
236	0x00	0
237	0xec	-20
238	0x1f	31
239	0x0b	11
240	0xc8	-56
241	0xf9	-7
242	0x7f	127
243	0x08	8
244	0xf3	-13
245	0x13	19
246	0xeb	-21
247	0x92	-110
248	0x09	9
249	0x00	0
250	0x0d	13
251	0xf6	-10
252	0x7f	127
253	0x21	33
254	0xda	-38
255	0x03	3

model_1/block_1_depthwise_BN/FusedBatchNormV3;model_1/block_1_depthwise/depthwise;model_1/block_6_expand/Conv2D i1 [1, 3, 3, 48]
0	0x3b	59
1	0xcd	-51
2	0xb3	-77
3	0xc1	-63
4	0x37	55
5	0x81	-127
6	0x78	120
7	0xb7	-73
8	0x66	102
9	0xf9	-7
10	0x7f	127
11	0x23	35
12	0x9c	-100
13	0x16	22
14	0x44	68
15	0x88	-120
16	0x30	48
17	0x9c	-100
18	0xed	-19
19	0xf5	-11
20	0x83	-125
21	0xe7	-25
22	0x1a	26
23	0x72	114
24	0xe1	-31
25	0x4b	75
26	0x1a	26
27	0x21	33
28	0x81	-127
29	0x23	35
30	0x2c	44
31	0xd2	-46
32	0xe6	-26
33	0xda	-38
34	0x1d	29
35	0x32	50
36	0x81	-127
37	0x0f	15
38	0x7f	127
39	0x43	67
40	0xb2	-78
41	0x9d	-99
42	0xaa	-86
43	0x44	68
44	0xd4	-44
45	0xf7	-9
46	0xf9	-7
47	0xc3	-61
48	0x25	37
49	0xbd	-67
50	0x36	54
51	0x7f	127
52	0x7f	127
53	0x3e	62
54	0x70	112
55	0xc8	-56
56	0xcf	-49
57	0x59	89
58	0x5d	93
59	0x3a	58
60	0xef	-17
61	0x5d	93
62	0x47	71
63	0x60	96
64	0x66	102
65	0xbd	-67
66	0x88	-120
67	0xe7	-25
68	0x7f	127
69	0x81	-127
70	0x28	40
71	0xe9	-23
72	0x43	67
73	0x7f	127
74	0xb5	-75
75	0x5a	90
76	0xf4	-12
77	0x6e	110
78	0x25	37
79	0xb2	-78
80	0x3a	58
81	0x72	114
82	0x7f	127
83	0x7f	127
84	0x9c	-100
85	0x0e	14
86	0x21	33
87	0xc0	-64
88	0x2d	45
89	0x30	48
90	0xbd	-67
91	0x2b	43
92	0x7f	127
93	0x70	112
94	0xec	-20
95	0x03	3
96	0x2c	44
97	0xd9	-39
98	0x10	16
99	0xcb	-53
100	0x47	71
101	0x50	80
102	0x2f	47
103	0x9c	-100
104	0x15	21
105	0x16	22
106	0xd3	-45
107	0x14	20
108	0x3c	60
109	0x1a	26
110	0xdf	-33
111	0xf3	-13
112	0x01	1
113	0xf5	-11
114	0x46	70
115	0x06	6
116	0x14	20
117	0xe2	-30
118	0xa9	-87
119	0xd0	-48
120	0xf8	-8
121	0x12	18
122	0xd6	-42
123	0x04	4
124	0x14	20
125	0x7f	127
126	0x02	2
127	0xe8	-24
128	0x0a	10
129	0xe9	-23
130	0x09	9
131	0x0b	11
132	0x0c	12
133	0xf0	-16
134	0x2b	43
135	0x98	-104
136	0xa7	-89
137	0x7f	127
138	0xe4	-28
139	0x1a	26
140	0xdb	-37
141	0xd2	-46
142	0xef	-17
143	0x51	81
144	0x48	72
145	0x50	80
146	0x81	-127
147	0xfc	-4
148	0xc2	-62
149	0x9a	-102
150	0x7f	127
151	0xf7	-9
152	0x41	65
153	0xc9	-55
154	0x54	84
155	0x82	-126
156	0x3c	60
157	0x7f	127
158	0x7f	127
159	0x66	102
160	0xec	-20
161	0x74	116
162	0xde	-34
163	0xa6	-90
164	0x6e	110
165	0x90	-112
166	0x26	38
167	0x7f	127
168	0x16	22
169	0xed	-19
170	0xf7	-9
171	0xfa	-6
172	0xbd	-67
173	0x0b	11
174	0x4e	78
175	0xaa	-86
176	0x81	-127
177	0xd2	-46
178	0xcf	-49
179	0x03	3
180	0x11	17
181	0x39	57
182	0x54	84
183	0x7f	127
184	0xab	-85
185	0x99	-103
186	0xc5	-59
187	0x4a	74
188	0xef	-17
189	0xfd	-3
190	0x81	-127
191	0x81	-127
192	0x7f	127
193	0x7f	127
194	0x59	89
195	0xdc	-36
196	0x8f	-113
197	0x27	39
198	0x78	120
199	0x81	-127
200	0x8b	-117
201	0x81	-127
202	0x77	119
203	0x81	-127
204	0x0e	14
205	0x59	89
206	0x3b	59
207	0x81	-127
208	0xbd	-67
209	0x7f	127
210	0x62	98
211	0x81	-127
212	0x9a	-102
213	0xa1	-95
214	0x3d	61
215	0xf5	-11
216	0x54	84
217	0xfa	-6
218	0x81	-127
219	0x26	38
220	0xf8	-8
221	0x2b	43
222	0x7f	127
223	0x81	-127
224	0x5b	91
225	0x7f	127
226	0xc1	-63
227	0xf0	-16
228	0x0c	12
229	0x7f	127
230	0x70	112
231	0xad	-83
232	0x54	84
233	0xe0	-32
234	0xfb	-5
235	0x7f	127
236	0xe8	-24
237	0x7f	127
238	0x7b	123
239	0x1b	27
240	0x2e	46
241	0x1a	26
242	0x10	16
243	0xf5	-11
244	0xfa	-6
245	0x68	104
246	0x49	73
247	0xa0	-96
248	0x17	23
249	0xab	-85
250	0xd0	-48
251	0x9e	-98
252	0x81	-127
253	0xd7	-41
254	0xaa	-86
255	0xf5	-11

model_1/block_1_project/Conv2D i1 [8, 1, 1, 48]
0	0xef	-17
1	0x37	55
2	0xd5	-43
3	0xf2	-14
4	0xdc	-36
5	0xd7	-41
6	0x9b	-101
7	0x26	38
8	0x17	23
9	0x0a	10
10	0x1b	27
11	0x1d	29
12	0x35	53
13	0xf8	-8
14	0xc3	-61
15	0xff	-1
16	0xc2	-62
17	0x3c	60
18	0x1a	26
19	0xad	-83
20	0x14	20
21	0x39	57
22	0x81	-127
23	0xf9	-7
24	0x05	5
25	0x19	25
26	0xd0	-48
27	0x26	38
28	0xed	-19
29	0x00	0
30	0x0c	12
31	0x24	36
32	0x1e	30
33	0xd8	-40
34	0x35	53
35	0x06	6
36	0x0d	13
37	0x6a	106
38	0xa9	-87
39	0xfb	-5
40	0xe5	-27
41	0x08	8
42	0xd5	-43
43	0x13	19
44	0x13	19
45	0x14	20
46	0x09	9
47	0x09	9
48	0xa9	-87
49	0xb0	-80
50	0xb9	-71
51	0xf5	-11
52	0x63	99
53	0xf7	-9
54	0x96	-106
55	0x2a	42
56	0xf8	-8
57	0xeb	-21
58	0xe5	-27
59	0xb7	-73
60	0xfd	-3
61	0x59	89
62	0xf6	-10
63	0x06	6
64	0x7e	126
65	0x99	-103
66	0x07	7
67	0xdf	-33
68	0xb6	-74
69	0xf3	-13
70	0xf5	-11
71	0xfe	-2
72	0x24	36
73	0x09	9
74	0xd7	-41
75	0xdd	-35
76	0x25	37
77	0xe2	-30
78	0x81	-127
79	0xfa	-6
80	0x27	39
81	0xba	-70
82	0xa4	-92
83	0xb0	-80
84	0x1a	26
85	0xf8	-8
86	0x99	-103
87	0xee	-18
88	0x11	17
89	0x16	22
90	0x19	25
91	0x5c	92
92	0x03	3
93	0x16	22
94	0x14	20
95	0x3a	58
96	0x17	23
97	0xcd	-51
98	0x1a	26
99	0x48	72
100	0x7f	127
101	0x00	0
102	0x71	113
103	0xe8	-24
104	0xef	-17
105	0xd4	-44
106	0x04	4
107	0xc1	-63
108	0xf3	-13
109	0xf3	-13
110	0x01	1
111	0x10	16
112	0xd2	-46
113	0xb7	-73
114	0x1b	27
115	0xd5	-43
116	0x16	22
117	0xad	-83
118	0xb7	-73
119	0xfb	-5
120	0xcb	-53
121	0x4a	74
122	0x35	53
123	0x92	-110
124	0xeb	-21
125	0x0b	11
126	0xb8	-72
127	0xe2	-30
128	0x22	34
129	0xf5	-11
130	0xcc	-52
131	0xe1	-31
132	0xea	-22
133	0x6d	109
134	0x5c	92
135	0xd0	-48
136	0xe4	-28
137	0xf8	-8
138	0xd8	-40
139	0xc6	-58
140	0x1c	28
141	0x33	51
142	0x20	32
143	0xf8	-8
144	0x17	23
145	0xf4	-12
146	0x06	6
147	0xff	-1
148	0x13	19
149	0x28	40
150	0x24	36
151	0x97	-105
152	0x28	40
153	0x21	33
154	0xe6	-26
155	0x17	23
156	0x12	18
157	0x81	-127
158	0xfd	-3
159	0x11	17
160	0xf3	-13
161	0xfb	-5
162	0xe0	-32
163	0xee	-18
164	0xeb	-21
165	0x25	37
166	0x8f	-113
167	0xf7	-9
168	0x06	6
169	0x91	-111
170	0x14	20
171	0x2c	44
172	0x20	32
173	0xe2	-30
174	0xf0	-16
175	0x47	71
176	0x10	16
177	0x17	23
178	0xef	-17
179	0xee	-18
180	0x8e	-114
181	0xe2	-30
182	0x16	22
183	0xff	-1
184	0x07	7
185	0x0d	13
186	0x36	54
187	0x11	17
188	0xe2	-30
189	0x11	17
190	0x0f	15
191	0xdb	-37
192	0x39	57
193	0xd0	-48
194	0x1a	26
195	0x63	99
196	0x4c	76
197	0xf8	-8
198	0xf0	-16
199	0xea	-22
200	0xc6	-58
201	0x03	3
202	0x2b	43
203	0xca	-54
204	0x46	70
205	0x39	57
206	0xd6	-42
207	0x13	19
208	0xbb	-69
209	0xc7	-57
210	0x5b	91
211	0x18	24
212	0x38	56
213	0xd6	-42
214	0x7e	126
215	0x2c	44
216	0xcd	-51
217	0xfe	-2
218	0xb1	-79
219	0xff	-1
220	0xe4	-28
221	0x02	2
222	0xb6	-74
223	0xbf	-65
224	0x4e	78
225	0xf3	-13
226	0xdf	-33
227	0xa7	-89
228	0xde	-34
229	0xba	-70
230	0xf7	-9
231	0xf0	-16
232	0xc7	-57
233	0x7f	127
234	0x0f	15
235	0xe6	-26
236	0x53	83
237	0x4e	78
238	0x21	33
239	0x2b	43
240	0xb1	-79
241	0xd9	-39
242	0xcd	-51
243	0x45	69
244	0x0a	10
245	0xf9	-7
246	0xee	-18
247	0xde	-34
248	0xb5	-75
249	0xcd	-51
250	0xed	-19
251	0xda	-38
252	0xff	-1
253	0x14	20
254	0xa9	-87
255	0xfe	-2

model_1/block_2_expand/Conv2D i1 [48, 1, 1, 8]
0	0x81	-127
1	0x08	8
2	0x2c	44
3	0x8d	-115
4	0xaf	-81
5	0x50	80
6	0xeb	-21
7	0xe3	-29
8	0x75	117
9	0xee	-18
10	0x00	0
11	0xce	-50
12	0xf0	-16
13	0x5c	92
14	0x81	-127
15	0x1e	30
16	0xf0	-16
17	0x13	19
18	0x81	-127
19	0x39	57
20	0xb1	-79
21	0x5d	93
22	0xf6	-10
23	0x4f	79
24	0x7f	127
25	0xf9	-7
26	0xc9	-55
27	0x66	102
28	0x14	20
29	0xcd	-51
30	0x22	34
31	0x76	118
32	0xc1	-63
33	0xf0	-16
34	0xf1	-15
35	0x02	2
36	0xe3	-29
37	0xeb	-21
38	0x7f	127
39	0xf9	-7
40	0x47	71
41	0x3f	63
42	0xf6	-10
43	0x40	64
44	0x81	-127
45	0xf4	-12
46	0x24	36
47	0x01	1
48	0xee	-18
49	0xd8	-40
50	0x30	48
51	0x7f	127
52	0xf9	-7
53	0xb5	-75
54	0xde	-34
55	0x0d	13
56	0x54	84
57	0xe7	-25
58	0x6c	108
59	0xea	-22
60	0xd6	-42
61	0x04	4
62	0x28	40
63	0x7f	127
64	0xf0	-16
65	0x81	-127
66	0x19	25
67	0x3a	58
68	0x57	87
69	0xf5	-11
70	0xf8	-8
71	0xf2	-14
72	0xaa	-86
73	0xba	-70
74	0x21	33
75	0xd8	-40
76	0xfb	-5
77	0xf2	-14
78	0xc3	-61
79	0x7f	127
80	0x03	3
81	0x81	-127
82	0x33	51
83	0x5e	94
84	0x4d	77
85	0x3c	60
86	0x22	34
87	0xd1	-47
88	0xb4	-76
89	0x81	-127
90	0x37	55
91	0xa7	-89
92	0x14	20
93	0x10	16
94	0xc0	-64
95	0x4b	75
96	0x31	49
97	0xdc	-36
98	0x3f	63
99	0xaa	-86
100	0x28	40
101	0x81	-127
102	0x32	50
103	0xea	-22
104	0x0f	15
105	0x1f	31
106	0x22	34
107	0x7f	127
108	0x05	5
109	0x00	0
110	0x0f	15
111	0xda	-38
112	0xec	-20
113	0xe8	-24
114	0x11	17
115	0x14	20
116	0x7d	125
117	0x02	2
118	0x0f	15
119	0x7f	127
120	0xdc	-36
121	0x49	73
122	0x04	4
123	0x69	105
124	0x5a	90
125	0x7f	127
126	0xfd	-3
127	0x2e	46
128	0xee	-18
129	0xd3	-45
130	0xdd	-35
131	0x81	-127
132	0xe0	-32
133	0x22	34
134	0xfd	-3
135	0x43	67
136	0xfe	-2
137	0x7f	127
138	0xee	-18
139	0x45	69
140	0x00	0
141	0xee	-18
142	0xe8	-24
143	0xf8	-8
144	0x30	48
145	0x0c	12
146	0xd5	-43
147	0x8a	-118
148	0xe7	-25
149	0x81	-127
150	0x36	54
151	0x08	8
152	0x35	53
153	0xe8	-24
154	0x81	-127
155	0xca	-54
156	0xdd	-35
157	0x6f	111
158	0x28	40
159	0xe1	-31
160	0x2e	46
161	0x15	21
162	0x03	3
163	0x0d	13
164	0x7f	127
165	0x2a	42
166	0x14	20
167	0xe6	-26
168	0xab	-85
169	0x89	-119
170	0xe5	-27
171	0x81	-127
172	0x06	6
173	0x01	1
174	0x12	18
175	0xc8	-56
176	0xb2	-78
177	0xf0	-16
178	0x2e	46
179	0x57	87
180	0x12	18
181	0xc4	-60
182	0xc1	-63
183	0x7f	127
184	0xf6	-10
185	0x39	57
186	0xfa	-6
187	0x7f	127
188	0x3b	59
189	0xf9	-7
190	0xfe	-2
191	0x67	103
192	0x7f	127
193	0x13	19
194	0xad	-83
195	0x01	1
196	0xeb	-21
197	0xd9	-39
198	0x3b	59
199	0xe8	-24
200	0x1f	31
201	0xdd	-35
202	0xb0	-80
203	0x03	3
204	0x3b	59
205	0xfc	-4
206	0x81	-127
207	0x9e	-98
208	0x7f	127
209	0xf6	-10
210	0x4a	74
211	0xd1	-47
212	0xc3	-61
213	0x18	24
214	0x45	69
215	0x78	120
216	0xf5	-11
217	0xf0	-16
218	0xc6	-58
219	0x7f	127
220	0x02	2
221	0x1a	26
222	0x08	8
223	0xc6	-58
224	0xab	-85
225	0x7f	127
226	0x6d	109
227	0x3d	61
228	0x57	87
229	0xd8	-40
230	0xd2	-46
231	0x14	20
232	0x0d	13
233	0xf4	-12
234	0x22	34
235	0x10	16
236	0xb2	-78
237	0x0e	14
238	0x7f	127
239	0x2e	46
240	0xe1	-31
241	0xad	-83
242	0x1a	26
243	0xda	-38
244	0xac	-84
245	0x7f	127
246	0x47	71
247	0x12	18
248	0x7f	127
249	0x2f	47
250	0x38	56
251	0x08	8
252	0x89	-119
253	0x61	97
254	0x2b	43
255	0x59	89

model_1/block_2_depthwise_BN/FusedBatchNormV3;model_1/block_2_depthwise/depthwise;model_1/block_6_expand/Conv2D i1 [1, 3, 3, 48]
0	0xea	-22
1	0x51	81
2	0xa1	-95
3	0xc2	-62
4	0x05	5
5	0xff	-1
6	0xf4	-12
7	0xd5	-43
8	0xe8	-24
9	0x03	3
10	0xf8	-8
11	0x14	20
12	0x11	17
13	0x9b	-101
14	0x99	-103
15	0xf7	-9
16	0x7f	127
17	0xef	-17
18	0x3d	61
19	0x0f	15
20	0x92	-110
21	0xd8	-40
22	0x2c	44
23	0x81	-127
24	0x0b	11
25	0xb6	-74
26	0xed	-19
27	0x66	102
28	0x0d	13
29	0xff	-1
30	0x3f	63
31	0x7f	127
32	0x17	23
33	0xe6	-26
34	0xdc	-36
35	0x19	25
36	0x1a	26
37	0x00	0
38	0xec	-20
39	0x23	35
40	0x7f	127
41	0xd5	-43
42	0xf4	-12
43	0x4a	74
44	0x2c	44
45	0xb2	-78
46	0xce	-50
47	0x08	8
48	0x15	21
49	0x81	-127
50	0x05	5
51	0x81	-127
52	0x0a	10
53	0xdd	-35
54	0xae	-82
55	0x7f	127
56	0x25	37
57	0xcd	-51
58	0x23	35
59	0x13	19
60	0x28	40
61	0x81	-127
62	0xd4	-44
63	0xf1	-15
64	0x07	7
65	0xfb	-5
66	0xff	-1
67	0xa9	-87
68	0x9f	-97
69	0xee	-18
70	0x15	21
71	0x56	86
72	0x23	35
73	0xe1	-31
74	0x00	0
75	0x7f	127
76	0x2e	46
77	0xed	-19
78	0x29	41
79	0x96	-106
80	0x81	-127
81	0x05	5
82	0xe5	-27
83	0x03	3
84	0x7f	127
85	0xbb	-69
86	0x26	38
87	0x04	4
88	0x1c	28
89	0xc0	-64
90	0xef	-17
91	0x34	52
92	0x7f	127
93	0x4d	77
94	0x3a	58
95	0xee	-18
96	0x0b	11
97	0xe7	-25
98	0xef	-17
99	0xfc	-4
100	0x0a	10
101	0x11	17
102	0xf5	-11
103	0x65	101
104	0xe7	-25
105	0xfa	-6
106	0x11	17
107	0x29	41
108	0x32	50
109	0x37	55
110	0xe5	-27
111	0xff	-1
112	0x59	89
113	0xfb	-5
114	0x00	0
115	0xfb	-5
116	0x81	-127
117	0x43	67
118	0x53	83
119	0x33	51
120	0x0b	11
121	0x28	40
122	0xf8	-8
123	0xfd	-3
124	0x08	8
125	0xf1	-15
126	0x27	39
127	0xeb	-21
128	0xaa	-86
129	0xf2	-14
130	0x0f	15
131	0x1d	29
132	0x0e	14
133	0x7f	127
134	0x00	0
135	0x1a	26
136	0x67	103
137	0xef	-17
138	0x2a	42
139	0xef	-17
140	0x1a	26
141	0x32	50
142	0xfd	-3
143	0x01	1
144	0x04	4
145	0xff	-1
146	0x8b	-117
147	0xe1	-31
148	0xed	-19
149	0x07	7
150	0x17	23
151	0xe9	-23
152	0x2f	47
153	0xb8	-72
154	0xef	-17
155	0x94	-108
156	0xf4	-12
157	0xf0	-16
158	0x81	-127
159	0x4a	74
160	0x73	115
161	0xf5	-11
162	0x7f	127
163	0x37	55
164	0xcd	-51
165	0x62	98
166	0x3e	62
167	0x43	67
168	0x1a	26
169	0xaf	-81
170	0xca	-54
171	0x1f	31
172	0x11	17
173	0xcd	-51
174	0x43	67
175	0xb3	-77
176	0x2c	44
177	0xd9	-39
178	0xb0	-80
179	0x15	21
180	0xdc	-36
181	0xd2	-46
182	0x1a	26
183	0x25	37
184	0x69	105
185	0x7f	127
186	0xd4	-44
187	0x08	8
188	0xa5	-91
189	0x7f	127
190	0x12	18
191	0xd8	-40
192	0x81	-127
193	0x24	36
194	0x7f	127
195	0x54	84
196	0x7f	127
197	0x81	-127
198	0x81	-127
199	0xd9	-39
200	0xd8	-40
201	0x81	-127
202	0x81	-127
203	0x81	-127
204	0x7f	127
205	0x05	5
206	0xd0	-48
207	0x07	7
208	0x2b	43
209	0x81	-127
210	0xc6	-58
211	0x81	-127
212	0x2d	45
213	0xe2	-30
214	0xa2	-94
215	0x8a	-118
216	0x7f	127
217	0xf6	-10
218	0x7f	127
219	0xf3	-13
220	0x7f	127
221	0x7f	127
222	0xf5	-11
223	0x32	50
224	0xb4	-76
225	0x81	-127
226	0x7f	127
227	0x81	-127
228	0x5f	95
229	0xdc	-36
230	0x81	-127
231	0x81	-127
232	0x35	53
233	0x71	113
234	0xcd	-51
235	0x24	36
236	0xa4	-92
237	0xd3	-45
238	0x7f	127
239	0x7f	127
240	0xd5	-43
241	0xee	-18
242	0xe8	-24
243	0x02	2
244	0x20	32
245	0x6a	106
246	0xd7	-41
247	0x56	86
248	0x22	34
249	0xf6	-10
250	0x20	32
251	0xe3	-29
252	0x06	6
253	0x0c	12
254	0xa5	-91
255	0x06	6

model_1/block_2_project/Conv2D i1 [8, 1, 1, 48]
0	0xd5	-43
1	0xec	-20
2	0xe7	-25
3	0xcd	-51
4	0xa7	-89
5	0xe1	-31
6	0x08	8
7	0xdd	-35
8	0x38	56
9	0x15	21
10	0x17	23
11	0x0a	10
12	0xfc	-4
13	0x02	2
14	0xf9	-7
15	0x15	21
16	0xe8	-24
17	0xff	-1
18	0xde	-34
19	0xde	-34
20	0xf1	-15
21	0xfc	-4
22	0xda	-38
23	0x11	17
24	0x23	35
25	0xe9	-23
26	0x4e	78
27	0x19	25
28	0xde	-34
29	0x97	-105
30	0xe1	-31
31	0xff	-1
32	0xec	-20
33	0x18	24
34	0x7f	127
35	0xe8	-24
36	0xd8	-40
37	0xe0	-32
38	0x0e	14
39	0xe4	-28
40	0x0d	13
41	0xf7	-9
42	0xec	-20
43	0xdd	-35
44	0xfc	-4
45	0xf0	-16
46	0xdb	-37
47	0x93	-109
48	0x08	8
49	0xd2	-46
50	0x02	2
51	0x38	56
52	0xf5	-11
53	0x06	6
54	0x22	34
55	0x1b	27
56	0x40	64
57	0x68	104
58	0x40	64
59	0xd7	-41
60	0xb5	-75
61	0x42	66
62	0x11	17
63	0x13	19
64	0xe6	-26
65	0xee	-18
66	0x25	37
67	0xd8	-40
68	0xaa	-86
69	0x1f	31
70	0xbf	-65
71	0x32	50
72	0x6f	111
73	0x1e	30
74	0xcf	-49
75	0x34	52
76	0x10	16
77	0xef	-17
78	0x7f	127
79	0x2c	44
80	0xde	-34
81	0xe5	-27
82	0xcd	-51
83	0xef	-17
84	0xe1	-31
85	0x19	25
86	0xf5	-11
87	0xe5	-27
88	0xf3	-13
89	0xf8	-8
90	0xf9	-7
91	0x29	41
92	0x0a	10
93	0x39	57
94	0x11	17
95	0x2a	42
96	0xb0	-80
97	0xe9	-23
98	0xcf	-49
99	0x75	117
100	0xd9	-39
101	0xd6	-42
102	0x04	4
103	0xb4	-76
104	0xce	-50
105	0x0f	15
106	0x1b	27
107	0x97	-105
108	0xd8	-40
109	0x0c	12
110	0xc5	-59
111	0x17	23
112	0x57	87
113	0x08	8
114	0xd5	-43
115	0xec	-20
116	0xb0	-80
117	0x00	0
118	0xef	-17
119	0x22	34
120	0x34	52
121	0xf4	-12
122	0x59	89
123	0xe7	-25
124	0x5d	93
125	0xe0	-32
126	0xb2	-78
127	0x22	34
128	0xef	-17
129	0xd3	-45
130	0x17	23
131	0x11	17
132	0xc0	-64
133	0x2d	45
134	0xea	-22
135	0xb7	-73
136	0x4a	74
137	0xab	-85
138	0xe2	-30
139	0x81	-127
140	0xdc	-36
141	0xac	-84
142	0xd9	-39
143	0x42	66
144	0x25	37
145	0xc4	-60
146	0x19	25
147	0xcd	-51
148	0x2d	45
149	0xdd	-35
150	0xea	-22
151	0xca	-54
152	0x38	56
153	0xba	-70
154	0x0a	10
155	0xdd	-35
156	0xa5	-91
157	0xad	-83
158	0xe2	-30
159	0x15	21
160	0xfc	-4
161	0x02	2
162	0x32	50
163	0xed	-19
164	0x05	5
165	0x2a	42
166	0xc4	-60
167	0x10	16
168	0x35	53
169	0xed	-19
170	0x3a	58
171	0x1c	28
172	0x14	20
173	0x0a	10
174	0x0d	13
175	0xf6	-10
176	0xd2	-46
177	0x2c	44
178	0x06	6
179	0xf3	-13
180	0xdf	-33
181	0x26	38
182	0x0d	13
183	0xec	-20
184	0x7f	127
185	0x1f	31
186	0xe3	-29
187	0x2e	46
188	0xe1	-31
189	0x1e	30
190	0x06	6
191	0xe1	-31
192	0x09	9
193	0x0d	13
194	0x02	2
195	0x02	2
196	0xfb	-5
197	0x28	40
198	0xee	-18
199	0xff	-1
200	0x1e	30
201	0x09	9
202	0x11	17
203	0xe0	-32
204	0x0a	10
205	0xfc	-4
206	0xcf	-49
207	0x05	5
208	0x0b	11
209	0x06	6
210	0x0b	11
211	0xe5	-27
212	0xde	-34
213	0x23	35
214	0xf8	-8
215	0x1a	26
216	0x2b	43
217	0xf9	-7
218	0xd9	-39
219	0x10	16
220	0x1f	31
221	0xea	-22
222	0xfb	-5
223	0x21	33
224	0xf4	-12
225	0xf0	-16
226	0x26	38
227	0x08	8
228	0x81	-127
229	0xf5	-11
230	0x25	37
231	0x14	20
232	0x15	21
233	0xef	-17
234	0xf4	-12
235	0x06	6
236	0xed	-19
237	0x37	55
238	0xde	-34
239	0x9e	-98
240	0xce	-50
241	0x9b	-101
242	0x0c	12
243	0x78	120
244	0xd3	-45
245	0xeb	-21
246	0xc3	-61
247	0x6a	106
248	0x98	-104
249	0x38	56
250	0x19	25
251	0x0a	10
252	0xa8	-88
253	0x03	3
254	0x2e	46
255	0xcd	-51

model_1/block_3_expand/Conv2D i1 [48, 1, 1, 8]
0	0xd0	-48
1	0x4b	75
2	0xbb	-69
3	0x16	22
4	0x05	5
5	0x7f	127
6	0x34	52
7	0x2d	45
8	0x1e	30
9	0x92	-110
10	0x81	-127
11	0xfa	-6
12	0xf6	-10
13	0x5b	91
14	0x2b	43
15	0xf3	-13
16	0xf4	-12
17	0x47	71
18	0xc0	-64
19	0x81	-127
20	0xf2	-14
21	0xac	-84
22	0xff	-1
23	0xa5	-91
24	0x04	4
25	0x7f	127
26	0x44	68
27	0x27	39
28	0xf1	-15
29	0xce	-50
30	0xd7	-41
31	0x2b	43
32	0x92	-110
33	0x3e	62
34	0x81	-127
35	0x2c	44
36	0xee	-18
37	0x08	8
38	0xf2	-14
39	0xe1	-31
40	0x31	49
41	0x92	-110
42	0x81	-127
43	0xfb	-5
44	0x24	36
45	0xd8	-40
46	0x53	83
47	0xfc	-4
48	0xd2	-46
49	0xbe	-66
50	0xa0	-96
51	0xf4	-12
52	0x91	-111
53	0xe9	-23
54	0xe0	-32
55	0x7f	127
56	0xfd	-3
57	0xeb	-21
58	0xe6	-26
59	0xcd	-51
60	0x1b	27
61	0x13	19
62	0xf6	-10
63	0x7f	127
64	0x2b	43
65	0x01	1
66	0xbb	-69
67	0x81	-127
68	0x13	19
69	0xc0	-64
70	0x9a	-102
71	0x89	-119
72	0x81	-127
73	0x2d	45
74	0xe2	-30
75	0x3c	60
76	0x12	18
77	0x4e	78
78	0x37	55
79	0x19	25
80	0xf8	-8
81	0x08	8
82	0x3f	63
83	0x81	-127
84	0xd9	-39
85	0x47	71
86	0x00	0
87	0x10	16
88	0x42	66
89	0xda	-38
90	0x6d	109
91	0x09	9
92	0xf3	-13
93	0x10	16
94	0x2f	47
95	0x7f	127
96	0x48	72
97	0x39	57
98	0x31	49
99	0xf0	-16
100	0x1a	26
101	0x42	66
102	0x33	51
103	0x81	-127
104	0x11	17
105	0x29	41
106	0xe8	-24
107	0x32	50
108	0x0c	12
109	0x81	-127
110	0xeb	-21
111	0x55	85
112	0xf9	-7
113	0x81	-127
114	0xd6	-42
115	0xd5	-43
116	0x1e	30
117	0x28	40
118	0x2f	47
119	0xf7	-9
120	0xc5	-59
121	0xe6	-26
122	0xe7	-25
123	0xdd	-35
124	0x1b	27
125	0x7f	127
126	0xb0	-80
127	0xd1	-47
128	0x1c	28
129	0xf5	-11
130	0x4c	76
131	0x1e	30
132	0xd7	-41
133	0x2a	42
134	0x7f	127
135	0x2b	43
136	0x2f	47
137	0x2f	47
138	0x5c	92
139	0x00	0
140	0x0d	13
141	0x81	-127
142	0xb8	-72
143	0x90	-112
144	0xa0	-96
145	0x36	54
146	0x8c	-116
147	0x0c	12
148	0xcf	-49
149	0xa3	-93
150	0x3d	61
151	0x81	-127
152	0x13	19
153	0xed	-19
154	0x3c	60
155	0xc8	-56
156	0xa8	-88
157	0xfc	-4
158	0x7f	127
159	0x41	65
160	0x03	3
161	0x7f	127
162	0x1f	31
163	0x09	9
164	0x04	4
165	0x34	52
166	0x37	55
167	0xf8	-8
168	0xf5	-11
169	0x2e	46
170	0x2b	43
171	0xba	-70
172	0xe2	-30
173	0x7f	127
174	0x12	18
175	0xe1	-31
176	0xfb	-5
177	0xdd	-35
178	0x68	104
179	0xd5	-43
180	0xf4	-12
181	0xf2	-14
182	0x57	87
183	0x7f	127
184	0xac	-84
185	0x7f	127
186	0x15	21
187	0x3e	62
188	0xc8	-56
189	0xcf	-49
190	0xbb	-69
191	0x7c	124
192	0xda	-38
193	0x11	17
194	0x6d	109
195	0xff	-1
196	0x81	-127
197	0x57	87
198	0xdf	-33
199	0xc8	-56
200	0xb4	-76
201	0x02	2
202	0x6f	111
203	0x06	6
204	0x81	-127
205	0x1c	28
206	0x94	-108
207	0x2e	46
208	0xbe	-66
209	0x81	-127
210	0x36	54
211	0xbf	-65
212	0x1f	31
213	0x1e	30
214	0xe4	-28
215	0x02	2
216	0xd7	-41
217	0x4c	76
218	0x2e	46
219	0x1c	28
220	0xfa	-6
221	0x7f	127
222	0xd4	-44
223	0x05	5
224	0x20	32
225	0xa5	-91
226	0x1e	30
227	0x26	38
228	0x1e	30
229	0x7f	127
230	0x34	52
231	0x0d	13
232	0x1f	31
233	0x7f	127
234	0xde	-34
235	0x27	39
236	0xb6	-74
237	0xda	-38
238	0xff	-1
239	0x01	1
240	0xb9	-71
241	0x5e	94
242	0x7f	127
243	0x70	112
244	0x9d	-99
245	0xa6	-90
246	0xba	-70
247	0xae	-82
248	0x20	32
249	0x5a	90
250	0x0e	14
251	0x30	48
252	0xb9	-71
253	0x03	3
254	0x20	32
255	0x81	-127

model_1/block_3_depthwise_BN/FusedBatchNormV3;model_1/block_3_depthwise/depthwise;model_1/block_6_expand/Conv2D i1 [1, 3, 3, 48]
0	0xbc	-68
1	0xa6	-90
2	0x8e	-114
3	0xa8	-88
4	0xb4	-76
5	0x36	54
6	0x07	7
7	0xf4	-12
8	0xa0	-96
9	0x4e	78
10	0x04	4
11	0xd7	-41
12	0xb1	-79
13	0x41	65
14	0x81	-127
15	0x0e	14
16	0x1a	26
17	0x81	-127
18	0xfb	-5
19	0x79	121
20	0xe7	-25
21	0x68	104
22	0x95	-107
23	0x77	119
24	0xed	-19
25	0x81	-127
26	0x5b	91
27	0x69	105
28	0x41	65
29	0xaf	-81
30	0x70	112
31	0x6e	110
32	0x65	101
33	0x09	9
34	0xfb	-5
35	0x04	4
36	0x85	-123
37	0x89	-119
38	0x34	52
39	0x66	102
40	0x34	52
41	0xbd	-67
42	0xfa	-6
43	0x03	3
44	0x7b	123
45	0x7f	127
46	0x05	5
47	0xc0	-64
48	0xa8	-88
49	0xc9	-55
50	0xe4	-28
51	0x89	-119
52	0x81	-127
53	0x32	50
54	0xa0	-96
55	0xd9	-39
56	0x96	-106
57	0x65	101
58	0x24	36
59	0xcb	-53
60	0x81	-127
61	0x04	4
62	0x86	-122
63	0x28	40
64	0x6e	110
65	0xca	-54
66	0x81	-127
67	0xd3	-45
68	0x0d	13
69	0x75	117
70	0x25	37
71	0x3c	60
72	0xed	-19
73	0xc2	-62
74	0x7f	127
75	0x7f	127
76	0x23	35
77	0xe6	-26
78	0x7f	127
79	0x1e	30
80	0x1d	29
81	0x98	-104
82	0xe8	-24
83	0xe4	-28
84	0xed	-19
85	0xd2	-46
86	0x7f	127
87	0x7f	127
88	0x84	-124
89	0xfc	-4
90	0x10	16
91	0x5f	95
92	0x7f	127
93	0x40	64
94	0xe4	-28
95	0x81	-127
96	0x15	21
97	0xa6	-90
98	0x90	-112
99	0x04	4
100	0x9d	-99
101	0x35	53
102	0x01	1
103	0xb4	-76
104	0x04	4
105	0xf9	-7
106	0x07	7
107	0x98	-104
108	0x18	24
109	0x0c	12
110	0xf1	-15
111	0x42	66
112	0x00	0
113	0x0f	15
114	0xc0	-64
115	0xb6	-74
116	0xf7	-9
117	0x9f	-97
118	0x90	-112
119	0x4c	76
120	0x17	23
121	0x9a	-102
122	0x4e	78
123	0xe9	-23
124	0x01	1
125	0x0d	13
126	0xff	-1
127	0x5a	90
128	0xfa	-6
129	0xb5	-75
130	0x08	8
131	0x0b	11
132	0xb3	-77
133	0xa3	-93
134	0x30	48
135	0x55	85
136	0xa7	-89
137	0xa9	-87
138	0x01	1
139	0xfa	-6
140	0xb3	-77
141	0x61	97
142	0x0a	10
143	0xb1	-79
144	0xa6	-90
145	0x81	-127
146	0xed	-19
147	0xf9	-7
148	0xa7	-89
149	0x02	2
150	0xf2	-14
151	0xea	-22
152	0x81	-127
153	0x66	102
154	0x1b	27
155	0xd4	-44
156	0xeb	-21
157	0xfa	-6
158	0xdb	-37
159	0x1e	30
160	0x70	112
161	0xda	-38
162	0xee	-18
163	0x7f	127
164	0x0a	10
165	0x7a	122
166	0x8b	-117
167	0x7f	127
168	0x81	-127
169	0xd5	-43
170	0x25	37
171	0x33	51
172	0x1a	26
173	0xe8	-24
174	0x7b	123
175	0x7f	127
176	0x7f	127
177	0xef	-17
178	0x83	-125
179	0xdd	-35
180	0x81	-127
181	0xd9	-39
182	0x2b	43
183	0x26	38
184	0x01	1
185	0xfa	-6
186	0x15	21
187	0x0a	10
188	0xd9	-39
189	0x3b	59
190	0xae	-82
191	0xeb	-21
192	0x81	-127
193	0xbf	-65
194	0xb0	-80
195	0x81	-127
196	0xe6	-26
197	0x81	-127
198	0x81	-127
199	0x81	-127
200	0xb4	-76
201	0x7f	127
202	0x7f	127
203	0xb3	-77
204	0x98	-104
205	0x30	48
206	0xf9	-7
207	0x7f	127
208	0x7f	127
209	0xb1	-79
210	0xc4	-60
211	0xb3	-77
212	0x37	55
213	0x7f	127
214	0x48	72
215	0x3f	63
216	0xc7	-57
217	0x97	-105
218	0x54	84
219	0x44	68
220	0x7f	127
221	0x81	-127
222	0x40	64
223	0x49	73
224	0x5a	90
225	0x81	-127
226	0x81	-127
227	0x99	-103
228	0x81	-127
229	0x9a	-102
230	0x35	53
231	0x44	68
232	0xdb	-37
233	0xbc	-68
234	0x7f	127
235	0x7f	127
236	0xe2	-30
237	0x3d	61
238	0x81	-127
239	0xc5	-59
240	0x00	0
241	0xab	-85
242	0xea	-22
243	0xf8	-8
244	0xef	-17
245	0xdf	-33
246	0xe9	-23
247	0xa1	-95
248	0x92	-110
249	0x0e	14
250	0x4b	75
251	0x81	-127
252	0xf4	-12
253	0x7f	127
254	0x06	6
255	0x4b	75

model_1/block_3_project/Conv2D i1 [8, 1, 1, 48]
0	0xf3	-13
1	0x1a	26
2	0x0c	12
3	0x13	19
4	0xf6	-10
5	0x12	18
6	0x08	8
7	0x14	20
8	0xde	-34
9	0xf1	-15
10	0xe6	-26
11	0xf5	-11
12	0xfa	-6
13	0x17	23
14	0x2a	42
15	0x0b	11
16	0xdc	-36
17	0xe3	-29
18	0x13	19
19	0xf8	-8
20	0xdd	-35
21	0x7f	127
22	0xf6	-10
23	0xf6	-10
24	0xf5	-11
25	0xe7	-25
26	0x0c	12
27	0x14	20
28	0xd6	-42
29	0x2a	42
30	0x12	18
31	0xe1	-31
32	0xef	-17
33	0x1c	28
34	0x27	39
35	0x1a	26
36	0x09	9
37	0xfb	-5
38	0x24	36
39	0xe0	-32
40	0x0c	12
41	0xd9	-39
42	0xe5	-27
43	0xfd	-3
44	0xf6	-10
45	0x1e	30
46	0x0c	12
47	0x04	4
48	0xfe	-2
49	0x2a	42
50	0xf5	-11
51	0x3d	61
52	0x12	18
53	0x17	23
54	0x32	50
55	0x7f	127
56	0xc3	-61
57	0xdc	-36
58	0x43	67
59	0xee	-18
60	0xcd	-51
61	0xd2	-46
62	0x0e	14
63	0xdb	-37
64	0xde	-34
65	0xf0	-16
66	0x34	52
67	0xf5	-11
68	0x0e	14
69	0x8e	-114
70	0xec	-20
71	0xae	-82
72	0xfb	-5
73	0x1a	26
74	0xe4	-28
75	0x1a	26
76	0x05	5
77	0x18	24
78	0xcf	-49
79	0xd2	-46
80	0xe7	-25
81	0x0f	15
82	0x08	8
83	0x02	2
84	0x1e	30
85	0x4c	76
86	0x38	56
87	0xfa	-6
88	0x0b	11
89	0x24	36
90	0x35	53
91	0xd5	-43
92	0xce	-50
93	0x1e	30
94	0x11	17
95	0x3d	61
96	0x08	8
97	0x27	39
98	0x0c	12
99	0x13	19
100	0x26	38
101	0x1d	29
102	0xec	-20
103	0x1b	27
104	0x20	32
105	0x03	3
106	0x39	57
107	0x1f	31
108	0x11	17
109	0xfd	-3
110	0x2e	46
111	0xd3	-45
112	0x0d	13
113	0x11	17
114	0xec	-20
115	0x16	22
116	0xfc	-4
117	0x7f	127
118	0xfe	-2
119	0xe9	-23
120	0x21	33
121	0xde	-34
122	0x05	5
123	0xf6	-10
124	0xdc	-36
125	0x2b	43
126	0xf6	-10
127	0xb9	-71
128	0xe5	-27
129	0x15	21
130	0x1e	30
131	0xcc	-52
132	0x17	23
133	0xe8	-24
134	0xe2	-30
135	0xda	-38
136	0x24	36
137	0xe5	-27
138	0xec	-20
139	0xd8	-40
140	0xe8	-24
141	0x2f	47
142	0x04	4
143	0x08	8
144	0xd1	-47
145	0x23	35
146	0xef	-17
147	0x0e	14
148	0xe3	-29
149	0x15	21
150	0x2f	47
151	0x0d	13
152	0x0c	12
153	0x12	18
154	0xfa	-6
155	0x19	25
156	0xe6	-26
157	0x15	21
158	0x1d	29
159	0x1d	29
160	0xe6	-26
161	0x0c	12
162	0xfa	-6
163	0xf6	-10
164	0x33	51
165	0xac	-84
166	0xec	-20
167	0x08	8
168	0xe5	-27
169	0x0d	13
170	0x81	-127
171	0x27	39
172	0xeb	-21
173	0xda	-38
174	0xeb	-21
175	0x13	19
176	0xe6	-26
177	0xe9	-23
178	0x00	0
179	0x27	39
180	0x2a	42
181	0x01	1
182	0xd1	-47
183	0xf0	-16
184	0x0a	10
185	0xe5	-27
186	0x16	22
187	0x06	6
188	0x1f	31
189	0xec	-20
190	0x32	50
191	0x1d	29
192	0x08	8
193	0xf5	-11
194	0xcd	-51
195	0x11	17
196	0x06	6
197	0xed	-19
198	0x06	6
199	0x00	0
200	0xc5	-59
201	0x13	19
202	0xf3	-13
203	0x20	32
204	0xf9	-7
205	0xec	-20
206	0xe4	-28
207	0x03	3
208	0xd9	-39
209	0x14	20
210	0xe7	-25
211	0xee	-18
212	0xf5	-11
213	0x81	-127
214	0xed	-19
215	0xf1	-15
216	0x16	22
217	0x27	39
218	0x13	19
219	0xe2	-30
220	0x33	51
221	0xef	-17
222	0xf5	-11
223	0x13	19
224	0xff	-1
225	0x37	55
226	0x0f	15
227	0x03	3
228	0xf7	-9
229	0x19	25
230	0xed	-19
231	0x0f	15
232	0xec	-20
233	0xd4	-44
234	0xbe	-66
235	0x07	7
236	0x12	18
237	0x14	20
238	0x0a	10
239	0x03	3
240	0xe7	-25
241	0x16	22
242	0x33	51
243	0x1b	27
244	0xf0	-16
245	0x05	5
246	0x01	1
247	0xba	-70
248	0x28	40
249	0xf7	-9
250	0x06	6
251	0xeb	-21
252	0x65	101
253	0xb4	-76
254	0xe9	-23
255	0x24	36

model_1/block_4_expand/Conv2D i1 [48, 1, 1, 8]
0	0x22	34
1	0xbf	-65
2	0x54	84
3	0xda	-38
4	0x60	96
5	0x99	-103
6	0xd4	-44
7	0x81	-127
8	0xc0	-64
9	0xbc	-68
10	0xe2	-30
11	0x14	20
12	0x81	-127
13	0x45	69
14	0x02	2
15	0xf4	-12
16	0x33	51
17	0xda	-38
18	0x5a	90
19	0x03	3
20	0x7f	127
21	0xc3	-61
22	0xe2	-30
23	0x75	117
24	0xe1	-31
25	0x7f	127
26	0xdd	-35
27	0x45	69
28	0xf3	-13
29	0xed	-19
30	0xc2	-62
31	0xf4	-12
32	0xbb	-69
33	0x7f	127
34	0x3c	60
35	0xf0	-16
36	0x1a	26
37	0x37	55
38	0x92	-110
39	0xfb	-5
40	0xc5	-59
41	0x09	9
42	0xee	-18
43	0xfa	-6
44	0x7f	127
45	0xd9	-39
46	0x36	54
47	0x05	5
48	0x35	53
49	0xa9	-87
50	0x31	49
51	0x2f	47
52	0x3f	63
53	0x7f	127
54	0x27	39
55	0x0d	13
56	0xbd	-67
57	0xa6	-90
58	0x1f	31
59	0x60	96
60	0x49	73
61	0x37	55
62	0xa0	-96
63	0x7f	127
64	0xec	-20
65	0x15	21
66	0x07	7
67	0xd8	-40
68	0x15	21
69	0x7f	127
70	0xe6	-26
71	0xee	-18
72	0x81	-127
73	0x2c	44
74	0xc1	-63
75	0xe9	-23
76	0x47	71
77	0xc7	-57
78	0xb4	-76
79	0x1f	31
80	0x09	9
81	0x83	-125
82	0x56	86
83	0x45	69
84	0xb8	-72
85	0xb9	-71
86	0x90	-112
87	0x81	-127
88	0x46	70
89	0x7f	127
90	0xd3	-45
91	0xeb	-21
92	0xca	-54
93	0x93	-109
94	0x06	6
95	0x7b	123
96	0x44	68
97	0xba	-70
98	0x98	-104
99	0x0a	10
100	0x9d	-99
101	0x7f	127
102	0x0d	13
103	0x63	99
104	0xc9	-55
105	0xfc	-4
106	0x81	-127
107	0xfc	-4
108	0xa3	-93
109	0x30	48
110	0xfb	-5
111	0x37	55
112	0xe4	-28
113	0x7f	127
114	0xa6	-90
115	0x32	50
116	0x36	54
117	0x0a	10
118	0xdf	-33
119	0x56	86
120	0xda	-38
121	0xdd	-35
122	0x10	16
123	0xe4	-28
124	0x29	41
125	0x55	85
126	0xce	-50
127	0x81	-127
128	0x26	38
129	0xb5	-75
130	0x81	-127
131	0xbe	-66
132	0xf1	-15
133	0x39	57
134	0xac	-84
135	0x17	23
136	0xf5	-11
137	0x5a	90
138	0xb7	-73
139	0xe9	-23
140	0xd5	-43
141	0x36	54
142	0x24	36
143	0x81	-127
144	0x84	-124
145	0xa9	-87
146	0x15	21
147	0xf0	-16
148	0x66	102
149	0x8c	-116
150	0xb5	-75
151	0x7f	127
152	0xa3	-93
153	0x7d	125
154	0x08	8
155	0x0b	11
156	0x25	37
157	0x81	-127
158	0xaa	-86
159	0x12	18
160	0x5b	91
161	0x08	8
162	0x08	8
163	0xb3	-77
164	0xe3	-29
165	0xe9	-23
166	0xfb	-5
167	0x7f	127
168	0x50	80
169	0xfa	-6
170	0x4f	79
171	0x7f	127
172	0xfb	-5
173	0x43	67
174	0x6e	110
175	0x0c	12
176	0x03	3
177	0x4d	77
178	0xe7	-25
179	0xe4	-28
180	0x4f	79
181	0xa6	-90
182	0x81	-127
183	0xe6	-26
184	0x09	9
185	0x8e	-114
186	0x50	80
187	0x7f	127
188	0xd3	-45
189	0x8a	-118
190	0x32	50
191	0xa9	-87
192	0xf8	-8
193	0x1c	28
194	0x7f	127
195	0xdc	-36
196	0x02	2
197	0xfd	-3
198	0x21	33
199	0xd2	-46
200	0xe7	-25
201	0xab	-85
202	0x42	66
203	0x45	69
204	0x05	5
205	0xe8	-24
206	0xd1	-47
207	0x7f	127
208	0x1a	26
209	0x0a	10
210	0xaf	-81
211	0x8b	-117
212	0x81	-127
213	0x4c	76
214	0xfa	-6
215	0x7e	126
216	0x0a	10
217	0x58	88
218	0x81	-127
219	0xe5	-27
220	0xf0	-16
221	0x02	2
222	0x01	1
223	0xab	-85
224	0x03	3
225	0x64	100
226	0x98	-104
227	0xae	-82
228	0xc9	-55
229	0xa7	-89
230	0x81	-127
231	0xab	-85
232	0xd6	-42
233	0x49	73
234	0x81	-127
235	0xbb	-69
236	0x75	117
237	0x04	4
238	0xfc	-4
239	0x21	33
240	0x30	48
241	0xe8	-24
242	0x26	38
243	0xcf	-49
244	0xa8	-88
245	0x7f	127
246	0x56	86
247	0x22	34
248	0xb5	-75
249	0x5c	92
250	0x03	3
251	0x29	41
252	0x7f	127
253	0xe2	-30
254	0x14	20
255	0x1a	26

model_1/block_4_depthwise_BN/FusedBatchNormV3;model_1/block_4_depthwise/depthwise;model_1/block_6_expand/Conv2D i1 [1, 3, 3, 48]
0	0xc6	-58
1	0xaa	-86
2	0x0c	12
3	0x19	25
4	0xc2	-62
5	0x2f	47
6	0x81	-127
7	0xea	-22
8	0x11	17
9	0x54	84
10	0x15	21
11	0x20	32
12	0x11	17
13	0x0c	12
14	0x2f	47
15	0xfc	-4
16	0xf6	-10
17	0x41	65
18	0xf6	-10
19	0xcd	-51
20	0x81	-127
21	0x0c	12
22	0xd8	-40
23	0x13	19
24	0x01	1
25	0xe4	-28
26	0x0c	12
27	0xb3	-77
28	0x28	40
29	0x8c	-116
30	0x3b	59
31	0x04	4
32	0x15	21
33	0x00	0
34	0x08	8
35	0xf5	-11
36	0x2d	45
37	0x8f	-113
38	0xcf	-49
39	0x7f	127
40	0x81	-127
41	0x0f	15
42	0xdf	-33
43	0x0f	15
44	0x0f	15
45	0x22	34
46	0x1c	28
47	0x0c	12
48	0xf1	-15
49	0x81	-127
50	0xce	-50
51	0x44	68
52	0xe6	-26
53	0xf9	-7
54	0x83	-125
55	0x0c	12
56	0x39	57
57	0xfc	-4
58	0x7f	127
59	0x28	40
60	0xfe	-2
61	0x97	-105
62	0xde	-34
63	0xb8	-72
64	0x1e	30
65	0xa1	-95
66	0x7f	127
67	0x0e	14
68	0x2f	47
69	0x50	80
70	0xa5	-91
71	0xf7	-9
72	0xde	-34
73	0xda	-38
74	0x14	20
75	0x81	-127
76	0x1b	27
77	0xac	-84
78	0xd7	-41
79	0x88	-120
80	0xe0	-32
81	0xf9	-7
82	0xbc	-68
83	0x9e	-98
84	0x00	0
85	0x38	56
86	0xef	-17
87	0x6a	106
88	0x71	113
89	0x09	9
90	0xdb	-37
91	0x7f	127
92	0xec	-20
93	0x81	-127
94	0x1b	27
95	0xf9	-7
96	0x81	-127
97	0x4a	74
98	0x0b	11
99	0x2a	42
100	0x81	-127
101	0x38	56
102	0xa8	-88
103	0x13	19
104	0x14	20
105	0x41	65
106	0x13	19
107	0xe4	-28
108	0x0e	14
109	0x08	8
110	0xf1	-15
111	0x12	18
112	0xc2	-62
113	0xcd	-51
114	0x2a	42
115	0xbf	-65
116	0xcf	-49
117	0xcf	-49
118	0xf0	-16
119	0xf8	-8
120	0x1c	28
121	0x11	17
122	0xf3	-13
123	0xc4	-60
124	0xf2	-14
125	0x81	-127
126	0x1a	26
127	0xe1	-31
128	0xeb	-21
129	0x21	33
130	0xbb	-69
131	0xf9	-7
132	0x2b	43
133	0xbd	-67
134	0xf3	-13
135	0x69	105
136	0xcd	-51
137	0x35	53
138	0xe0	-32
139	0x1a	26
140	0xe9	-23
141	0x2a	42
142	0xef	-17
143	0x39	57
144	0x4a	74
145	0xa4	-92
146	0x48	72
147	0x1f	31
148	0x8d	-115
149	0xe3	-29
150	0x07	7
151	0xda	-38
152	0xdf	-33
153	0x0f	15
154	0x00	0
155	0x32	50
156	0x97	-105
157	0xbc	-68
158	0xf0	-16
159	0x7f	127
160	0x06	6
161	0x28	40
162	0x11	17
163	0x7f	127
164	0xe2	-30
165	0x1c	28
166	0xe6	-26
167	0xdf	-33
168	0xcb	-53
169	0x81	-127
170	0x03	3
171	0xb4	-76
172	0x7f	127
173	0x31	49
174	0x11	17
175	0x7f	127
176	0x81	-127
177	0x12	18
178	0x7f	127
179	0xe5	-27
180	0x11	17
181	0xf8	-8
182	0x88	-120
183	0xbc	-68
184	0x12	18
185	0x05	5
186	0xf8	-8
187	0x1d	29
188	0x9f	-97
189	0x4e	78
190	0x1a	26
191	0xef	-17
192	0x44	68
193	0x1b	27
194	0x95	-107
195	0x81	-127
196	0x62	98
197	0x7f	127
198	0xd6	-42
199	0x7f	127
200	0x9f	-97
201	0x81	-127
202	0x02	2
203	0x7f	127
204	0x93	-109
205	0xba	-70
206	0x81	-127
207	0xb9	-71
208	0x16	22
209	0x81	-127
210	0xda	-38
211	0x59	89
212	0x4f	79
213	0x7f	127
214	0xf0	-16
215	0x2a	42
216	0x81	-127
217	0x29	41
218	0xad	-83
219	0x36	54
220	0xe1	-31
221	0xb8	-72
222	0x81	-127
223	0xd8	-40
224	0xf2	-14
225	0x7f	127
226	0xc0	-64
227	0x7f	127
228	0x81	-127
229	0x81	-127
230	0x7f	127
231	0xfc	-4
232	0x8c	-116
233	0x7f	127
234	0x81	-127
235	0xd7	-41
236	0x7f	127
237	0x7a	122
238	0x81	-127
239	0xd7	-41
240	0x42	66
241	0xa8	-88
242	0x7f	127
243	0x24	36
244	0x04	4
245	0xb9	-71
246	0xe9	-23
247	0xcc	-52
248	0xf7	-9
249	0x40	64
250	0xe4	-28
251	0x01	1
252	0xaf	-81
253	0x96	-106
254	0xb1	-79
255	0x7b	123

model_1/block_4_project/Conv2D i1 [8, 1, 1, 48]
0	0x7f	127
1	0x03	3
2	0xe4	-28
3	0x08	8
4	0xfb	-5
5	0xc7	-57
6	0xf2	-14
7	0x06	6
8	0x1d	29
9	0xcf	-49
10	0xdf	-33
11	0xd6	-42
12	0xfb	-5
13	0x54	84
14	0xe4	-28
15	0x18	24
16	0x1a	26
17	0x0b	11
18	0xf5	-11
19	0xf8	-8
20	0x2d	45
21	0xf3	-13
22	0x17	23
23	0x17	23
24	0x13	19
25	0x14	20
26	0x12	18
27	0x0f	15
28	0x18	24
29	0x23	35
30	0xef	-17
31	0xc1	-63
32	0x1f	31
33	0xba	-70
34	0x17	23
35	0xd6	-42
36	0x0c	12
37	0xee	-18
38	0x06	6
39	0x27	39
40	0xbb	-69
41	0xdb	-37
42	0xfa	-6
43	0xe9	-23
44	0xcb	-53
45	0xa3	-93
46	0x17	23
47	0xf7	-9
48	0xa9	-87
49	0xe9	-23
50	0x5f	95
51	0xb9	-71
52	0x1d	29
53	0x0e	14
54	0x10	16
55	0x24	36
56	0x02	2
57	0x24	36
58	0xe7	-25
59	0x69	105
60	0x26	38
61	0xd2	-46
62	0x81	-127
63	0xc0	-64
64	0x9b	-101
65	0xa3	-93
66	0x09	9
67	0x05	5
68	0xf0	-16
69	0x36	54
70	0xc2	-62
71	0xec	-20
72	0xfb	-5
73	0x97	-105
74	0x09	9
75	0x66	102
76	0x0a	10
77	0xfd	-3
78	0x0c	12
79	0x0f	15
80	0x12	18
81	0x10	16
82	0x14	20
83	0x05	5
84	0xd7	-41
85	0xd5	-43
86	0xfe	-2
87	0x22	34
88	0x13	19
89	0xfb	-5
90	0x95	-107
91	0xff	-1
92	0xe8	-24
93	0xe8	-24
94	0xc0	-64
95	0x2c	44
96	0x6d	109
97	0x15	21
98	0xd5	-43
99	0xb3	-77
100	0xe8	-24
101	0xea	-22
102	0xc5	-59
103	0xc7	-57
104	0x39	57
105	0x2c	44
106	0xa4	-92
107	0xe9	-23
108	0xde	-34
109	0x4a	74
110	0xb4	-76
111	0x10	16
112	0xe4	-28
113	0x5e	94
114	0x1c	28
115	0x20	32
116	0x22	34
117	0x1d	29
118	0xed	-19
119	0xf1	-15
120	0xa0	-96
121	0xfe	-2
122	0x09	9
123	0xb7	-73
124	0xf1	-15
125	0x0e	14
126	0x33	51
127	0xc7	-57
128	0xfb	-5
129	0xc7	-57
130	0x01	1
131	0x28	40
132	0xdf	-33
133	0xbf	-65
134	0xfb	-5
135	0x34	52
136	0xa3	-93
137	0x81	-127
138	0xd5	-43
139	0xbb	-69
140	0xc4	-60
141	0xc2	-62
142	0x37	55
143	0xf9	-7
144	0x27	39
145	0xee	-18
146	0x05	5
147	0x06	6
148	0x81	-127
149	0xd5	-43
150	0xe6	-26
151	0x24	36
152	0xf6	-10
153	0xd4	-44
154	0x07	7
155	0x67	103
156	0xf9	-7
157	0xd5	-43
158	0x96	-106
159	0xba	-70
160	0xcd	-51
161	0x32	50
162	0x1a	26
163	0xd6	-42
164	0xe5	-27
165	0x71	113
166	0xfd	-3
167	0xb4	-76
168	0x08	8
169	0x1a	26
170	0x22	34
171	0xb9	-71
172	0x26	38
173	0x02	2
174	0xf8	-8
175	0x2b	43
176	0x11	17
177	0x2d	45
178	0xfb	-5
179	0xe8	-24
180	0x42	66
181	0x28	40
182	0x04	4
183	0x0e	14
184	0x39	57
185	0xd2	-46
186	0x2f	47
187	0xba	-70
188	0xde	-34
189	0x1f	31
190	0x07	7
191	0x3c	60
192	0xe8	-24
193	0xf8	-8
194	0x88	-120
195	0xf3	-13
196	0xe0	-32
197	0x3c	60
198	0xf7	-9
199	0x0a	10
200	0xff	-1
201	0x7f	127
202	0x30	48
203	0x46	70
204	0xfc	-4
205	0xaf	-81
206	0xdb	-37
207	0x09	9
208	0xde	-34
209	0xea	-22
210	0xe3	-29
211	0x2e	46
212	0xe1	-31
213	0x08	8
214	0xac	-84
215	0xfb	-5
216	0xf3	-13
217	0xe6	-26
218	0x16	22
219	0xe3	-29
220	0x0d	13
221	0xdd	-35
222	0x52	82
223	0x34	52
224	0x3d	61
225	0x16	22
226	0xf0	-16
227	0xbf	-65
228	0xcf	-49
229	0xf9	-7
230	0xec	-20
231	0x01	1
232	0x3e	62
233	0x26	38
234	0x2a	42
235	0x09	9
236	0x10	16
237	0x2c	44
238	0xff	-1
239	0x1d	29
240	0xf4	-12
241	0xf3	-13
242	0x12	18
243	0x04	4
244	0x40	64
245	0xb6	-74
246	0xd4	-44
247	0xd8	-40
248	0xf0	-16
249	0xbb	-69
250	0x14	20
251	0xf2	-14
252	0x15	21
253	0x0f	15
254	0x00	0
255	0xf3	-13

model_1/block_5_expand/Conv2D i1 [48, 1, 1, 8]
0	0x0d	13
1	0xef	-17
2	0xf7	-9
3	0x6a	106
4	0x1e	30
5	0xdb	-37
6	0xd6	-42
7	0x81	-127
8	0x7f	127
9	0xf9	-7
10	0x11	17
11	0xf8	-8
12	0x28	40
13	0xae	-82
14	0x12	18
15	0x29	41
16	0x0c	12
17	0x3d	61
18	0xf2	-14
19	0x81	-127
20	0xf8	-8
21	0x64	100
22	0xe1	-31
23	0x48	72
24	0xd2	-46
25	0x7f	127
26	0xca	-54
27	0x9a	-102
28	0xcc	-52
29	0x1c	28
30	0x35	53
31	0xa4	-92
32	0xe9	-23
33	0xd7	-41
34	0xcd	-51
35	0xc8	-56
36	0xfd	-3
37	0xa5	-91
38	0xe3	-29
39	0x81	-127
40	0xf8	-8
41	0xa2	-94
42	0x1f	31
43	0x0a	10
44	0x30	48
45	0x41	65
46	0xfa	-6
47	0x81	-127
48	0xee	-18
49	0xf4	-12
50	0xf0	-16
51	0x06	6
52	0x18	24
53	0xfa	-6
54	0x81	-127
55	0xc4	-60
56	0x01	1
57	0x00	0
58	0xf8	-8
59	0x25	37
60	0xe9	-23
61	0x1b	27
62	0x7f	127
63	0x48	72
64	0x30	48
65	0x0a	10
66	0xc4	-60
67	0xb0	-80
68	0x97	-105
69	0x8c	-116
70	0x81	-127
71	0x74	116
72	0x19	25
73	0xee	-18
74	0xae	-82
75	0x0b	11
76	0xe7	-25
77	0x51	81
78	0xbb	-69
79	0x7f	127
80	0xd2	-46
81	0x4d	77
82	0x21	33
83	0x4b	75
84	0x65	101
85	0x7f	127
86	0xdc	-36
87	0xf4	-12
88	0xc0	-64
89	0xdc	-36
90	0xd7	-41
91	0x51	81
92	0x81	-127
93	0x7d	125
94	0x14	20
95	0x0c	12
96	0x14	20
97	0x00	0
98	0x1f	31
99	0xee	-18
100	0x55	85
101	0x8f	-113
102	0x81	-127
103	0xf0	-16
104	0x59	89
105	0xf0	-16
106	0x81	-127
107	0xb3	-77
108	0xbd	-67
109	0xef	-17
110	0xa0	-96
111	0x3d	61
112	0xfa	-6
113	0x81	-127
114	0xea	-22
115	0xa9	-87
116	0xe3	-29
117	0xa7	-89
118	0x29	41
119	0xc1	-63
120	0x21	33
121	0x64	100
122	0x2a	42
123	0x7f	127
124	0x79	121
125	0x63	99
126	0x1a	26
127	0x01	1
128	0x3a	58
129	0x29	41
130	0x08	8
131	0x81	-127
132	0x0e	14
133	0x26	38
134	0xeb	-21
135	0x5e	94
136	0x8d	-115
137	0x6a	106
138	0x81	-127
139	0xf3	-13
140	0x3a	58
141	0x25	37
142	0xe8	-24
143	0xfa	-6
144	0x81	-127
145	0x64	100
146	0x32	50
147	0x03	3
148	0xac	-84
149	0xfc	-4
150	0xcd	-51
151	0x1e	30
152	0x7f	127
153	0xeb	-21
154	0xc5	-59
155	0x01	1
156	0x30	48
157	0xdf	-33
158	0x54	84
159	0xa2	-94
160	0x7f	127
161	0xe8	-24
162	0x0a	10
163	0xfd	-3
164	0xe4	-28
165	0x31	49
166	0x5f	95
167	0x1d	29
168	0xfd	-3
169	0xd4	-44
170	0xf6	-10
171	0x12	18
172	0x0e	14
173	0x24	36
174	0x7f	127
175	0x08	8
176	0x28	40
177	0x41	65
178	0xc2	-62
179	0x8f	-113
180	0x2e	46
181	0x7f	127
182	0x5d	93
183	0x39	57
184	0x04	4
185	0x39	57
186	0xc0	-64
187	0xd7	-41
188	0x08	8
189	0x1e	30
190	0x81	-127
191	0xef	-17
192	0x4e	78
193	0xf1	-15
194	0x81	-127
195	0x0b	11
196	0x33	51
197	0xee	-18
198	0xe4	-28
199	0x39	57
200	0xbe	-66
201	0x98	-104
202	0x1f	31
203	0xb2	-78
204	0x17	23
205	0x4f	79
206	0xc2	-62
207	0x81	-127
208	0x2c	44
209	0xea	-22
210	0x05	5
211	0xfe	-2
212	0x7f	127
213	0xb4	-76
214	0xbd	-67
215	0xe7	-25
216	0xcb	-53
217	0xb1	-79
218	0x15	21
219	0x2d	45
220	0x2f	47
221	0xd5	-43
222	0xf8	-8
223	0x7f	127
224	0x13	19
225	0x07	7
226	0x91	-111
227	0xff	-1
228	0x2a	42
229	0x91	-111
230	0x08	8
231	0x7f	127
232	0xda	-38
233	0xfe	-2
234	0x7f	127
235	0xd2	-46
236	0xf9	-7
237	0xd0	-48
238	0x08	8
239	0x01	1
240	0x7f	127
241	0xde	-34
242	0x63	99
243	0x0b	11
244	0xa6	-90
245	0xb4	-76
246	0x5d	93
247	0xc7	-57
248	0x04	4
249	0x08	8
250	0x1a	26
251	0xea	-22
252	0xf9	-7
253	0xe9	-23
254	0x81	-127
255	0x18	24

model_1/block_5_depthwise_BN/FusedBatchNormV3;model_1/block_5_depthwise/depthwise;model_1/block_6_expand/Conv2D i1 [1, 3, 3, 48]
0	0x66	102
1	0x7f	127
2	0x3e	62
3	0xf7	-9
4	0xb3	-77
5	0xbb	-69
6	0x46	70
7	0x04	4
8	0xa3	-93
9	0x20	32
10	0x0c	12
11	0x47	71
12	0x5d	93
13	0x3d	61
14	0xe4	-28
15	0x2c	44
16	0x5f	95
17	0xc7	-57
18	0x2a	42
19	0x70	112
20	0x55	85
21	0xe9	-23
22	0x2c	44
23	0xec	-20
24	0x19	25
25	0xbb	-69
26	0x59	89
27	0xe8	-24
28	0x0d	13
29	0x81	-127
30	0x40	64
31	0x56	86
32	0x55	85
33	0x9a	-102
34	0x0a	10
35	0x4a	74
36	0x10	16
37	0x44	68
38	0x0b	11
39	0xc6	-58
40	0xe5	-27
41	0xc9	-55
42	0xbd	-67
43	0x13	19
44	0x2d	45
45	0x81	-127
46	0x6d	109
47	0xb0	-80
48	0x7f	127
49	0x39	57
50	0x4d	77
51	0x99	-103
52	0x79	121
53	0x7b	123
54	0x18	24
55	0xe6	-26
56	0x81	-127
57	0xed	-19
58	0x29	41
59	0x7f	127
60	0xef	-17
61	0xe6	-26
62	0x81	-127
63	0xfe	-2
64	0x18	24
65	0x35	53
66	0x16	22
67	0x6b	107
68	0xfa	-6
69	0x0e	14
70	0x67	103
71	0xfb	-5
72	0x27	39
73	0xf6	-10
74	0xdd	-35
75	0x81	-127
76	0xc3	-61
77	0xc8	-56
78	0xc0	-64
79	0x51	81
80	0xf4	-12
81	0xd6	-42
82	0xe3	-29
83	0x68	104
84	0x42	66
85	0xe9	-23
86	0xd0	-48
87	0x81	-127
88	0xf8	-8
89	0x7f	127
90	0xa1	-95
91	0x3f	63
92	0xc1	-63
93	0xf5	-11
94	0x7f	127
95	0xe2	-30
96	0x5c	92
97	0x28	40
98	0x2c	44
99	0xa5	-91
100	0x1f	31
101	0xe2	-30
102	0x12	18
103	0xfd	-3
104	0xa8	-88
105	0x1f	31
106	0xdf	-33
107	0x34	52
108	0x2f	47
109	0x4c	76
110	0x09	9
111	0xe2	-30
112	0xe4	-28
113	0xed	-19
114	0x19	25
115	0x6e	110
116	0x0c	12
117	0xc5	-59
118	0xf9	-7
119	0xde	-34
120	0x18	24
121	0xe8	-24
122	0xac	-84
123	0xff	-1
124	0x02	2
125	0xf5	-11
126	0x2f	47
127	0xe4	-28
128	0x70	112
129	0xba	-70
130	0xf6	-10
131	0xf8	-8
132	0xf9	-7
133	0xff	-1
134	0x15	21
135	0x93	-109
136	0xed	-19
137	0x03	3
138	0x2f	47
139	0xff	-1
140	0xea	-22
141	0xd8	-40
142	0x45	69
143	0x87	-121
144	0x1b	27
145	0x30	48
146	0x28	40
147	0x0e	14
148	0x75	117
149	0x39	57
150	0x23	35
151	0x81	-127
152	0x29	41
153	0x81	-127
154	0x81	-127
155	0xee	-18
156	0x2e	46
157	0x16	22
158	0xe8	-24
159	0x7f	127
160	0x82	-126
161	0x61	97
162	0x12	18
163	0x6f	111
164	0x2a	42
165	0x25	37
166	0x4c	76
167	0xc3	-61
168	0xbd	-67
169	0x7a	122
170	0x73	115
171	0x2c	44
172	0x41	65
173	0x14	20
174	0x81	-127
175	0x07	7
176	0x7f	127
177	0x2c	44
178	0xe8	-24
179	0x07	7
180	0xf1	-15
181	0x25	37
182	0xe9	-23
183	0xa8	-88
184	0xd3	-45
185	0xe6	-26
186	0x34	52
187	0x81	-127
188	0x11	17
189	0xd2	-46
190	0x5b	91
191	0xac	-84
192	0xd9	-39
193	0x61	97
194	0x81	-127
195	0x63	99
196	0x62	98
197	0x7b	123
198	0x81	-127
199	0x21	33
200	0x30	48
201	0xc7	-57
202	0x12	18
203	0x22	34
204	0x81	-127
205	0x7e	126
206	0xd3	-45
207	0x24	36
208	0x55	85
209	0x81	-127
210	0x81	-127
211	0x3d	61
212	0x3b	59
213	0xef	-17
214	0x7f	127
215	0x81	-127
216	0x81	-127
217	0x69	105
218	0x0d	13
219	0xeb	-21
220	0xe0	-32
221	0xae	-82
222	0x4d	77
223	0x1c	28
224	0x5f	95
225	0x0f	15
226	0x7f	127
227	0x81	-127
228	0x7f	127
229	0x81	-127
230	0x7f	127
231	0x2f	47
232	0x69	105
233	0x55	85
234	0x81	-127
235	0xde	-34
236	0x40	64
237	0x49	73
238	0xc2	-62
239	0xb1	-79
240	0x45	69
241	0x22	34
242	0xf6	-10
243	0x81	-127
244	0x7f	127
245	0x22	34
246	0x32	50
247	0xa3	-93
248	0x3b	59
249	0xb6	-74
250	0x85	-123
251	0x0d	13
252	0x2a	42
253	0x55	85
254	0xeb	-21
255	0x2c	44
