src/lib/libtf/models/trained.tflite (tflite, 57160 bytes, 21 tensors)

model_1/Conv1/Conv2D i1 [16, 3, 3, 3]
00000000: 0000 0000 0000 0000 0000 0000 0000 0000
00000010: 0000 0000 0000 0000 0000 0037 0128 02ee
00000020: 1981 88c1 0802 09f1 0d06 09eb 0f02 1b0a
00000030: 0516 0d34 fb1b 1b01 033a 750b 27e5 120a
00000040: 150a 367f f016 0505 35c9 1d4a dbf4 26d6
00000050: 180c 250c 2168 21f9 03fc 1922 0b3f 7f1d
00000060: ebea 030a 0309 1a1c 0cf8 f902 314e f318
00000070: 5cf3 fd16 0637 642c 227b 0d24 3bea 3f5a
00000080: 192c 7fee e719 0701 fe8c faff 9af3 17e6
00000090: ffd3 81fc d395 fd0e ee08 0df2 1006 fc09
000000a0: 1800 1ac0 1f30 a825 09ea 0627 a03c 4181
000000b0: 4508 e30f 17de 0d10 d419 f306 fde1 1104
000000c0: 94d9 01e8 1702 f3f8 0181 a3f9 fafb 05e9
000000d0: 1ef7 f30b 00ea 19fd 6f76 7070 7872 7a7f
000000e0: 776e 726c 6d73 6d78 7b73 6a6e 686a 706a
000000f0: 7578 6feb 0006 fa01 0105 09f6 5c6c f449
0 0 0 0 0 0 0 0
0 0 0 0 0 0 0 0
0 0 0 0 0 0 0 0
0 0 0 55 1 40 2 -18
25 -127 -120 -63 8 2 9 -15
13 6 9 -21 15 2 27 10
5 22 13 52 -5 27 27 1
3 58 117 11 39 -27 18 10
21 10 54 127 -16 22 5 5
53 -55 29 74 -37 -12 38 -42
24 12 37 12 33 104 33 -7
3 -4 25 34 11 63 127 29
-21 -22 3 10 3 9 26 28
12 -8 -7 2 49 78 -13 24
92 -13 -3 22 6 55 100 44
34 123 13 36 59 -22 63 90
25 44 127 -18 -25 25 7 1
-2 -116 -6 -1 -102 -13 23 -26
-1 -45 -127 -4 -45 -107 -3 14
-18 8 13 -14 16 6 -4 9
24 0 26 -64 31 48 -88 37
9 -22 6 39 -96 60 65 -127
69 8 -29 15 23 -34 13 16
-44 25 -13 6 -3 -31 17 4
-108 -39 1 -24 23 2 -13 -8
1 -127 -93 -7 -6 -5 5 -23
30 -9 -13 11 0 -22 25 -3
111 118 112 112 120 114 122 127
119 110 114 108 109 115 109 120
123 115 106 110 104 106 112 106
117 120 111 -21 0 6 -6 1
1 5 9 -10 92 108 -12 73

model_1/expanded_conv_depthwise_BN/FusedBatchNormV3;model_1/expanded_conv_depthwise/depthwise;model_1/block_5_project/Conv2D i1 [1, 3, 3, 16]
00000000: 9412 ad82 27bd 50b4 a6fd f81d 8105 36b7
00000010: 3319 817f 7f81 7f81 ab7f 8133 9706 7fe7
00000020: 18e7 58fe b842 a24d a1e5 04f1 3d02 9be3
00000030: 817f e80e d410 e40e e500 0394 cf09 e3f2
00000040: b2d6 c6f2 f8e7 08e4 95a7 15f4 9881 0117
00000050: 0e01 3e02 0321 e721 8106 fe02 eb0c fc2b
00000060: 8db7 4202 f927 d934 b400 0004 2802 e517
00000070: 17fc 1dfe e528 de15 83f3 ff53 c600 e491
00000080: 15f9 1100 040e 0916 8d04 ff81 6b03 1181
-108 18 -83 -126 39 -67 80 -76
-90 -3 -8 29 -127 5 54 -73
51 25 -127 127 127 -127 127 -127
-85 127 -127 51 -105 6 127 -25
24 -25 88 -2 -72 66 -94 77
-95 -27 4 -15 61 2 -101 -29
-127 127 -24 14 -44 16 -28 14
-27 0 3 -108 -49 9 -29 -14
-78 -42 -58 -14 -8 -25 8 -28
-107 -89 21 -12 -104 -127 1 23
14 1 62 2 3 33 -25 33
-127 6 -2 2 -21 12 -4 43
-115 -73 66 2 -7 39 -39 52
-76 0 0 4 40 2 -27 23
23 -4 29 -2 -27 40 -34 21
-125 -13 -1 83 -58 0 -28 -111
21 -7 17 0 4 14 9 22
-115 4 -1 -127 107 3 17 -127

model_1/expanded_conv_project/Conv2D i1 [8, 1, 1, 16]
00000000: 00ed fdf7 7ffc ff03 ff86 a8f6 007f fd00
00000010: 00e7 0153 4310 1608 00f7 7fd7 0018 f500
00000020: 0003 fff1 c303 0901 0001 eefd 007f f700
00000030: 00f8 ea81 540f 4111 fe43 fc26 0003 1500
00000040: 002b ea24 cf22 7f03 03c4 0efc 00f8 1400
00000050: 00f0 f901 eceb f210 000b fcd6 00fd 7f00
00000060: 0016 fb02 30ee e1fa 008e 793f 007f 3c00
00000070: 000d eb7f 0801 0d0b ff45 ce4e 00f8 3300
0 -19 -3 -9 127 -4 -1 3
-1 -122 -88 -10 0 127 -3 0
0 -25 1 83 67 16 22 8
0 -9 127 -41 0 24 -11 0
0 3 -1 -15 -61 3 9 1
0 1 -18 -3 0 127 -9 0
0 -8 -22 -127 84 15 65 17
-2 67 -4 38 0 3 21 0
0 43 -22 36 -49 34 127 3
3 -60 14 -4 0 -8 20 0
0 -16 -7 1 -20 -21 -14 16
0 11 -4 -42 0 -3 127 0
0 22 -5 2 48 -18 -31 -6
0 -114 121 63 0 127 60 0
0 13 -21 127 8 1 13 11
-1 69 -50 78 0 -8 51 0

model_1/block_1_expand/Conv2D i1 [48, 1, 1, 8]
00000000: 0981 2cdc 1dea d81b 5253 e691 0feb 9e7f
00000010: 2207 d87a 337f 2d61 4449 b17f a0f7 0110
00000020: da92 5009 0e1d d081 1202 e22b 05e3 297f
00000030: 49f7 81a6 7b0c 38e2 7f12 1fef 25f8 4fbf
00000040: 13a3 1166 051f f481 5981 05fc f315 8a58
00000050: 83d4 8f21 010a 8147 e4d5 028d 81d7 2ee8
00000060: 0afe da45 b7e4 387f 0000 0000 0000 0000
00000070: fae8 fb0a 217f 332a 3cfe 0381 4e26 cc62
00000080: 0000 0000 0000 0000 0d17 7f16 d9f4 232a
00000090: 5781 1123 fe14 8903 8104 255f d6c3 8656
000000a0: 2120 d275 e881 fd41 3d1c 7f09 f7f8 3d0e
000000b0: b8f3 8108 0004 a70b 8d7a dcea 14f1 7fb4
000000c0: 03c8 ca53 f4c3 637f 092e 2527 717f c1c7
000000d0: b0e6 81ff 0c16 8df7 02e4 e300 da7f 4531
000000e0: feec ea15 157f 3540 471a 7ffb f0e7 3eed
000000f0: bb7f eadf 06f8 6ada dcb2 e801 1abf 7f70
9 -127 44 -36 29 -22 -40 27
82 83 -26 -111 15 -21 -98 127
34 7 -40 122 51 127 45 97
68 73 -79 127 -96 -9 1 16
-38 -110 80 9 14 29 -48 -127
18 2 -30 43 5 -29 41 127
73 -9 -127 -90 123 12 56 -30
127 18 31 -17 37 -8 79 -65
19 -93 17 102 5 31 -12 -127
89 -127 5 -4 -13 21 -118 88
-125 -44 -113 33 1 10 -127 71
-28 -43 2 -115 -127 -41 46 -24
10 -2 -38 69 -73 -28 56 127
0 0 0 0 0 0 0 0
-6 -24 -5 10 33 127 51 42
60 -2 3 -127 78 38 -52 98
0 0 0 0 0 0 0 0
13 23 127 22 -39 -12 35 42
87 -127 17 35 -2 20 -119 3
-127 4 37 95 -42 -61 -122 86
33 32 -46 117 -24 -127 -3 65
61 28 127 9 -9 -8 61 14
-72 -13 -127 8 0 4 -89 11
-115 122 -36 -22 20 -15 127 -76
3 -56 -54 83 -12 -61 99 127
9 46 37 39 113 127 -63 -57
-80 -26 -127 -1 12 22 -115 -9
2 -28 -29 0 -38 127 69 49
-2 -20 -22 21 21 127 53 64
71 26 127 -5 -16 -25 62 -19
-69 127 -22 -33 6 -8 106 -38
-36 -78 -24 1 26 -65 127 112

model_1/block_1_depthwise_BN/FusedBatchNormV3;model_1/block_1_depthwise/depthwise;model_1/block_3_depthwise/depthwise i1 [1, 3, 3, 48]
00000000: d6ea f9f0 06d8 b1bc e5cc 0840 21b9 74d5
00000010: 8fa8 24fa 00b8 93b0 dd84 c1ea 470f 5f1c
00000020: 81a5 f937 1230 8150 b4f2 6b93 fddd a96e
00000030: 4b0c e4e4 3981 81af 3bb6 8d6c 26ae 003e
00000040: cc8d 3c08 0b90 81ba fb81 88d8 cb14 c836
00000050: 1c81 4054 0c49 a37f 8107 7f81 00e9 8160
00000060: e12c 06f9 bf91 c4ee 57f8 8127 08b9 9bf3
00000070: 81e5 1b0b f2b2 dcea f5e1 c6f4 f612 e809
00000080: 69a6 4621 0d25 fc0f b104 06b1 ed06 c70f
00000090: aa81 d4d4 f537 6297 e593 ef6e 58c0 1c9f
000000a0: 87a0 58b4 2baa 9981 2a8d b0da 7fc5 7f55
000000b0: d4a8 f254 dcb2 925a 283b 6994 a38b 5077
000000c0: 7fad 8181 7f2b 5d81 6481 937f 7ff2 fa7f
000000d0: c481 7f81 7f81 898a 7fa0 8181 8981 ba7f
000000e0: 1c8f 7f7f ba81 9c5a 3b7f 7e8a 8d81 7a7f
000000f0: cb22 c2aa 87e8 1ed9 7fec b723 36ba e7d2
-42 -22 -7 -16 6 -40 -79 -68
-27 -52 8 64 33 -71 116 -43
-113 -88 36 -6 0 -72 -109 -80
-35 -124 -63 -22 71 15 95 28
-127 -91 -7 55 18 48 -127 80
-76 -14 107 -109 -3 -35 -87 110
75 12 -28 -28 57 -127 -127 -81
59 -74 -115 108 38 -82 0 62
-52 -115 60 8 11 -112 -127 -70
-5 -127 -120 -40 -53 20 -56 54
28 -127 64 84 12 73 -93 127
-127 7 127 -127 0 -23 -127 96
-31 44 6 -7 -65 -111 -60 -18
87 -8 -127 39 8 -71 -101 -13
-127 -27 27 11 -14 -78 -36 -22
-11 -31 -58 -12 -10 18 -24 9
105 -90 70 33 13 37 -4 15
-79 4 6 -79 -19 6 -57 15
-86 -127 -44 -44 -11 55 98 -105
-27 -109 -17 110 88 -64 28 -97
-121 -96 88 -76 43 -86 -103 -127
42 -115 -80 -38 127 -59 127 85
-44 -88 -14 84 -36 -78 -110 90
40 59 105 -108 -93 -117 80 119
127 -83 -127 -127 127 43 93 -127
100 -127 -109 127 127 -14 -6 127
-60 -127 127 -127 127 -127 -119 -118
127 -96 -127 -127 -119 -127 -70 127
28 -113 127 127 -70 -127 -100 90
59 127 126 -118 -115 -127 122 127
-53 34 -62 -86 -121 -24 30 -39
127 -20 -73 35 54 -70 -25 -46

model_1/block_1_project/Conv2D i1 [8, 1, 1, 48]
00000000: f7fe 0aa2 0419 0709 0008 04fc 6400 0205
00000010: 00fc f9fd 51fc 000d 2122 0e06 0903 fc81
00000020: 0a0c fbff e9ff e924 09e5 f90a 02ff 0405
00000030: def9 f9fc 2b1c da49 1408 e3ec 0c00 1024
00000040: 002c 11d1 fe12 7f15 e6f9 3800 1bf9 0df4
00000050: 0efa f7eb 04ce 0704 fafb b1fc df08 cda6
00000060: c708 ff0d 2dfc 2013 f231 1002 0b00 0734
00000070: 0005 811e 050f 02f7 e804 2807 091f 160d
00000080: 05f2 f5f7 0b05 0409 28fb e809 1bc8 1d14
00000090: 0201 fe04 fc16 02fb 4212 fdfb 1b00 e2f8
000000a0: 0001 f600 fd05 05f0 f7fb f3ff f5fe 00f7
000000b0: d42c c805 0800 0381 0004 04d6 fefd 010d
000000c0: fffb 5321 07ee fefe 04fe fcf8 ad00 f705
000000d0: 0007 07ff 400d 04f8 ee21 fb35 f6fe 0360
000000e0: 0004 02fd 0cef f7ec f781 0200 fffa fe00
000000f0: fa2f 09f8 0230 180d eb1f 053c 1d00 81fe
-9 -2 10 -94 4 25 7 9
0 8 4 -4 100 0 2 5
0 -4 -7 -3 81 -4 0 13
33 34 14 6 9 3 -4 -127
10 12 -5 -1 -23 -1 -23 36
9 -27 -7 10 2 -1 4 5
-34 -7 -7 -4 43 28 -38 73
20 8 -29 -20 12 0 16 36
0 44 17 -47 -2 18 127 21
-26 -7 56 0 27 -7 13 -12
14 -6 -9 -21 4 -50 7 4
-6 -5 -79 -4 -33 8 -51 -90
-57 8 -1 13 45 -4 32 19
-14 49 16 2 11 0 7 52
0 5 -127 30 5 15 2 -9
-24 4 40 7 9 31 22 13
5 -14 -11 -9 11 5 4 9
40 -5 -24 9 27 -56 29 20
2 1 -2 4 -4 22 2 -5
66 18 -3 -5 27 0 -30 -8
0 1 -10 0 -3 5 5 -16
-9 -5 -13 -1 -11 -2 0 -9
-44 44 -56 5 8 0 3 -127
0 4 4 -42 -2 -3 1 13
-1 -5 83 33 7 -18 -2 -2
4 -2 -4 -8 -83 0 -9 5
0 7 7 -1 64 13 4 -8
-18 33 -5 53 -10 -2 3 96
0 4 2 -3 12 -17 -9 -20
-9 -127 2 0 -1 -6 -2 0
-6 47 9 -8 2 48 24 13
-21 31 5 60 29 0 -127 -2

model_1/block_2_expand/Conv2D i1 [48, 1, 1, 8]
00000000: 5338 f4f7 7f19 c6d8 01f8 047f 06fb 0c15
00000010: 1381 ed2d f99f 5d13 7fe9 0913 f4e6 2b05
00000020: 0fcd 7fe9 f5d3 06b6 2f0c 0df3 7f16 e6fc
00000030: e553 ef7f 1335 bdc1 fc7f f704 f8ef 0bff
00000040: 7f32 fe07 cdf8 02cf 81fd 191b 380a f612
00000050: adf5 0d7f 2f12 ecff 810e 12a9 310b f0cf
00000060: 7f19 040a dafb fecc f548 8103 0159 be56
00000070: d4e5 f57f 0500 efe2 f77f 01fa fbf3 0cce
00000080: f38d fb10 eb81 6bf5 137f 06f6 fc49 b4ea
00000090: ef2f 8108 0034 e936 a007 faf6 8109 151b
000000a0: 810e fafd 50d8 3bf5 baf6 0403 81fe 1001
000000b0: 81f2 fe09 45fb 2218 ece3 f6f5 fc51 81a9
000000c0: f623 8109 062b f350 5dd6 017f bde5 05ea
000000d0: fcf4 fb01 007f 7fdb 3906 f50c 7f1d 21e1
000000e0: 027f c802 f84a eb79 f712 fafb fb58 81a6
000000f0: 01fd fe81 f2fb f9ef b001 00f4 8115 12fd
83 56 -12 -9 127 25 -58 -40
1 -8 4 127 6 -5 12 21
19 -127 -19 45 -7 -97 93 19
127 -23 9 19 -12 -26 43 5
15 -51 127 -23 -11 -45 6 -74
47 12 13 -13 127 22 -26 -4
-27 83 -17 127 19 53 -67 -63
-4 127 -9 4 -8 -17 11 -1
127 50 -2 7 -51 -8 2 -49
-127 -3 25 27 56 10 -10 18
-83 -11 13 127 47 18 -20 -1
-127 14 18 -87 49 11 -16 -49
127 25 4 10 -38 -5 -2 -52
-11 72 -127 3 1 89 -66 86
-44 -27 -11 127 5 0 -17 -30
-9 127 1 -6 -5 -13 12 -50
-13 -115 -5 16 -21 -127 107 -11
19 127 6 -10 -4 73 -76 -22
-17 47 -127 8 0 52 -23 54
-96 7 -6 -10 -127 9 21 27
-127 14 -6 -3 80 -40 59 -11
-70 -10 4 3 -127 -2 16 1
-127 -14 -2 9 69 -5 34 24
-20 -29 -10 -11 -4 81 -127 -87
-10 35 -127 9 6 43 -13 80
93 -42 1 127 -67 -27 5 -22
-4 -12 -5 1 0 127 127 -37
57 6 -11 12 127 29 33 -31
2 127 -56 2 -8 74 -21 121
-9 18 -6 -5 -5 88 -127 -90
1 -3 -2 -127 -14 -5 -7 -17
-80 1 0 -12 -127 21 18 -3

model_1/block_2_depthwise_BN/FusedBatchNormV3;model_1/block_2_depthwise/depthwise;model_1/block_3_depthwise/depthwise i1 [1, 3, 3, 48]
00000000: 05fd 146d 0451 001c 1209 0908 f9f7 d209
00000010: fd08 ea90 f8e9 7ff7 fc08 fa08 fb05 0f64
00000020: 141d 25e5 0123 ff04 11ba f9f7 1103 f9f6
00000030: 7f09 0f81 1c57 0c0b 7e7f 072b cfe8 0509
00000040: 7fc7 c6c8 9919 920f 1049 e0ad 1815 0983
00000050: 06c3 7f0b d8d2 fa78 b09c e303 def8 8117
00000060: dffd 070f ff40 0512 1d09 f120 f4fd 0f04
00000070: 971c fd4f dff4 eef9 fbc4 fd1d f005 04ea
00000080: 09e8 11ed ff30 2af5 3226 f10b d603 fefa
00000090: 7d06 019f 0ee5 24f0 0b09 f436 fbfe 11df
000000a0: 00ce c5aa 09b7 83ed 0567 f181 f821 0b92
000000b0: 11cc fe7f fd3b d82a c181 28a8 d4f3 f3fb
000000c0: 1a81 8173 8181 8181 81a1 7f81 7f7f 2381
000000d0: ac7f 7f94 7f7f 6f7f 7f81 811c 8181 5d7f
000000e0: 817f e4d8 7f81 7f7f 7faf 7f7f 7f88 656b
000000f0: 3405 31f4 06c3 2d13 e90f 96f8 01d7 7f04
5 -3 20 109 4 81 0 28
18 9 9 8 -7 -9 -46 9
-3 8 -22 -112 -8 -23 127 -9
-4 8 -6 8 -5 5 15 100
20 29 37 -27 1 35 -1 4
17 -70 -7 -9 17 3 -7 -10
127 9 15 -127 28 87 12 11
126 127 7 43 -49 -24 5 9
127 -57 -58 -56 -103 25 -110 15
16 73 -32 -83 24 21 9 -125
6 -61 127 11 -40 -46 -6 120
-80 -100 -29 3 -34 -8 -127 23
-33 -3 7 15 -1 64 5 18
29 9 -15 32 -12 -3 15 4
-105 28 -3 79 -33 -12 -18 -7
-5 -60 -3 29 -16 5 4 -22
9 -24 17 -19 -1 48 42 -11
50 38 -15 11 -42 3 -2 -6
125 6 1 -97 14 -27 36 -16
11 9 -12 54 -5 -2 17 -33
0 -50 -59 -86 9 -73 -125 -19
5 103 -15 -127 -8 33 11 -110
17 -52 -2 127 -3 59 -40 42
-63 -127 40 -88 -44 -13 -13 -5
26 -127 -127 115 -127 -127 -127 -127
-127 -95 127 -127 127 127 35 -127
-84 127 127 -108 127 127 111 127
127 -127 -127 28 -127 -127 93 127
-127 127 -28 -40 127 -127 127 127
127 -81 127 127 127 -120 101 107
52 5 49 -12 6 -61 45 19
-23 15 -106 -8 1 -41 127 4

model_1/block_2_project/Conv2D i1 [8, 1, 1, 48]
00000000: cee8 d805 06e7 0107 8e77 ce6c 6801 5df6
00000010: 0ff0 0903 fb03 e8e1 1899 0c3e f518 17d8
00000020: fcc1 5818 05f9 fbef 7ffd 40e0 e111 e5ec
00000030: fb23 7f0c fbec 00bd 2001 1412 ef04 0591
00000040: 0ac6 0004 e129 12e2 eff9 0f05 0ff3 1105
00000050: 000d 160c ede4 43cc 0825 fa1a ef05 1108
00000060: fbcf 14d9 2019 f8e5 06f7 ff0b f436 0502
00000070: e17f e9e3 fd1d dcf8 7601 00fb ec02 04d9
00000080: f4f4 fd0b f5fe f808 14eb ee07 0418 e9d4
00000090: 03a9 ff0d 03fe f804 fcf3 1019 0df3 3200
000000a0: f1e8 0b17 f817 e500 0139 fd09 f7f8 7f06
000000b0: 0c09 fd00 e3f7 f30d f407 f91a fb14 fe25
000000c0: 9c08 05ff fee9 0104 33db 13eb e6ff f7f7
000000d0: 080b 0912 11de 1203 f731 076d 0d08 fddd
000000e0: ff81 dc0c 01ff 0805 c9f4 f510 c301 040d
000000f0: f221 1104 cd13 032f 1407 0dfe fcd4 0729
-50 -24 -40 5 6 -25 1 7
-114 119 -50 108 104 1 93 -10
15 -16 9 3 -5 3 -24 -31
24 -103 12 62 -11 24 23 -40
-4 -63 88 24 5 -7 -5 -17
127 -3 64 -32 -31 17 -27 -20
-5 35 127 12 -5 -20 0 -67
32 1 20 18 -17 4 5 -111
10 -58 0 4 -31 41 18 -30
-17 -7 15 5 15 -13 17 5
0 13 22 12 -19 -28 67 -52
8 37 -6 26 -17 5 17 8
-5 -49 20 -39 32 25 -8 -27
6 -9 -1 11 -12 54 5 2
-31 127 -23 -29 -3 29 -36 -8
118 1 0 -5 -20 2 4 -39
-12 -12 -3 11 -11 -2 -8 8
20 -21 -18 7 4 24 -23 -44
3 -87 -1 13 3 -2 -8 4
-4 -13 16 25 13 -13 50 0
-15 -24 11 23 -8 23 -27 0
1 57 -3 9 -9 -8 127 6
12 9 -3 0 -29 -9 -13 13
-12 7 -7 26 -5 20 -2 37
-100 8 5 -1 -2 -23 1 4
51 -37 19 -21 -26 -1 -9 -9
8 11 9 18 17 -34 18 3
-9 49 7 109 13 8 -3 -35
-1 -127 -36 12 1 -1 8 5
-55 -12 -11 16 -61 1 4 13
-14 33 17 4 -51 19 3 47
20 7 13 -2 -4 -44 7 41

model_1/block_3_expand/Conv2D i1 [48, 1, 1, 8]
00000000: 8106 fa40 dc28 1be4 0f5f 3a22 22d0 6b7f
00000010: cffd 0006 8101 13fe 5e04 f78b 811c 2ae8
00000020: 8138 08f6 43e5 240d a6e0 14f4 8105 0662
00000030: f481 18f5 16ef 0b3f c1fd 006e 7fe1 e205
00000040: 570b 0481 f5e4 eadf 0081 11e4 025b bc66
00000050: a9fa 040e 813a 37ea 500a 210d c5dd e581
00000060: fd0c 2dfb 0db9 7f40 41e6 0df7 7f76 7ecd
00000070: 7f40 f21f 97e0 e504 f481 07f3 0303 0a32
00000080: cae8 0dff 81fd fefd f55d 9a0b f881 6bbe
00000090: 7feb db19 c50f 1272 7fc5 f5f4 480b 17fa
000000a0: 7f1a f46d 0d36 faad 003a c404 da5f 8197
000000b0: 8127 1bfd d9fc def7 d3c7 fe19 8146 4fe4
000000c0: 7ff1 ede2 81f7 fc08 1ae9 fce9 7f3a 2ed7
000000d0: 049e 01d3 1081 5bb9 ed81 27ef fec5 26f8
000000e0: b42b f50f 08e3 7f49 f427 190e fb21 9c81
000000f0: 7fbb fef6 b710 b6dd f6f9 59ec fb87 7f3e
-127 6 -6 64 -36 40 27 -28
15 95 58 34 34 -48 107 127
-49 -3 0 6 -127 1 19 -2
94 4 -9 -117 -127 28 42 -24
-127 56 8 -10 67 -27 36 13
-90 -32 20 -12 -127 5 6 98
-12 -127 24 -11 22 -17 11 63
-63 -3 0 110 127 -31 -30 5
87 11 4 -127 -11 -28 -22 -33
0 -127 17 -28 2 91 -68 102
-87 -6 4 14 -127 58 55 -22
80 10 33 13 -59 -35 -27 -127
-3 12 45 -5 13 -71 127 64
65 -26 13 -9 127 118 126 -51
127 64 -14 31 -105 -32 -27 4
-12 -127 7 -13 3 3 10 50
-54 -24 13 -1 -127 -3 -2 -3
-11 93 -102 11 -8 -127 107 -66
127 -21 -37 25 -59 15 18 114
127 -59 -11 -12 72 11 23 -6
127 26 -12 109 13 54 -6 -83
0 58 -60 4 -38 95 -127 -105
-127 39 27 -3 -39 -4 -34 -9
-45 -57 -2 25 -127 70 79 -28
127 -15 -19 -30 -127 -9 -4 8
26 -23 -4 -23 127 58 46 -41
4 -98 1 -45 16 -127 91 -71
-19 -127 39 -17 -2 -59 38 -8
-76 43 -11 15 8 -29 127 73
-12 39 25 14 -5 33 -100 -127
127 -69 -2 -10 -73 16 -74 -35
-10 -7 89 -20 -5 -121 127 62

model_1/block_3_depthwise_BN/FusedBatchNormV3;model_1/block_3_depthwise/depthwise i1 [1, 3, 3, 48]
00000000: 46a2 6245 35dd 6cbf 3da7 b230 36d8 b8a6
00000010: 644e 324c 43b5 ad32 e1d7 bfc0 bb3e c28d
00000020: ee2b 4741 c136 cee9 33b7 3b3c a20b 4ddd
00000030: 53a0 7f53 b3bb c6aa 6098 c24c 5192 a05b
00000040: d95f 537f 538b 3348 cfb1 b9af 3950 e281
00000050: a94f 5455 b055 acf0 4da2 5459 b581 5e9a
00000060: 24d1 4525 14d9 d0d9 2be0 0422 20b1 c8fe
00000070: ca26 2346 22c8 1f1a e6d1 d2e8 211f 58a7
00000080: a92b 2322 e329 daf6 29d7 222d f9f7 26b5
00000090: 5d8d d95c 38ae 7fa7 5990 b852 558f f381
000000a0: 7f6c 4cdb 546b 8149 49b4 a29f 8157 baf6
000000b0: a647 6a61 ac50 af5a 559c 575a a869 5ea4
000000c0: 7f81 c17f 8181 a381 7f81 817f 7f81 ea5f
000000d0: bc7f 7fce 7f7f 457f 7f81 8181 377f e311
000000e0: 817f 7f7f 817f 817f 7f81 7f7f 81f4 7f81
000000f0: 40b3 e042 28c3 cfc3 39d8 c23a 33c9 ef09
70 -94 98 69 53 -35 108 -65
61 -89 -78 48 54 -40 -72 -90
100 78 50 76 67 -75 -83 50
-31 -41 -65 -64 -69 62 -62 -115
-18 43 71 65 -63 54 -50 -23
51 -73 59 60 -94 11 77 -35
83 -96 127 83 -77 -69 -58 -86
96 -104 -62 76 81 -110 -96 91
-39 95 83 127 83 -117 51 72
-49 -79 -71 -81 57 80 -30 -127
-87 79 84 85 -80 85 -84 -16
77 -94 84 89 -75 -127 94 -102
36 -47 69 37 20 -39 -48 -39
43 -32 4 34 32 -79 -56 -2
-54 38 35 70 34 -56 31 26
-26 -47 -46 -24 33 31 88 -89
-87 43 35 34 -29 41 -38 -10
41 -41 34 45 -7 -9 38 -75
93 -115 -39 92 56 -82 127 -89
89 -112 -72 82 85 -113 -13 -127
127 108 76 -37 84 107 -127 73
73 -76 -94 -97 -127 87 -70 -10
-90 71 106 97 -84 80 -81 90
85 -100 87 90 -88 105 94 -92
127 -127 -63 127 -127 -127 -93 -127
127 -127 -127 127 127 -127 -22 95
-68 127 127 -50 127 127 69 127
127 -127 -127 -127 55 127 -29 17
-127 127 127 127 -127 127 -127 127
127 -127 127 127 -127 -12 127 -127
64 -77 -32 66 40 -61 -49 -61
57 -40 -62 58 51 -55 -17 9

model_1/block_3_project/Conv2D i1 [16, 1, 1, 48]
00000000: f7f3 edfd 1bf9 035f c80e 1df3 0be9 f70f
00000010: 10eb eef3 40f6 0d7f e447 f4f3 1ef0 17e9
00000020: ef2f 18d7 1633 0ceb 9be7 0e2c 2b15 88d7
00000030: d701 120c d90a 073a c2da 04d3 eaee f70a
00000040: f271 f30d 030a e5f1 17d9 1d19 e7b3 da10
00000050: effd 1ff6 fbd4 0410 f8e3 7f0a 13fe 10fd
00000060: ecf3 f6df febc 05e7 0109 0b19 1216 f508
00000070: fdee eaf0 f804 fe81 f84e f201 01ed 00fe
00000080: f734 0cfe 110b 1504 d505 f1fc fcf8 0906
00000090: f92a 06e2 fafd 02fd eefd fb2a 810c f8ff
000000a0: ff06 ee03 e406 0813 f6f9 fc17 f613 0316
000000b0: 0401 1018 f419 2800 0905 18df 04ff ff0e
000000c0: 2bdd 0aff 141d 16e4 e304 f5e7 0009 0510
000000d0: 16f7 a80e 010a 0d4e fbdd 0032 08ac 100f
000000e0: 0ed9 2381 132a fa0c ea12 0be8 f5ec 1106
000000f0: 20ff ed39 fffb 061e 02ff 2609 ff29 09f8
-9 -13 -19 -3 27 -7 3 95
-56 14 29 -13 11 -23 -9 15
16 -21 -18 -13 64 -10 13 127
-28 71 -12 -13 30 -16 23 -23
-17 47 24 -41 22 51 12 -21
-101 -25 14 44 43 21 -120 -41
-41 1 18 12 -39 10 7 58
-62 -38 4 -45 -22 -18 -9 10
-14 113 -13 13 3 10 -27 -15
23 -39 29 25 -25 -77 -38 16
-17 -3 31 -10 -5 -44 4 16
-8 -29 127 10 19 -2 16 -3
-20 -13 -10 -33 -2 -68 5 -25
1 9 11 25 18 22 -11 8
-3 -18 -22 -16 -8 4 -2 -127
-8 78 -14 1 1 -19 0 -2
-9 52 12 -2 17 11 21 4
-43 5 -15 -4 -4 -8 9 6
-7 42 6 -30 -6 -3 2 -3
-18 -3 -5 42 -127 12 -8 -1
-1 6 -18 3 -28 6 8 19
-10 -7 -4 23 -10 19 3 22
4 1 16 24 -12 25 40 0
9 5 24 -33 4 -1 -1 14
43 -35 10 -1 20 29 22 -28
-29 4 -11 -25 0 9 5 16
22 -9 -88 14 1 10 13 78
-5 -35 0 50 8 -84 16 15
14 -39 35 -127 19 42 -6 12
-22 18 11 -24 -11 -20 17 6
32 -1 -19 57 -1 -5 6 30
2 -1 38 9 -1 41 9 -8

model_1/block_4_expand/Conv2D i1 [96, 1, 1, 16]
00000000: 26f7 537f 3bc2 f9e7 47e7 bdae 553a daa3
00000010: 0f60 f902 5807 1619 243d ef7f ede2 4cbf
00000020: 13b4 f11c b737 bb73 d7b1 126a d781 72a4
00000030: 7f4d fd17 96e2 bdda e7fa 63ba e63c eeda
00000040: 06fd 1ff8 f110 f630 bfcf 0bf5 f181 24f6
00000050: 7fae ce06 0c9c d60a efdb 94f3 2b0e fb09
00000060: 81ea fd16 cef7 f10c 9cc6 e6cf ecfc 0a50
00000070: f20b c41d 2381 da3a 0fe3 14dd f22e c218
00000080: 18d8 f3e8 030d c8c7 f611 b009 8101 0428
00000090: 21cc 4176 0119 0ca3 6d9e 1bf1 ec1f 8126
000000a0: abcb f7f5 2912 1c2f 42d0 be41 5281 ae32
000000b0: 2cf0 8117 3216 e127 dfd8 f1ec 010f d4fc
000000c0: 56c2 fcf5 08bc cce8 27e1 81ca ec0d 261c
000000d0: 51b7 03b2 6710 a581 43a8 6038 10f9 0e08
000000e0: cc24 abce 5281 40a8 342e f09c fe68 f41a
000000f0: 16ee 423e 42e2 ca08 0ca3 bff6 81e2 e426
38 -9 83 127 59 -62 -7 -25
71 -25 -67 -82 85 58 -38 -93
15 96 -7 2 88 7 22 25
36 61 -17 127 -19 -30 76 -65
19 -76 -15 28 -73 55 -69 115
-41 -79 18 106 -41 -127 114 -92
127 77 -3 23 -106 -30 -67 -38
-25 -6 99 -70 -26 60 -18 -38
6 -3 31 -8 -15 16 -10 48
-65 -49 11 -11 -15 -127 36 -10
127 -82 -50 6 12 -100 -42 10
-17 -37 -108 -13 43 14 -5 9
-127 -22 -3 22 -50 -9 -15 12
-100 -58 -26 -49 -20 -4 10 80
-14 11 -60 29 35 -127 -38 58
15 -29 20 -35 -14 46 -62 24
24 -40 -13 -24 3 13 -56 -57
-10 17 -80 9 -127 1 4 40
33 -52 65 118 1 25 12 -93
109 -98 27 -15 -20 31 -127 38
-85 -53 -9 -11 41 18 28 47
66 -48 -66 65 82 -127 -82 50
44 -16 -127 23 50 22 -31 39
-33 -40 -15 -20 1 15 -44 -4
86 -62 -4 -11 8 -68 -52 -24
39 -31 -127 -54 -20 13 38 28
81 -73 3 -78 103 16 -91 -127
67 -88 96 56 16 -7 14 8
-52 36 -85 -50 82 -127 64 -88
52 46 -16 -100 -2 104 -12 26
22 -18 66 62 66 -30 -54 8
12 -93 -65 -10 -127 -30 -28 38

model_1/block_4_depthwise_BN/FusedBatchNormV3;model_1/block_4_depthwise/depthwise;model_1/block_6_expand/Conv2D i1 [1, 3, 3, 96]
00000000: ee05 ec6a f118 c3ca 10fb 63f6 fff7 fc40
00000010: 0611 e401 4c02 20df 0212 2e30 1a0c 1832
00000020: fa16 0bf1 0532 cfe8 1509 1c13 aeca 1afb
00000030: f4ec f8fa 3204 f901 fddf 1fe1 1b01 7f1c
00000040: f0f5 12c8 4221 02f9 50df 4501 1381 2040
00000050: 020d 7ff2 271e e4ef 26f9 f152 0214 fe0c
00000060: cd0c f80c 35f8 f781 260e 81fa ecf4 056a
00000070: 14e2 f5ee 4da0 7f19 c4e0 96f0 2124 cf14
00000080: 7908 f4fe e87f cf81 0aee e10f 3081 7fd3
00000090: b333 3107 26be 2037 272a 9c55 7f25 03ee
000000a0: 29d9 9eff 25df f02f d3cf 6dfb e2c5 e343
000000b0: bd3c f107 f730 38d8 e636 f148 81e0 1781
000000c0: fefc e8b8 0813 2517 fc00 023d fff3 f40d
000000d0: f512 ed0e 0817 19df 01e0 0a0d fe06 2faf
000000e0: 2e0e 0ae8 0c06 e6ee 0a03 ef09 18de 1601
000000f0: 06fa 05fa 0405 fa08 f92c 0802 0af4 03f0
-18 5 -20 106 -15 24 -61 -54
16 -5 99 -10 -1 -9 -4 64
6 17 -28 1 76 2 32 -33
2 18 46 48 26 12 24 50
-6 22 11 -15 5 50 -49 -24
21 9 28 19 -82 -54 26 -5
-12 -20 -8 -6 50 4 -7 1
-3 -33 31 -31 27 1 127 28
-16 -11 18 -56 66 33 2 -7
80 -33 69 1 19 -127 32 64
2 13 127 -14 39 30 -28 -17
38 -7 -15 82 2 20 -2 12
-51 12 -8 12 53 -8 -9 -127
38 14 -127 -6 -20 -12 5 106
20 -30 -11 -18 77 -96 127 25
-60 -32 -106 -16 33 36 -49 20
121 8 -12 -2 -24 127 -49 -127
10 -18 -31 15 48 -127 127 -45
-77 51 49 7 38 -66 32 55
39 42 -100 85 127 37 3 -18
41 -39 -98 -1 37 -33 -16 47
-45 -49 109 -5 -30 -59 -29 67
-67 60 -15 7 -9 48 56 -40
-26 54 -15 72 -127 -32 23 -127
-2 -4 -24 -72 8 19 37 23
-4 0 2 61 -1 -13 -12 13
-11 18 -19 14 8 23 25 -33
1 -32 10 13 -2 6 47 -81
46 14 10 -24 12 6 -26 -18
10 3 -17 9 24 -34 22 1
6 -6 5 -6 4 5 -6 8
-7 44 8 2 10 -12 3 -16

model_1/block_4_project/Conv2D i1 [16, 1, 1, 96]
00000000: f608 eb18 2d4c e1ef 2802 0b05 f509 1b34
00000010: 06f6 04f8 64c5 0cf1 e6e6 e48b f700 2c29
00000020: 7703 07f6 07ed de07 ee0d 12cf effb e019
00000030: d70b ff06 e6f7 05eb 1d20 d9db b91a fcf7
00000040: 0f09 2c0b 1408 f0e2 b3fb fcfc fba9 07eb
00000050: 25dd cab9 0fef 02ff ff1a 05d5 2304 fb7f
00000060: 31b8 3a54 08f2 0be9 f0c1 ef17 25c9 edd2
00000070: c400 0a0d e9a4 d423 7fd4 bb17 ed4c f43f
00000080: 0cf8 dc1e ff0a 36e5 febd 41ed ddfc 4a05
00000090: 152c fbce 4bba 32eb 0a07 debd 1cab 14d8
000000a0: 0fc3 2e27 3044 fa15 a507 dd2f 135f 0f05
000000b0: 2405 af27 d14e 263c cd0c 2f16 10e7 1e0c
000000c0: 171e 0cde 17f5 0029 4cf0 0b46 f010 2a07
000000d0: edeb 0302 f4c7 f4dc fd06 e517 fa0f 5ed0
000000e0: 06c0 e435 0f7f ddf2 fcf2 fb2b debd d11a
000000f0: 350b f9e1 170a fcec fb01 1720 0305 425e
-10 8 -21 24 45 76 -31 -17
40 2 11 5 -11 9 27 52
6 -10 4 -8 100 -59 12 -15
-26 -26 -28 -117 -9 0 44 41
119 3 7 -10 7 -19 -34 7
-18 13 18 -49 -17 -5 -32 25
-41 11 -1 6 -26 -9 5 -21
29 32 -39 -37 -71 26 -4 -9
15 9 44 11 20 8 -16 -30
-77 -5 -4 -4 -5 -87 7 -21
37 -35 -54 -71 15 -17 2 -1
-1 26 5 -43 35 4 -5 127
49 -72 58 84 8 -14 11 -23
-16 -63 -17 23 37 -55 -19 -46
-60 0 10 13 -23 -92 -44 35
127 -44 -69 23 -19 76 -12 63
12 -8 -36 30 -1 10 54 -27
-2 -67 65 -19 -35 -4 74 5
21 44 -5 -50 75 -70 50 -21
10 7 -34 -67 28 -85 20 -40
15 -61 46 39 48 68 -6 21
-91 7 -35 47 19 95 15 5
36 5 -81 39 -47 78 38 60
-51 12 47 22 16 -25 30 12
23 30 12 -34 23 -11 0 41
76 -16 11 70 -16 16 42 7
-19 -21 3 2 -12 -57 -12 -36
-3 6 -27 23 -6 15 94 -48
6 -64 -28 53 15 127 -35 -14
-4 -14 -5 43 -34 -67 -47 26
53 11 -7 -31 23 10 -4 -20
-5 1 23 32 3 5 66 94

model_1/block_5_expand/Conv2D i1 [96, 1, 1, 16]
00000000: 1145 f929 1802 1bf6 2f30 d07a eb81 3fae
00000010: ff47 f6dd 15ea 7fa9 0445 eafc f7d0 221b
00000020: c30f d800 fcf1 2761 ea35 7ff9 b816 21cb
00000030: b74d 2f40 db51 556e 1a44 811b f589 9f9b
00000040: feff 1831 e748 f527 fff4 03fd 0405 81ee
00000050: dee4 1ed5 f6ec dc03 be6d 0181 f30c e403
00000060: 030b 27ee 2b35 babc 0902 2cec 7fe5 eae8
00000070: 130e 7fe9 ebe6 0cfa c418 bac6 fbf2 1bf6
00000080: 1317 3c4a d047 0930 2fe8 01a5 d1f8 81a8
00000090: 099a 5140 1df3 f50b 6efb 5803 de22 81d6
000000a0: dfc3 0edb a90b fc1b 5e7f 150b cf3b 3ef5
000000b0: 3eec 1381 f6f0 a182 e325 03e8 17e8 3fb4
000000c0: f3ea 13c1 f1e6 96f0 c9a5 fa17 db7f 7f27
000000d0: d281 9a27 0ccd 1cdb 702b da0a 252d 733f
000000e0: 03d1 3118 1611 056f 112e 03db 0b3a c47f
000000f0: 10f0 f632 24f6 55fe fc81 1ee8 0af6 04e0
17 69 -7 41 24 2 27 -10
47 48 -48 122 -21 -127 63 -82
-1 71 -10 -35 21 -22 127 -87
4 69 -22 -4 -9 -48 34 27
-61 15 -40 0 -4 -15 39 97
-22 53 127 -7 -72 22 33 -53
-73 77 47 64 -37 81 85 110
26 68 -127 27 -11 -119 -97 -101
-2 -1 24 49 -25 72 -11 39
-1 -12 3 -3 4 5 -127 -18
-34 -28 30 -43 -10 -20 -36 3
-66 109 1 -127 -13 12 -28 3
3 11 39 -18 43 53 -70 -68
9 2 44 -20 127 -27 -22 -24
19 14 127 -23 -21 -26 12 -6
-60 24 -70 -58 -5 -14 27 -10
19 23 60 74 -48 71 9 48
47 -24 1 -91 -47 -8 -127 -88
9 -102 81 64 29 -13 -11 11
110 -5 88 3 -34 34 -127 -42
-33 -61 14 -37 -87 11 -4 27
94 127 21 11 -49 59 62 -11
62 -20 19 -127 -10 -16 -95 -126
-29 37 3 -24 23 -24 63 -76
-13 -22 19 -63 -15 -26 -106 -16
-55 -91 -6 23 -37 127 127 39
-46 -127 -102 39 12 -51 28 -37
112 43 -38 10 37 45 115 63
3 -47 49 24 22 17 5 111
17 46 3 -37 11 58 -60 127
16 -16 -10 50 36 -10 85 -2
-4 -127 30 -24 10 -10 4 -32

model_1/block_5_depthwise_BN/FusedBatchNormV3;model_1/block_5_depthwise/depthwise;model_1/block_6_expand/Conv2D i1 [1, 3, 3, 96]
00000000: d3b7 f67f 1641 47c4 f1ee effe e300 2504
00000010: f5d1 1d17 1381 7f04 ab08 31e3 8181 281a
00000020: 0d1b 3ded e3f5 1efd f41b 9744 18b8 252f
00000030: ed38 e712 02f9 1332 a3ce bbed f5fe 0f26
00000040: 46e6 490f f90e 127f 1817 1201 f614 7ff9
00000050: f20e e416 7e14 b2ef fde1 f0d7 02e5 f218
00000060: 7f82 4b69 d57f 2787 4704 ed7f 7f9e f313
00000070: 087f 7f92 7fb0 5044 818f c0de cc2e c6ec
00000080: aa3b 81ac d5f2 c841 ff7f 7f54 cd8b 93cf
00000090: f081 2c52 4ae1 2e50 d029 ab8f d4d5 c244
000000a0: 4bc3 1a22 b020 ed58 777f 0717 023e e033
000000b0: 407f 7fe9 f94d 937f 8aa0 0381 a881 dd65
000000c0: b7f1 1fac 0eed 3af6 51de e311 ecfe f7f7
000000d0: f7ed 0afe e89e 1ffd 8561 08c9 6f32 f20c
000000e0: 0015 0ee2 f722 1114 170d 8a4b 11e9 240e
000000f0: f10c f203 fa00 ff15 bc06 d933 0329 2301
-45 -73 -10 127 22 65 71 -60
-15 -18 -17 -2 -29 0 37 4
-11 -47 29 23 19 -127 127 4
-85 8 49 -29 -127 -127 40 26
13 27 61 -19 -29 -11 30 -3
-12 27 -105 68 24 -72 37 47
-19 56 -25 18 2 -7 19 50
-93 -50 -69 -19 -11 -2 15 38
70 -26 73 15 -7 14 18 127
24 23 18 1 -10 20 127 -7
-14 14 -28 22 126 20 -78 -17
-3 -31 -16 -41 2 -27 -14 24
127 -126 75 105 -43 127 39 -121
71 4 -19 127 127 -98 -13 19
8 127 127 -110 127 -80 80 68
-127 -113 -64 -34 -52 46 -58 -20
-86 59 -127 -84 -43 -14 -56 65
-1 127 127 84 -51 -117 -109 -49
-16 -127 44 82 74 -31 46 80
-48 41 -85 -113 -44 -43 -62 68
75 -61 26 34 -80 32 -19 88
119 127 7 23 2 62 -32 51
64 127 127 -23 -7 77 -109 127
-118 -96 3 -127 -88 -127 -35 101
-73 -15 31 -84 14 -19 58 -10
81 -34 -29 17 -20 -2 -9 -9
-9 -19 10 -2 -24 -98 31 -3
-123 97 8 -55 111 50 -14 12
0 21 14 -30 -9 34 17 20
23 13 -118 75 17 -23 36 14
-15 12 -14 3 -6 0 -1 21
-68 6 -39 51 3 41 35 1

model_1/block_5_project/Conv2D i1 [16, 1, 1, 96]
00000000: f2fb fddf 0cf0 e00b 0f03 fc04 faf6 e314
00000010: f90a f3fe 01d9 0b05 060b f57f 18da 28ef
00000020: f90b 01f9 f503 e102 f20b fe32 0501 0801
00000030: 16f6 f9f7 0cf2 f359 1507 f1db fa13 09eb
00000040: dab9 f22b 060f 0dee 00e0 eaed ee0d 0706
00000050: f0de 1b22 fbfe f2a0 03ee 0606 30d9 d7f4
00000060: 04b0 c3ce 7f06 4013 f7b1 cae8 11f3 d712
00000070: c800 331e 2f3c e6e7 0cdc 09be 1df0 b632
00000080: eb24 1009 ff10 0805 f124 dcbf e175 1b20
00000090: 1fbf 0c00 f112 3908 a7f5 b8f6 1a14 e4d6
000000a0: a16d d7e8 f9ec fc0f 308c f6f5 03d5 2805
000000b0: 15ee 17e9 cb28 f121 2dce fce2 1e11 1f75
000000c0: 0d3f 8fea 647a 143e fa81 04e5 f806 2301
000000d0: 1df7 d258 0df4 5508 4022 0adb 42fd 43c9
000000e0: 3331 de3a 8cab 2424 f6c2 1d11 28e1 0448
000000f0: ec23 e4fb 6902 ea3d 250f 1e04 2417 1edb
-14 -5 -3 -33 12 -16 -32 11
15 3 -4 4 -6 -10 -29 20
-7 10 -13 -2 1 -39 11 5
6 11 -11 127 24 -38 40 -17
-7 11 1 -7 -11 3 -31 2
-14 11 -2 50 5 1 8 1
22 -10 -7 -9 12 -14 -13 89
21 7 -15 -37 -6 19 9 -21
-38 -71 -14 43 6 15 13 -18
0 -32 -22 -19 -18 13 7 6
-16 -34 27 34 -5 -2 -14 -96
3 -18 6 6 48 -39 -41 -12
4 -80 -61 -50 127 6 64 19
-9 -79 -54 -24 17 -13 -41 18
-56 0 51 30 47 60 -26 -25
12 -36 9 -66 29 -16 -74 50
-21 36 16 9 -1 16 8 5
-15 36 -36 -65 -31 117 27 32
31 -65 12 0 -15 18 57 8
-89 -11 -72 -10 26 20 -28 -42
-95 109 -41 -24 -7 -20 -4 15
48 -116 -10 -11 3 -43 40 5
21 -18 23 -23 -53 40 -15 33
45 -50 -4 -30 30 17 31 117
13 63 -113 -22 100 122 20 62
-6 -127 4 -27 -8 6 35 1
29 -9 -46 88 13 -12 85 8
64 34 10 -37 66 -3 67 -55
51 49 -34 58 -116 -85 36 36
-10 -62 29 17 40 -31 4 72
-20 35 -28 -5 105 2 -22 61
37 15 30 4 36 23 30 -37

model_1/block_6_expand/Conv2D i1 [96, 1, 1, 16]
00000000: e753 0281 d9da d3b0 e408 004d 19c8 f839
00000010: e71f c610 dfe6 26b6 4139 b61b f708 2181
00000020: f9e1 e323 3422 bfb2 68e2 1608 e67f b323
00000030: 40b2 0ba7 13e9 eeee 59e7 3618 fd39 027f
00000040: b22d f636 15d9 ee2d ebe8 13d4 81f3 f903
00000050: 0545 6e13 1858 b955 ce42 dde4 24e4 810d
00000060: 3aa5 7981 43fe ba59 9a82 30c5 0661 e649
00000070: 2e7a ebbe 7f08 f8c3 7c60 d40a 29e9 3d36
00000080: 05a9 199c 13c3 1acc 1e54 4cec 0e7f 5f55
00000090: 12cf fc7f 2fff 1eba b465 2ae5 f6cb fafd
000000a0: 0810 cf81 14f5 e929 19d3 0ad8 fed9 0220
000000b0: 0317 21f2 49e3 57d1 b82e 0920 f97f bfe5
000000c0: 1f00 a80b eecf 212b 3a5f d9ef c87f e530
000000d0: eb03 ed0a fd81 fb13 04fe 06f7 07ea 130f
000000e0: 1df1 6ae0 4804 8182 fbb5 2d33 06a4 dec9
000000f0: c828 e9d6 e5f6 7f3e ee35 4df4 0435 3613
-25 83 2 -127 -39 -38 -45 -80
-28 8 0 77 25 -56 -8 57
-25 31 -58 16 -33 -26 38 -74
65 57 -74 27 -9 8 33 -127
-7 -31 -29 35 52 34 -65 -78
104 -30 22 8 -26 127 -77 35
64 -78 11 -89 19 -23 -18 -18
89 -25 54 24 -3 57 2 127
-78 45 -10 54 21 -39 -18 45
-21 -24 19 -44 -127 -13 -7 3
5 69 110 19 24 88 -71 85
-50 66 -35 -28 36 -28 -127 13
58 -91 121 -127 67 -2 -70 89
-102 -126 48 -59 6 97 -26 73
46 122 -21 -66 127 8 -8 -61
124 96 -44 10 41 -23 61 54
5 -87 25 -100 19 -61 26 -52
30 84 76 -20 14 127 95 85
18 -49 -4 127 47 -1 30 -70
-76 101 42 -27 -10 -53 -6 -3
8 16 -49 -127 20 -11 -23 41
25 -45 10 -40 -2 -39 2 32
3 23 33 -14 73 -29 87 -47
-72 46 9 32 -7 127 -65 -27
31 0 -88 11 -18 -49 33 43
58 95 -39 -17 -56 127 -27 48
-21 3 -19 10 -3 -127 -5 19
4 -2 6 -9 7 -22 19 15
29 -15 106 -32 72 4 -127 -126
-5 -75 45 51 6 -92 -34 -55
-56 40 -23 -42 -27 -10 127 62
-18 53 77 -12 4 53 54 19

model_1/head/Conv2D i1 [32, 1, 1, 96]
00000000: ba37 17b3 b103 f833 ebe5 92a6 9765 ce3c
00000010: 2252 e7f7 cba4 dc11 5982 f154 26a0 39e1
00000020: af51 06c7 ea0a 99e2 a7c9 62c1 3eea ae5c
00000030: a042 9111 e047 fc1a c7a9 d626 de49 1f94
00000040: 419f a11f 3fb7 ec53 a022 d95e cfce dfe5
00000050: a027 2210 d8bc c9d3 0f25 0c1e a881 c72d
00000060: 4b25 5d30 2ec2 177a 1f50 d762 b1c1 37d2
00000070: f2f0 0df0 6367 dee2 3d2f f5d7 5415 09be
00000080: c7be b9cf 67d8 e11e 146e 0055 350f f630
00000090: 20a3 18ed fb94 ceb5 1a28 5c39 44ca f7ec
000000a0: 6607 1d59 5e53 5066 1441 484b 36f0 7fff
000000b0: c86d c845 3c4a be23 cfcb 3702 fa06 320d
000000c0: 01c3 aa98 f114 4b10 25e1 cac3 2b4e c39e
000000d0: ac2b e218 b4d6 201e c22e dfcd eef7 b82d
000000e0: 2cd0 360b b51d c548 41eb 794a cdf6 3324
000000f0: f7b1 ff66 becc 0bac f21c 2472 5c4f cf5d
-70 55 23 -77 -79 3 -8 51
-21 -27 -110 -90 -105 101 -50 60
34 82 -25 -9 -53 -92 -36 17
89 -126 -15 84 38 -96 57 -31
-81 81 6 -57 -22 10 -103 -30
-89 -55 98 -63 62 -22 -82 92
-96 66 -111 17 -32 71 -4 26
-57 -87 -42 38 -34 73 31 -108
65 -97 -95 31 63 -73 -20 83
-96 34 -39 94 -49 -50 -33 -27
-96 39 34 16 -40 -68 -55 -45
15 37 12 30 -88 -127 -57 45
75 37 93 48 46 -62 23 122
31 80 -41 98 -79 -63 55 -46
-14 -16 13 -16 99 103 -34 -30
61 47 -11 -41 84 21 9 -66
-57 -66 -71 -49 103 -40 -31 30
20 110 0 85 53 15 -10 48
32 -93 24 -19 -5 -108 -50 -75
26 40 92 57 68 -54 -9 -20
102 7 29 89 94 83 80 102
20 65 72 75 54 -16 127 -1
-56 109 -56 69 60 74 -66 35
-49 -53 55 2 -6 6 50 13
1 -61 -86 -104 -15 20 75 16
37 -31 -54 -61 43 78 -61 -98
-84 43 -30 24 -76 -42 32 30
-62 46 -33 -51 -18 -9 -72 45
44 -48 54 11 -75 29 -59 72
65 -21 121 74 -51 -10 51 36
-9 -79 -1 102 -66 -52 11 -84
-14 28 36 114 92 79 -49 93

model_1/logits/Conv2D i1 [4, 1, 1, 32]
00000000: b421 2c51 ff81 7c6e 992b 4360 d83a ad01
00000010: bce8 2a18 f817 f2a8 22fa aa52 e219 06da
00000020: 4092 0b13 4fa7 a421 9f6d bbe8 68b0 477d
00000030: 21c3 a5ce e447 587b 8544 7f96 f4b7 dbd5
00000040: f8a3 090a a3ca c0ee 0212 dbc7 5692 a50a
00000050: 6532 8156 e80e cfe2 339b 6bcf 956a 6866
00000060: 7fac 72c0 9a46 fd5a 7555 013c f99f 688a
00000070: 163b 31f1 ed4f bf41 bcaf 2d1c bb69 f78a
-76 33 44 81 -1 -127 124 110
-103 43 67 96 -40 58 -83 1
-68 -24 42 24 -8 23 -14 -88
34 -6 -86 82 -30 25 6 -38
64 -110 11 19 79 -89 -92 33
-97 109 -69 -24 104 -80 71 125
33 -61 -91 -50 -28 71 88 123
-123 68 127 -106 -12 -73 -37 -43
-8 -93 9 10 -93 -54 -64 -18
2 18 -37 -57 86 -110 -91 10
101 50 -127 86 -24 14 -49 -30
51 -101 107 -49 -107 106 104 102
127 -84 114 -64 -102 70 -3 90
117 85 1 60 -7 -97 104 -118
22 59 49 -15 -19 79 -65 65
-68 -81 45 28 -69 105 -9 -118
