src/lib/libtf/models/trained.tflite (tflite, 57040 bytes, 21 tensors)

model_1/Conv1/Conv2D i1 [16, 3, 3, 3]
000000 00 00 00 00 00 00 00 00 00 00 00 00 00 00 00 00
       0 0 0 0 0 0 0 0 0 0 0 0 0 0 0 0
000010 00 00 00 00 00 00 00 00 00 00 00 34 ff 22 01 ed
       0 0 0 0 0 0 0 0 0 0 0 52 -1 34 1 -19
000020 14 81 86 bc 07 fe 01 ef 07 ff 04 e2 06 00 14 00
       20 -127 -122 -68 7 -2 1 -17 7 -1 4 -30 6 0 20 0
000030 ff 0b 01 2a ed 0b 1d f8 f7 4f 75 02 29 d8 06 05
       -1 11 1 42 -19 11 29 -8 -9 79 117 2 41 -40 6 5
000040 08 fa 45 7f e2 16 fc fa 30 ba 11 48 d1 e7 22 c9
       8 -6 69 127 -30 22 -4 -6 48 -70 17 72 -47 -25 34 -55
000050 0f 0a 25 04 22 60 12 fe 03 f8 18 27 07 45 7f 18
       15 10 37 4 34 96 18 -2 3 -8 24 39 7 69 127 24
000060 f0 eb 01 07 03 03 1c 1a 07 ff fd 02 2d 53 fd 11
       -16 -21 1 7 3 3 28 26 7 -1 -3 2 45 83 -3 17
000070 5a f8 f1 0c 01 2a 5e 33 1c 7c 1e 20 3a f4 34 4f
       90 -8 -15 12 1 42 94 51 28 124 30 32 58 -12 52 79
000080 21 2d 7f 0f ec 1c 18 09 01 8d fd 00 9c fa 1c e8
       33 45 127 15 -20 28 24 9 1 -115 -3 0 -100 -6 28 -24
000090 04 d2 81 fe d0 8d fd 0c ec fb 04 eb 00 fa f2 ff
       4 -46 -127 -2 -48 -115 -3 12 -20 -5 4 -21 0 -6 -14 -1
0000a0 09 f4 1a c3 25 31 ab 2b 0a ed 0b 24 a1 40 3f 81
       9 -12 26 -61 37 49 -85 43 10 -19 11 36 -95 64 63 -127
0000b0 4b 07 e4 13 14 de 0f 0d d3 1b f2 07 00 de 0b ff
       75 7 -28 19 20 -34 15 13 -45 27 -14 7 0 -34 11 -1
0000c0 91 d1 fb eb 14 fd f4 f3 fc 81 9a f4 ff f9 01 eb
       -111 -47 -5 -21 20 -3 -12 -13 -4 -127 -102 -12 -1 -7 1 -21
0000d0 1d f4 f6 0a fd ee 1b fb f2 7f 74 fd 7f 73 19 7c
       29 -12 -10 10 -3 -18 27 -5 -14 127 116 -3 127 115 25 124
0000e0 70 fd 7e 72 08 7c 70 28 7a 6e 05 7d 72 10 7c 71
       112 -3 126 114 8 124 112 40 122 110 5 125 114 16 124 113
0000f0 2e 7a 6f ec fe 09 f6 fe 03 08 09 f9 61 6d f4 4d
       46 122 111 -20 -2 9 -10 -2 3 8 9 -7 97 109 -12 77

model_1/expanded_conv_depthwise_BN/FusedBatchNormV3;model_1/expanded_conv_depthwise/depthwise;model_1/block_5_project/Conv2D i1 [1, 3, 3, 16]
000000 94 12 ae 82 27 bd 50 b4 a6 fd f8 1d 81 05 36 b7
       -108 18 -82 -126 39 -67 80 -76 -90 -3 -8 29 -127 5 54 -73
000010 33 19 81 7f 7f 81 7f 81 ab 7f 81 33 97 05 7f e7
       51 25 -127 127 127 -127 127 -127 -85 127 -127 51 -105 5 127 -25
000020 18 e8 5c fe b8 44 a1 4e a1 e5 04 f1 3d 01 9a e3
       24 -24 92 -2 -72 68 -95 78 -95 -27 4 -15 61 1 -102 -29
000030 81 7f ea 0d d4 10 e3 0e e4 01 03 93 cf 08 e2 f2
       -127 127 -22 13 -44 16 -29 14 -28 1 3 -109 -49 8 -30 -14
000040 b2 d6 c7 f1 f8 e7 08 e5 94 a7 15 f4 98 81 01 17
       -78 -42 -57 -15 -8 -25 8 -27 -108 -89 21 -12 -104 -127 1 23
000050 0e 01 42 02 03 22 e6 22 81 06 fe 02 eb 0c fc 2b
       14 1 66 2 3 34 -26 34 -127 6 -2 2 -21 12 -4 43
000060 8d b8 46 02 fa 27 d8 34 b4 00 00 04 28 02 e5 17
       -115 -72 70 2 -6 39 -40 52 -76 0 0 4 40 2 -27 23
000070 17 fc 20 fe e5 28 de 15 83 f3 00 54 c6 00 e3 91
       23 -4 32 -2 -27 40 -34 21 -125 -13 0 84 -58 0 -29 -111
000080 15 f9 14 00 04 0f 09 16 8d 04 ff 81 6b 02 11 81
       21 -7 20 0 4 15 9 22 -115 4 -1 -127 107 2 17 -127

model_1/expanded_conv_project/Conv2D i1 [8, 1, 1, 16]
000000 00 ee 04 fd 7f 00 02 02 01 85 a4 fd 00 76 00 00
       0 -18 4 -3 127 0 2 2 1 -123 -92 -3 0 118 0 0
000010 00 e3 01 58 4b 0b 19 07 01 fc 7f d7 00 1e f1 00
       0 -29 1 88 75 11 25 7 1 -4 127 -41 0 30 -15 0
000020 00 02 fd f4 c7 06 0c 04 01 03 ee 02 00 7f f5 00
       0 2 -3 -12 -57 6 12 4 1 3 -18 2 0 127 -11 0
000030 00 f8 ef 81 51 17 46 10 01 3d 00 2a 00 fd 13 00
       0 -8 -17 -127 81 23 70 16 1 61 0 42 0 -3 19 0
000040 00 2f e3 22 c8 1d 7f 07 ff c3 10 f7 00 fa 0c 00
       0 47 -29 34 -56 29 127 7 -1 -61 16 -9 0 -6 12 0
000050 00 f1 f4 01 e8 e7 f6 0e 01 0a fa d0 00 fc 7f 00
       0 -15 -12 1 -24 -25 -10 14 1 10 -6 -48 0 -4 127 0
000060 00 0e ff 02 34 ed e9 fb ff 9a 6e 3f 00 7f 39 00
       0 14 -1 2 52 -19 -23 -5 -1 -102 110 63 0 127 57 0
000070 00 0b f2 7f 06 ff 10 0c 01 47 ce 4c 00 fb 34 00
       0 11 -14 127 6 -1 16 12 1 71 -50 76 0 -5 52 0

model_1/block_1_expand/Conv2D i1 [48, 1, 1, 8]
000000 0c 81 2f d7 19 ee d3 16 48 44 f2 ab 09 fa bc 7f
       12 -127 47 -41 25 -18 -45 22 72 68 -14 -85 9 -6 -68 127
000010 1e 0d db 7f 39 74 32 5e 4e 46 ac 7f 9f fa fc 11
       30 13 -37 127 57 116 50 94 78 70 -84 127 -97 -6 -4 17
000020 e0 91 4d 04 05 1d d0 81 12 04 da 29 fc e2 2a 7f
       -32 -111 77 4 5 29 -48 -127 18 4 -38 41 -4 -30 42 127
000030 3a e4 81 98 65 06 38 d7 7f 0c 10 e9 19 fa 54 c3
       58 -28 -127 -104 101 6 56 -41 127 12 16 -23 25 -6 84 -61
000040 12 9a 06 6d 02 17 f7 81 63 81 08 fd ed 13 8f 56
       18 -102 6 109 2 23 -9 -127 99 -127 8 -3 -19 19 -113 86
000050 81 db 89 16 fa 0d 99 39 ed d7 fa 99 81 e1 30 f3
       -127 -37 -119 22 -6 13 -103 57 -19 -41 -6 -103 -127 -31 48 -13
000060 0f 09 db 45 b8 e9 3a 7f 00 00 00 00 00 00 00 00
       15 9 -37 69 -72 -23 58 127 0 0 0 0 0 0 0 0
000070 fb e1 fb 0c 2a 7f 2e 2b 28 04 10 81 44 24 c7 49
       -5 -31 -5 12 42 127 46 43 40 4 16 -127 68 36 -57 73
000080 00 00 00 00 00 00 00 00 0b 15 7f 13 db f4 25 22
       0 0 0 0 0 0 0 0 11 21 127 19 -37 -12 37 34
000090 57 81 18 1e f5 1a 8d 03 81 ed 1c 45 c2 bd 9c 3f
       87 -127 24 30 -11 26 -115 3 -127 -19 28 69 -62 -67 -100 63
0000a0 20 1c d0 75 e1 81 01 3e 39 13 7f 0b f2 f3 44 0d
       32 28 -48 117 -31 -127 1 62 57 19 127 11 -14 -13 68 13
0000b0 b3 eb 81 fe 02 0c 9b 02 9d 75 eb e6 fe f8 7f b3
       -77 -21 -127 -2 2 12 -101 2 -99 117 -21 -26 -2 -8 127 -77
0000c0 07 c8 ce 4d f2 c7 64 7f 11 2f 27 1d 7f 6e b5 d0
       7 -56 -50 77 -14 -57 100 127 17 47 39 29 127 110 -75 -48
0000d0 ae dd 81 fa 03 14 a4 fe 03 e3 e3 05 d8 7f 3c 33
       -82 -35 -127 -6 3 20 -92 -2 3 -29 -29 5 -40 127 60 51
0000e0 fd e9 e9 2a 15 7f 39 40 55 1f 7f fe e5 f9 56 f7
       -3 -23 -23 42 21 127 57 64 85 31 127 -2 -27 -7 86 -9
0000f0 ae 7f e9 e4 0e f8 67 d1 da a5 f1 07 1a ba 7f 6a
       -82 127 -23 -28 14 -8 103 -47 -38 -91 -15 7 26 -70 127 106

model_1/block_1_depthwise_BN/FusedBatchNormV3;model_1/block_1_depthwise/depthwise;model_1/block_3_depthwise/depthwise i1 [1, 3, 3, 48]
000000 d6 ea f9 ef 07 d9 b1 bc e5 cd 08 41 22 b9 72 d5
       -42 -22 -7 -17 7 -39 -79 -68 -27 -51 8 65 34 -71 114 -43
000010 8f ac 25 f9 ff b9 91 b1 de 84 c1 ea 47 0f 5f 1a
       -113 -84 37 -7 -1 -71 -111 -79 -34 -124 -63 -22 71 15 95 26
000020 81 a8 f9 35 12 30 81 4e b4 f2 67 94 fd dc a9 6b
       -127 -88 -7 53 18 48 -127 78 -76 -14 103 -108 -3 -36 -87 107
000030 4b 0c e4 e3 39 81 81 af 3c b4 8c 6c 26 ae ff 3e
       75 12 -28 -29 57 -127 -127 -81 60 -76 -116 108 38 -82 -1 62
000040 cc 8f 3b 07 0a 90 81 ba fc 81 89 d6 ca 15 c8 36
       -52 -113 59 7 10 -112 -127 -70 -4 -127 -119 -42 -54 21 -56 54
000050 1d 81 40 53 0d 48 a4 7f 81 06 7b 81 02 e9 81 5d
       29 -127 64 83 13 72 -92 127 -127 6 123 -127 2 -23 -127 93
000060 e1 2b 07 fb bf 93 c6 ef 57 f8 81 26 08 b9 9b f5
       -31 43 7 -5 -65 -109 -58 -17 87 -8 -127 38 8 -71 -101 -11
000070 81 e8 1b 0c f1 b4 dd e8 f6 e2 c6 f3 f7 12 e8 09
       -127 -24 27 12 -15 -76 -35 -24 -10 -30 -58 -13 -9 18 -24 9
000080 6b aa 46 1f 0e 23 fb 10 b2 03 07 b2 ef 05 c9 0e
       107 -86 70 31 14 35 -5 16 -78 3 7 -78 -17 5 -55 14
000090 ab 81 d4 d4 f6 37 62 97 e6 94 eb 70 5a c0 1b 9f
       -85 -127 -44 -44 -10 55 98 -105 -26 -108 -21 112 90 -64 27 -97
0000a0 87 a2 5a b3 2a a8 99 81 2a 89 b2 d9 7f c4 7f 53
       -121 -94 90 -77 42 -88 -103 -127 42 -119 -78 -39 127 -60 127 83
0000b0 d5 ac f2 54 de b4 96 5a 2a 3b 68 93 a5 8b 52 78
       -43 -84 -14 84 -34 -76 -106 90 42 59 104 -109 -91 -117 82 120
0000c0 7f ad 81 81 7f 29 5d 81 65 81 90 7f 7f f2 f9 7f
       127 -83 -127 -127 127 41 93 -127 101 -127 -112 127 127 -14 -7 127
0000d0 c4 81 7f 81 7f 81 89 89 7f 9b 81 81 89 81 b9 7f
       -60 -127 127 -127 127 -127 -119 -119 127 -101 -127 -127 -119 -127 -71 127
0000e0 1d 91 7f 7f bc 81 a0 5a 3d 7f 7f 8a 90 81 7c 7f
       29 -111 127 127 -68 -127 -96 90 61 127 127 -118 -112 -127 124 127
0000f0 cc 1f c3 ab 88 e9 1f da 7f ec b2 23 38 ba e7 d4
       -52 31 -61 -85 -120 -23 31 -38 127 -20 -78 35 56 -70 -25 -44

model_1/block_1_project/Conv2D i1 [8, 1, 1, 48]
000000 f4 fe 09 a2 0b 1d 08 07 03 09 03 fc 66 00 02 06
       -12 -2 9 -94 11 29 8 7 3 9 3 -4 102 0 2 6
000010 00 f8 f9 00 51 fd 01 06 21 25 0e 0a 06 03 04 81
       0 -8 -7 0 81 -3 1 6 33 37 14 10 6 3 4 -127
000020 0a 08 fe 01 e6 03 ee 22 08 e7 f9 06 03 ff 03 03
       10 8 -2 1 -26 3 -18 34 8 -25 -7 6 3 -1 3 3
000030 de fa fc fa 2a 1b e4 4c 12 07 e4 e6 0c 00 12 23
       -34 -6 -4 -6 42 27 -28 76 18 7 -28 -26 12 0 18 35
000040 00 25 11 d2 02 13 7f 15 e6 fa 37 04 14 fc 0f f5
       0 37 17 -46 2 19 127 21 -26 -6 55 4 20 -4 15 -11
000050 0f f8 fb ee 01 ca 05 04 f8 fa b4 f8 e2 08 d1 a2
       15 -8 -5 -18 1 -54 5 4 -8 -6 -76 -8 -30 8 -47 -94
000060 c6 10 01 09 2e f7 1d 19 f3 36 0b f8 05 00 08 37
       -58 16 1 9 46 -9 29 25 -13 54 11 -8 5 0 8 55
000070 00 09 81 19 05 0c 08 f4 e2 fe 29 0a 07 1c 18 07
       0 9 -127 25 5 12 8 -12 -30 -2 41 10 7 28 24 7
000080 06 f7 f8 f5 06 05 fd 02 25 f8 e3 02 1a c5 16 10
       6 -9 -8 -11 6 5 -3 2 37 -8 -29 2 26 -59 22 16
000090 02 02 00 07 f8 1e 01 ff 3f 14 fe fd 19 00 e2 f7
       2 2 0 7 -8 30 1 -1 63 20 -2 -3 25 0 -30 -9
0000a0 00 03 f4 ff fe 01 06 ef f6 fb f5 ff f7 ff fd f7
       0 3 -12 -1 -2 1 6 -17 -10 -5 -11 -1 -9 -1 -3 -9
0000b0 d0 2c c9 fd 08 ff 03 81 fe 03 01 cd fd ff ff 06
       -48 44 -55 -3 8 -1 3 -127 -2 3 1 -51 -3 -1 -1 6
0000c0 ff fc 52 21 06 eb fd fc 04 fc fc fa af 00 f5 04
       -1 -4 82 33 6 -21 -3 -4 4 -4 -4 -6 -81 0 -11 4
0000d0 00 0a 08 01 3f 05 fe fa f0 22 f8 30 f9 00 00 60
       0 10 8 1 63 5 -2 -6 -16 34 -8 48 -7 0 0 96
0000e0 04 04 ff fe 11 f6 f8 eb fe 81 02 03 ff fb 00 00
       4 4 -1 -2 17 -10 -8 -21 -2 -127 2 3 -1 -5 0 0
0000f0 f9 2c 04 f9 04 2d 19 0d eb 1f 08 33 19 00 81 ff
       -7 44 4 -7 4 45 25 13 -21 31 8 51 25 0 -127 -1

model_1/block_2_expand/Conv2D i1 [48, 1, 1, 8]
000000 5f 2c f6 f5 7f 1b d2 da f9 00 06 7f 0a f7 03 11
       95 44 -10 -11 127 27 -46 -38 -7 0 6 127 10 -9 3 17
000010 18 81 ea 2a f5 bd 4c 08 7f e1 f4 12 fa d8 1c 07
       24 -127 -22 42 -11 -67 76 8 127 -31 -12 18 -6 -40 28 7
000020 06 d1 7f f3 f8 d3 09 a9 4c 02 05 f9 7f 13 fc fe
       6 -47 127 -13 -8 -45 9 -87 76 2 5 -7 127 19 -4 -2
000030 ea 5e f3 7f 12 2f b3 ce f9 7f fe 02 01 f1 0e ff
       -22 94 -13 127 18 47 -77 -50 -7 127 -2 2 1 -15 14 -1
000040 7f 2c f6 08 c6 e3 fc e0 81 16 03 19 3c 04 fe fc
       127 44 -10 8 -58 -29 -4 -32 -127 22 3 25 60 4 -2 -4
000050 ac f6 0e 7f 33 24 e3 fb 81 02 09 b9 2c 02 eb cf
       -84 -10 14 127 51 36 -29 -5 -127 2 9 -71 44 2 -21 -49
000060 7f 19 06 12 d9 f7 02 d4 f4 4a 81 f8 06 5a bf 4a
       127 25 6 18 -39 -9 2 -44 -12 74 -127 -8 6 90 -65 74
000070 d0 e5 f5 7f 1c 0d f6 e3 ff 7f 03 fc 00 f2 0a cd
       -48 -27 -11 127 28 13 -10 -29 -1 127 3 -4 0 -14 10 -51
000080 fb 81 e7 0c fd 82 7e da 10 7f 01 f4 03 50 aa ee
       -5 -127 -25 12 -3 -126 126 -38 16 127 1 -12 3 80 -86 -18
000090 fe 2a 81 fa 0d 2d e2 3e c0 16 06 06 81 0e 17 10
       -2 42 -127 -6 13 45 -30 62 -64 22 6 6 -127 14 23 16
0000a0 81 e0 fc 02 53 e9 25 04 bf f7 f5 f7 81 fc 15 0c
       -127 -32 -4 2 83 -23 37 4 -65 -9 -11 -9 -127 -4 21 12
0000b0 81 e3 fc fb 62 e8 26 38 ea eb f7 f9 fd 4c 81 a8
       -127 -29 -4 -5 98 -24 38 56 -22 -21 -9 -7 -3 76 -127 -88
0000c0 f6 2a 81 03 0d 31 ed 4e 6d d8 f5 7f b9 f5 0e cc
       -10 42 -127 3 13 49 -19 78 109 -40 -11 127 -71 -11 14 -52
0000d0 04 ea fc 00 f6 76 7f e5 51 fa fd 10 7f 23 29 e7
       4 -22 -4 0 -10 118 127 -27 81 -6 -3 16 127 35 41 -25
0000e0 01 7f c6 0d 08 50 de 6c f4 0e fc ef fb 56 81 ae
       1 127 -58 13 8 80 -34 108 -12 14 -4 -17 -5 86 -127 -82
0000f0 01 fc 00 81 fa 00 fa f2 c8 00 03 00 81 0d 0f 00
       1 -4 0 -127 -6 0 -6 -14 -56 0 3 0 -127 13 15 0

model_1/block_2_depthwise_BN/FusedBatchNormV3;model_1/block_2_depthwise/depthwise;model_1/block_3_depthwise/depthwise i1 [1, 3, 3, 48]
000000 05 fd 15 6c 04 52 ff 1c 0f 08 09 07 f8 f7 d3 08
       5 -3 21 108 4 82 -1 28 15 8 9 7 -8 -9 -45 8
000010 fe 08 e9 8e f9 ea 7f f7 fd 05 fa 09 fb 04 10 63
       -2 8 -23 -114 -7 -22 127 -9 -3 5 -6 9 -5 4 16 99
000020 14 1d 26 e4 01 23 ff 02 12 bd f8 f7 11 02 f9 f5
       20 29 38 -28 1 35 -1 2 18 -67 -8 -9 17 2 -7 -11
000030 7f 0a 0f 81 1c 58 0a 0b 7b 7f 06 2b ce e8 05 08
       127 10 15 -127 28 88 10 11 123 127 6 43 -50 -24 5 8
000040 7f c8 c4 c8 9b 19 93 0f 11 46 e0 ad 17 15 0a 86
       127 -56 -60 -56 -101 25 -109 15 17 70 -32 -83 23 21 10 -122
000050 05 c4 7f 0a d9 d1 fb 75 b2 9f e3 03 de f8 81 17
       5 -60 127 10 -39 -47 -5 117 -78 -97 -29 3 -34 -8 -127 23
000060 e0 fd 08 0e 00 42 04 12 1b 08 f1 1f f2 fd 10 04
       -32 -3 8 14 0 66 4 18 27 8 -15 31 -14 -3 16 4
000070 99 1d fe 4e e1 f4 ee fa fc c4 fd 1e ef 04 04 eb
       -103 29 -2 78 -31 -12 -18 -6 -4 -60 -3 30 -17 4 4 -21
000080 08 e9 10 ed 00 2f 2a f4 32 26 f1 0b d5 03 fe fa
       8 -23 16 -19 0 47 42 -12 50 38 -15 11 -43 3 -2 -6
000090 7d 07 01 9e 0d e6 22 f0 08 09 f4 36 f9 ff 12 df
       125 7 1 -98 13 -26 34 -16 8 9 -12 54 -7 -1 18 -33
0000a0 00 ce c3 aa 0a b7 84 ee 05 62 f1 81 f7 20 0c 96
       0 -50 -61 -86 10 -73 -124 -18 5 98 -15 -127 -9 32 12 -106
0000b0 11 cc fe 7f fd 3c d7 29 c2 81 27 a8 d3 f2 f3 fb
       17 -52 -2 127 -3 60 -41 41 -62 -127 39 -88 -45 -14 -13 -5
0000c0 1a 81 81 72 81 81 81 81 81 9f 7f 81 7f 7f 23 81
       26 -127 -127 114 -127 -127 -127 -127 -127 -97 127 -127 127 127 35 -127
0000d0 ad 7f 7f 96 7f 7f 70 7f 7f 81 81 1d 81 81 5e 7f
       -83 127 127 -106 127 127 112 127 127 -127 -127 29 -127 -127 94 127
0000e0 81 7f e4 d7 7f 81 7f 7f 7f b1 7f 7f 7f 86 65 6b
       -127 127 -28 -41 127 -127 127 127 127 -79 127 127 127 -122 101 107
0000f0 35 05 31 f2 06 c4 2b 13 e8 0e 96 f8 00 d8 7f 04
       53 5 49 -14 6 -60 43 19 -24 14 -106 -8 0 -40 127 4

model_1/block_2_project/Conv2D i1 [8, 1, 1, 48]
000000 d0 f1 d6 13 0a e3 ff ff 8e 7f d4 78 7d 0d 4f e8
       -48 -15 -42 19 10 -29 -1 -1 -114 127 -44 120 125 13 79 -24
000010 fc de 08 09 fd f8 e7 e2 1e 9c 0f 46 f2 14 16 dc
       -4 -34 8 9 -3 -8 -25 -30 30 -100 15 70 -14 20 22 -36
000020 fc b4 78 11 02 f4 fc e9 72 00 33 e3 e7 1d ed f1
       -4 -76 120 17 2 -12 -4 -23 114 0 51 -29 -25 29 -19 -15
000030 00 20 7f 06 fc eb 01 ac 1d fe 14 03 e8 05 f8 8e
       0 32 127 6 -4 -21 1 -84 29 -2 20 3 -24 5 -8 -114
000040 0c ca 0a 03 e5 20 19 dc ed fd 0d 02 0e fb 0b 01
       12 -54 10 3 -27 32 25 -36 -19 -3 13 2 14 -5 11 1
000050 fb 0f 10 0a f4 e2 43 ca 08 21 f0 1a f0 0a 15 02
       -5 15 16 10 -12 -30 67 -54 8 33 -16 26 -16 10 21 2
000060 08 d0 0f d7 22 1a f8 e2 08 fe fc 0d f8 38 04 fd
       8 -48 15 -41 34 26 -8 -30 8 -2 -4 13 -8 56 4 -3
000070 db 7f e7 df f1 13 d7 f8 7b 04 02 fa e1 fc 05 da
       -37 127 -25 -33 -15 19 -41 -8 123 4 2 -6 -31 -4 5 -38
000080 f6 f6 04 0c f8 fe f3 05 0e ee ec 00 03 1c e7 da
       -10 -10 4 12 -8 -2 -13 5 14 -18 -20 0 3 28 -25 -38
000090 00 a8 fe 06 02 fc f3 fd f6 f6 11 17 09 f4 32 01
       0 -88 -2 6 2 -4 -13 -3 -10 -10 17 23 9 -12 50 1
0000a0 f6 ea 02 1a f8 16 e9 07 04 34 00 05 f5 0a 7f 00
       -10 -22 2 26 -8 22 -23 7 4 52 0 5 -11 10 127 0
0000b0 0c 09 fb ff eb f3 f9 0b f9 06 f7 1b f8 ff 00 1f
       12 9 -5 -1 -21 -13 -7 11 -7 6 -9 27 -8 -1 0 31
0000c0 a4 0b 06 04 03 dc 00 0b 25 de 17 ee e1 00 f1 fc
       -92 11 6 4 3 -36 0 11 37 -34 23 -18 -31 0 -15 -4
0000d0 05 0a fe 1a 0d e5 11 08 fd 2d 02 66 05 05 fd e2
       5 10 -2 26 13 -27 17 8 -3 45 2 102 5 5 -3 -30
0000e0 fc 81 e3 0b 01 ff 01 05 d0 f6 f6 15 c6 ff 09 03
       -4 -127 -29 11 1 -1 1 5 -48 -10 -10 21 -58 -1 9 3
0000f0 ec 19 16 07 d4 0a f9 2e 17 01 09 05 fd d2 05 27
       -20 25 22 7 -44 10 -7 46 23 1 9 5 -3 -46 5 39

model_1/block_3_expand/Conv2D i1 [48, 1, 1, 8]
000000 81 01 fe 49 d8 2e 16 df 1c 4d 27 14 0b d3 65 7f
       -127 1 -2 73 -40 46 22 -33 28 77 39 20 11 -45 101 127
000010 d4 00 02 fd 81 f2 0a 02 66 f8 f1 81 86 12 26 f0
       -44 0 2 -3 -127 -14 10 2 102 -8 -15 -127 -122 18 38 -16
000020 81 29 f6 f6 4a f7 25 0e 90 e3 13 f1 81 0f 08 54
       -127 41 -10 -10 74 -9 37 14 -112 -29 19 -15 -127 15 8 84
000030 f1 81 1b ef 0b 06 fd 21 c4 fa 06 60 7f e2 df 05
       -15 -127 27 -17 11 6 -3 33 -60 -6 6 96 127 -30 -33 5
000040 4e 01 fb 81 00 ec d6 e0 f9 81 f6 f9 09 5b c8 56
       78 1 -5 -127 0 -20 -42 -32 -7 -127 -10 -7 9 91 -56 86
000050 a4 00 06 14 81 45 3f ec 72 10 27 0d cd d6 df 81
       -92 0 6 20 -127 69 63 -20 114 16 39 13 -51 -42 -33 -127
000060 fe 11 2b f7 08 b3 7f 3f 42 df f4 f7 7f 7d 74 d7
       -2 17 43 -9 8 -77 127 63 66 -33 -12 -9 127 125 116 -41
000070 7f 3b f0 10 84 f1 e6 f6 f4 81 0d f6 01 05 06 21
       127 59 -16 16 -124 -15 -26 -10 -12 -127 13 -10 1 5 6 33
000080 c9 f9 0b fe 81 01 0e 00 e2 5c 8d 06 09 81 65 b5
       -55 -7 11 -2 -127 1 14 0 -30 92 -115 6 9 -127 101 -75
000090 7f e1 d7 0d c5 1f 09 65 7f c6 e9 fd 3d 06 1e 07
       127 -31 -41 13 -59 31 9 101 127 -58 -23 -3 61 6 30 7
0000a0 78 17 ed 7f ff 1c 00 d0 0c 14 c5 0a ea 5b 81 b1
       120 23 -19 127 -1 28 0 -48 12 20 -59 10 -22 91 -127 -79
0000b0 81 0f 13 f7 e8 03 d0 e9 da c9 03 19 81 38 49 f2
       -127 15 19 -9 -24 3 -48 -23 -38 -55 3 25 -127 56 73 -14
0000c0 7f f2 f5 f7 b6 f7 fb 06 1a f5 ff ea 7f 32 35 df
       127 -14 -11 -9 -74 -9 -5 6 26 -11 -1 -22 127 50 53 -33
0000d0 09 aa 09 d9 02 81 53 cc f2 81 1a f3 ff c6 22 fa
       9 -86 9 -39 2 -127 83 -52 -14 -127 26 -13 -1 -58 34 -6
0000e0 a3 14 e4 0a f4 e4 7f 5f f4 27 11 09 fd 26 9d 81
       -93 20 -28 10 -12 -28 127 95 -12 39 17 9 -3 38 -99 -127
0000f0 7f ef f5 0f b4 f9 de f2 f7 dc 3d eb 0c 83 7f 4e
       127 -17 -11 15 -76 -7 -34 -14 -9 -36 61 -21 12 -125 127 78

model_1/block_3_depthwise_BN/FusedBatchNormV3;model_1/block_3_depthwise/depthwise i1 [1, 3, 3, 48]
000000 44 a4 60 46 35 de 6a c0 3c a6 b1 2f 33 d6 b7 a6
       68 -92 96 70 53 -34 106 -64 60 -90 -79 47 51 -42 -73 -90
000010 64 4e 31 4f 42 b6 ae 33 df d9 c1 c1 bc 3d c2 8f
       100 78 49 79 66 -74 -82 51 -33 -39 -63 -63 -68 61 -62 -113
000020 f3 29 44 3f c0 35 ce ea 32 b6 3a 3e a1 0c 4c e0
       -13 41 68 63 -64 53 -50 -22 50 -74 58 62 -95 12 76 -32
000030 50 9f 7f 56 b2 bc c6 ab 5f 99 c1 49 50 93 a0 5b
       80 -97 127 86 -78 -68 -58 -85 95 -103 -63 73 80 -109 -96 91
000040 db 5f 53 7f 56 8d 35 48 cc b3 bc b0 37 4f e2 81
       -37 95 83 127 86 -115 53 72 -52 -77 -68 -80 55 79 -30 -127
000050 aa 50 50 53 ae 53 ae f1 4c a0 54 59 b5 81 5e 98
       -86 80 80 83 -82 83 -82 -15 76 -96 84 89 -75 -127 94 -104
000060 23 d2 46 26 12 d6 d0 d9 2a e0 05 21 1d b2 c9 fe
       35 -46 70 38 18 -42 -48 -39 42 -32 5 33 29 -78 -55 -2
000070 ca 25 23 46 21 c9 1f 1a e4 d3 d6 ea 1e 1e 58 a7
       -54 37 35 70 33 -55 31 26 -28 -45 -42 -22 30 30 88 -89
000080 ac 2c 22 21 e3 27 dc f7 28 d7 23 2b fa f8 25 b7
       -84 44 34 33 -29 39 -36 -9 40 -41 35 43 -6 -8 37 -73
000090 5b 91 d6 5d 37 ae 7f a7 57 8e b8 52 53 92 f2 81
       91 -111 -42 93 55 -82 127 -89 87 -114 -72 82 83 -110 -14 -127
0000a0 7f 6c 4a d9 54 6b 81 49 48 b5 a2 9e 81 56 bb f7
       127 108 74 -39 84 107 -127 73 72 -75 -94 -98 -127 86 -69 -9
0000b0 a8 46 6a 60 ab 4f af 59 54 9b 56 5b a7 6c 5e a5
       -88 70 106 96 -85 79 -81 89 84 -101 86 91 -89 108 94 -91
0000c0 7f 81 be 7f 81 81 a5 81 7f 81 81 7f 7f 81 ea 61
       127 -127 -66 127 -127 -127 -91 -127 127 -127 -127 127 127 -127 -22 97
0000d0 bf 7f 7f cc 7f 7f 45 7f 7f 81 81 81 36 7f e3 0f
       -65 127 127 -52 127 127 69 127 127 -127 -127 -127 54 127 -29 15
0000e0 81 7f 7f 7f 81 7f 81 7f 7f 81 7f 7f 81 f6 7f 81
       -127 127 127 127 -127 127 -127 127 127 -127 127 127 -127 -10 127 -127
0000f0 3f b3 de 42 26 c1 cf c1 37 d5 c3 39 30 cb f0 0a
       63 -77 -34 66 38 -63 -49 -63 55 -43 -61 57 48 -53 -16 10

model_1/block_3_project/Conv2D i1 [16, 1, 1, 48]
000000 ee fd eb 04 1a ff 03 6b cd 14 2b f8 12 f5 ee 0d
       -18 -3 -21 4 26 -1 3 107 -51 20 43 -8 18 -11 -18 13
000010 0b f4 f9 fe 41 fa 11 7d ee 59 f8 f4 1e ef 16 e7
       11 -12 -7 -2 65 -6 17 125 -18 89 -8 -12 30 -17 22 -25
000020 f4 2e 11 d2 0f 31 12 f4 90 e7 12 2a 24 19 81 cf
       -12 46 17 -46 15 49 18 -12 -112 -25 18 42 36 25 -127 -49
000030 e0 f7 18 0d e3 08 01 34 cb db 03 d6 ea ec 00 fe
       -32 -9 24 13 -29 8 1 52 -53 -37 3 -42 -22 -20 0 -2
000040 e8 74 f8 15 09 09 e4 f2 1b d4 10 15 ea b0 dd 12
       -24 116 -8 21 9 9 -28 -14 27 -44 16 21 -22 -80 -35 18
000050 eb ff 21 01 fd db fd 12 ef dc 7f 0f 0e fe 16 f7
       -21 -1 33 1 -3 -37 -3 18 -17 -36 127 15 14 -2 22 -9
000060 eb fa f4 db fe c3 06 eb 01 0c 12 18 0e 0e f2 05
       -21 -6 -12 -37 -2 -61 6 -21 1 12 18 24 14 14 -14 5
000070 fc ee e7 f5 fb ff 01 81 f3 47 f5 07 01 ef fb fb
       -4 -18 -25 -11 -5 -1 1 -127 -13 71 -11 7 1 -17 -5 -5
000080 fb 2f 09 fb 12 0d 19 01 d7 06 ed fb ff f7 10 09
       -5 47 9 -5 18 13 25 1 -41 6 -19 -5 -1 -9 16 9
000090 f8 1e 03 e1 fe 00 04 fb ec fd ff 25 81 06 fb 00
       -8 30 3 -31 -2 0 4 -5 -20 -3 -1 37 -127 6 -5 0
0000a0 03 04 ec fb e1 06 08 0f f7 f5 03 16 f5 10 01 13
       3 4 -20 -5 -31 6 8 15 -9 -11 3 22 -11 16 1 19
0000b0 02 00 12 13 f8 18 2a 02 08 08 15 e2 08 fc 05 13
       2 0 18 19 -8 24 42 2 8 8 21 -30 8 -4 5 19
0000c0 23 e3 0c 08 12 1c 14 e9 e4 04 f6 ee 01 0b fe 10
       35 -29 12 8 18 28 20 -23 -28 4 -10 -18 1 11 -2 16
0000d0 13 f9 b2 06 fb 0b 0c 45 03 e5 07 32 08 b9 14 06
       19 -7 -78 6 -5 11 12 69 3 -27 7 50 8 -71 20 6
0000e0 0f de 1e 81 0a 25 fe 14 ed 0f 09 ea f7 ed 0c 08
       15 -34 30 -127 10 37 -2 20 -19 15 9 -22 -9 -19 12 8
0000f0 1e 01 e9 38 01 fa 09 18 02 fb 2b 08 05 33 01 fe
       30 1 -23 56 1 -6 9 24 2 -5 43 8 5 51 1 -2

model_1/block_4_expand/Conv2D i1 [96, 1, 1, 16]
000000 29 eb 7f 71 46 d4 1b de 67 f7 bd c4 19 4c d6 b2
       41 -21 127 113 70 -44 27 -34 103 -9 -67 -60 25 76 -42 -78
000010 16 4c f8 fe 53 04 09 19 41 39 e7 7f 06 ea 6f 95
       22 76 -8 -2 83 4 9 25 65 57 -25 127 6 -22 111 -107
000020 14 d6 f5 f8 ca 1e d2 4c af b8 0a 4d f1 81 4b aa
       20 -42 -11 -8 -54 30 -46 76 -81 -72 10 77 -15 -127 75 -86
000030 7a 79 f5 1e 81 f3 c4 e8 f8 fe 62 b5 c7 54 d8 e8
       122 121 -11 30 -127 -13 -60 -24 -8 -2 98 -75 -57 84 -40 -24
000040 05 f7 1a 00 df 1a f1 34 b4 cf 01 f4 fb 81 17 ff
       5 -9 26 0 -33 26 -15 52 -76 -49 1 -12 -5 -127 23 -1
000050 71 d2 e2 14 f8 87 e0 0f fc 0d 81 06 05 fb f8 15
       113 -46 -30 20 -8 -121 -32 15 -4 13 -127 6 5 -5 -8 21
000060 83 c9 e8 51 d2 f6 c6 08 81 bc b5 e1 0b 2b 02 67
       -125 -55 -24 81 -46 -10 -58 8 -127 -68 -75 -31 11 43 2 103
000070 f7 11 c0 2f 1f 81 f0 2c 06 e9 0c fb 02 0f de 11
       -9 17 -64 47 31 -127 -16 44 6 -23 12 -5 2 15 -34 17
000080 1b c5 fc f6 0d 23 c0 c3 f9 09 b7 0e 81 06 fb 14
       27 -59 -4 -10 13 35 -64 -61 -7 9 -73 14 -127 6 -5 20
000090 09 db 31 69 01 23 fb b8 7f a4 05 ee f7 34 b5 0e
       9 -37 49 105 1 35 -5 -72 127 -92 5 -18 -9 52 -75 14
0000a0 88 a3 fb c2 7f 24 2b 49 65 97 b4 2e 5c 8b 83 43
       -120 -93 -5 -62 127 36 43 73 101 -105 -76 46 92 -117 -125 67
0000b0 2a ef 81 17 2f 13 e9 2d ee df ed fe 00 13 de 04
       42 -17 -127 23 47 19 -23 45 -18 -33 -19 -2 0 19 -34 4
0000c0 6d cb 00 f8 f6 d7 d8 f6 18 f8 81 f4 dd f4 f1 43
       109 -53 0 -8 -10 -41 -40 -10 24 -8 -127 -12 -35 -12 -15 67
0000d0 2f ae 2d b2 67 0f 97 81 32 9c 26 13 23 ee 32 fd
       47 -82 45 -78 103 15 -105 -127 50 -100 38 19 35 -18 50 -3
0000e0 c7 15 a7 d6 4e 81 30 c7 30 2a f0 a8 15 73 ee 1a
       -57 21 -89 -42 78 -127 48 -57 48 42 -16 -88 21 115 -18 26
0000f0 1c fc 3f 1b 37 e6 df f0 1e bb c6 f3 81 d6 ea 2e
       28 -4 63 27 55 -26 -33 -16 30 -69 -58 -13 -127 -42 -22 46

model_1/block_4_depthwise_BN/FusedBatchNormV3;model_1/block_4_depthwise/depthwise;model_1/block_6_expand/Conv2D i1 [1, 3, 3, 96]
000000 ef 05 ec 67 f0 18 c2 cb 10 fa 63 f7 04 f8 fb 34
       -17 5 -20 103 -16 24 -62 -53 16 -6 99 -9 4 -8 -5 52
000010 06 10 de 05 4a 03 1f de 02 12 2d 31 14 0d 18 31
       6 16 -34 5 74 3 31 -34 2 18 45 49 20 13 24 49
000020 f8 1c 09 f1 04 31 c3 e6 13 09 1c 11 ab c9 18 fb
       -8 28 9 -15 4 49 -61 -26 19 9 28 17 -85 -55 24 -5
000030 f6 ec f9 f9 32 06 f7 02 fe dc 1c e0 1c fe 7f 1b
       -10 -20 -7 -7 50 6 -9 2 -2 -36 28 -32 28 -2 127 27
000040 f3 f5 0b cd 42 24 01 f8 4e de 45 04 10 81 1d 41
       -13 -11 11 -51 66 36 1 -8 78 -34 69 4 16 -127 29 65
000050 01 10 7f f2 26 1d e3 ed 23 f8 f2 51 02 14 fe 0c
       1 16 127 -14 38 29 -29 -19 35 -8 -14 81 2 20 -2 12
000060 cf 0b f7 09 33 f9 f7 81 27 0e 81 fb f0 f4 04 59
       -49 11 -9 9 51 -7 -9 -127 39 14 -127 -5 -16 -12 4 89
000070 11 e1 f2 f2 4d a0 7f 1a c2 e0 97 f1 1b 24 cf 12
       17 -31 -14 -14 77 -96 127 26 -62 -32 -105 -15 27 36 -49 18
000080 76 0c f2 ff e7 7f bf 81 08 ed e3 0d 2e 81 7f d3
       118 12 -14 -1 -25 127 -65 -127 8 -19 -29 13 46 -127 127 -45
000090 b5 32 31 07 28 c1 1f 38 25 2b 9d 55 7f 22 04 ec
       -75 50 49 7 40 -63 31 56 37 43 -99 85 127 34 4 -20
0000a0 2a da a0 00 25 e2 ed 2e ce cf 6a fc e2 c5 df 41
       42 -38 -96 0 37 -30 -19 46 -50 -49 106 -4 -30 -59 -33 65
0000b0 be 40 f0 09 f5 30 37 d6 e4 35 f3 48 81 e0 17 81
       -66 64 -16 9 -11 48 55 -42 -28 53 -13 72 -127 -32 23 -127
0000c0 00 fc e9 b6 09 13 26 16 fc fd 04 3e 00 f3 f5 05
       0 -4 -23 -74 9 19 38 22 -4 -3 4 62 0 -13 -11 5
0000d0 f3 12 ef 12 06 19 17 e0 01 e0 0a 0d fa 05 2e b1
       -13 18 -17 18 6 25 23 -32 1 -32 10 13 -6 5 46 -79
0000e0 2c 10 0a e9 0c 04 df ea 07 03 f1 07 16 e0 15 01
       44 16 10 -23 12 4 -33 -22 7 3 -15 7 22 -32 21 1
0000f0 07 f8 06 fb 05 06 fa 08 f9 2d 08 fc 0c ef 03 f0
       7 -8 6 -5 5 6 -6 8 -7 45 8 -4 12 -17 3 -16

model_1/block_4_project/Conv2D i1 [16, 1, 1, 96]
000000 fe 0e f9 1b 2a 44 df ee 2d 05 08 04 f2 0e 17 3f
       -2 14 -7 27 42 68 -33 -18 45 5 8 4 -14 14 23 63
000010 0d fe f8 f5 61 c6 11 f2 e9 dc d2 9c fc fd 2c 33
       13 -2 -8 -11 97 -58 17 -14 -23 -36 -46 -100 -4 -3 44 51
000020 6d fb fe fe 04 e4 e8 03 e4 08 15 e1 07 e6 f8 1f
       109 -5 -2 -2 4 -28 -24 3 -28 8 21 -31 7 -26 -8 31
000030 ee 0e 04 f4 dc f1 0a fa 29 17 eb e1 be 17 fc f3
       -18 14 4 -12 -36 -15 10 -6 41 23 -21 -31 -66 23 -4 -13
000040 11 11 39 03 0c 0b 01 df bb fa 02 09 fa a0 04 f4
       17 17 57 3 12 11 1 -33 -69 -6 2 9 -6 -96 4 -12
000050 25 f4 ce d3 18 f5 0c 1a 00 02 10 de 15 16 f9 7f
       37 -12 -50 -45 24 -11 12 26 0 2 16 -34 21 22 -7 127
000060 45 9a 30 65 f5 b2 fa c4 f3 a8 f1 16 03 b3 e2 cc
       69 -102 48 101 -11 -78 -6 -60 -13 -88 -15 22 3 -77 -30 -52
000070 a2 f6 12 23 e2 87 db 2c 7f bb ad 1e de 60 ea 45
       -94 -10 18 35 -30 -121 -37 44 127 -69 -83 30 -34 96 -22 69
000080 0f 13 df 16 ef e9 3d da ff ae 5c e8 c6 06 41 fc
       15 19 -33 22 -17 -23 61 -38 -1 -82 92 -24 -58 6 65 -4
000090 21 12 0f c5 4a a3 2a ea 10 1c ea 98 2e bd 23 c3
       33 18 15 -59 74 -93 42 -22 16 28 -22 -104 46 -67 35 -61
0000a0 0a a6 27 3c 34 42 dc 0f 92 1d f0 49 25 5c 18 f3
       10 -90 39 60 52 66 -36 15 -110 29 -16 73 37 92 24 -13
0000b0 2d 0d bb 2d a8 50 03 45 d5 0a 21 0b 01 d2 32 f4
       45 13 -69 45 -88 80 3 69 -43 10 33 11 1 -46 50 -12
0000c0 22 10 12 e3 08 02 f8 2f 43 ea 16 47 07 0b 36 03
       34 16 18 -29 8 2 -8 47 67 -22 22 71 7 11 54 3
0000d0 f3 fe 11 f5 ea c3 07 be 02 f4 e4 15 fc 11 7f bb
       -13 -2 17 -11 -22 -61 7 -66 2 -12 -28 21 -4 17 127 -69
0000e0 10 b8 ea 37 0c 7a cc e5 04 ec ee 1d d6 ce c1 1c
       16 -72 -22 55 12 122 -52 -27 4 -20 -18 29 -42 -50 -63 28
0000f0 1b 19 d3 d7 1a fb 04 df ec 07 fa 1b fc 07 4b 61
       27 25 -45 -41 26 -5 4 -33 -20 7 -6 27 -4 7 75 97

model_1/block_5_expand/Conv2D i1 [96, 1, 1, 16]
000000 00 38 e7 47 18 24 0e f5 1d 1e c6 6e 10 81 3c 85
       0 56 -25 71 24 36 14 -11 29 30 -58 110 16 -127 60 -123
000010 1d 34 ed e1 12 ef 7f a1 fe 49 ef ec 09 c7 20 0a
       29 52 -19 -31 18 -17 127 -95 -2 73 -17 -20 9 -57 32 10
000020 81 1d dc f0 04 f6 2c 4c e9 3b 64 06 ce 11 2b db
       -127 29 -36 -16 4 -10 44 76 -23 59 100 6 -50 17 43 -37
000030 c2 32 22 3c d4 34 3e 70 12 3c 81 0d 29 b9 b6 c4
       -62 50 34 60 -44 52 62 112 18 60 -127 13 41 -71 -74 -60
000040 0c fa 26 3d ed 3a fa 2c 03 f2 fd fd 15 fb 81 e6
       12 -6 38 61 -19 58 -6 44 3 -14 -3 -3 21 -5 -127 -26
000050 f9 e1 3b e4 0e e5 f9 1a b6 6c dc 81 ec 16 c5 e6
       -7 -31 59 -28 14 -27 -7 26 -74 108 -36 -127 -20 22 -59 -26
000060 11 02 1b f8 26 3d b2 ba f9 f9 31 ff 7f e9 f1 dc
       17 2 27 -8 38 61 -78 -70 -7 -7 49 -1 127 -23 -15 -36
000070 19 04 7f de db e3 02 f9 9b 10 92 ca 10 f2 1d e6
       25 4 127 -34 -37 -29 2 -7 -101 16 -110 -54 16 -14 29 -26
000080 10 13 46 30 ba 6e 0d 41 16 f8 fc 98 d0 e9 81 a0
       16 19 70 48 -70 110 13 65 22 -8 -4 -104 -48 -23 -127 -96
000090 26 81 40 3a 03 db fd 14 75 01 48 08 ec 0c 8d e1
       38 -127 64 58 3 -37 -3 20 117 1 72 8 -20 12 -115 -31
0000a0 ea b3 12 f8 b2 1a f5 36 71 7f 22 ef e0 4d 42 ef
       -22 -77 18 -8 -78 26 -11 54 113 127 34 -17 -32 77 66 -17
0000b0 26 f4 fe af 09 dd a3 81 d1 30 fc df 19 e2 2b cc
       38 -12 -2 -81 9 -35 -93 -127 -47 48 -4 -33 25 -30 43 -52
0000c0 f6 06 0b ce da dd a0 f7 c3 a8 eb 11 21 7f 61 31
       -10 6 11 -50 -38 -35 -96 -9 -61 -88 -21 17 33 127 97 49
0000d0 e1 96 c0 16 0b ba 14 fd 5f 17 f0 f1 30 2e 7f 20
       -31 -106 -64 22 11 -70 20 -3 95 23 -16 -15 48 46 127 32
0000e0 03 bd 32 1c 10 28 05 7f 20 2c fc df 12 25 c2 75
       3 -67 50 28 16 40 5 127 32 44 -4 -33 18 37 -62 117
0000f0 10 e1 ff 40 12 00 5d 01 06 81 15 e4 fb ee 03 db
       16 -31 -1 64 18 0 93 1 6 -127 21 -28 -5 -18 3 -37

model_1/block_5_depthwise_BN/FusedBatchNormV3;model_1/block_5_depthwise/depthwise;model_1/block_6_expand/Conv2D i1 [1, 3, 3, 96]
000000 d1 b9 f7 7f 16 47 4f c7 f2 ee f1 fa e2 02 25 02
       -47 -71 -9 127 22 71 79 -57 -14 -18 -15 -6 -30 2 37 2
000010 f7 d4 1b 16 13 81 7f 06 ab 09 31 e3 82 81 26 19
       -9 -44 27 22 19 -127 127 6 -85 9 49 -29 -126 -127 38 25
000020 0c 18 3c ed e3 f7 1f fa f3 1c 95 46 19 bc 26 2e
       12 24 60 -19 -29 -9 31 -6 -13 28 -107 70 25 -68 38 46
000030 ee 35 e7 14 02 fa 0f 30 a7 cf c4 ee f6 00 09 26
       -18 53 -25 20 2 -6 15 48 -89 -49 -60 -18 -10 0 9 38
000040 44 e6 4a 0f fa 10 14 7f 17 18 1a 00 f5 13 7f fa
       68 -26 74 15 -6 16 20 127 23 24 26 0 -11 19 127 -6
000050 f1 0e e4 13 7f 15 b3 f0 01 e1 f1 d9 02 e7 f0 19
       -15 14 -28 19 127 21 -77 -16 1 -31 -15 -39 2 -25 -16 25
000060 7f 81 4b 6a d5 7f 2a 8d 45 04 ef 7f 7f 9f f3 11
       127 -127 75 106 -43 127 42 -115 69 4 -17 127 127 -97 -13 17
000070 0b 7f 7f 90 7f b3 51 45 81 8a bf de c9 2f c5 ec
       11 127 127 -112 127 -77 81 69 -127 -118 -65 -34 -55 47 -59 -20
000080 a6 33 81 ab d6 f1 cb 3d 00 7f 7f 4f cc 8f 8f cd
       -90 51 -127 -85 -42 -15 -53 61 0 127 127 79 -52 -113 -113 -51
000090 f1 81 2a 55 42 e0 2d 54 d2 2a b2 8f d3 d7 c2 42
       -15 -127 42 85 66 -32 45 84 -46 42 -78 -113 -45 -41 -62 66
0000a0 49 c3 1b 20 b2 1f ef 5b 75 7f 0c 14 01 3b df 34
       73 -61 27 32 -78 31 -17 91 117 127 12 20 1 59 -33 52
0000b0 3f 7f 7f e8 f7 4c 90 7f 8a 9d 05 81 a8 81 d9 68
       63 127 127 -24 -9 76 -112 127 -118 -99 5 -127 -88 -127 -39 104
0000c0 b4 f4 1e ad 0f e7 42 f9 51 dd e5 12 ee fd f7 f4
       -76 -12 30 -83 15 -25 66 -7 81 -35 -27 18 -18 -3 -9 -12
0000d0 f7 f0 07 fc ea 97 1d fe 85 63 08 c9 74 33 f1 09
       -9 -16 7 -4 -22 -105 29 -2 -123 99 8 -55 116 51 -15 9
0000e0 01 0c 0e e2 f8 22 14 0c 19 0c 89 3e 11 f0 26 0d
       1 12 14 -30 -8 34 20 12 25 12 -119 62 17 -16 38 13
0000f0 f1 0a ef 06 f4 01 fd 15 c0 06 df 35 03 2a 20 00
       -15 10 -17 6 -12 1 -3 21 -64 6 -33 53 3 42 32 0

model_1/block_5_project/Conv2D i1 [16, 1, 1, 96]
000000 ec f7 00 e4 13 f7 de fc 13 03 f7 04 f7 fa e8 05
       -20 -9 0 -28 19 -9 -34 -4 19 3 -9 4 -9 -6 -24 5
000010 01 07 ff fd 0c e2 01 09 08 09 07 7f 22 e1 2a f7
       1 7 -1 -3 12 -30 1 9 8 9 7 127 34 -31 42 -9
000020 fc 07 09 04 f8 0c de fd f9 09 02 22 03 0a 10 09
       -4 7 9 4 -8 12 -34 -3 -7 9 2 34 3 10 16 9
000030 1a 05 fc 0a 11 ef f6 4d 00 0a e1 db f9 15 fe e4
       26 5 -4 10 17 -17 -10 77 0 10 -31 -37 -7 21 -2 -28
000040 d7 c3 f1 28 09 0f 0f f3 f6 e1 ff eb ec 14 01 07
       -41 -61 -15 40 9 15 15 -13 -10 -31 -1 -21 -20 20 1 7
000050 f9 e8 19 18 00 f9 f5 a8 05 f4 08 fa 30 dd e1 f7
       -7 -24 25 24 0 -7 -11 -88 5 -12 8 -6 48 -35 -31 -9
000060 1e c5 ab cc 7f f7 47 18 f2 a1 ce f9 00 ff cd 25
       30 -59 -85 -52 127 -9 71 24 -14 -95 -50 -7 0 -1 -51 37
000070 c3 07 32 35 15 2c e8 d4 1a ee 01 bc 21 f9 cf 2a
       -61 7 50 53 21 44 -24 -44 26 -18 1 -68 33 -7 -49 42
000080 e8 23 0b 0e 11 f9 11 13 ee 29 d8 e9 d1 4a 0d 11
       -24 35 11 14 17 -7 17 19 -18 41 -40 -23 -47 74 13 17
000090 21 bf 10 e6 f1 2d 35 02 bd f2 d5 d7 16 eb fe d1
       33 -65 16 -26 -15 45 53 2 -67 -14 -43 -41 22 -21 -2 -47
0000a0 ab 6f ef f2 03 f8 e9 1b 2c 96 e6 06 26 d6 30 06
       -85 111 -17 -14 3 -8 -23 27 44 -106 -26 6 38 -42 48 6
0000b0 0b eb 25 01 ce 1b e9 20 2a dc 04 04 1d 00 2d 6e
       11 -21 37 1 -50 27 -23 32 42 -36 4 4 29 0 45 110
0000c0 01 3a ae fb 5e 52 21 56 02 95 02 f6 fa 08 22 1f
       1 58 -82 -5 94 82 33 86 2 -107 2 -10 -6 8 34 31
0000d0 12 e9 ce 3c 1a fd 47 16 3a 12 fb de 1d f9 36 c2
       18 -23 -50 60 26 -3 71 22 58 18 -5 -34 29 -7 54 -62
0000e0 1b 19 e5 29 81 af 1d 24 02 d5 16 eb 10 e2 08 48
       27 25 -27 41 -127 -81 29 36 2 -43 22 -21 16 -30 8 72
0000f0 de 18 ea f6 5b fb 03 3a 1f 11 20 00 20 21 27 e6
       -34 24 -22 -10 91 -5 3 58 31 17 32 0 32 33 39 -26

model_1/block_6_expand/Conv2D i1 [96, 1, 1, 16]
000000 e1 5b fa 81 db e2 e1 c3 f6 0e 09 4e 16 ce fa 30
       -31 91 -6 -127 -37 -30 -31 -61 -10 14 9 78 22 -50 -6 48
000010 dc 14 c7 fb e0 e1 20 ab 37 38 be 0d fd ff 2b 81
       -36 20 -57 -5 -32 -31 32 -85 55 56 -66 13 -3 -1 43 -127
000020 f2 11 cf 1b 21 1b ce c6 7f d8 0e 11 f2 54 c1 1b
       -14 17 -49 27 33 27 -50 -58 127 -40 14 17 -14 84 -63 27
000030 27 c6 06 8a 13 ee 00 fa 7f f6 5b 32 f8 2e 16 78
       39 -58 6 -118 19 -18 0 -6 127 -10 91 50 -8 46 22 120
000040 b9 2f 19 26 0e f0 03 27 05 0c 0f ea 81 f4 ee 0d
       -71 47 25 38 14 -16 3 39 5 12 15 -22 -127 -12 -18 13
000050 ff 3f 75 ff 1b 50 ba 4d cb 44 e8 e0 15 d8 81 12
       -1 63 117 -1 27 80 -70 77 -53 68 -24 -32 21 -40 -127 18
000060 1a cf 68 81 25 06 d3 62 bf 98 3f e6 0c 5c ec 4e
       26 -49 104 -127 37 6 -45 98 -65 -104 63 -26 12 92 -20 78
000070 2a 74 ed c9 64 0c 0b ce 7f 64 dd 14 13 e9 38 1f
       42 116 -19 -55 100 12 11 -50 127 100 -35 20 19 -23 56 31
000080 11 b4 10 b6 1b c9 0a bf 19 3c 42 f8 0d 7f 43 3d
       17 -76 16 -74 27 -55 10 -65 25 60 66 -8 13 127 67 61
000090 02 e5 f8 7f 2b fc 2a c4 ca 72 24 ef ff c2 f6 f3
       2 -27 -8 127 43 -4 42 -60 -54 114 36 -17 -1 -62 -10 -13
0000a0 fb 1a ce 81 02 fe ef 19 1b dd 0e e9 f9 d8 07 1a
       -5 26 -50 -127 2 -2 -17 25 27 -35 14 -23 -7 -40 7 26
0000b0 00 13 14 ef 53 e2 56 c4 af 24 03 20 fe 7f ba dd
       0 19 20 -17 83 -30 86 -60 -81 36 3 32 -2 127 -70 -35
0000c0 45 ed 8e f4 23 b7 14 19 0c 2e b9 db d2 7f f7 1f
       69 -19 -114 -12 35 -73 20 25 12 46 -71 -37 -46 127 -9 31
0000d0 f4 04 ea 0b 06 81 fe 13 01 f8 03 fd 0b f2 06 0d
       -12 4 -22 11 6 -127 -2 19 1 -8 3 -3 11 -14 6 13
0000e0 11 e7 5e d9 46 0e 81 a0 f3 cf 25 15 07 c0 f1 d8
       17 -25 94 -39 70 14 -127 -96 -13 -49 37 21 7 -64 -15 -40
0000f0 aa 1b e4 ce 03 05 7f 3e e0 2c 56 e8 07 55 36 0c
       -86 27 -28 -50 3 5 127 62 -32 44 86 -24 7 85 54 12

model_1/head/Conv2D i1 [32, 1, 1, 96]
000000 07 36 1c aa a9 fc fa 3e ec d4 85 a0 86 73 c3 3d
       7 54 28 -86 -87 -4 -6 62 -20 -44 -123 -96 -122 115 -61 61
000010 26 5b 0d f6 d7 96 d6 17 59 8b fe 6c 37 a0 46 f6
       38 91 13 -10 -41 -106 -42 23 89 -117 -2 108 55 -96 70 -10
000020 af 59 1d b9 e2 08 90 e6 94 cf 6a b1 3f e6 a4 68
       -81 89 29 -71 -30 8 -112 -26 -108 -49 106 -79 63 -26 -92 104
000030 93 5d 94 11 e5 51 fe 33 b6 9e e7 21 ea 59 1a 83
       -109 93 -108 17 -27 81 -2 51 -74 -98 -25 33 -22 89 26 -125
000040 3c 81 95 2a 2c a3 fc 76 c2 1b cd 70 c7 c3 dd e7
       60 -127 -107 42 44 -93 -4 118 -62 27 -51 112 -57 -61 -35 -25
000050 8b 2c 44 18 ce b3 c8 c2 1b 24 1a 32 9a a5 be 29
       -117 44 68 24 -50 -77 -56 -62 27 36 26 50 -102 -91 -66 41
000060 33 f2 37 16 0c a9 ee 61 0c 2e a0 2f 81 85 06 a2
       51 -14 55 22 12 -87 -18 97 12 46 -96 47 -127 -123 6 -94
000070 b6 cc fa d8 51 42 98 a4 19 e8 cc aa 48 27 d6 ae
       -74 -52 -6 -40 81 66 -104 -92 25 -24 -52 -86 72 39 -42 -82
000080 9b 98 91 a2 13 ab bd fc f3 59 e5 0d 14 f0 c7 13
       -101 -104 -111 -94 19 -85 -67 -4 -13 89 -27 13 20 -16 -57 19
000090 00 8a f2 c9 e4 84 b8 86 19 20 54 f9 2e 9f cd d3
       0 -118 -14 -55 -28 -124 -72 -122 25 32 84 -7 46 -97 -51 -45
0000a0 70 df eb 48 41 49 1f 60 ee 0e 2a 11 39 a6 65 df
       112 -33 -21 72 65 73 31 96 -18 14 42 17 57 -90 101 -33
0000b0 9d 5c a7 40 0e 01 81 10 b6 ae 2c dd c9 05 22 02
       -99 92 -89 64 14 1 -127 16 -74 -82 44 -35 -55 5 34 2
0000c0 fe b3 a1 84 d1 11 4d 05 1d c9 b7 c5 48 53 b2 81
       -2 -77 -95 -124 -47 17 77 5 29 -55 -73 -59 72 83 -78 -127
0000d0 96 24 d0 20 9c c6 1e 1a aa 48 cf cc e4 da a4 1e
       -106 36 -48 32 -100 -58 30 26 -86 72 -49 -52 -28 -38 -92 30
0000e0 39 b5 3e ff a8 14 ae 4b 3c d9 79 51 b8 ea 33 1b
       57 -75 62 -1 -88 20 -82 75 60 -39 121 81 -72 -22 51 27
0000f0 ed b9 15 60 a0 aa 01 aa d3 1c 68 78 6d 58 b8 6e
       -19 -71 21 96 -96 -86 1 -86 -45 28 104 120 109 88 -72 110

model_1/logits/Conv2D i1 [2, 1, 1, 32]
000000 ca fa cd cc 57 fb 7f 00 1c a7 9c b5 53 de 67 df
       -54 -6 -51 -52 87 -5 127 0 28 -89 -100 -75 83 -34 103 -33
000010 a0 00 45 0a 57 de 66 c1 db 65 08 98 ad aa 10 14
       -96 0 69 10 87 -34 102 -63 -37 101 8 -104 -83 -86 16 20
000020 62 7e 9e ac 15 71 04 c5 50 93 9e 40 a8 04 25 5d
       98 126 -98 -84 21 113 4 -59 80 -109 -98 64 -88 4 37 93
000030 9f 6c 74 53 b3 ff ec 37 6f f2 a9 9e 45 63 7f 86
       -97 108 116 83 -77 -1 -20 55 111 -14 -87 -98 69 99 127 -122
