src/lib/libtf/models/trained.tflite (tflite, 40968 bytes, 21 tensors)

model_1/Conv1/Conv2D i1 [8, 3, 3, 3]
00000000: 09fd 0d09 e81e 0ce8 1528 1d1b 4212 3b18
00000010: df27 eca4 f4e3 81ff f9c9 121e 4c19 0509
00000020: fee0 bbe6 347a 2702 00fd c981 d91d 2e0c
00000030: 04ff 00df cbfd 2b5c 0b35 7f0d 102b ffd1
00000040: ace4 afa2 dae1 faeb 000a 0704 1000 000b
00000050: f92d e1ef 4edc d81e eff3 4fc8 da7f c8b5
00000060: 3ae3 e212 eafb 29e3 ef0e f4fd f4e9 fc1b
00000070: 2d0a f0e3 fce4 c5f7 407f 13de c3f9 f7f3
00000080: 0315 19fd f4f3 fedb c1de c7ab ced4 e4ea
00000090: c095 d2a6 81c4 ccdb e5ff 06f7 fc00 fafc
000000a0: 0a02 9dfb 2402 14f3 4211 ed81 de2d 0e15
000000b0: e66d 11e1 cef4 1310 fa00 23f4 1ffb 10fe
000000c0: f016 f9f9 15f8 1154 fa17 7fe9 fe3c e5e4
000000d0: ceec d5cc dfec 04ed
9 -3 13 9 -24 30 12 -24
21 40 29 27 66 18 59 24
-33 39 -20 -92 -12 -29 -127 -1
-7 -55 18 30 76 25 5 9
-2 -32 -69 -26 52 122 39 2
0 -3 -55 -127 -39 29 46 12
4 -1 0 -33 -53 -3 43 92
11 53 127 13 16 43 -1 -47
-84 -28 -81 -94 -38 -31 -6 -21
0 10 7 4 16 0 0 11
-7 45 -31 -17 78 -36 -40 30
-17 -13 79 -56 -38 127 -56 -75
58 -29 -30 18 -22 -5 41 -29
-17 14 -12 -3 -12 -23 -4 27
45 10 -16 -29 -4 -28 -59 -9
64 127 19 -34 -61 -7 -9 -13
3 21 25 -3 -12 -13 -2 -37
-63 -34 -57 -85 -50 -44 -28 -22
-64 -107 -46 -90 -127 -60 -52 -37
-27 -1 6 -9 -4 0 -6 -4
10 2 -99 -5 36 2 20 -13
66 17 -19 -127 -34 45 14 21
-26 109 17 -31 -50 -12 19 16
-6 0 35 -12 31 -5 16 -2
-16 22 -7 -7 21 -8 17 84
-6 23 127 -23 -2 60 -27 -28
-50 -20 -43 -52 -33 -20 4 -19

model_1/expanded_conv_depthwise_BN/FusedBatchNormV3;model_1/expanded_conv_depthwise/depthwise;model_1/block_5_project/Conv2D i1 [1, 3, 3, 8]
00000000: eafc 03fe fe1b fc01 0dff 02f9 0c7f 0a7f
00000010: 0300 03f8 fe11 0106 0681 f704 f0fa 9700
00000020: 8165 b17f 81f9 7fd9 0bff f9c0 f902 31e8
00000030: 13fe 01fd 00ea 04fe 3cff 7feb 0f90 0109
00000040: 0901 f9f9 feec fbfe
-22 -4 3 -2 -2 27 -4 1
13 -1 2 -7 12 127 10 127
3 0 3 -8 -2 17 1 6
6 -127 -9 4 -16 -6 -105 0
-127 101 -79 127 -127 -7 127 -39
11 -1 -7 -64 -7 2 49 -24
19 -2 1 -3 0 -22 4 -2
60 -1 127 -21 15 -112 1 9
9 1 -7 -7 -2 -20 -5 -2

model_1/expanded_conv_project/Conv2D i1 [8, 1, 1, 8]
00000000: f5f3 ec0e f881 0a26 c016 817b 063b ed2a
00000010: 09f9 19fb f681 0a1a 1632 327f 11d7 d8f5
00000020: 1038 15f1 81fa 1af7 3ee4 7f97 10c5 fad2
00000030: 1d7f 31d9 26f2 bbee e9e2 d5f0 f381 152c
-11 -13 -20 14 -8 -127 10 38
-64 22 -127 123 6 59 -19 42
9 -7 25 -5 -10 -127 10 26
22 50 50 127 17 -41 -40 -11
16 56 21 -15 -127 -6 26 -9
62 -28 127 -105 16 -59 -6 -46
29 127 49 -39 38 -14 -69 -18
-23 -30 -43 -16 -13 -127 21 44

model_1/block_1_expand/Conv2D i1 [48, 1, 1, 8]
00000000: 1035 0aea 60e4 7f02 7f5c 4718 f4d5 ff79
00000010: bf0e fc7f 0cee e037 32dd 81fe ffd5 1679
00000020: 8851 81f4 0e1e dad5 7df0 fad2 ffe1 0981
00000030: 08f7 fe02 81e7 3706 fcc4 fd01 e701 81fe
00000040: f11b 20f8 7f0c c8ea 7fda 1b04 fde1 2b6e
00000050: 7f07 fadd ff0b 0281 d000 ff7f fed6 df23
00000060: 8104 b3eb 0f66 c787 7302 7f08 f816 192e
00000070: 81fa 0f10 00f2 067d 810c ff7b 01fa ea78
00000080: 44bd 7f57 f385 2443 0ecb ae7f fe15 f672
00000090: 11e0 872b ee00 227f 1a0e f77f f504 b4d5
000000a0: 1137 6b92 09b5 0a81 05fc fcfd 81f2 3b03
000000b0: 0336 00f6 037f f303 771a f760 ff00 d581
000000c0: 811a 9dcc 17d9 cec1 d4f8 c9d3 0681 09d8
000000d0: 9fed 8106 0904 efdd 6806 7f10 f830 1230
000000e0: 06c3 ea26 1b81 030e f7f5 1881 f0f9 12fd
000000f0: d407 7ffb 0106 fb87 0008 05fe 7f1a cd00
16 53 10 -22 96 -28 127 2
127 92 71 24 -12 -43 -1 121
-65 14 -4 127 12 -18 -32 55
50 -35 -127 -2 -1 -43 22 121
-120 81 -127 -12 14 30 -38 -43
125 -16 -6 -46 -1 -31 9 -127
8 -9 -2 2 -127 -25 55 6
-4 -60 -3 1 -25 1 -127 -2
-15 27 32 -8 127 12 -56 -22
127 -38 27 4 -3 -31 43 110
127 7 -6 -35 -1 11 2 -127
-48 0 -1 127 -2 -42 -33 35
-127 4 -77 -21 15 102 -57 -121
115 2 127 8 -8 22 25 46
-127 -6 15 16 0 -14 6 125
-127 12 -1 123 1 -6 -22 120
68 -67 127 87 -13 -123 36 67
14 -53 -82 127 -2 21 -10 114
17 -32 -121 43 -18 0 34 127
26 14 -9 127 -11 4 -76 -43
17 55 107 -110 9 -75 10 -127
5 -4 -4 -3 -127 -14 59 3
3 54 0 -10 3 127 -13 3
119 26 -9 96 -1 0 -43 -127
-127 26 -99 -52 23 -39 -50 -63
-44 -8 -55 -45 6 -127 9 -40
-97 -19 -127 6 9 4 -17 -35
104 6 127 16 -8 48 18 48
6 -61 -22 38 27 -127 3 14
-9 -11 24 -127 -16 -7 18 -3
-44 7 127 -5 1 6 -5 -121
0 8 5 -2 127 26 -51 0

model_1/block_1_depthwise_BN/FusedBatchNormV3;model_1/block_1_depthwise/depthwise;model_1/block_6_expand/Conv2D i1 [1, 3, 3, 48]
00000000: 6dde b8a5 1c9c 40d0 431c 5a34 a43f 358d
00000010: 4caa 07d9 81c9 266c f749 fc47 81d7 5aaf
00000020: d6c2 2f55 8130 704e d781 c626 bdda 09ad
00000030: 56cd 4b7f 5d22 7888 af68 3b4a 043d 3878
00000040: 4dac 9ac7 51a2 35fc 707f e358 0530 53cd
00000050: 3471 7f7f a42d 51e4 5817 da65 7f6d fef5
00000060: 15ed ffd8 2833 13ad f332 aa25 5bf8 c002
00000070: 1ee6 64ee 2002 aca2 1309 fb24 1e3f 2702
00000080: fed1 1c26 f20b 0cc4 ca66 0a45 c6af 004a
00000090: 7e48 810f b181 47c4 5ab9 7fa1 5b59 7f7f
000000a0: d36f f2ac 6bae 337f fff6 df16 c64c 4281
000000b0: 81b8 ea1d f968 7f7f d0af 8136 fee2 8181
000000c0: 7f7f 71e9 810a 7f81 8181 5881 257f 6585
000000d0: d97f 7f81 bc81 4cd7 4d04 814b 0a7f 7f9a
000000e0: 777f e106 ef7f 6bd7 7ff8 c57f f87f 7f2b
000000f0: 1535 ff09 e04a 19b1 f5a1 a7ba 8100 b904
109 -34 -72 -91 28 -100 64 -48
67 28 90 52 -92 63 53 -115
76 -86 7 -39 -127 -55 38 108
-9 73 -4 71 -127 -41 90 -81
-42 -62 47 85 -127 48 112 78
-41 -127 -58 38 -67 -38 9 -83
86 -51 75 127 93 34 120 -120
-81 104 59 74 4 61 56 120
77 -84 -102 -57 81 -94 53 -4
112 127 -29 88 5 48 83 -51
52 113 127 127 -92 45 81 -28
88 23 -38 101 127 109 -2 -11
21 -19 -1 -40 40 51 19 -83
-13 50 -86 37 91 -8 -64 2
30 -26 100 -18 32 2 -84 -94
19 9 -5 36 30 63 39 2
-2 -47 28 38 -14 11 12 -60
-54 102 10 69 -58 -81 0 74
126 72 -127 15 -79 -127 71 -60
90 -71 127 -95 91 89 127 127
-45 111 -14 -84 107 -82 51 127
-1 -10 -33 22 -58 76 66 -127
-127 -72 -22 29 -7 104 127 127
-48 -81 -127 54 -2 -30 -127 -127
127 127 113 -23 -127 10 127 -127
-127 -127 88 -127 37 127 101 -123
-39 127 127 -127 -68 -127 76 -41
77 4 -127 75 10 127 127 -102
119 127 -31 6 -17 127 107 -41
127 -8 -59 127 -8 127 127 43
21 53 -1 9 -32 74 25 -79
-11 -95 -89 -70 -127 0 -71 4

model_1/block_1_project/Conv2D i1 [8, 1, 1, 48]
00000000: e526 e500 d3e6 b214 0916 2727 2506 d30c
00000010: d52b 0bc3 1f28 8107 f60a e030 faf7 1716
00000020: 10e9 2412 ff6d bdf0 f515 e320 0607 15fd
00000030: b598 c105 58e3 813d ead6 f8b2 ec4d 04f5
00000040: 7182 f8f1 c103 01ed 19fc e2c8 15f2 8ae4
00000050: 1ac4 b09b 2d05 a4ff 0128 0d4d f307 022f
00000060: 05bb 0939 720f 61f7 dce5 f6d2 02e6 1423
00000070: e2a5 2cc2 06be c30f b83a 46a2 d9fa c8d1
00000080: 1203 bace f87f 4cdb f609 e7b5 2e24 31e5
00000090: 0601 18f0 201d 14a7 1811 f30a 048b f105
000000a0: e208 eef8 f935 8106 169f 1f1b 2ded de39
000000b0: 000b fddf 9dd6 0af1 f7fc 2bff ef01 04c8
000000c0: 25c8 0947 3409 e4fc ddf2 15dd 4a23 ea1d
000000d0: d2be 4023 22cd 7f16 e40e caf0 f70f b0d4
000000e0: 51e8 d5bf d4d2 ec01 c060 fff5 3951 2a1a
000000f0: c0e9 db32 fa09 ffcb c5df fde8 0e26 ba0c
-27 38 -27 0 -45 -26 -78 20
9 22 39 39 37 6 -45 12
-43 43 11 -61 31 40 -127 7
-10 10 -32 48 -6 -9 23 22
16 -23 36 18 -1 109 -67 -16
-11 21 -29 32 6 7 21 -3
-75 -104 -63 5 88 -29 -127 61
-22 -42 -8 -78 -20 77 4 -11
113 -126 -8 -15 -63 3 1 -19
25 -4 -30 -56 21 -14 -118 -28
26 -60 -80 -101 45 5 -92 -1
1 40 13 77 -13 7 2 47
5 -69 9 57 114 15 97 -9
-36 -27 -10 -46 2 -26 20 35
-30 -91 44 -62 6 -66 -61 15
-72 58 70 -94 -39 -6 -56 -47
18 3 -70 -50 -8 127 76 -37
-10 9 -25 -75 46 36 49 -27
6 1 24 -16 32 29 20 -89
24 17 -13 10 4 -117 -15 5
-30 8 -18 -8 -7 53 -127 6
22 -97 31 27 45 -19 -34 57
0 11 -3 -33 -99 -42 10 -15
-9 -4 43 -1 -17 1 4 -56
37 -56 9 71 52 9 -28 -4
-35 -14 21 -35 74 35 -22 29
-46 -66 64 35 34 -51 127 22
-28 14 -54 -16 -9 15 -80 -44
81 -24 -43 -65 -44 -46 -20 1
-64 96 -1 -11 57 81 42 26
-64 -23 -37 50 -6 9 -1 -53
-59 -33 -3 -24 14 38 -70 12

model_1/block_2_expand/Conv2D i1 [48, 1, 1, 8]
00000000: 86ec 1791 8179 05be 4b02 10e7 033a 812a
00000010: d339 8d5d bf7f 1134 63e4 e349 00bb 0d7f
00000020: aefb fd0e ecde 7f05 3b6b 1130 81d8 0cdc
00000030: 00bf 277f 0da0 f124 7ff8 69fe b724 4a7e
00000040: d481 3536 56dc de06 b59a 10e5 e302 d17f
00000050: db81 1d70 397d 08e9 8c81 17ba 4640 dc7b
00000060: 5ae9 56b1 1781 5bfa 290e 167f f412 29bd
00000070: d2fa 2a05 7fef fd7e 9f7f 3854 4470 cd61
00000080: 01e2 c081 c63e 1438 1c7f 0c37 e2cf fb12
00000090: 1a29 ee81 cbad 20e6 23bd 8197 b665 12f9
000000a0: 1704 13fd 7f18 1dde 81b7 c4b0 2b2b 31f5
000000b0: c2d0 4c7b 2fd1 d07f 1229 d07f 7319 1e63
000000c0: 7f03 83ee faec 28cf 05f9 d2ed 45e7 81c5
000000d0: 7f0a 64e1 a42c 3c76 16d0 e17f 1efd e896
000000e0: c37f 5345 40ea e501 fefe 3501 b601 7f46
000000f0: beb5 37bb af7f 3b31 7218 62eb 9a48 567f
-122 -20 23 -111 -127 121 5 -66
75 2 16 -25 3 58 -127 42
-45 57 -115 93 -65 127 17 52
99 -28 -29 73 0 -69 13 127
-82 -5 -3 14 -20 -34 127 5
59 107 17 48 -127 -40 12 -36
0 -65 39 127 13 -96 -15 36
127 -8 105 -2 -73 36 74 126
-44 -127 53 54 86 -36 -34 6
-75 -102 16 -27 -29 2 -47 127
-37 -127 29 112 57 125 8 -23
-116 -127 23 -70 70 64 -36 123
90 -23 86 -79 23 -127 91 -6
41 14 22 127 -12 18 41 -67
-46 -6 42 5 127 -17 -3 126
-97 127 56 84 68 112 -51 97
1 -30 -64 -127 -58 62 20 56
28 127 12 55 -30 -49 -5 18
26 41 -18 -127 -53 -83 32 -26
35 -67 -127 -105 -74 101 18 -7
23 4 19 -3 127 24 29 -34
-127 -73 -60 -80 43 43 49 -11
-62 -48 76 123 47 -47 -48 127
18 41 -48 127 115 25 30 99
127 3 -125 -18 -6 -20 40 -49
5 -7 -46 -19 69 -25 -127 -59
127 10 100 -31 -92 44 60 118
22 -48 -31 127 30 -3 -24 -106
-61 127 83 69 64 -22 -27 1
-2 -2 53 1 -74 1 127 70
-66 -75 55 -69 -81 127 59 49
114 24 98 -21 -102 72 86 127

model_1/block_2_depthwise_BN/FusedBatchNormV3;model_1/block_2_depthwise/depthwise;model_1/block_6_expand/Conv2D i1 [1, 3, 3, 48]
00000000: c036 d3cb f8eb 10ef fcf3 042b 00a5 a119
00000010: 7ffb 362c 99c1 6499 f5cc f75b f50e 1c7f
00000020: f1f4 f4fd f6d1 f617 70a7 d531 5696 e1fd
00000030: f481 2381 fce9 bb7f 4bb2 142e 1381 a710
00000040: e50b e2b3 a400 3e7f 0af7 097f 1cfc 0491
00000050: a117 f9e1 7f81 37fb ff8e cc1e 6d48 2adf
00000060: e5ff 12eb fb20 1641 fe0f 001d 1c20 b71f
00000070: 4d0c dc14 812f 3b1c f542 01ca edff 04d4
00000080: d103 0001 e069 f20f 57c7 15e3 412a d7f7
00000090: e3eb 85ef e214 fa01 1cc4 fa92 e7c6 817f
000000a0: 6503 7f58 f27f 7f6d 09c5 d6f7 2edb 228e
000000b0: 08e5 cdf6 fc9f 2a19 557f e6f8 c37f 38de
000000c0: 8138 7f6f 7f8a 81f5 f281 8181 7fdf f32c
000000d0: 0a81 9f81 73f4 ada1 7fdc 7fb9 7f7f dc48
000000e0: 8181 7f81 5cac 8181 1b69 9b12 81bb 7f7f
000000f0: e903 0b17 277f f035 4b0b 30c9 f4e9 b9f1
-64 54 -45 -53 -8 -21 16 -17
-4 -13 4 43 0 -91 -95 25
127 -5 54 44 -103 -63 100 -103
-11 -52 -9 91 -11 14 28 127
-15 -12 -12 -3 -10 -47 -10 23
112 -89 -43 49 86 -106 -31 -3
-12 -127 35 -127 -4 -23 -69 127
75 -78 20 46 19 -127 -89 16
-27 11 -30 -77 -92 0 62 127
10 -9 9 127 28 -4 4 -111
-95 23 -7 -31 127 -127 55 -5
-1 -114 -52 30 109 72 42 -33
-27 -1 18 -21 -5 32 22 65
-2 15 0 29 28 32 -73 31
77 12 -36 20 -127 47 59 28
-11 66 1 -54 -19 -1 4 -44
-47 3 0 1 -32 105 -14 15
87 -57 21 -29 65 42 -41 -9
-29 -21 -123 -17 -30 20 -6 1
28 -60 -6 -110 -25 -58 -127 127
101 3 127 88 -14 127 127 109
9 -59 -42 -9 46 -37 34 -114
8 -27 -51 -10 -4 -97 42 25
85 127 -26 -8 -61 127 56 -34
-127 56 127 111 127 -118 -127 -11
-14 -127 -127 -127 127 -33 -13 44
10 -127 -97 -127 115 -12 -83 -95
127 -36 127 -71 127 127 -36 72
-127 -127 127 -127 92 -84 -127 -127
27 105 -101 18 -127 -69 127 127
-23 3 11 23 39 127 -16 53
75 11 48 -55 -12 -23 -71 -15

model_1/block_2_project/Conv2D i1 [8, 1, 1, 48]
00000000: e5fa f8e0 bbf3 fceb 4003 07f8 0712 e907
00000010: e20b f1ed 000a ec03 15f9 530c f1ab f20e
00000020: f925 7ff9 e7d7 18da 1b07 fbea f0fd eca9
00000030: 15e2 f244 03f5 122b 494e 29c9 c84d fe06
00000040: f7e0 11e5 c425 d61d 5910 e61f 1cff 7f19
00000050: eedc df03 f308 e5f2 06eb 0615 f823 1a1b
00000060: bbfc b46e bbba 1ebb ab29 389f eafa d701
00000070: 7f1e b9d1 bae9 d212 57dd 79fd 50ed bf12
00000080: 00e7 2fff cc1e fc99 38b8 c482 f1b4 bc63
00000090: 1dcd 0adc 22e5 f8ba 2dc4 01e4 a8b0 ee09
000000a0: 09f5 25d8 f91c af01 49db 360d 08ff fde2
000000b0: de1f 1adf cb18 fff6 7f11 d027 ca31 f4cf
000000c0: 1603 0d0b 061f f5f4 2c17 08d5 0004 c010
000000d0: ff14 14ed e61b 0327 2003 e206 2cf4 f019
000000e0: fff8 1e12 81ff 3509 0df8 fe13 e032 e6a0
000000f0: d89c 2573 e0fe cd62 9857 3525 af1a 4bd6
-27 -6 -8 -32 -69 -13 -4 -21
64 3 7 -8 7 18 -23 7
-30 11 -15 -19 0 10 -20 3
21 -7 83 12 -15 -85 -14 14
-7 37 127 -7 -25 -41 24 -38
27 7 -5 -22 -16 -3 -20 -87
21 -30 -14 68 3 -11 18 43
73 78 41 -55 -56 77 -2 6
-9 -32 17 -27 -60 37 -42 29
89 16 -26 31 28 -1 127 25
-18 -36 -33 3 -13 8 -27 -14
6 -21 6 21 -8 35 26 27
-69 -4 -76 110 -69 -70 30 -69
-85 41 56 -97 -22 -6 -41 1
127 30 -71 -47 -70 -23 -46 18
87 -35 121 -3 80 -19 -65 18
0 -25 47 -1 -52 30 -4 -103
56 -72 -60 -126 -15 -76 -68 99
29 -51 10 -36 34 -27 -8 -70
45 -60 1 -28 -88 -80 -18 9
9 -11 37 -40 -7 28 -81 1
73 -37 54 13 8 -1 -3 -30
-34 31 26 -33 -53 24 -1 -10
127 17 -48 39 -54 49 -12 -49
22 3 13 11 6 31 -11 -12
44 23 8 -43 0 4 -64 16
-1 20 20 -19 -26 27 3 39
32 3 -30 6 44 -12 -16 25
-1 -8 30 18 -127 -1 53 9
13 -8 -2 19 -32 50 -26 -96
-40 -100 37 115 -32 -2 -51 98
-104 87 53 37 -81 26 75 -42

model_1/block_3_expand/Conv2D i1 [48, 1, 1, 8]
00000000: e141 cc2e 1d7f 1d1d 3c81 a0e8 e043 47d5
00000010: cf2d dd95 d781 dfb9 ef7f 401b 03b2 e41c
00000020: 8f30 815b 07e7 cdb1 6899 8122 0cf1 4ccf
00000030: eeaa c010 81cd ca59 ead7 f4d5 2d06 e57f
00000040: 1616 a7a6 2cdd 81a0 8135 f964 f83f 61fc
00000050: e2f6 5581 e938 1127 6bef 6426 d830 507f
00000060: 3e24 1ccf 3d6a 6181 2538 e041 f981 dc34
00000070: 1181 e5e6 0f4b 25dc 9afb 00b8 397f b5e0
00000080: 06e0 710f e81d 7f4f 4314 351d f0b2 df81
00000090: 8414 b4f1 f481 1da5 4b18 77f5 c22d 6d7f
000000a0: 177f 35f8 162a 280c d426 1b92 c57f fef3
000000b0: 1e00 55f6 c418 7f68 b07f 3f2f 94a6 817e
000000c0: f6f6 621b 8f7f fc9b d811 4417 812d bb0f
000000d0: da81 1cdc 0f2b faee e544 1e2d e47f e0f2
000000e0: 1383 3c1c 3e7f 2a21 127f ef1b c3c7 ec16
000000f0: d244 6257 81c0 d592 0f43 1b37 d0f5 0f81
-31 65 -52 46 29 127 29 29
60 -127 -96 -24 -32 67 71 -43
-49 45 -35 -107 -41 -127 -33 -71
-17 127 64 27 3 -78 -28 28
-113 48 -127 91 7 -25 -51 -79
104 -103 -127 34 12 -15 76 -49
-18 -86 -64 16 -127 -51 -54 89
-22 -41 -12 -43 45 6 -27 127
22 22 -89 -90 44 -35 -127 -96
-127 53 -7 100 -8 63 97 -4
-30 -10 85 -127 -23 56 17 39
107 -17 100 38 -40 48 80 127
62 36 28 -49 61 106 97 -127
37 56 -32 65 -7 -127 -36 52
17 -127 -27 -26 15 75 37 -36
-102 -5 0 -72 57 127 -75 -32
6 -32 113 15 -24 29 127 79
67 20 53 29 -16 -78 -33 -127
-124 20 -76 -15 -12 -127 29 -91
75 24 119 -11 -62 45 109 127
23 127 53 -8 22 42 40 12
-44 38 27 -110 -59 127 -2 -13
30 0 85 -10 -60 24 127 104
-80 127 63 47 -108 -90 -127 126
-10 -10 98 27 -113 127 -4 -101
-40 17 68 23 -127 45 -69 15
-38 -127 28 -36 15 43 -6 -18
-27 68 30 45 -28 127 -32 -14
19 -125 60 28 62 127 42 33
18 127 -17 27 -61 -57 -20 22
-46 68 98 87 -127 -64 -43 -110
15 67 27 55 -48 -11 15 -127

model_1/block_3_depthwise_BN/FusedBatchNormV3;model_1/block_3_depthwise/depthwise;model_1/block_6_expand/Conv2D i1 [1, 3, 3, 48]
00000000: d5b0 ccaa d515 c8c3 ce3a 26a1 e510 a144
00000010: 52b4 c770 2e3d c764 a3c2 4651 3dbd 5139
00000020: 44d3 bde0 81c4 7f2f f2e8 2255 5f56 cdd2
00000030: be91 b081 8110 ab98 c25b 4c96 bd47 8464
00000040: 6498 95f5 524b 577f a8a8 6468 5ea9 6053
00000050: 4bad a7c4 91b0 7f4c adc1 3966 547f aaa4
00000060: ebcb d5b2 ab13 c1d4 d432 33cf ef46 b323
00000070: 36df e1cb 3c81 c62b e4d9 3b1d 2cda 342b
00000080: 37db d0e5 badf 191f d7e2 2a37 272f e0e9
00000090: b69f b7a9 b7ee a8ba a85c 4497 c533 8150
000000a0: 6ba0 b67f 5552 bb68 8baf 596d 58a6 5e4a
000000b0: 5ea3 9bbd 82ad 6c5b b8bd 3f55 766a afb3
000000c0: 8181 8185 8c86 8181 817f 7f81 817f a77f
000000d0: 7f81 81c6 7f4f 7f7a 8181 7f7f 7f81 7f7f
000000e0: 7f81 8181 8381 7a7f 8181 7f7f 7f75 8181
000000f0: d3d0 b1b0 9a95 9cba b64e 48b2 d365 bb30
-43 -80 -52 -86 -43 21 -56 -61
-50 58 38 -95 -27 16 -95 68
82 -76 -57 112 46 61 -57 100
-93 -62 70 81 61 -67 81 57
68 -45 -67 -32 -127 -60 127 47
-14 -24 34 85 95 86 -51 -46
-66 -111 -80 -127 -127 16 -85 -104
-62 91 76 -106 -67 71 -124 100
100 -104 -107 -11 82 75 87 127
-88 -88 100 104 94 -87 96 83
75 -83 -89 -60 -111 -80 127 76
-83 -63 57 102 84 127 -86 -92
-21 -53 -43 -78 -85 19 -63 -44
-44 50 51 -49 -17 70 -77 35
54 -33 -31 -53 60 -127 -58 43
-28 -39 59 29 44 -38 52 43
55 -37 -48 -27 -70 -33 25 31
-41 -30 42 55 39 47 -32 -23
-74 -97 -73 -87 -73 -18 -88 -70
-88 92 68 -105 -59 51 -127 80
107 -96 -74 127 85 82 -69 104
-117 -81 89 109 88 -90 94 74
94 -93 -101 -67 -126 -83 108 91
-72 -67 63 85 118 106 -81 -77
-127 -127 -127 -123 -116 -122 -127 -127
-127 127 127 -127 -127 127 -89 127
127 -127 -127 -58 127 79 127 122
-127 -127 127 127 127 -127 127 127
127 -127 -127 -127 -125 -127 122 127
-127 -127 127 127 127 117 -127 -127
-45 -48 -79 -80 -102 -107 -100 -70
-74 78 72 -78 -45 101 -69 48

model_1/block_3_project/Conv2D i1 [8, 1, 1, 48]
00000000: e911 0121 eb08 ff21 d2fb d7fc ec0d 2300
00000010: d0e8 1dee e37f ebe8 e7db 041e de26 09ea
00000020: f916 1e29 1007 20e7 05e0 eaf1 ea14 1810
00000030: 0935 042d 1d23 2a6b d0d1 4de2 dee5 1be9
00000040: eb00 2402 1c81 f9bd 0c0e f20d fa07 dec5
00000050: d902 12f4 1439 40ef 1513 28e3 df28 032d
00000060: fd19 021c 1911 e222 140c 3f14 08f5 20ce
00000070: 141b f709 f17f 08f6 15d7 fc01 e91d edc8
00000080: f20a 11dc 20f2 d9e8 17f1 f9d0 e121 0c10
00000090: da39 f9ff f028 4400 0305 0b11 f423 3017
000000a0: f303 0903 2eb2 f81a eeff 8120 d8e3 f605
000000b0: d5f1 1119 24f1 d7e1 01ee 0d18 16fb 2c10
000000c0: 1601 d308 14f6 13f6 cd09 fd15 04f3 ec0e
000000d0: e41f f1f9 0081 f8fb 221e 21d2 2efc 010a
000000e0: f32f 1ef8 e712 fa03 f8c5 a915 1e22 fff7
000000f0: f830 4b09 fe19 1499 40e0 f5fe 5bbc fe17
-23 17 1 33 -21 8 -1 33
-46 -5 -41 -4 -20 13 35 0
-48 -24 29 -18 -29 127 -21 -24
-25 -37 4 30 -34 38 9 -22
-7 22 30 41 16 7 32 -25
5 -32 -22 -15 -22 20 24 16
9 53 4 45 29 35 42 107
-48 -47 77 -30 -34 -27 27 -23
-21 0 36 2 28 -127 -7 -67
12 14 -14 13 -6 7 -34 -59
-39 2 18 -12 20 57 64 -17
21 19 40 -29 -33 40 3 45
-3 25 2 28 25 17 -30 34
20 12 63 20 8 -11 32 -50
20 27 -9 9 -15 127 8 -10
21 -41 -4 1 -23 29 -19 -56
-14 10 17 -36 32 -14 -39 -24
23 -15 -7 -48 -31 33 12 16
-38 57 -7 -1 -16 40 68 0
3 5 11 17 -12 35 48 23
-13 3 9 3 46 -78 -8 26
-18 -1 -127 32 -40 -29 -10 5
-43 -15 17 25 36 -15 -41 -31
1 -18 13 24 22 -5 44 16
22 1 -45 8 20 -10 19 -10
-51 9 -3 21 4 -13 -20 14
-28 31 -15 -7 0 -127 -8 -5
34 30 33 -46 46 -4 1 10
-13 47 30 -8 -25 18 -6 3
-8 -59 -87 21 30 34 -1 -9
-8 48 75 9 -2 25 20 -103
64 -32 -11 -2 91 -68 -2 23

model_1/block_4_expand/Conv2D i1 [48, 1, 1, 8]
00000000: 3aab 2104 3381 fdb9 d2cb bb3a 8135 e110
00000010: 3cc9 3def 7feb f943 ef7f ef6e 0b0a c9cb
00000020: e17f 4fe1 2814 c213 a419 0212 7fee 55f4
00000030: 73bb 7f12 287f 63ed e6d5 3235 4c12 d37f
00000040: 11fe d997 f67f b30f 8118 9ef7 6bd8 c60f
00000050: f1a6 341f d5a8 81a6 265b efff e2b1 207f
00000060: 2bce a12c b17f 3657 d0e0 811c a657 162a
00000070: bb7f ad58 5c27 ee49 adf7 f1fa 554c bc81
00000080: 4381 a4e6 cf70 c2e7 127f 99cd b322 3b8e
00000090: b298 2a0f 7fc2 d941 bd65 e02c 0a9d 8139
000000a0: 5ae7 2bc5 f5c0 1f7f 45d2 7f68 de73 66ed
000000b0: e766 01fd 7fbd 97c4 2bc2 207f fbc6 49d9
000000c0: df37 7fb7 e8e4 0edf c78a 6240 20ff dc7f
000000d0: 44e3 81a9 972b 226e 2d7f 92c6 d416 2681
000000e0: e82c ceaa efd9 81d7 9a2a 81d8 632e d502
000000f0: 4dc6 10ee 816d 7740 c159 d655 7fb5 f302
58 -85 33 4 51 -127 -3 -71
-46 -53 -69 58 -127 53 -31 16
60 -55 61 -17 127 -21 -7 67
-17 127 -17 110 11 10 -55 -53
-31 127 79 -31 40 20 -62 19
-92 25 2 18 127 -18 85 -12
115 -69 127 18 40 127 99 -19
-26 -43 50 53 76 18 -45 127
17 -2 -39 -105 -10 127 -77 15
-127 24 -98 -9 107 -40 -58 15
-15 -90 52 31 -43 -88 -127 -90
38 91 -17 -1 -30 -79 32 127
43 -50 -95 44 -79 127 54 87
-48 -32 -127 28 -90 87 22 42
-69 127 -83 88 92 39 -18 73
-83 -9 -15 -6 85 76 -68 -127
67 -127 -92 -26 -49 112 -62 -25
18 127 -103 -51 -77 34 59 -114
-78 -104 42 15 127 -62 -39 65
-67 101 -32 44 10 -99 -127 57
90 -25 43 -59 -11 -64 31 127
69 -46 127 104 -34 115 102 -19
-25 102 1 -3 127 -67 -105 -60
43 -62 32 127 -5 -58 73 -39
-33 55 127 -73 -24 -28 14 -33
-57 -118 98 64 32 -1 -36 127
68 -29 -127 -87 -105 43 34 110
45 127 -110 -58 -44 22 38 -127
-24 44 -50 -86 -17 -39 -127 -41
-102 42 -127 -40 99 46 -43 2
77 -58 16 -18 -127 109 119 64
-63 89 -42 85 127 -75 -13 2

model_1/block_4_depthwise_BN/FusedBatchNormV3;model_1/block_4_depthwise/depthwise;model_1/block_6_expand/Conv2D i1 [1, 3, 3, 48]
00000000: 89e4 3afc 810c 9600 fd7f 380a cd33 1a1d
00000010: 1118 1b0b 92f8 0832 dcff f6c1 1789 6028
00000020: f318 31de 1481 e57f bb26 f5fb f402 08f1
00000030: 0781 fd22 c916 9cf8 222a 7f46 b6ae 9bcc
00000040: f6d3 7c7f 1d3b ba11 b2f5 0081 08b9 e881
00000050: f410 ce81 f001 0a5a 7ff4 f17f 0981 08de
00000060: 8104 3509 9418 c2fb fc66 00f2 c338 1031
00000070: cffa 16f3 96ea 2512 08e6 0ad5 d781 37f8
00000080: 000b cee4 11ac 1358 c21c f40a 010a 0d2b
00000090: 37ea 27fc a001 3df2 c739 1e25 b7dc c96a
000000a0: d505 3776 fe39 a0f5 db96 e9c1 7f18 2c7f
000000b0: 81fd 6b07 fc26 9495 2fea 090b 8127 04ce
000000c0: 75cb 8181 3d7f 047f 81a9 e47f a481 8181
000000d0: ea81 b943 7f7f ac53 814b 895e c3cc 819b
000000e0: 087f 8171 81d6 7fd9 be7f 81b9 6c4b 81b8
000000f0: 3ff4 64fe b8e4 11e6 da17 08ea d6b6 bb60
-119 -28 58 -4 -127 12 -106 0
-3 127 56 10 -51 51 26 29
17 24 27 11 -110 -8 8 50
-36 -1 -10 -63 23 -119 96 40
-13 24 49 -34 20 -127 -27 127
-69 38 -11 -5 -12 2 8 -15
7 -127 -3 34 -55 22 -100 -8
34 42 127 70 -74 -82 -101 -52
-10 -45 124 127 29 59 -70 17
-78 -11 0 -127 8 -71 -24 -127
-12 16 -50 -127 -16 1 10 90
127 -12 -15 127 9 -127 8 -34
-127 4 53 9 -108 24 -62 -5
-4 102 0 -14 -61 56 16 49
-49 -6 22 -13 -106 -22 37 18
8 -26 10 -43 -41 -127 55 -8
0 11 -50 -28 17 -84 19 88
-62 28 -12 10 1 10 13 43
55 -22 39 -4 -96 1 61 -14
-57 57 30 37 -73 -36 -55 106
-43 5 55 118 -2 57 -96 -11
-37 -106 -23 -63 127 24 44 127
-127 -3 107 7 -4 38 -108 -107
47 -22 9 11 -127 39 4 -50
117 -53 -127 -127 61 127 4 127
-127 -87 -28 127 -92 -127 -127 -127
-22 -127 -71 67 127 127 -84 83
-127 75 -119 94 -61 -52 -127 -101
8 127 -127 113 -127 -42 127 -39
-66 127 -127 -71 108 75 -127 -72
63 -12 100 -2 -72 -28 17 -26
-38 23 8 -22 -42 -74 -69 96

model_1/block_4_project/Conv2D i1 [8, 1, 1, 48]
00000000: 7ff3 fafa e9a8 ddf0 39d9 c0e8 e14a cb03
00000010: 0af8 0607 1bd6 0804 290b 0123 0641 dc9b
00000020: 0fc2 09dd 20d0 f31d bee3 e5d1 b0a5 03e3
00000030: abf8 57bf 3324 2715 ed19 fd5d 1ae0 81d2
00000040: 9dae 25f3 0a53 cb00 1197 225c 26de 2324
00000050: 2a2e fe1f bdde 1a10 07e8 9e1d e9c4 9c1e
00000060: 5e27 e7bd cbfb d2a7 291f accb f337 c02d
00000070: f352 0b11 3e32 0005 810e 1fc1 0620 22a7
00000080: 10dc 1619 caca 1521 868e e8d0 d2a0 2309
00000090: 1a03 1218 9dee fc33 ddbb f04f 0dee afcd
000000a0: e916 02c2 d57f 13c7 1b28 32cb 0d14 0e18
000000b0: 2914 11ff 2a41 13fb 23e5 16c9 f413 1f29
000000c0: ce13 8c0f f765 1125 e57d 1f43 0eb2 ee1d
000000d0: f0fb f11a ec24 b713 0900 35f9 26c1 7f59
000000e0: 3333 08c5 a711 f9ea 2e10 201f 2f22 183e
000000f0: e701 22f6 39b9 dfe0 e3c2 08e3 2804 f1ff
127 -13 -6 -6 -23 -88 -35 -16
57 -39 -64 -24 -31 74 -53 3
10 -8 6 7 27 -42 8 4
41 11 1 35 6 65 -36 -101
15 -62 9 -35 32 -48 -13 29
-66 -29 -27 -47 -80 -91 3 -29
-85 -8 87 -65 51 36 39 21
-19 25 -3 93 26 -32 -127 -46
-99 -82 37 -13 10 83 -53 0
17 -105 34 92 38 -34 35 36
42 46 -2 31 -67 -34 26 16
7 -24 -98 29 -23 -60 -100 30
94 39 -25 -67 -53 -5 -46 -89
41 31 -84 -53 -13 55 -64 45
-13 82 11 17 62 50 0 5
-127 14 31 -63 6 32 34 -89
16 -36 22 25 -54 -54 21 33
-122 -114 -24 -48 -46 -96 35 9
26 3 18 24 -99 -18 -4 51
-35 -69 -16 79 13 -18 -81 -51
-23 22 2 -62 -43 127 19 -57
27 40 50 -53 13 20 14 24
41 20 17 -1 42 65 19 -5
35 -27 22 -55 -12 19 31 41
-50 19 -116 15 -9 101 17 37
-27 125 31 67 14 -78 -18 29
-16 -5 -15 26 -20 36 -73 19
9 0 53 -7 38 -63 127 89
51 51 8 -59 -89 17 -7 -22
46 16 32 31 47 34 24 62
-25 1 34 -10 57 -71 -33 -32
-29 -62 8 -29 40 4 -15 -1

model_1/block_5_expand/Conv2D i1 [48, 1, 1, 8]
00000000: f2d1 db5e 08b9 af81 7fe8 20df 1cb2 0622
00000010: f534 0181 1454 c63f ec7f cfa5 96fa 1cad
00000020: 04c0 9bd4 1cae c281 d6ae 5239 0e7f 248d
00000030: 000e d023 070b 81d6 17f1 0518 d530 7f41
00000040: fc35 ace8 d481 bb3f 4101 d0f2 027f d96f
00000050: ed38 487f 597b f5c8 eacf fb22 8136 f2f3
00000060: ee2b 4fba 47a0 81bb 2a1d b081 f0c9 bd68
00000070: dc81 0fbc 00b4 168b 0a43 485a 537f fcdf
00000080: 2a0b e781 315e ba4c 9f59 8122 1364 a62b
00000090: 8137 19ec aa10 e803 7fff d7e3 55b7 4aa9
000000a0: 7fd0 21d0 ce10 580d 17dc e32c f521 7f1d
000000b0: 6e29 818b 1676 487f e529 d4ae 2908 8107
000000c0: 7fbf a3f7 67c1 031a e0b5 42d1 3e7f eba0
000000d0: 0fba 3029 7fca c2ad ed81 4254 0afc d75f
000000e0: f539 9fc9 6192 dd7f b51a 7fb4 13e1 271d
000000f0: 6fb1 63ee b481 40de 151d 31f4 e7f7 810a
-14 -47 -37 94 8 -71 -81 -127
127 -24 32 -33 28 -78 6 34
-11 52 1 -127 20 84 -58 63
-20 127 -49 -91 -106 -6 28 -83
4 -64 -101 -44 28 -82 -62 -127
-42 -82 82 57 14 127 36 -115
0 14 -48 35 7 11 -127 -42
23 -15 5 24 -43 48 127 65
-4 53 -84 -24 -44 -127 -69 63
65 1 -48 -14 2 127 -39 111
-19 56 72 127 89 123 -11 -56
-22 -49 -5 34 -127 54 -14 -13
-18 43 79 -70 71 -96 -127 -69
42 29 -80 -127 -16 -55 -67 104
-36 -127 15 -68 0 -76 22 -117
10 67 72 90 83 127 -4 -33
42 11 -25 -127 49 94 -70 76
-97 89 -127 34 19 100 -90 43
-127 55 25 -20 -86 16 -24 3
127 -1 -41 -29 85 -73 74 -87
127 -48 33 -48 -50 16 88 13
23 -36 -29 44 -11 33 127 29
110 41 -127 -117 22 118 72 127
-27 41 -44 -82 41 8 -127 7
127 -65 -93 -9 103 -63 3 26
-32 -75 66 -47 62 127 -21 -96
15 -70 48 41 127 -54 -62 -83
-19 -127 66 84 10 -4 -41 95
-11 57 -97 -55 97 -110 -35 127
-75 26 127 -76 19 -31 39 29
111 -79 99 -18 -76 -127 64 -34
21 29 49 -12 -25 -9 -127 10

model_1/block_5_depthwise_BN/FusedBatchNormV3;model_1/block_5_depthwise/depthwise;model_1/block_6_expand/Conv2D i1 [1, 3, 3, 48]
00000000: 5a59 3b21 f1b7 201f b7f9 e045 3b11 fc0f
00000010: 2fd3 5b41 41f6 0e10 e7bf 3807 deb4 222b
00000020: 20a4 0b20 e119 f381 fca1 d8f1 1781 4981
00000030: 7f0d 4daa 323f 24cb 86a4 107f 0fd2 811e
00000040: f763 453b 1853 6c26 7fc4 e781 8fd3 817f
00000050: 21a6 aa7f 1fa6 a984 0f7f bc1c e0a5 610e
00000060: 4908 23b7 e7ce 1f0e bbfa 032a 261a 2b0b
00000070: cd06 4e38 deda bcfc eac6 b6e1 e4a4 fe0d
00000080: 33ce 2324 c6be fe9b 00e0 72e9 048c 0fb9
00000090: 640f 2038 3848 0481 6b81 87c1 1030 ca7f
000000a0: 8150 4644 0d6c 5dd9 e57a 5513 1fea 9739
000000b0: 4161 b62e b0f6 fabd ecc8 1ea0 3bee 37ec
000000c0: 057f 8148 7f3f 810c 71e0 ef4d 817f e902
000000d0: 2881 810a 6427 7f81 9e52 ccfb ffe9 2ff1
000000e0: 7fef 72b1 6281 7f73 7f48 94fe 7f24 81e1
000000f0: 2902 0e81 3d38 0ea2 7fd7 81f1 1420 cf6e
90 89 59 33 -15 -73 32 31
-73 -7 -32 69 59 17 -4 15
47 -45 91 65 65 -10 14 16
-25 -65 56 7 -34 -76 34 43
32 -92 11 32 -31 25 -13 -127
-4 -95 -40 -15 23 -127 73 -127
127 13 77 -86 50 63 36 -53
-122 -92 16 127 15 -46 -127 30
-9 99 69 59 24 83 108 38
127 -60 -25 -127 -113 -45 -127 127
33 -90 -86 127 31 -90 -87 -124
15 127 -68 28 -32 -91 97 14
73 8 35 -73 -25 -50 31 14
-69 -6 3 42 38 26 43 11
-51 6 78 56 -34 -38 -68 -4
-22 -58 -74 -31 -28 -92 -2 13
51 -50 35 36 -58 -66 -2 -101
0 -32 114 -23 4 -116 15 -71
100 15 32 56 56 72 4 -127
107 -127 -121 -63 16 48 -54 127
-127 80 70 68 13 108 93 -39
-27 122 85 19 31 -22 -105 57
65 97 -74 46 -80 -10 -6 -67
-20 -56 30 -96 59 -18 55 -20
5 127 -127 72 127 63 -127 12
113 -32 -17 77 -127 127 -23 2
40 -127 -127 10 100 39 127 -127
-98 82 -52 -5 -1 -23 47 -15
127 -17 114 -79 98 -127 127 115
127 72 -108 -2 127 36 -127 -31
41 2 14 -127 61 56 14 -94
127 -41 -127 -15 20 32 -49 110

model_1/block_5_project/Conv2D i1 [8, 1, 1, 48]
00000000: 0d29 2222 fbde 2e2d fe19 fcf0 2dda 33e9
00000010: cce3 81fd 27d6 1a2d 03f9 29f9 f3c8 051c
00000020: d02b 2d03 2e51 cbce 0013 9dd5 211c e8c3
00000030: f4d6 064b e902 fdf6 0607 ebd2 05f5 0a05
00000040: 2c16 3ed7 061b 15ce 03ef e5df dc0b f302
00000050: e6e8 9651 1015 81e8 15f6 4214 6ee4 da2a
00000060: fa08 22df e9ec f87c d64e d5f9 7ffb 2aee
00000070: c7bd ff25 f7f6 11fe 0933 0b29 110e 4b22
00000080: bff1 1b3d 0643 408b 3024 d4e2 111e fdf7
00000090: 10f5 81e2 0efa 2ce0 f2ef f613 ced2 2914
000000a0: 0e2d 021b cd14 bcf7 dec2 1d08 c0cd c812
000000b0: 4b2c dd0d cffc 16f3 25c1 ef10 32d4 25f8
000000c0: 022c faf9 15fb b585 de15 ef48 03e7 0237
000000d0: 2c34 ab08 1503 e8f8 23fd 00fd e708 fbda
000000e0: 13e7 811b e002 2b2b dedb 4e2c 0bd3 0c0f
000000f0: cae5 6810 5312 35fb 8100 9fee aaaa 364a
13 41 34 34 -5 -34 46 45
-2 25 -4 -16 45 -38 51 -23
-52 -29 -127 -3 39 -42 26 45
3 -7 41 -7 -13 -56 5 28
-48 43 45 3 46 81 -53 -50
0 19 -99 -43 33 28 -24 -61
-12 -42 6 75 -23 2 -3 -10
6 7 -21 -46 5 -11 10 5
44 22 62 -41 6 27 21 -50
3 -17 -27 -33 -36 11 -13 2
-26 -24 -106 81 16 21 -127 -24
21 -10 66 20 110 -28 -38 42
-6 8 34 -33 -23 -20 -8 124
-42 78 -43 -7 127 -5 42 -18
-57 -67 -1 37 -9 -10 17 -2
9 51 11 41 17 14 75 34
-65 -15 27 61 6 67 64 -117
48 36 -44 -30 17 30 -3 -9
16 -11 -127 -30 14 -6 44 -32
-14 -17 -10 19 -50 -46 41 20
14 45 2 27 -51 20 -68 -9
-34 -62 29 8 -64 -51 -56 18
75 44 -35 13 -49 -4 22 -13
37 -63 -17 16 50 -44 37 -8
2 44 -6 -7 21 -5 -75 -123
-34 21 -17 72 3 -25 2 55
44 52 -85 8 21 3 -24 -8
35 -3 0 -3 -25 8 -5 -38
19 -25 -127 27 -32 2 43 43
-34 -37 78 44 11 -45 12 15
-54 -27 104 16 83 18 53 -5
-127 0 -97 -18 -86 -86 54 74

model_1/block_6_expand/Conv2D i1 [48, 1, 1, 8]
00000000: 14e9 c013 810c c3fc 812d 7b02 91e3 f9fd
00000010: 0342 e11a cd81 f252 a82b ed7f 11c9 bede
00000020: 0cf5 2181 f311 8517 3e7f c1cb e1f1 2193
00000030: 38d3 3260 d981 ffa6 267f c1b8 ccdd 1982
00000040: 01e2 34fc 0a08 d081 ae01 a319 81b9 a4e2
00000050: 580b 5ecc 8103 5b6c 7fdd b605 3903 bc01
00000060: e59b 7f14 110b b43c 1dc9 3ff2 1681 319b
00000070: 942b 7fff ddb7 2ad6 177f e1c7 c2fb 17a2
00000080: 1e59 cd39 01da f97f 2250 f847 c54e 8125
00000090: 48ea 7fca 6088 0cee 07f8 077f 21d3 deae
000000a0: 0116 de30 fb34 810f 09ff 2d10 1e7f 34cd
000000b0: 4381 ed32 b63c 161c db8f f487 ffb4 fc81
000000c0: 1a1b f3ba d381 cc32 3d4e 7f0c 0113 c903
000000d0: 9723 7fd4 a4ed 55f6 bb2b e199 177f ec55
000000e0: 129a 3a2d 3205 e27f 9131 54e4 810a 59d7
000000f0: 6f9a 1443 81eb 2ca5 345b 39d2 97ec 097f
20 -23 -64 19 -127 12 -61 -4
-127 45 123 2 -111 -29 -7 -3
3 66 -31 26 -51 -127 -14 82
-88 43 -19 127 17 -55 -66 -34
12 -11 33 -127 -13 17 -123 23
62 127 -63 -53 -31 -15 33 -109
56 -45 50 96 -39 -127 -1 -90
38 127 -63 -72 -52 -35 25 -126
1 -30 52 -4 10 8 -48 -127
-82 1 -93 25 -127 -71 -92 -30
88 11 94 -52 -127 3 91 108
127 -35 -74 5 57 3 -68 1
-27 -101 127 20 17 11 -76 60
29 -55 63 -14 22 -127 49 -101
-108 43 127 -1 -35 -73 42 -42
23 127 -31 -57 -62 -5 23 -94
30 89 -51 57 1 -38 -7 127
34 80 -8 71 -59 78 -127 37
72 -22 127 -54 96 -120 12 -18
7 -8 7 127 33 -45 -34 -82
1 22 -34 48 -5 52 -127 15
9 -1 45 16 30 127 52 -51
67 -127 -19 50 -74 60 22 28
-37 -113 -12 -121 -1 -76 -4 -127
26 27 -13 -70 -45 -127 -52 50
61 78 127 12 1 19 -55 3
-105 35 127 -44 -92 -19 85 -10
-69 43 -31 -103 23 127 -20 85
18 -102 58 45 50 5 -30 127
-111 49 84 -28 -127 10 89 -41
111 -102 20 67 -127 -21 44 -91
52 91 57 -46 -105 -20 9 127

model_1/head/Conv2D i1 [32, 1, 1, 48]
00000000: 1c41 31bf cc1b f059 f5ee aac5 ad77 d44d
00000010: 3a62 300c ebb0 f32e 6fa3 0c7f 4fbc 3917
00000020: c36f 37ce fb13 b4ff b6e7 6fd3 5bff b778
00000030: 45fe 4625 15aa ff74 1b38 a73d 818e 14a7
00000040: bbd4 03dc 6354 9eae 26f2 d8b0 5528 e6b3
00000050: 9d9c 9aaa 1eb4 c609 f86c f21c 21fa d121
00000060: f9b2 a582 cc08 46fa 14c6 b2c7 304b ad81
00000070: 9a1d c81d 9dbf 1713 ac45 c9cb dfd3 9d22
00000080: 2fb0 2ffb ad0f b044 38d3 7c4b b3ef 2f14
00000090: c070 4abf 7477 4957 7225 30cd 7221 7b7f
000000a0: 995a da6c cd40 b108 7760 b025 3e36 c77b
000000b0: ae2f 0b9d b6e6 c0db a3e7 d40c c8af ddeb
000000c0: af29 6206 5219 ebe8 244f b1e2 cd69 29ab
000000d0: 623a f0c0 b75f a5f6 ef9e 693d 20a0 7932
000000e0: a842 e3dd 6f01 9cb1 7f6f aaac 0569 e3e9
000000f0: aa78 dfd5 27f3 cb46 f5b4 4334 bd0f 7473
28 65 49 -65 -52 27 -16 89
-11 -18 -86 -59 -83 119 -44 77
58 98 48 12 -21 -80 -13 46
111 -93 12 127 79 -68 57 23
-61 111 55 -50 -5 19 -76 -1
-74 -25 111 -45 91 -1 -73 120
69 -2 70 37 21 -86 -1 116
27 56 -89 61 -127 -114 20 -89
-69 -44 3 -36 99 84 -98 -82
38 -14 -40 -80 85 40 -26 -77
-99 -100 -102 -86 30 -76 -58 9
-8 108 -14 28 33 -6 -47 33
-7 -78 -91 -126 -52 8 70 -6
20 -58 -78 -57 48 75 -83 -127
-102 29 -56 29 -99 -65 23 19
-84 69 -55 -53 -33 -45 -99 34
47 -80 47 -5 -83 15 -80 68
56 -45 124 75 -77 -17 47 20
-64 112 74 -65 116 119 73 87
114 37 48 -51 114 33 123 127
-103 90 -38 108 -51 64 -79 8
119 96 -80 37 62 54 -57 123
-82 47 11 -99 -74 -26 -64 -37
-93 -25 -44 12 -56 -81 -35 -21
-81 41 98 6 82 25 -21 -24
36 79 -79 -30 -51 105 41 -85
98 58 -16 -64 -73 95 -91 -10
-17 -98 105 61 32 -96 121 50
-88 66 -29 -35 111 1 -100 -79
127 111 -86 -84 5 105 -29 -23
-86 120 -33 -43 39 -13 -53 70
-11 -76 67 52 -67 15 116 115

model_1/logits/Conv2D i1 [3, 1, 1, 32]
00000000: be7f d0ff 5cbb c0a1 4e02 d498 4b50 d6dd
00000010: c2fc b238 0a8d 5ccd 0237 55f9 152a c36a
00000020: 69ce ab0e 1e38 85d0 be7f 5f1b 705a 0dd3
00000030: 7208 95b0 7b06 123c bd42 f4e4 4d1c cbe8
00000040: ff9d 727c 095b 814e ce1a 8378 12b1 7445
00000050: 6ea7 8c6e 152e 0243 8acb f7dd 2352 c646
-66 127 -48 -1 92 -69 -64 -95
78 2 -44 -104 75 80 -42 -35
-62 -4 -78 56 10 -115 92 -51
2 55 85 -7 21 42 -61 106
105 -50 -85 14 30 56 -123 -48
-66 127 95 27 112 90 13 -45
114 8 -107 -80 123 6 18 60
-67 66 -12 -28 77 28 -53 -24
-1 -99 114 124 9 91 -127 78
-50 26 -125 120 18 -79 116 69
110 -89 -116 110 21 46 2 67
-118 -53 -9 -35 35 82 -58 70
