src/lib/libtf/models/trained.tflite (tflite, 178328 bytes, 54 tensors)

sequential/dense_1/MatMul i1 [3, 108] scale=0.0019448224 zero_point=0
00000000: 4551 66b3 cc16 e42f f92e 29d6 d79b 5723
00000010: bf59 4673 efe7 30a1 916c c30b 440d e6fb
00000020: 105c d940 1a4b f6a0 1f32 40cc 3f91 da40
00000030: 9cc3 0a6b 8bab 050f 5fe5 07dd b651 af5e
00000040: debe 9938 dd70 5348 f227 05a5 e0db 353f
00000050: f8c7 a49f 4c3e bde0 7870 8e38 6ac7 e323
00000060: 3cfb b6e2 1cc9 07f1 1d46 48d4 3bdb b90f
00000070: fa6b e6ed 72ca ffaf c665 25ce 5bc7 f49d
00000080: 9410 7137 1614 fcee c3c7 f7e2 ff00 0545
00000090: d05f b30d f7f4 326f 004a bedb 6245 35f9
000000a0: 78f6 f719 cae7 19a2 dd4d 6f13 2092 2e87
000000b0: 25cc fbd9 0420 2eff 020f aa8d d893 d7e0
000000c0: bdbd 0d09 3705 3c32 2ddf 77e2 070c f006
000000d0: 05a3 b166 12f3 4afb e643 b64b 46ce e463
000000e0: 5526 7003 9cb0 4f6b afc1 0e8d 3d73 c9ae
000000f0: 55cc ed90 12af 5be4 1eb3 fca6 a3db ce6d
0.13419275 0.1575306 0.19837189 -0.14975132 -0.10113076 0.04278609 -0.054455027 0.09140665
-0.013613757 0.089461826 0.079737715 -0.08168254 -0.079737715 -0.19642706 0.16919954 0.06806878
-0.12641345 0.17308919 0.13613756 0.22365457 -0.03306198 -0.04862056 0.093351476 -0.18475813
-0.21587528 0.21004082 -0.118634164 0.021393046 0.13224792 0.02528269 -0.05056538 -0.009724112
0.031117158 0.17892365 -0.07584807 0.12446863 0.05056538 0.14586169 -0.019448224 -0.18670295
0.060289495 0.09724112 0.12446863 -0.10113076 0.12252381 -0.21587528 -0.07390325 0.12446863
-0.19448224 -0.118634164 0.019448224 0.208096 -0.22754422 -0.1653099 0.009724112 0.029172335
0.18475813 -0.052510206 0.013613757 -0.06806878 -0.14391686 0.1575306 -0.1575306 0.1828133
-0.06612396 -0.12835827 -0.2003167 0.108910054 -0.06806878 0.21782011 0.16142026 0.14002721
-0.027227513 0.07584807 0.009724112 -0.17697884 -0.062234316 -0.07195843 0.103075586 0.12252381
-0.015558579 -0.11085488 -0.17892365 -0.18864778 0.1478065 0.12057899 -0.1303031 -0.062234316
0.23337868 0.21782011 -0.22170976 0.108910054 0.20615117 -0.11085488 -0.05639985 0.06806878
0.11668934 -0.009724112 -0.14391686 -0.05834467 0.054455027 -0.10696523 0.013613757 -0.029172335
0.05639985 0.13613756 0.14002721 -0.08557218 0.11474452 -0.07195843 -0.13808239 0.029172335
-0.0116689345 0.208096 -0.05056538 -0.036951624 0.22170976 -0.10502041 -0.0019448224 -0.1575306
-0.1127997 0.19642706 0.07195843 -0.09724112 0.17697884 -0.11085488 -0.023337869 -0.19253741
-0.21004082 0.031117158 0.21976493 0.10696523 0.04278609 0.03889645 -0.0077792895 -0.035006803
-0.118634164 -0.11085488 -0.017503401 -0.05834467 -0.0019448224 0.0 0.009724112 0.13419275
-0.093351476 0.18475813 -0.14975132 0.02528269 -0.017503401 -0.023337869 0.09724112 0.21587528
0.0 0.14391686 -0.12835827 -0.07195843 0.19059259 0.13419275 0.103075586 -0.013613757
0.23337868 -0.019448224 -0.017503401 0.04862056 -0.10502041 -0.04862056 0.04862056 -0.1828133
-0.06806878 0.14975132 0.21587528 0.036951624 0.062234316 -0.21393046 0.089461826 -0.2353235
0.07195843 -0.10113076 -0.009724112 -0.07584807 0.0077792895 0.062234316 0.089461826 -0.0019448224
0.0038896448 0.029172335 -0.16725473 -0.22365457 -0.0777929 -0.21198563 -0.079737715 -0.062234316
-0.1303031 -0.1303031 0.02528269 0.017503401 0.10696523 0.009724112 0.11668934 0.09724112
0.08751701 -0.06417914 0.23143387 -0.05834467 0.013613757 0.023337869 -0.031117158 0.0116689345
0.009724112 -0.18086848 -0.15364097 0.19837189 0.035006803 -0.02528269 0.14391686 -0.009724112
-0.05056538 0.1303031 -0.14391686 0.14586169 0.13613756 -0.09724112 -0.054455027 0.19253741
0.1653099 0.07390325 0.21782011 0.0058344672 -0.19448224 -0.1555858 0.15364097 0.208096
-0.1575306 -0.12252381 0.027227513 -0.22365457 0.118634164 0.22365457 -0.10696523 -0.15947543
0.1653099 -0.10113076 -0.036951624 -0.21782011 0.035006803 -0.1575306 0.17697884 -0.054455027
0.05834467 -0.14975132 -0.0077792895 -0.17503402 -0.18086848 -0.07195843 -0.09724112 0.21198563

sequential/dense/Tensordot/MatMul i1 [12, 1280] scale=0.00069608557 zero_point=0
00000000: db1c c46b fc0b d63c 0df9 b6f9 2f93 1b45
00000010: c5d9 d5fd 2fbd 0b0b b42d 6eff b042 4efd
00000020: 3ee8 67fd dbad cb28 22cd abfa 4b5b 44f2
00000030: ccda 2615 4630 201b b006 c33b ee94 5fe3
00000040: 97d0 33f6 3d43 219f d5b0 2bd5 a8cd 1407
00000050: f0e7 11dd fdff 4c60 d5d6 1409 322e e92d
00000060: adf7 d4f1 259b e7f6 1c2a f9cf 2356 58f3
00000070: b0a4 52c5 591e 04fc abb7 e120 62fa 4850
00000080: 1ed1 c9cd 9ad1 e2b7 5d4d 0ec2 e3ba f657
00000090: a1b4 440e 3722 3c57 32d1 4f20 2b42 4f58
000000a0: cf3d 4bb7 6dea 23dc 232b 4ce4 2547 e8cc
000000b0: 35e1 dfe5 494e b1b5 5358 2fbd f3af 0240
000000c0: 5655 df16 5034 0b0d 44fe 5031 e996 6535
000000d0: db97 b3d4 0434 2455 0961 aea5 3f65 b9e9
000000e0: ccf1 074d 66a8 4203 5257 b5a5 4db9 dd47
000000f0: fc52 1d2d 6fb8 c40f 4003 25ac ceb0 28f6
-0.025755165 0.019490397 -0.041765135 0.07448116 -0.0027843423 0.007656941 -0.029235594 0.041765135
0.009049112 -0.004872599 -0.05151033 -0.004872599 0.03271602 -0.07587333 0.018794311 0.048029903
-0.04106905 -0.027147338 -0.02993168 -0.0020882566 0.03271602 -0.046637733 0.007656941 0.007656941
-0.052902505 0.03132385 0.076569416 -0.00069608557 -0.055686846 0.045941647 0.054294676 -0.0020882566
0.043157306 -0.016706053 0.07169681 -0.0020882566 -0.025755165 -0.057775103 -0.036892533 0.027843423
0.023666909 -0.035500363 -0.059167273 -0.0041765133 0.05220642 0.063343786 0.047333818 -0.009745198
-0.036196448 -0.026451252 0.026451252 0.014617797 0.04872599 0.033412106 0.022274738 0.018794311
-0.055686846 0.0041765133 -0.04246122 0.04106905 -0.01252954 -0.075177245 0.06612813 -0.020186482
-0.07308898 -0.033412106 0.035500363 -0.006960856 0.04246122 0.046637733 0.022970824 -0.0675203
-0.02993168 -0.055686846 0.02993168 -0.02993168 -0.06125553 -0.035500363 0.013921712 0.004872599
-0.011137369 -0.017402139 0.0118334545 -0.024362994 -0.0020882566 -0.00069608557 0.052902505 0.06682421
-0.02993168 -0.029235594 0.013921712 0.00626477 0.034804277 0.032019936 -0.016009968 0.03132385
-0.057775103 -0.00626477 -0.030627765 -0.010441284 0.025755165 -0.07030464 -0.017402139 -0.006960856
0.019490397 0.029235594 -0.004872599 -0.03410819 0.024362994 0.05986336 0.06125553 -0.009049112
-0.055686846 -0.06403987 0.057079017 -0.04106905 0.061951615 0.020882567 0.0027843423 -0.0027843423
-0.059167273 -0.050814245 -0.021578653 0.022274738 0.06821638 -0.0041765133 0.05011816 0.055686846
0.020882567 -0.03271602 -0.038284708 -0.035500363 -0.071000725 -0.03271602 -0.020882567 -0.050814245
0.06473596 0.05359859 0.009745198 -0.043157306 -0.020186482 -0.04872599 -0.006960856 0.060559444
-0.06612813 -0.052902505 0.047333818 0.009745198 0.038284708 0.023666909 0.041765135 0.060559444
0.034804277 -0.03271602 0.05499076 0.022274738 0.02993168 0.045941647 0.05499076 0.06125553
-0.03410819 0.04246122 0.05220642 -0.050814245 0.07587333 -0.015313882 0.024362994 -0.02505908
0.024362994 0.02993168 0.052902505 -0.019490397 0.025755165 0.049422074 -0.016706053 -0.036196448
0.036892533 -0.021578653 -0.022970824 -0.018794311 0.050814245 0.054294676 -0.05499076 -0.05220642
0.057775103 0.06125553 0.03271602 -0.046637733 -0.009049112 -0.05638293 0.0013921711 0.044549476
0.05986336 0.059167273 -0.022970824 0.015313882 0.055686846 0.036196448 0.007656941 0.009049112
0.047333818 -0.0013921711 0.055686846 0.03410819 -0.016009968 -0.07378507 0.07030464 0.036892533
-0.025755165 -0.07308898 -0.05359859 -0.030627765 0.0027843423 0.036196448 0.02505908 0.059167273
0.00626477 0.0675203 -0.057079017 -0.063343786 0.04385339 0.07030464 -0.049422074 -0.016009968
-0.036196448 -0.010441284 0.004872599 0.05359859 0.071000725 -0.06125553 0.045941647 0.0020882566
0.057079017 0.060559444 -0.05220642 -0.063343786 0.05359859 -0.049422074 -0.024362994 0.049422074
-0.0027843423 0.057079017 0.020186482 0.03132385 0.0772655 -0.05011816 -0.041765135 0.010441284
0.044549476 0.0020882566 0.025755165 -0.058471188 -0.034804277 -0.055686846 0.027843423 -0.006960856

sequential/model/Conv_1/Conv2D i1 [1280, 1, 1, 16]
00000000: faae 3790 7f30 1551 12bc 14c6 06d3 eeb9
00000010: d443 c45a 0bd6 dc66 7d4b d3b2 14c9 0c7f
00000020: 33e2 56b1 f6e3 347f 0908 409e 2fc2 8d98
00000030: 4fc3 68e0 3ee4 4172 b3e5 810e e30e 5cfd
00000040: 4c7f 7d20 fcd5 3e16 f237 c326 c554 2042
00000050: 1b5f 3448 3036 79b4 e07f c871 5db8 05d7
00000060: 0bdc b618 7f0d e184 35e8 f2fc b92a a020
00000070: 2e55 22ee 747f 4c17 9614 2c17 c9b4 e090
00000080: 5f35 4560 c910 812c 4ae0 411c 3fe7 0820
00000090: 1409 c1c8 7f5b eda9 92e7 37c7 ff91 b15c
000000a0: fa60 8a2f 2245 7fe7 e1d0 1800 1303 b2b9
000000b0: 39dc 4fa0 7f12 47ac cf71 a8ba 25df 1ed5
000000c0: 5d28 7fe8 e807 1bdd d023 eb23 c212 f61f
000000d0: 010e 25e4 2dcd c715 dcf0 1af1 f17f 36e2
000000e0: 19e9 b487 8193 bf87 27db a83e d9ea 47df
000000f0: 0bd2 17d8 2103 b6d7 43f3 2ccc 8108 ca3e
-6 -82 55 -112 127 48 21 81
18 -68 20 -58 6 -45 -18 -71
-44 67 -60 90 11 -42 -36 102
125 75 -45 -78 20 -55 12 127
51 -30 86 -79 -10 -29 52 127
9 8 64 -98 47 -62 -115 -104
79 -61 104 -32 62 -28 65 114
-77 -27 -127 14 -29 14 92 -3
76 127 125 32 -4 -43 62 22
-14 55 -61 38 -59 84 32 66
27 95 52 72 48 54 121 -76
-32 127 -56 113 93 -72 5 -41
11 -36 -74 24 127 13 -31 -124
53 -24 -14 -4 -71 42 -96 32
46 85 34 -18 116 127 76 23
-106 20 44 23 -55 -76 -32 -112
95 53 69 96 -55 16 -127 44
74 -32 65 28 63 -25 8 32
20 9 -63 -56 127 91 -19 -87
-110 -25 55 -57 -1 -111 -79 92
-6 96 -118 47 34 69 127 -25
-31 -48 24 0 19 3 -78 -71
57 -36 79 -96 127 18 71 -84
-49 113 -88 -70 37 -33 30 -43
93 40 127 -24 -24 7 27 -35
-48 35 -21 35 -62 18 -10 31
1 14 37 -28 45 -51 -57 21
-36 -16 26 -15 -15 127 54 -30
25 -23 -76 -121 -127 -109 -65 -121
39 -37 -88 62 -39 -22 71 -33
11 -46 23 -40 33 3 -74 -41
67 -13 44 -52 -127 8 -54 62

sequential/model/block_16_project/Conv2D i1 [16, 1, 1, 48]
00000000: ce1f e223 a37b ae1a c40e 0ec4 87ed 34fc
00000010: d801 fd37 81d5 4610 c22f 10f1 e90d e6d1
00000020: 1a02 d22f 18da ddc6 fb28 411c 21fa 2001
00000030: 08d4 29f3 0be6 0b1d c209 d581 f42a e5f0
00000040: 0bbe 3524 199e f9eb 40da c4d8 ebde c91b
00000050: 090f f995 054c f8fd edbc f8cc f3b4 1c16
00000060: f80f d1d4 e331 201c ddec c7c9 d1f3 0f13
00000070: f9ef f416 9501 21f8 e6e4 4600 1a16 c9df
00000080: e532 f507 ed2c 03d8 e846 81f9 152a df02
00000090: 02e8 02e9 1e3a ed22 003f f2ff 47ee f2f5
000000a0: 0eec 3010 1704 f9f8 3628 c12a f683 e771
000000b0: dc03 167f ef18 ed1f 1b51 c50d faf7 b00b
000000c0: f0f4 e1f7 f3c3 10f6 d8f7 99fe 512b e413
000000d0: 0807 09ec 7f44 eecf 0cd3 f3d8 fe2e 022f
000000e0: 06f8 d910 46f6 a711 b7ff 2c2b fb35 cd00
000000f0: 5f21 3b1d 25e7 257d f0eb d4ea ddf2 d6e6
-50 31 -30 35 -93 123 -82 26
-60 14 14 -60 -121 -19 52 -4
-40 1 -3 55 -127 -43 70 16
-62 47 16 -15 -23 13 -26 -47
26 2 -46 47 24 -38 -35 -58
-5 40 65 28 33 -6 32 1
8 -44 41 -13 11 -26 11 29
-62 9 -43 -127 -12 42 -27 -16
11 -66 53 36 25 -98 -7 -21
64 -38 -60 -40 -21 -34 -55 27
9 15 -7 -107 5 76 -8 -3
-19 -68 -8 -52 -13 -76 28 22
-8 15 -47 -44 -29 49 32 28
-35 -20 -57 -55 -47 -13 15 19
-7 -17 -12 22 -107 1 33 -8
-26 -28 70 0 26 22 -55 -33
-27 50 -11 7 -19 44 3 -40
-24 70 -127 -7 21 42 -33 2
2 -24 2 -23 30 58 -19 34
0 63 -14 -1 71 -18 -14 -11
14 -20 48 16 23 4 -7 -8
54 40 -63 42 -10 -125 -25 113
-36 3 22 127 -17 24 -19 31
27 81 -59 13 -6 -9 -80 11
-16 -12 -31 -9 -13 -61 16 -10
-40 -9 -103 -2 81 43 -28 19
8 7 9 -20 127 68 -18 -49
12 -45 -13 -40 -2 46 2 47
6 -8 -39 16 70 -10 -89 17
-73 -1 44 43 -5 53 -51 0
95 33 59 29 37 -25 37 125
-16 -21 -44 -22 -35 -14 -42 -26

sequential/model/block_16_depthwise_BN/FusedBatchNormV3;sequential/model/block_16_depthwise/depthwise i1 [1, 3, 3, 48]
00000000: 00d4 f418 17ee 0def 07ac 0308 bcfe cbbf
00000010: eee2 1b93 0f02 09cf fec4 fb03 10fa f4fb
00000020: fe25 341b f904 01e9 01f0 010a 2af9 2424
00000030: f1c5 1c35 25da 0b02 1781 fa18 8afa b081
00000040: fcbe 30a0 edff 219e fba6 e2f8 21fc c0e0
00000050: f502 1a7f f894 00e0 1781 062d efd7 7fce
00000060: 01f7 f117 15f2 080f 09be 0308 b7ff cbc9
00000070: eef5 1f92 0f01 08c1 fcc6 fb04 10fa f6fd
00000080: 0024 2c18 fb0b 01ea 02f1 000a d0fb 2808
00000090: 0717 f504 1ae9 1281 23a6 ea18 8109 961a
000000a0: 03b0 2390 0502 1caa 14ba 0d11 1806 2ad7
000000b0: 0e37 7ff4 ff37 fecd 190d 190f 7fd9 e87f
000000c0: 7f36 7f70 7f81 7fe4 7fbe 817f 847f 9d2d
000000d0: 7f81 7fa3 8181 7f8d 7fb2 7f7f 7f7f 7f81
000000e0: 7f81 46d8 7f29 7f81 7fbc 7f7f 087f f9bd
000000f0: 1460 ed00 16ed 11de 23ab e818 8105 921c
0 -44 -12 24 23 -18 13 -17
7 -84 3 8 -68 -2 -53 -65
-18 -30 27 -109 15 2 9 -49
-2 -60 -5 3 16 -6 -12 -5
-2 37 52 27 -7 4 1 -23
1 -16 1 10 42 -7 36 36
-15 -59 28 53 37 -38 11 2
23 -127 -6 24 -118 -6 -80 -127
-4 -66 48 -96 -19 -1 33 -98
-5 -90 -30 -8 33 -4 -64 -32
-11 2 26 127 -8 -108 0 -32
23 -127 6 45 -17 -41 127 -50
1 -9 -15 23 21 -14 8 15
9 -66 3 8 -73 -1 -53 -55
-18 -11 31 -110 15 1 8 -63
-4 -58 -5 4 16 -6 -10 -3
0 36 44 24 -5 11 1 -22
2 -15 0 10 -48 -5 40 8
7 23 -11 4 26 -23 18 -127
35 -90 -22 24 -127 9 -106 26
3 -80 35 -112 5 2 28 -86
20 -70 13 17 24 6 42 -41
14 55 127 -12 -1 55 -2 -51
25 13 25 15 127 -39 -24 127
127 54 127 112 127 -127 127 -28
127 -66 -127 127 -124 127 -99 45
127 -127 127 -93 -127 -127 127 -115
127 -78 127 127 127 127 127 -127
127 -127 70 -40 127 41 127 -127
127 -68 127 127 8 127 -7 -67
20 96 -19 0 22 -19 17 -34
35 -85 -24 24 -127 5 -110 28

sequential/model/block_16_expand/Conv2D i1 [48, 1, 1, 8]
00000000: 05ef ee12 7f40 06ea e809 0ad9 3081 2b0b
00000010: 211e 81e0 d2cb 3b48 1a34 cf0b f11b 7f1c
00000020: cecc 4cc4 11c4 81dc c8d9 7ffa 1d27 1bf6
00000030: 143b fffc d9fb 1781 2010 f112 3e81 630c
00000040: f8e1 c0b9 0035 81ad e881 dc18 e9f1 2bc0
00000050: 060a 7f06 ddfd 22e6 cd20 e1e0 d27f 03e6
00000060: 81f7 fafe 29ca 0bf8 e2c9 ef81 ff1a c108
00000070: 0227 2202 04e1 e181 127f 1ed4 2504 cf5d
00000080: dadb 7f1c 2d33 b7c1 d318 9fe0 81be 2b62
00000090: cefd e681 38ce e510 fb11 0b24 bf7f 290a
000000a0: 5022 ee43 9d7f ed05 2313 edff bd7f 0702
000000b0: 8146 d0d6 fe22 230d 1fef 19da 2981 f4f4
000000c0: 08f8 fd7f edf9 4aea 1044 81f6 e0f1 7111
000000d0: 5881 7606 398b d05c 1c37 167f 05e0 38fb
000000e0: 0c7f 24c3 32ff c458 f081 e1fb db08 18cf
000000f0: 6014 b2de 3981 f8c5 7fcd 18fe f623 d603
5 -17 -18 18 127 64 6 -22
-24 9 10 -39 48 -127 43 11
33 30 -127 -32 -46 -53 59 72
26 52 -49 11 -15 27 127 28
-50 -52 76 -60 17 -60 -127 -36
-56 -39 127 -6 29 39 27 -10
20 59 -1 -4 -39 -5 23 -127
32 16 -15 18 62 -127 99 12
-8 -31 -64 -71 0 53 -127 -83
-24 -127 -36 24 -23 -15 43 -64
6 10 127 6 -35 -3 34 -26
-51 32 -31 -32 -46 127 3 -26
-127 -9 -6 -2 41 -54 11 -8
-30 -55 -17 -127 -1 26 -63 8
2 39 34 2 4 -31 -31 -127
18 127 30 -44 37 4 -49 93
-38 -37 127 28 45 51 -73 -63
-45 24 -97 -32 -127 -66 43 98
-50 -3 -26 -127 56 -50 -27 16
-5 17 11 36 -65 127 41 10
80 34 -18 67 -99 127 -19 5
35 19 -19 -1 -67 127 7 2
-127 70 -48 -42 -2 34 35 13
31 -17 25 -38 41 -127 -12 -12
8 -8 -3 127 -19 -7 74 -22
16 68 -127 -10 -32 -15 113 17
88 -127 118 6 57 -117 -48 92
28 55 22 127 5 -32 56 -5
12 127 36 -61 50 -1 -60 88
-16 -127 -31 -5 -37 8 24 -49
96 20 -78 -34 57 -127 -8 -59
127 -51 24 -2 -10 35 -42 3

sequential/model/block_15_project/Conv2D i1 [8, 1, 1, 48]
00000000: f71b 2abd d13f e2f6 310c 17d6 e3cc 1e08
00000010: e3fd fd7f f6b1 5242 f42b 5fe4 1f92 f442
00000020: 15ff f920 2892 332a 4023 2fd9 2a05 e923
00000030: 1c59 b610 81f9 7333 ece6 e6f0 faf4 d0d0
00000040: 2e19 4a41 f5d7 f9ac ccf4 0a0e 21fd 9330
00000050: 06ff 94d0 b407 da00 b608 2e96 e4fc edef
00000060: b787 f9ea e7e8 2984 ab2f fa26 0154 2df3
00000070: 14c4 f8cb 0b20 c1ff 7017 261f ca0c ddd5
00000080: 092d d4df dd3d 0cd1 34f7 8128 b3f4 45ad
00000090: 0e1b 7a09 192d cdca e90a 2edf eea8 cba6
000000a0: 85e6 eb30 37cc 7f0a ef0d 26ff d816 131d
000000b0: 07d0 0ba6 a2d7 0834 fa21 33cd 20d4 0a05
000000c0: d881 f720 e627 2407 06ee ee23 2937 f6e2
000000d0: 13c1 efab 3e0c 5442 e2ef c406 c21f fb33
000000e0: f101 f1f2 3217 02f7 26e2 2b26 f402 25dc
000000f0: d8db 38df fc0e f70d db8d 20b4 7ff2 051c
-9 27 42 -67 -47 63 -30 -10
49 12 23 -42 -29 -52 30 8
-29 -3 -3 127 -10 -79 82 66
-12 43 95 -28 31 -110 -12 66
21 -1 -7 32 40 -110 51 42
64 35 47 -39 42 5 -23 35
28 89 -74 16 -127 -7 115 51
-20 -26 -26 -16 -6 -12 -48 -48
46 25 74 65 -11 -41 -7 -84
-52 -12 10 14 33 -3 -109 48
6 -1 -108 -48 -76 7 -38 0
-74 8 46 -106 -28 -4 -19 -17
-73 -121 -7 -22 -25 -24 41 -124
-85 47 -6 38 1 84 45 -13
20 -60 -8 -53 11 32 -63 -1
112 23 38 31 -54 12 -35 -43
9 45 -44 -33 -35 61 12 -47
52 -9 -127 40 -77 -12 69 -83
14 27 122 9 25 45 -51 -54
-23 10 46 -33 -18 -88 -53 -90
-123 -26 -21 48 55 -52 127 10
-17 13 38 -1 -40 22 19 29
7 -48 11 -90 -94 -41 8 52
-6 33 51 -51 32 -44 10 5
-40 -127 -9 32 -26 39 36 7
6 -18 -18 35 41 55 -10 -30
19 -63 -17 -85 62 12 84 66
-30 -17 -60 6 -62 31 -5 51
-15 1 -15 -14 50 23 2 -9
38 -30 43 38 -12 2 37 -36
-40 -37 56 -33 -4 14 -9 13
-37 -115 32 -76 127 -14 5 28

sequential/model/block_15_depthwise_BN/FusedBatchNormV3;sequential/model/block_15_depthwise/depthwise;sequential/model/block_16_depthwise/depthwise i1 [1, 3, 3, 48]
00000000: 81fa e894 fb3d f41c 6003 35e0 16c1 4bb6
00000010: a31f 2c53 14cc 113b 021d 0000 413f d1be
00000020: d6b7 150d 0809 81e9 f90a 3af8 b4cf 48b8
00000030: b57f afb3 0e2a 1727 6961 20c5 7c81 5617
00000040: 8154 51ed f4a0 f106 1481 7fe5 0f7f 0920
00000050: 7fc7 221a d273 2932 fd81 7f18 a451 1428
00000060: 8a00 ec90 f881 f810 6013 40d4 11bb 3b25
00000070: ad25 325a e1d8 1abc 041f f815 a13c 1637
00000080: d6c0 c3fd 0820 1eec fc08 3204 c9d1 44ad
00000090: 1144 c981 dd60 196c 2a71 34b9 57c6 6481
000000a0: d47f 7924 35db 5970 fb45 f99f 5c50 8193
000000b0: 5090 351c ff74 20c3 e857 15d2 a87f 5dbd
000000c0: 4ac2 815d 7f17 7ff5 f77f 7f7f c27b 37c4
000000d0: 719d d4e1 527f b7ff 81ce cf7f 3608 6314
000000e0: b3e4 5b81 7fc8 e181 7f12 217f 92e1 657f
000000f0: 396b cd98 be97 1f7d 166a 29ac 7fdb 7e44
-127 -6 -24 -108 -5 61 -12 28
96 3 53 -32 22 -63 75 -74
-93 31 44 83 20 -52 17 59
2 29 0 0 65 63 -47 -66
-42 -73 21 13 8 9 -127 -23
-7 10 58 -8 -76 -49 72 -72
-75 127 -81 -77 14 42 23 39
105 97 32 -59 124 -127 86 23
-127 84 81 -19 -12 -96 -15 6
20 -127 127 -27 15 127 9 32
127 -57 34 26 -46 115 41 50
-3 -127 127 24 -92 81 20 40
-118 0 -20 -112 -8 -127 -8 16
96 19 64 -44 17 -69 59 37
-83 37 50 90 -31 -40 26 -68
4 31 -8 21 -95 60 22 55
-42 -64 -61 -3 8 32 30 -20
-4 8 50 4 -55 -47 68 -83
17 68 -55 -127 -35 96 25 108
42 113 52 -71 87 -58 100 -127
-44 127 121 36 53 -37 89 112
-5 69 -7 -97 92 80 -127 -109
80 -112 53 28 -1 116 32 -61
-24 87 21 -46 -88 127 93 -67
74 -62 -127 93 127 23 127 -11
-9 127 127 127 -62 123 55 -60
113 -99 -44 -31 82 127 -73 -1
-127 -50 -49 127 54 8 99 20
-77 -28 91 -127 127 -56 -31 -127
127 18 33 127 -110 -31 101 127
57 107 -51 -104 -66 -105 31 125
22 106 41 -84 127 -37 126 68

sequential/model/block_15_expand/Conv2D i1 [48, 1, 1, 8]
00000000: 1dc2 4cfd 363a 9c81 09cb 5bfa 7f02 32b2
00000010: 01df d91c 301b 157f 814a d504 48ed 2912
00000020: de81 e839 d508 3db3 6d25 7fc1 43aa 20ad
00000030: 0381 cc3e 963a 7189 f4c7 7f21 10c6 d0d7
00000040: d4d1 253f b77f f43d f01b f5f8 ee7f 0e08
00000050: 8122 9e81 2c00 32a5 f8ec 1bd8 2d81 04d9
00000060: fbe9 03fc 0d81 f5f5 1305 ac02 030a 7f26
00000070: b07f 1738 50a4 2cf9 f2e5 f381 d817 cd2a
00000080: fb1e fa81 30d8 e921 4025 d772 bb58 a081
00000090: 1791 8105 d50d d62a 7f25 105b ab43 05bd
000000a0: 3516 185b 7f05 7629 81d3 1a8c effa 1c08
000000b0: 1910 22a9 81db 361e b026 d439 812b dfc9
000000c0: 4611 8133 6bf3 dae0 81be ad6c 41c1 a7a4
000000d0: 812c a3f5 0cbd 6d02 fd0b e4fd f44c 647f
000000e0: eec5 214d f255 c581 5d65 0fd8 f7fd 7f3c
000000f0: d981 de41 ce07 45b1 fecf 30f0 8cfe 81b3
29 -62 76 -3 54 58 -100 -127
9 -53 91 -6 127 2 50 -78
1 -33 -39 28 48 27 21 127
-127 74 -43 4 72 -19 41 18
-34 -127 -24 57 -43 8 61 -77
109 37 127 -63 67 -86 32 -83
3 -127 -52 62 -106 58 113 -119
-12 -57 127 33 16 -58 -48 -41
-44 -47 37 63 -73 127 -12 61
-16 27 -11 -8 -18 127 14 8
-127 34 -98 -127 44 0 50 -91
-8 -20 27 -40 45 -127 4 -39
-5 -23 3 -4 13 -127 -11 -11
19 5 -84 2 3 10 127 38
-80 127 23 56 80 -92 44 -7
-14 -27 -13 -127 -40 23 -51 42
-5 30 -6 -127 48 -40 -23 33
64 37 -41 114 -69 88 -96 -127
23 -111 -127 5 -43 13 -42 42
127 37 16 91 -85 67 5 -67
53 22 24 91 127 5 118 41
-127 -45 26 -116 -17 -6 28 8
25 16 34 -87 -127 -37 54 30
-80 38 -44 57 -127 43 -33 -55
70 17 -127 51 107 -13 -38 -32
-127 -66 -83 108 65 -63 -89 -92
-127 44 -93 -11 12 -67 109 2
-3 11 -28 -3 -12 76 100 127
-18 -59 33 77 -14 85 -59 -127
93 101 15 -40 -9 -3 127 60
-39 -127 -34 65 -50 7 69 -79
-2 -49 48 -16 -116 -2 -127 -77

sequential/model/block_14_project/Conv2D i1 [8, 1, 1, 48]
00000000: 2381 f3f9 0713 d1f5 4afe 1e01 f3d2 0102
00000010: e8f6 0702 d7f6 0bf6 1bff f5e6 fddc e41f
00000020: 0d20 fbfd 14ea e4fe d3f4 feef e338 e606
00000030: 0a43 f464 3ef4 f9b1 143f 17ee cc21 12f5
00000040: d992 1ecb c5b5 f181 d9c8 27c4 19c7 1404
00000050: 0811 12dc 47e5 cdea f4d1 79f0 6107 e299
00000060: ec81 e133 eae5 0471 ea0c 218b 10fc f7db
00000070: d8d1 2f23 fcd3 01da 97fd c7d1 2ae7 24df
00000080: fbf8 1713 1d13 e8f7 3a69 2ace e2ee 2bce
00000090: 2e4d 06ea f51e 0006 430e 13dd 001f 5203
000000a0: 1125 fee1 fb81 2205 b31b 0014 f9eb 17fd
000000b0: f304 0708 75dd 1f02 dd01 e214 203f 1d12
000000c0: bffa be21 efd6 38fa f53c d2fe 0adc 2714
000000d0: 27a4 b80b 7f0f a9dd f6f7 ee5c 0948 0a17
000000e0: 25c0 3e29 174f 523e 2201 5107 daad a0ef
000000f0: 1724 e50b d421 e6f4 700d 0fed f5ff 81e2
35 -127 -13 -7 7 19 -47 -11
74 -2 30 1 -13 -46 1 2
-24 -10 7 2 -41 -10 11 -10
27 -1 -11 -26 -3 -36 -28 31
13 32 -5 -3 20 -22 -28 -2
-45 -12 -2 -17 -29 56 -26 6
10 67 -12 100 62 -12 -7 -79
20 63 23 -18 -52 33 18 -11
-39 -110 30 -53 -59 -75 -15 -127
-39 -56 39 -60 25 -57 20 4
8 17 18 -36 71 -27 -51 -22
-12 -47 121 -16 97 7 -30 -103
-20 -127 -31 51 -22 -27 4 113
-22 12 33 -117 16 -4 -9 -37
-40 -47 47 35 -4 -45 1 -38
-105 -3 -57 -47 42 -25 36 -33
-5 -8 23 19 29 19 -24 -9
58 105 42 -50 -30 -18 43 -50
46 77 6 -22 -11 30 0 6
67 14 19 -35 0 31 82 3
17 37 -2 -31 -5 -127 34 5
-77 27 0 20 -7 -21 23 -3
-13 4 7 8 117 -35 31 2
-35 1 -30 20 32 63 29 18
-65 -6 -66 33 -17 -42 56 -6
-11 60 -46 -2 10 -36 39 20
39 -92 -72 11 127 15 -87 -35
-10 -9 -18 92 9 72 10 23
37 -64 62 41 23 79 82 62
34 1 81 7 -38 -83 -96 -17
23 36 -27 11 -44 33 -26 -12
112 13 15 -19 -11 -1 -127 -30

sequential/model/block_14_depthwise_BN/FusedBatchNormV3;sequential/model/block_14_depthwise/depthwise;sequential/model/block_16_depthwise/depthwise i1 [1, 3, 3, 48]
00000000: f9fd 050b f0d2 e402 e717 f1d9 fe06 ef01
00000010: e303 1b0d 551e 1e05 e7f3 abde 0707 0216
00000020: ea31 dcf5 1bdf 29c5 ee20 f4d2 bcfd ed03
00000030: 18cc 1e90 0cbb f658 0e04 f5be d37f b4be
00000040: 0a7f 7f7f e21a 2604 82f1 ee1a 26e5 bc07
00000050: f599 f0f6 44e8 f39e c368 ddc6 b381 3964
00000060: fafa fe11 04d3 e4fa e8e5 f3d1 fc08 f709
00000070: e107 0514 5110 080e e5f1 810c fe01 021a
00000080: e62d 07f3 1cdf dec9 ec2f edb9 bdf8 f9f6
00000090: 29c1 d991 9e41 d348 815c ef86 e50d 88f7
000000a0: c6f4 2a00 7f6d 1313 81e2 1a89 cbf4 183e
000000b0: da63 a7cd 6d03 7f28 b90d e54b 81df 6579
000000c0: 817f 7f2a 15f3 7fd3 5d15 7f15 7f3e e87f
000000d0: 7f91 2b30 bcca 7f7f e97f bd01 817f 7f81
000000e0: 7fed 7f7f f17f fa7f 7f37 7f09 f561 c7be
000000f0: 2bb3 db8a 8137 da56 8381 ee81 da11 81f1
-7 -3 5 11 -16 -46 -28 2
-25 23 -15 -39 -2 6 -17 1
-29 3 27 13 85 30 30 5
-25 -13 -85 -34 7 7 2 22
-22 49 -36 -11 27 -33 41 -59
-18 32 -12 -46 -68 -3 -19 3
24 -52 30 -112 12 -69 -10 88
14 4 -11 -66 -45 127 -76 -66
10 127 127 127 -30 26 38 4
-126 -15 -18 26 38 -27 -68 7
-11 -103 -16 -10 68 -24 -13 -98
-61 104 -35 -58 -77 -127 57 100
-6 -6 -2 17 4 -45 -28 -6
-24 -27 -13 -47 -4 8 -9 9
-31 7 5 20 81 16 8 14
-27 -15 -127 12 -2 1 2 26
-26 45 7 -13 28 -33 -34 -55
-20 47 -19 -71 -67 -8 -7 -10
41 -63 -39 -111 -98 65 -45 72
-127 92 -17 -122 -27 13 -120 -9
-58 -12 42 0 127 109 19 19
-127 -30 26 -119 -53 -12 24 62
-38 99 -89 -51 109 3 127 40
-71 13 -27 75 -127 -33 101 121
-127 127 127 42 21 -13 127 -45
93 21 127 21 127 62 -24 127
127 -111 43 48 -68 -54 127 127
-23 127 -67 1 -127 127 127 -127
127 -19 127 127 -15 127 -6 127
127 55 127 9 -11 97 -57 -66
43 -77 -37 -118 -127 55 -38 86
-125 -127 -18 -127 -38 17 -127 -15

sequential/model/block_14_expand/Conv2D i1 [48, 1, 1, 8]
00000000: 81e2 2aa5 6fb6 de71 8107 ca2e 0022 10b5
00000010: 9f53 c6c8 8198 1631 ff7f 36ea 0f0f d884
00000020: e63b f7fd 00cd f581 d504 050a 0181 4cda
00000030: 81fc f5ec 35c6 fc03 354a 81e2 0b37 0724
00000040: 7f23 da5b 926f efb9 058d dafe 8a1b 1581
00000050: 7ffe f166 d92e 01ea 0a06 81f1 de07 85c6
00000060: e481 001b e9bf f2ec 28b7 5b39 b77e 81e8
00000070: 66f4 ad57 0a81 0d49 4523 921f d881 f559
00000080: 81c8 c822 73e6 08fd 2b7f 25b3 53ed d547
00000090: 81de c523 4ac4 c0d6 cc47 d923 81e4 4554
000000a0: 772f e64f 8151 df83 2a33 177f 14f8 30f1
000000b0: bc2e 8300 81f3 dd2e 0b73 3cc6 48fe 907f
000000c0: 0ad4 819a ec3d 7e4c d6de f3fb 2800 ee7f
000000d0: 45d2 4613 563a 7f1e 603d 37e5 8122 0ce3
000000e0: 813f 4cdd a3c5 a913 81e7 c9f0 18df fd32
000000f0: 811c 341f d2e5 0a26 81f5 daf7 0eda fd23
-127 -30 42 -91 111 -74 -34 113
-127 7 -54 46 0 34 16 -75
-97 83 -58 -56 -127 -104 22 49
-1 127 54 -22 15 15 -40 -124
-26 59 -9 -3 0 -51 -11 -127
-43 4 5 10 1 -127 76 -38
-127 -4 -11 -20 53 -58 -4 3
53 74 -127 -30 11 55 7 36
127 35 -38 91 -110 111 -17 -71
5 -115 -38 -2 -118 27 21 -127
127 -2 -15 102 -39 46 1 -22
10 6 -127 -15 -34 7 -123 -58
-28 -127 0 27 -23 -65 -14 -20
40 -73 91 57 -73 126 -127 -24
102 -12 -83 87 10 -127 13 73
69 35 -110 31 -40 -127 -11 89
-127 -56 -56 34 115 -26 8 -3
43 127 37 -77 83 -19 -43 71
-127 -34 -59 35 74 -60 -64 -42
-52 71 -39 35 -127 -28 69 84
119 47 -26 79 -127 81 -33 -125
42 51 23 127 20 -8 48 -15
-68 46 -125 0 -127 -13 -35 46
11 115 60 -58 72 -2 -112 127
10 -44 -127 -102 -20 61 126 76
-42 -34 -13 -5 40 0 -18 127
69 -46 70 19 86 58 127 30
96 61 55 -27 -127 34 12 -29
-127 63 76 -35 -93 -59 -87 19
-127 -25 -55 -16 24 -33 -3 50
-127 28 52 31 -46 -27 10 38
-127 -11 -38 -9 14 -38 -3 35

sequential/model/block_13_project/Conv2D i1 [8, 1, 1, 48]
00000000: 0100 00fe 0306 11ec f802 feda eef3 f00c
00000010: 143f f8ef f5fa f313 2800 fc0f f8f7 00f4
00000020: 0704 f4ef fd08 fa02 fb13 0af8 f881 f400
00000030: e7d8 ef01 0723 10dd 217f f6ec fef8 061f
00000040: 13ee 1f12 f2fe 230c 1406 34f9 f80a 0a18
00000050: 1fe6 f1f8 a6f5 e912 fc05 1c2e 0a39 04f1
00000060: e9fb 010e e00f ed06 e60d f106 f7f4 e6fe
00000070: 0c03 e90c 1dfc 0b81 f205 280d 06f8 2c08
00000080: ff18 7608 e7f3 d70d 3119 0205 ede1 f204
00000090: 0c02 1601 ef03 f481 f4f2 f50e ee11 0767
000000a0: fd09 f8fb 0709 fb01 ee0f 061b ea18 0bec
000000b0: 1114 0021 0afd 06fb 0901 6203 1e03 08f6
000000c0: 7ff3 05ef ff09 fb1b cd28 03f1 e5f1 0bf4
000000d0: 17f7 da00 17ff 0c03 1ee6 18f8 18fc 21f7
000000e0: f733 02f8 e80a fab3 edf5 f003 ed18 07e7
000000f0: 4605 e220 8107 f22a 6800 05d3 f503 08e2
1 0 0 -2 3 6 17 -20
-8 2 -2 -38 -18 -13 -16 12
20 63 -8 -17 -11 -6 -13 19
40 0 -4 15 -8 -9 0 -12
7 4 -12 -17 -3 8 -6 2
-5 19 10 -8 -8 -127 -12 0
-25 -40 -17 1 7 35 16 -35
33 127 -10 -20 -2 -8 6 31
19 -18 31 18 -14 -2 35 12
20 6 52 -7 -8 10 10 24
31 -26 -15 -8 -90 -11 -23 18
-4 5 28 46 10 57 4 -15
-23 -5 1 14 -32 15 -19 6
-26 13 -15 6 -9 -12 -26 -2
12 3 -23 12 29 -4 11 -127
-14 5 40 13 6 -8 44 8
-1 24 118 8 -25 -13 -41 13
49 25 2 5 -19 -31 -14 4
12 2 22 1 -17 3 -12 -127
-12 -14 -11 14 -18 17 7 103
-3 9 -8 -5 7 9 -5 1
-18 15 6 27 -22 24 11 -20
17 20 0 33 10 -3 6 -5
9 1 98 3 30 3 8 -10
127 -13 5 -17 -1 9 -5 27
-51 40 3 -15 -27 -15 11 -12
23 -9 -38 0 23 -1 12 3
30 -26 24 -8 24 -4 33 -9
-9 51 2 -8 -24 10 -6 -77
-19 -11 -16 3 -19 24 7 -25
70 5 -30 32 -127 7 -14 42
104 0 5 -45 -11 3 8 -30

sequential/model/block_13_depthwise_BN/FusedBatchNormV3;sequential/model/block_13_depthwise/depthwise;sequential/model/block_16_depthwise/depthwise i1 [1, 3, 3, 48]
00000000: 641e b3bc 7419 7e70 ad6a 816d 81a0 af72
00000010: 7360 64b5 57ac 8f57 7159 87bb 6a66 7575
00000020: 7f73 7061 7f62 7e76 81ca a075 9168 817e
00000030: 6f3e c1c7 7f23 7f71 a271 8370 919c b267
00000040: 6d6e 75a0 5b9a 9d59 6f69 8bce 7f70 7565
00000050: 6b72 7461 7c67 7c7c 8bb1 9f7f b86c a27f
00000060: 16de d0e9 19d2 ee1e e100 ee0d 03f2 e80f
00000070: 15ff 1207 10be de16 0ef2 bee7 f1ff 2a2a
00000080: 3a32 0001 0501 0f1a ea1b eaea 910b c31d
00000090: 7663 819d 7a54 6b7e 927c ad7f b281 817f
000000a0: 7f7b 6e96 759c 8575 7f7b 9081 307a 7f7f
000000b0: 777d 7f6b 6f7b 7f7f a4a8 816a b17a 8962
000000c0: 7f7f 9881 6a59 777f 817f b37e cc82 8673
000000d0: 747f 7f81 7f81 817f 7e7f af95 3b7f 7e74
000000e0: 617f 7e7f 737f 767d bc81 8167 e57f b355
000000f0: 13d9 dff7 03dd fc18 dd01 e81a cfed e01a
100 30 -77 -68 116 25 126 112
-83 106 -127 109 -127 -96 -81 114
115 96 100 -75 87 -84 -113 87
113 89 -121 -69 106 102 117 117
127 115 112 97 127 98 126 118
-127 -54 -96 117 -111 104 -127 126
111 62 -63 -57 127 35 127 113
-94 113 -125 112 -111 -100 -78 103
109 110 117 -96 91 -102 -99 89
111 105 -117 -50 127 112 117 101
107 114 116 97 124 103 124 124
-117 -79 -97 127 -72 108 -94 127
22 -34 -48 -23 25 -46 -18 30
-31 0 -18 13 3 -14 -24 15
21 -1 18 7 16 -66 -34 22
14 -14 -66 -25 -15 -1 42 42
58 50 0 1 5 1 15 26
-22 27 -22 -22 -111 11 -61 29
118 99 -127 -99 122 84 107 126
-110 124 -83 127 -78 -127 -127 127
127 123 110 -106 117 -100 -123 117
127 123 -112 -127 48 122 127 127
119 125 127 107 111 123 127 127
-92 -88 -127 106 -79 122 -119 98
127 127 -104 -127 106 89 119 127
-127 127 -77 126 -52 -126 -122 115
116 127 127 -127 127 -127 -127 127
126 127 -81 -107 59 127 126 116
97 127 126 127 115 127 118 125
-68 -127 -127 103 -27 127 -77 85
19 -39 -33 -9 3 -35 -4 24
-35 1 -24 26 -49 -19 -32 26

sequential/model/block_13_expand/Conv2D i1 [48, 1, 1, 8]
00000000: 271c 0947 818f e1f9 2532 a881 13dd 0f3c
00000010: 7fbf 49a9 e871 4661 ea61 7f18 fefc 4e2b
00000020: ed7f 4beb 79ce 3ef7 cedc 7f69 0123 f6d5
00000030: cc32 e97b c944 7f2b fee2 6695 cfc9 7f08
00000040: 4d7f 5427 27cf cfea 3318 81bb 18e5 ee40
00000050: 0c5f e2fa ef6b 957f 8115 180d 20db f432
00000060: 7f1b 2b1a fe2f fc4c b146 e881 eda8 3be2
00000070: fd2c 4d81 2449 0d0d 0524 9463 2530 81fd
00000080: a64c df81 eba3 45e2 0651 ecd5 f159 0a81
00000090: af81 b4e0 d82e 3812 8116 39f9 f7df 35e2
000000a0: 1cd2 3605 8111 e2fc 177f 53d3 60cf 3bee
000000b0: ecd9 7fbe ed3a 12d8 03a9 dd39 7a8f 3181
000000c0: 7fdd edf2 dc20 07d4 c581 a405 c06f b2ef
000000d0: b30b 27f5 edeb 7feb 81eb c9e9 f999 71f5
000000e0: 2c81 3bc9 8643 2ad2 6aa8 257f 186e be1e
000000f0: c936 134b c11e 7f47 462c 5b2a 7f1a 175a
39 28 9 71 -127 -113 -31 -7
37 50 -88 -127 19 -35 15 60
127 -65 73 -87 -24 113 70 97
-22 97 127 24 -2 -4 78 43
-19 127 75 -21 121 -50 62 -9
-50 -36 127 105 1 35 -10 -43
-52 50 -23 123 -55 68 127 43
-2 -30 102 -107 -49 -55 127 8
77 127 84 39 39 -49 -49 -22
51 24 -127 -69 24 -27 -18 64
12 95 -30 -6 -17 107 -107 127
-127 21 24 13 32 -37 -12 50
127 27 43 26 -2 47 -4 76
-79 70 -24 -127 -19 -88 59 -30
-3 44 77 -127 36 73 13 13
5 36 -108 99 37 48 -127 -3
-90 76 -33 -127 -21 -93 69 -30
6 81 -20 -43 -15 89 10 -127
-81 -127 -76 -32 -40 46 56 18
-127 22 57 -7 -9 -33 53 -30
28 -46 54 5 -127 17 -30 -4
23 127 83 -45 96 -49 59 -18
-20 -39 127 -66 -19 58 18 -40
3 -87 -35 57 122 -113 49 -127
127 -35 -19 -14 -36 32 7 -44
-59 -127 -92 5 -64 111 -78 -17
-77 11 39 -11 -19 -21 127 -21
-127 -21 -55 -23 -7 -103 113 -11
44 -127 59 -55 -122 67 42 -46
106 -88 37 127 24 110 -66 30
-55 54 19 75 -63 30 127 71
70 44 91 42 127 26 23 90

sequential/model/block_12_project/Conv2D i1 [8, 1, 1, 48]
00000000: d99a 411b f6fd 0e29 ed09 d751 2829 a90c
00000010: 73fe efef f5f3 baf6 88df e5d6 f123 1116
00000020: 2cfe 26fd 11e5 f023 0912 f524 29ed 7f35
00000030: 0b28 deed f40e 02ee 08cd ed21 f6f8 fe00
00000040: f8f2 15bb 36d7 0cd6 1234 ba81 d713 28d4
00000050: 14d8 2de5 f5d8 20cf 0117 340e f720 f2eb
00000060: d32c 0643 f7e5 dcee 58f1 1892 4cf2 023f
00000070: 7f4d a5ef dafb 294e d7b5 5fb4 eedf e3fe
00000080: ed95 380f ead7 aed2 21f1 1bfe 9627 f7cf
00000090: 17d8 12f6 2a0f 2e20 f375 b192 c631 f6f8
000000a0: bb2d e6f5 25de e27f f705 fca8 f7c7 0dfc
000000b0: edd8 f4e7 0b05 0e04 ece6 f5f4 dfe7 3d3a
000000c0: 08c3 31fb fafa 1513 192c e113 f100 7230
000000d0: 0fe7 de00 e0e3 c6f6 7fc5 e1cc fe10 10e5
000000e0: 2bf0 1340 3063 02d6 c715 11fd 0bd4 1229
000000f0: 01da edc4 1bd9 0908 c2a2 00ca d8f2 2dd6
-39 -102 65 27 -10 -3 14 41
-19 9 -41 81 40 41 -87 12
115 -2 -17 -17 -11 -13 -70 -10
-120 -33 -27 -42 -15 35 17 22
44 -2 38 -3 17 -27 -16 35
9 18 -11 36 41 -19 127 53
11 40 -34 -19 -12 14 2 -18
8 -51 -19 33 -10 -8 -2 0
-8 -14 21 -69 54 -41 12 -42
18 52 -70 -127 -41 19 40 -44
20 -40 45 -27 -11 -40 32 -49
1 23 52 14 -9 32 -14 -21
-45 44 6 67 -9 -27 -36 -18
88 -15 24 -110 76 -14 2 63
127 77 -91 -17 -38 -5 41 78
-41 -75 95 -76 -18 -33 -29 -2
-19 -107 56 15 -22 -41 -82 -46
33 -15 27 -2 -106 39 -9 -49
23 -40 18 -10 42 15 46 32
-13 117 -79 -110 -58 49 -10 -8
-69 45 -26 -11 37 -34 -30 127
-9 5 -4 -88 -9 -57 13 -4
-19 -40 -12 -25 11 5 14 4
-20 -26 -11 -12 -33 -25 61 58
8 -61 49 -5 -6 -6 21 19
25 44 -31 19 -15 0 114 48
15 -25 -34 0 -32 -29 -58 -10
127 -59 -31 -52 -2 16 16 -27
43 -16 19 64 48 99 2 -42
-57 21 17 -3 11 -44 18 41
1 -38 -19 -60 27 -39 9 8
-62 -94 0 -54 -40 -14 45 -42

sequential/model/block_12_depthwise_BN/FusedBatchNormV3;sequential/model/block_12_depthwise/depthwise;sequential/model/block_16_depthwise/depthwise i1 [1, 3, 3, 48]
00000000: 7fcd d8a5 e4b9 a739 2e26 2e15 e402 54aa
00000010: 5181 81d4 1a2f 2950 dcdc f73d faed 19ff
00000020: aacb d548 9fe5 1b2c 1c06 5cbe 0513 3deb
00000030: c6f9 f5cc 038c 8f14 7f09 7f1f 7f3b e30c
00000040: 07df 20ac 1a35 1ce0 cb0f f5e4 a51f e5f1
00000050: 8681 b7ff fce4 277f af26 50f0 ec10 0194
00000060: 6cd4 e4a2 f5c0 f227 181f 1812 dd1e 589b
00000070: 4a9b a9d8 0f23 2853 eae7 003c 03ea 11fe
00000080: ced9 db49 4be5 1612 1e01 4bbd fd02 3b05
00000090: 2911 3dc6 392c fffe 5003 5d14 453d 4b01
000000a0: 1ef5 25c9 1553 1ffb 26df fbee 7f13 27ea
000000b0: acc9 7f08 9c01 1059 ed2f 38b3 f081 0c2d
000000c0: 187f f181 7f81 a27f 3681 e281 01d1 8181
000000d0: 810e 677f 8181 8181 7f7f 7f81 e37f 7f81
000000e0: 7f27 0e81 7f7f 81ce 81e0 8181 7ffb 817f
000000f0: 24ff 2bb0 2421 f2e2 5905 451e 402b 14f3
127 -51 -40 -91 -28 -71 -89 57
46 38 46 21 -28 2 84 -86
81 -127 -127 -44 26 47 41 80
-36 -36 -9 61 -6 -19 25 -1
-86 -53 -43 72 -97 -27 27 44
28 6 92 -66 5 19 61 -21
-58 -7 -11 -52 3 -116 -113 20
127 9 127 31 127 59 -29 12
7 -33 32 -84 26 53 28 -32
-53 15 -11 -28 -91 31 -27 -15
-122 -127 -73 -1 -4 -28 39 127
-81 38 80 -16 -20 16 1 -108
108 -44 -28 -94 -11 -64 -14 39
24 31 24 18 -35 30 88 -101
74 -101 -87 -40 15 35 40 83
-22 -25 0 60 3 -22 17 -2
-50 -39 -37 73 75 -27 22 18
30 1 75 -67 -3 2 59 5
41 17 61 -58 57 44 -1 -2
80 3 93 20 69 61 75 1
30 -11 37 -55 21 83 31 -5
38 -33 -5 -18 127 19 39 -22
-84 -55 127 8 -100 1 16 89
-19 47 56 -77 -16 -127 12 45
24 127 -15 -127 127 -127 -94 127
54 -127 -30 -127 1 -47 -127 -127
-127 14 103 127 -127 -127 -127 -127
127 127 127 -127 -29 127 127 -127
127 39 14 -127 127 127 -127 -50
-127 -32 -127 -127 127 -5 -127 127
36 -1 43 -80 36 33 -14 -30
89 5 69 30 64 43 20 -13

sequential/model/block_12_expand/Conv2D i1 [48, 1, 1, 8]
00000000: 14d5 ee29 7f0a defd 9115 71c7 a1a9 ce7f
00000010: 8129 f409 bdf5 1bd1 7fed d508 ed1a c048
00000020: 8122 320d ef11 0ee9 0475 8114 24ac e649
00000030: 6110 817f fd41 fd44 7bed 1b07 2016 7f1f
00000040: 61e4 8145 da44 eee7 02ba 0755 2d89 f87f
00000050: dafe 4081 e6ee 36fb 5d18 8881 1b90 0a52
00000060: 8145 9055 dc3b 4fcf abfa f80b 1cbf 7f13
00000070: d2de 07fe 7f2e eb61 fb7f 2f08 f8f7 21dc
00000080: 3ce3 7fac 25e2 2153 e806 6c7e e27f 0ccd
00000090: ddf1 018d dd7f 1529 eb40 34e9 3381 110b
000000a0: de68 e54e a845 7f59 448c 40a9 b648 8178
000000b0: bbca 29dd ee81 d241 e0cb 6e7f e218 f0f5
000000c0: a5f5 f5de 7f23 0933 a671 2ede 9c07 ed81
000000d0: d081 56d0 2087 2210 e681 cfcb de27 dcf5
000000e0: ceb4 24ce fdc8 467f d506 2683 1c81 084b
000000f0: 287f 00e4 519d 500a e13d a20b 811a 57e4
20 -43 -18 41 127 10 -34 -3
-111 21 113 -57 -95 -87 -50 127
-127 41 -12 9 -67 -11 27 -47
127 -19 -43 8 -19 26 -64 72
-127 34 50 13 -17 17 14 -23
4 117 -127 20 36 -84 -26 73
97 16 -127 127 -3 65 -3 68
123 -19 27 7 32 22 127 31
97 -28 -127 69 -38 68 -18 -25
2 -70 7 85 45 -119 -8 127
-38 -2 64 -127 -26 -18 54 -5
93 24 -120 -127 27 -112 10 82
-127 69 -112 85 -36 59 79 -49
-85 -6 -8 11 28 -65 127 19
-46 -34 7 -2 127 46 -21 97
-5 127 47 8 -8 -9 33 -36
60 -29 127 -84 37 -30 33 83
-24 6 108 126 -30 127 12 -51
-35 -15 1 -115 -35 127 21 41
-21 64 52 -23 51 -127 17 11
-34 104 -27 78 -88 69 127 89
68 -116 64 -87 -74 72 -127 120
-69 -54 41 -35 -18 -127 -46 65
-32 -53 110 127 -30 24 -16 -11
-91 -11 -11 -34 127 35 9 51
-90 113 46 -34 -100 7 -19 -127
-48 -127 86 -48 32 -121 34 16
-26 -127 -49 -53 -34 39 -36 -11
-50 -76 36 -50 -3 -56 70 127
-43 6 38 -125 28 -127 8 75
40 127 0 -28 81 -99 80 10
-31 61 -94 11 -127 26 87 -28

sequential/model/block_11_project/Conv2D i1 [8, 1, 1, 48]
00000000: b37f 08c0 1fca 05a9 ebc7 dffd 2eee bbd8
00000010: 76e6 d507 fe02 1c38 40f7 411f 0b06 3dc7
00000020: e215 3d30 0ddf 14df d0c7 df10 9fe6 55d9
00000030: 2f00 d1de 27fd 24c6 d4fc ebf2 04f8 5d42
00000040: eddf 34f6 0b57 4dc2 1e27 db39 c223 18d2
00000050: a001 c80b 9d2d 2a81 fee3 0de6 cf05 eef5
00000060: 37dc d794 bb26 a538 0152 0bfe da1b 0659
00000070: 050f e506 1ca1 0eee ef49 fd19 0d18 8115
00000080: f87c 8c1f ea03 3800 a047 c135 6828 5aac
00000090: d731 e729 a4de 7f7a b3d0 fa09 e3cb f0ef
000000a0: 2930 bbb1 3d42 3012 10c8 e9fa 0bbf baed
000000b0: f002 9ce1 410b e6ff c8e6 efd7 68e2 e9c5
000000c0: 2af9 31f5 0700 02f1 f704 23fe e407 d62f
000000d0: 1bf2 f707 01db e416 16fd 0ee1 2915 0eec
000000e0: ccff 12d6 ca01 f77f fd0d 0610 0203 1007
000000f0: d4dc eee3 28a0 0a40 3a0b f7bb ecf3 23e7
-77 127 8 -64 31 -54 5 -87
-21 -57 -33 -3 46 -18 -69 -40
118 -26 -43 7 -2 2 28 56
64 -9 65 31 11 6 61 -57
-30 21 61 48 13 -33 20 -33
-48 -57 -33 16 -97 -26 85 -39
47 0 -47 -34 39 -3 36 -58
-44 -4 -21 -14 4 -8 93 66
-19 -33 52 -10 11 87 77 -62
30 39 -37 57 -62 35 24 -46
-96 1 -56 11 -99 45 42 -127
-2 -29 13 -26 -49 5 -18 -11
55 -36 -41 -108 -69 38 -91 56
1 82 11 -2 -38 27 6 89
5 15 -27 6 28 -95 14 -18
-17 73 -3 25 13 24 -127 21
-8 124 -116 31 -22 3 56 0
-96 71 -63 53 104 40 90 -84
-41 49 -25 41 -92 -34 127 122
-77 -48 -6 9 -29 -53 -16 -17
41 48 -69 -79 61 66 48 18
16 -56 -23 -6 11 -65 -70 -19
-16 2 -100 -31 65 11 -26 -1
-56 -26 -17 -41 104 -30 -23 -59
42 -7 49 -11 7 0 2 -15
-9 4 35 -2 -28 7 -42 47
27 -14 -9 7 1 -37 -28 22
22 -3 14 -31 41 21 14 -20
-52 -1 18 -42 -54 1 -9 127
-3 13 6 16 2 3 16 7
-44 -36 -18 -29 40 -96 10 64
58 11 -9 -69 -20 -13 35 -25

sequential/model/block_11_depthwise_BN/FusedBatchNormV3;sequential/model/block_11_depthwise/depthwise;sequential/model/block_16_depthwise/depthwise i1 [1, 3, 3, 48]
00000000: dbb1 f77f c211 03da 18ef e2d4 e4f2 2dfe
00000010: d2d8 ff8c 233d 1b17 063e 8808 1004 48f7
00000020: 1957 e920 0ff3 060a 9761 0bc1 19d5 a827
00000030: dfa0 956e b71b 13c7 4790 d14d 7f5d 412d
00000040: bc81 06dc 7f51 df0d 7f71 a716 0324 6d23
00000050: 007f 0354 52fd 023a c935 fe2f 5a17 717f
00000060: e8ef f76f b700 0ce3 09f6 e8db d1d8 26ea
00000070: d2fc 1681 1737 2810 fd33 8102 0bf6 28f9
00000080: 161a eb00 0cf8 fa05 c24b 0717 09df b804
00000090: c881 8961 c107 15be 67a5 dbe0 034c b72a
000000a0: 9274 78bf f23c 5ae1 d7ec e615 ef4b 7f03
000000b0: 0831 1532 6006 7f3e a205 dd81 47d2 3a01
000000c0: 98e3 4d6a 817f 817f 7f81 81fe 857f 7f7f
000000d0: d4fa 55df e47f 8181 e936 907f 7f7f df7f
000000e0: 817a 7f7f 817f ed81 7f81 7f74 7f81 7fef
000000f0: b0a2 8433 bd00 14e3 3c9e d2ef c959 22fa
-37 -79 -9 127 -62 17 3 -38
24 -17 -30 -44 -28 -14 45 -2
-46 -40 -1 -116 35 61 27 23
6 62 -120 8 16 4 72 -9
25 87 -23 32 15 -13 6 10
-105 97 11 -63 25 -43 -88 39
-33 -96 -107 110 -73 27 19 -57
71 -112 -47 77 127 93 65 45
-68 -127 6 -36 127 81 -33 13
127 113 -89 22 3 36 109 35
0 127 3 84 82 -3 2 58
-55 53 -2 47 90 23 113 127
-24 -17 -9 111 -73 0 12 -29
9 -10 -24 -37 -47 -40 38 -22
-46 -4 22 -127 23 55 40 16
-3 51 -127 2 11 -10 40 -7
22 26 -21 0 12 -8 -6 5
-62 75 7 23 9 -33 -72 4
-56 -127 -119 97 -63 7 21 -66
103 -91 -37 -32 3 76 -73 42
-110 116 120 -65 -14 60 90 -31
-41 -20 -26 21 -17 75 127 3
8 49 21 50 96 6 127 62
-94 5 -35 -127 71 -46 58 1
-104 -29 77 106 -127 127 -127 127
127 -127 -127 -2 -123 127 127 127
-44 -6 85 -33 -28 127 -127 -127
-23 54 -112 127 127 127 -33 127
-127 122 127 127 -127 127 -19 -127
127 -127 127 116 127 -127 127 -17
-80 -94 -124 51 -67 0 20 -29
60 -98 -46 -17 -55 89 34 -6

sequential/model/block_11_expand/Conv2D i1 [48, 1, 1, 8]
00000000: 8c7f f5de 56fd 19a2 abd8 2ae3 0402 1c7f
00000010: b329 9d7d af3e b981 3181 10f3 fda7 f210
00000020: 2028 b081 ffe4 0120 d851 33fa 81b9 049d
00000030: b74f a27f eb08 4335 5357 cf81 06be 0a2c
00000040: d68d 3e81 bf08 b011 813d 240c ab2e 7d48
00000050: fbab 3ee0 c081 2976 7f0a 5efc bbb0 0b57
00000060: 7f10 d2ce df36 f31d f7b4 04de 2703 8110
00000070: b667 4ee8 81fa 0963 f01f 7fbc 69c2 39f3
00000080: 258b 29ca 167f 25d6 f8a5 2359 52d0 217f
00000090: c666 1a81 ef3f 30dc ea0b f9d2 fa7f c8a4
000000a0: 05b5 9681 e04e f4a0 7f5e 50ea 955b 52a4
000000b0: 7f3e 2f21 003c d5fe 4981 e23a 1194 383c
000000c0: 7f3c 55f9 5a09 fbee 036a 7fad ab27 a5da
000000d0: 20b2 8106 fdee d9d8 21c2 e317 4f81 a99d
000000e0: b6da cadd 81dd 11f3 0dea 389e 1e7f 2bfc
000000f0: 5817 f681 0d90 174e 9fc9 33c0 dcfb 127f
-116 127 -11 -34 86 -3 25 -94
-85 -40 42 -29 4 2 28 127
-77 41 -99 125 -81 62 -71 -127
49 -127 16 -13 -3 -89 -14 16
32 40 -80 -127 -1 -28 1 32
-40 81 51 -6 -127 -71 4 -99
-73 79 -94 127 -21 8 67 53
83 87 -49 -127 6 -66 10 44
-42 -115 62 -127 -65 8 -80 17
-127 61 36 12 -85 46 125 72
-5 -85 62 -32 -64 -127 41 118
127 10 94 -4 -69 -80 11 87
127 16 -46 -50 -33 54 -13 29
-9 -76 4 -34 39 3 -127 16
-74 103 78 -24 -127 -6 9 99
-16 31 127 -68 105 -62 57 -13
37 -117 41 -54 22 127 37 -42
-8 -91 35 89 82 -48 33 127
-58 102 26 -127 -17 63 48 -36
-22 11 -7 -46 -6 127 -56 -92
5 -75 -106 -127 -32 78 -12 -96
127 94 80 -22 -107 91 82 -92
127 62 47 33 0 60 -43 -2
73 -127 -30 58 17 -108 56 60
127 60 85 -7 90 9 -5 -18
3 106 127 -83 -85 39 -91 -38
32 -78 -127 6 -3 -18 -39 -40
33 -62 -29 23 79 -127 -87 -99
-74 -38 -54 -35 -127 -35 17 -13
13 -22 56 -98 30 127 43 -4
88 23 -10 -127 13 -112 23 78
-97 -55 51 -64 -36 -5 18 127

sequential/model/block_10_project/Conv2D i1 [8, 1, 1, 48]
00000000: ef0c 7111 c2d2 d11c 48f5 be14 0fca f0f3
00000010: ee01 f8e2 06b0 e47f 033a b010 2a15 e212
00000020: e73f 440a 07ee e2fc e437 1909 b405 3ae8
00000030: ed07 ff16 ebda e701 16ec 0a02 05f7 0c08
00000040: 20f9 1a55 e5d7 0bf3 fef2 81ea 2ae4 f9e0
00000050: e108 2e19 f7fb 0300 e2f9 fff4 2101 2de6
00000060: fed9 34d7 6224 21f8 5138 faab 0e15 21af
00000070: 02ba 0707 f3e4 402f 2007 d1d6 b844 703e
00000080: 7f30 56eb 473d 3209 67b1 233b 4bea 9f2d
00000090: 219f fe2b eddb 381c 21d5 d424 e9df d8f8
000000a0: f012 f711 edc3 f718 d714 c10f 81f2 2ce6
000000b0: c8e1 2d33 f7e3 e10c 4f13 cf20 dcf9 a6f4
000000c0: fe19 fab0 1913 f3e7 22e5 2af5 d82c eed7
000000d0: 1f11 0724 6e7f d15d f11f a358 3022 0a0a
000000e0: 28e0 8cf6 dacb 0bef bbf6 4831 28fa f208
000000f0: 1a04 cb18 def6 3f28 2901 5609 d665 011c
-17 12 113 17 -62 -46 -47 28
72 -11 -66 20 15 -54 -16 -13
-18 1 -8 -30 6 -80 -28 127
3 58 -80 16 42 21 -30 18
-25 63 68 10 7 -18 -30 -4
-28 55 25 9 -76 5 58 -24
-19 7 -1 22 -21 -38 -25 1
22 -20 10 2 5 -9 12 8
32 -7 26 85 -27 -41 11 -13
-2 -14 -127 -22 42 -28 -7 -32
-31 8 46 25 -9 -5 3 0
-30 -7 -1 -12 33 1 45 -26
-2 -39 52 -41 98 36 33 -8
81 56 -6 -85 14 21 33 -81
2 -70 7 7 -13 -28 64 47
32 7 -47 -42 -72 68 112 62
127 48 86 -21 71 61 50 9
103 -79 35 59 75 -22 -97 45
33 -97 -2 43 -19 -37 56 28
33 -43 -44 36 -23 -33 -40 -8
-16 18 -9 17 -19 -61 -9 24
-41 20 -63 15 -127 -14 44 -26
-56 -31 45 51 -9 -29 -31 12
79 19 -49 32 -36 -7 -90 -12
-2 25 -6 -80 25 19 -13 -25
34 -27 42 -11 -40 44 -18 -41
31 17 7 36 110 127 -47 93
-15 31 -93 88 48 34 10 10
40 -32 -116 -10 -38 -53 11 -17
-69 -10 72 49 40 -6 -14 8
26 4 -53 24 -34 -10 63 40
41 1 86 9 -42 101 1 28

sequential/model/block_10_depthwise_BN/FusedBatchNormV3;sequential/model/block_10_depthwise/depthwise;sequential/model/block_16_depthwise/depthwise i1 [1, 3, 3, 48]
00000000: db06 154d f830 2201 edf9 c802 85e4 8425
00000010: aa66 c730 6324 143a f90e ea0e dcf0 1229
00000020: 04ee e4d5 437b 34be c04f fa1f f6f3 f123
00000030: da04 f65c f33a bb91 02d4 e212 7f7f f9f7
00000040: 7e31 c536 82eb f328 0c55 ce2d cd88 172d
00000050: 8181 0f69 1174 b3c2 a7dd 2a05 347f f0f4
00000060: d40e 1935 032f 0a08 f5f3 d10f 51fd f41a
00000070: bc57 c10a 6827 f331 0aff f01e dd07 101b
00000080: 00e4 ded1 8d67 fec2 a94b b51a eded fa16
00000090: f315 1108 b520 7f56 f422 e936 8689 e635
000000a0: 6839 0e3f 6e2c 6464 7ff5 d5c8 c3d6 1c0e
000000b0: eef8 d012 5abc 70be 9e33 3cf8 1479 d008
000000c0: 8181 7f7f 8f81 0a7f 7f0a 817f 16c4 6d7f
000000d0: 5a7f b17f f481 8181 0ffb 7f0a 7f81 8181
000000e0: 705e 7f81 3125 1bf0 217f 7f38 7f06 7f6d
000000f0: 1e18 1e10 a81b 043a 011c f720 35a3 7f20
-37 6 21 77 -8 48 34 1
-19 -7 -56 2 -123 -28 -124 37
-86 102 -57 48 99 36 20 58
-7 14 -22 14 -36 -16 18 41
4 -18 -28 -43 67 123 52 -66
-64 79 -6 31 -10 -13 -15 35
-38 4 -10 92 -13 58 -69 -111
2 -44 -30 18 127 127 -7 -9
126 49 -59 54 -126 -21 -13 40
12 85 -50 45 -51 -120 23 45
-127 -127 15 105 17 116 -77 -62
-89 -35 42 5 52 127 -16 -12
-44 14 25 53 3 47 10 8
-11 -13 -47 15 81 -3 -12 26
-68 87 -63 10 104 39 -13 49
10 -1 -16 30 -35 7 16 27
0 -28 -34 -47 -115 103 -2 -62
-87 75 -75 26 -19 -19 -6 22
-13 21 17 8 -75 32 127 86
-12 34 -23 54 -122 -119 -26 53
104 57 14 63 110 44 100 100
127 -11 -43 -56 -61 -42 28 14
-18 -8 -48 18 90 -68 112 -66
-98 51 60 -8 20 121 -48 8
-127 -127 127 127 -113 -127 10 127
127 10 -127 127 22 -60 109 127
90 127 -79 127 -12 -127 -127 -127
15 -5 127 10 127 -127 -127 -127
112 94 127 -127 49 37 27 -16
33 127 127 56 127 6 127 109
30 24 30 16 -88 27 4 58
1 28 -9 32 53 -93 127 32

sequential/model/block_10_expand/Conv2D i1 [48, 1, 1, 8]
00000000: e999 0b7f f355 e2e2 0700 367f f030 14d5
00000010: 7196 8123 59fa 27a4 441b 4426 818f 1448
00000020: 81e0 55c2 02be 60f1 fadc 3900 f081 3437
00000030: 5458 be81 eca9 3203 28bc d412 fb52 7f5f
00000040: 7ffb 69ef 560d 494b 81ac 3281 1e52 7dae
00000050: 0a32 ea47 81b1 e2d6 9eb1 e1fb b381 2f47
00000060: 81d5 ea4b 5a52 1036 c7fd 18b2 76c0 ca7f
00000070: 3f4f 7f82 cb3c e5e6 1a03 dfb7 ea7f 25a1
00000080: b781 c733 a620 d5e6 60b4 01eb 7c98 2a81
00000090: e6e4 0d11 0a50 0d81 d77f 2a0c 482e d9be
000000a0: fc01 b113 81df 3f8d 7f64 f844 dd21 59a6
000000b0: 32bd 7ac2 30df 817c 7fbb 0a10 3d01 1802
000000c0: 7f7b 0325 a52c 4cb8 81d9 028a efc8 36cb
000000d0: 1f81 ae98 c37b e733 adee dab1 e120 7fa0
000000e0: 384d 9481 1dc3 f538 33ed 09e3 7fdc 08c6
000000f0: 542a 8e81 20ce d81f ec35 f609 fa36 7f0c
-23 -103 11 127 -13 85 -30 -30
7 0 54 127 -16 48 20 -43
113 -106 -127 35 89 -6 39 -92
68 27 68 38 -127 -113 20 72
-127 -32 85 -62 2 -66 96 -15
-6 -36 57 0 -16 -127 52 55
84 88 -66 -127 -20 -87 50 3
40 -68 -44 18 -5 82 127 95
127 -5 105 -17 86 13 73 75
-127 -84 50 -127 30 82 125 -82
10 50 -22 71 -127 -79 -30 -42
-98 -79 -31 -5 -77 -127 47 71
-127 -43 -22 75 90 82 16 54
-57 -3 24 -78 118 -64 -54 127
63 79 127 -126 -53 60 -27 -26
26 3 -33 -73 -22 127 37 -95
-73 -127 -57 51 -90 32 -43 -26
96 -76 1 -21 124 -104 42 -127
-26 -28 13 17 10 80 13 -127
-41 127 42 12 72 46 -39 -66
-4 1 -79 19 -127 -33 63 -115
127 100 -8 68 -35 33 89 -90
50 -67 122 -62 48 -33 -127 124
127 -69 10 16 61 1 24 2
127 123 3 37 -91 44 76 -72
-127 -39 2 -118 -17 -56 54 -53
31 -127 -82 -104 -61 123 -25 51
-83 -18 -38 -79 -31 32 127 -96
56 77 -108 -127 29 -61 -11 56
51 -19 9 -29 127 -36 8 -58
84 42 -114 -127 32 -50 -40 31
-20 53 -10 9 -6 54 127 12

sequential/model/block_9_project/Conv2D i1 [8, 1, 1, 48]
00000000: b456 fc0d b0df 3fc6 2829 fd40 4456 6ee6
00000010: fef4 0a19 521c f1dd 3805 dacb da3a 2825
00000020: 1cbd ebe1 d025 12ed 7f33 1b15 3bcf 4113
00000030: 1e3b 4747 d0ad cdb2 c2d3 3e42 3718 d313
00000040: 9d4a 9936 d0df 65f5 d3a8 ceb0 4e70 d7e7
00000050: 660d 1ec6 13f2 e82a ef77 813a 8dc0 f627
00000060: 3c0e 660a 3531 9b2d 040e 1ad4 a6df 0aaf
00000070: e0d3 0164 020d dc28 4419 074e 01ab d1fd
00000080: f34e d301 cefb 81f5 d310 39db 1f53 1307
00000090: daeb 8121 0b21 1d3e ea29 37ed 032b 2e16
000000a0: 05e8 ccda 14ff 18f2 e041 f828 f2df fd01
000000b0: d847 24f5 2e10 34ff f213 0f3e fbcb 0535
000000c0: a7e8 f40c f8ce 03eb 2509 7f12 dff0 09f8
000000d0: 2c47 10fd e000 d6ee f0e0 1f27 1ef3 c800
000000e0: d1e8 512f cbe9 3ef6 301c f3f6 00ed 022e
000000f0: 0ecc 7fcf 1932 6b3d f0ae e4ed 06f3 f5c2
-76 86 -4 13 -80 -33 63 -58
40 41 -3 64 68 86 110 -26
-2 -12 10 25 82 28 -15 -35
56 5 -38 -53 -38 58 40 37
28 -67 -21 -31 -48 37 18 -19
127 51 27 21 59 -49 65 19
30 59 71 71 -48 -83 -51 -78
-62 -45 62 66 55 24 -45 19
-99 74 -103 54 -48 -33 101 -11
-45 -88 -50 -80 78 112 -41 -25
102 13 30 -58 19 -14 -24 42
-17 119 -127 58 -115 -64 -10 39
60 14 102 10 53 49 -101 45
4 14 26 -44 -90 -33 10 -81
-32 -45 1 100 2 13 -36 40
68 25 7 78 1 -85 -47 -3
-13 78 -45 1 -50 -5 -127 -11
-45 16 57 -37 31 83 19 7
-38 -21 -127 33 11 33 29 62
-22 41 55 -19 3 43 46 22
5 -24 -52 -38 20 -1 24 -14
-32 65 -8 40 -14 -33 -3 1
-40 71 36 -11 46 16 52 -1
-14 19 15 62 -5 -53 5 53
-89 -24 -12 12 -8 -50 3 -21
37 9 127 18 -33 -16 9 -8
44 71 16 -3 -32 0 -42 -18
-16 -32 31 39 30 -13 -56 0
-47 -24 81 47 -53 -23 62 -10
48 28 -13 -10 0 -19 2 46
14 -52 127 -49 25 50 107 61
-16 -82 -28 -19 6 -13 -11 -62

sequential/model/block_9_depthwise_BN/FusedBatchNormV3;sequential/model/block_9_depthwise/depthwise;sequential/model/block_16_depthwise/depthwise i1 [1, 3, 3, 48]
00000000: 37f2 0501 13a0 df07 2b00 22e1 0acd 0836
00000010: d093 bd1a 1014 ea73 7f08 c403 1f06 e0ca
00000020: efeb e9e7 eae4 3c13 0eec e6f2 18c7 1ee3
00000030: 7fff e301 12fc efd6 def2 30e6 2581 1582
00000040: c484 d47f 7ffc d4e0 6fd1 c6b2 4b22 d5e4
00000050: 16ec 8128 9d25 15a3 6bea b3f1 6681 8137
00000060: 42f6 feeb 1b52 d204 3505 27e8 f7dd 093c
00000070: dc8c c711 1fe3 f681 6a01 7f13 1906 d001
00000080: cfef d4fb f7ec 342d 11f6 f302 1dd2 18ef
00000090: 52ec a14e f383 18ef fb81 4ffc f70f f87f
000000a0: 19a3 e002 0a81 cec6 ef1d e70c 3c1e 209b
000000b0: f3fd 10b4 4668 7fac e2f2 f8fb 113f 877f
000000c0: 0ec4 517f 812b 81e9 7f51 187f c7ae 7f28
000000d0: 3040 7f82 dd3f 7f0a cf7f 1e04 7f7f 8137
000000e0: 7f7f f77f b545 c3c0 817f 7f81 81f3 2800
000000f0: 3906 9d17 047f 0c7f e641 4ce2 1703 e34e
55 -14 5 1 19 -96 -33 7
43 0 34 -31 10 -51 8 54
-48 -109 -67 26 16 20 -22 115
127 8 -60 3 31 6 -32 -54
-17 -21 -23 -25 -22 -28 60 19
14 -20 -26 -14 24 -57 30 -29
127 -1 -29 1 18 -4 -17 -42
-34 -14 48 -26 37 -127 21 -126
-60 -124 -44 127 127 -4 -44 -32
111 -47 -58 -78 75 34 -43 -28
22 -20 -127 40 -99 37 21 -93
107 -22 -77 -15 102 -127 -127 55
66 -10 -2 -21 27 82 -46 4
53 5 39 -24 -9 -35 9 60
-36 -116 -57 17 31 -29 -10 -127
106 1 127 19 25 6 -48 1
-49 -17 -44 -5 -9 -20 52 45
17 -10 -13 2 29 -46 24 -17
82 -20 -95 78 -13 -125 24 -17
-5 -127 79 -4 -9 15 -8 127
25 -93 -32 2 10 -127 -50 -58
-17 29 -25 12 60 30 32 -101
-13 -3 16 -76 70 104 127 -84
-30 -14 -8 -5 17 63 -121 127
14 -60 81 127 -127 43 -127 -23
127 81 24 127 -57 -82 127 40
48 64 127 -126 -35 63 127 10
-49 127 30 4 127 127 -127 55
127 127 -9 127 -75 69 -61 -64
-127 127 127 -127 -127 -13 40 0
57 6 -99 23 4 127 12 127
-26 65 76 -30 23 3 -29 78
