src/lib/libtf/models/models/trained.tflite (tflite, 234352 bytes, 54 tensors)

sequential/dense_1/MatMul i1 [3, 108] scale=0.0019076733 zero_point=0
000000 4a 51 67 b1 c6 0e dd 2b 01 2c 34 ca d9 aa 55 29
       0.14116782 0.15452154 0.19649035 -0.15070619 -0.110645056 0.026707426 -0.066768564 0.08202995 0.0019076733 0.08393762 0.09919901 -0.10301436 -0.07439926 -0.1640599 0.16215223 0.07821461
000010 c4 47 4a 74 f6 e9 3c 95 8d 7c bc 12 3f 01 e3 f7
       -0.1144604 0.1354448 0.14116782 0.22129011 -0.019076733 -0.043876488 0.1144604 -0.20412104 -0.21938244 0.2365515 -0.12972179 0.03433812 0.120183416 0.0019076733 -0.055322528 -0.01716906
000020 16 55 ea 36 18 4e f4 9f 27 31 40 cb 49 88 dd 41
       0.04196881 0.16215223 -0.04196881 0.10301436 0.04578416 0.14879853 -0.02289208 -0.18504432 0.07439926 0.09347599 0.12209109 -0.10110669 0.13926016 -0.2289208 -0.066768564 0.12399877
000030 91 cd 05 77 90 97 05 0a 69 e5 18 e1 ab 65 ac 63
       -0.21175174 -0.097291335 0.009538366 0.22701313 -0.2136594 -0.2003057 0.009538366 0.019076733 0.2003057 -0.05150718 0.04578416 -0.059137873 -0.16215223 0.19267501 -0.16024455 0.18885966
000040 d6 b0 90 39 e3 69 61 43 f4 25 03 a4 e3 dc 34 40
       -0.08012228 -0.15261386 -0.2136594 0.10873738 -0.055322528 0.2003057 0.18504432 0.12781411 -0.02289208 0.07058391 0.00572302 -0.17550595 -0.055322528 -0.06867624 0.09919901 0.12209109
000050 fd c0 9d 9a 45 3e b6 e4 7e 6a 89 33 72 c4 ef 24
       -0.00572302 -0.12209109 -0.18885966 -0.19458267 0.13162945 0.11827575 -0.14116782 -0.05341485 0.24036683 0.20221338 -0.22701313 0.097291335 0.21747476 -0.1144604 -0.032430448 0.06867624
000060 37 01 b3 df 22 bf 02 f0 1f 47 52 c9 3f d5 bb 14
       0.104922034 0.0019076733 -0.14689085 -0.06295322 0.064860895 -0.12399877 0.0038153466 -0.030522773 0.059137873 0.1354448 0.15642922 -0.104922034 0.120183416 -0.08202995 -0.13162945 0.038153466
000070 f2 70 ef ef 6d c8 ec ba c9 5f 22 c6 5a cc f9 99
       -0.026707426 0.2136594 -0.032430448 -0.032430448 0.20793639 -0.1068297 -0.038153466 -0.13353713 -0.104922034 0.18122897 0.064860895 -0.110645056 0.1716906 -0.09919901 -0.013353713 -0.19649035
000080 86 0e 63 4b 1d 0f fe eb bf bf 02 db f8 08 e9 58
       -0.23273614 0.026707426 0.18885966 0.1430755 0.055322528 0.0286151 -0.0038153466 -0.04006114 -0.12399877 -0.12399877 0.0038153466 -0.07058391 -0.0152613865 0.0152613865 -0.043876488 0.16787525
000090 cb 61 b1 0d ef f8 3c 73 fa 50 bf e0 61 47 36 f6
       -0.10110669 0.18504432 -0.15070619 0.024799753 -0.032430448 -0.0152613865 0.1144604 0.21938244 -0.01144604 0.15261386 -0.12399877 -0.061045546 0.18504432 0.1354448 0.10301436 -0.019076733
0000a0 7c ff fb 1c bb e6 17 aa da 48 72 18 1b 8a 37 81
       0.2365515 -0.0019076733 -0.009538366 0.05341485 -0.13162945 -0.049599506 0.043876488 -0.1640599 -0.072491586 0.13735248 0.21747476 0.04578416 0.05150718 -0.22510545 0.104922034 -0.24227451
0000b0 24 d0 eb dd 07 24 30 fe 00 0e b0 8e d2 96 d8 e7
       0.06867624 -0.09156832 -0.04006114 -0.066768564 0.013353713 0.06867624 0.09156832 -0.0038153466 0.0 0.026707426 -0.15261386 -0.21747476 -0.087752976 -0.20221338 -0.07630693 -0.047691833
0000c0 bf c3 10 03 36 02 44 2f 30 de 7c e5 0a 14 f2 0b
       -0.12399877 -0.11636807 0.030522773 0.00572302 0.10301436 0.0038153466 0.12972179 0.089660645 0.09156832 -0.064860895 0.2365515 -0.05150718 0.019076733 0.038153466 -0.026707426 0.020984406
0000d0 fc 9b b4 6a 17 f6 49 08 df 47 b2 47 52 da e2 6e
       -0.0076306933 -0.19267501 -0.14498317 0.20221338 0.043876488 -0.019076733 0.13926016 0.0152613865 -0.06295322 0.1354448 -0.14879853 0.1354448 0.15642922 -0.072491586 -0.0572302 0.20984407
0000e0 57 2c 6c 04 93 9f 56 67 ab d2 08 91 42 75 d1 a6
       0.16596758 0.08393762 0.20602871 0.0076306933 -0.20793639 -0.18504432 0.1640599 0.19649035 -0.16215223 -0.087752976 0.0152613865 -0.21175174 0.12590644 0.22319777 -0.089660645 -0.1716906
0000f0 50 bc ef 85 16 be 56 f0 22 b3 f8 a1 a5 de d0 71
       0.15261386 -0.12972179 -0.032430448 -0.23464382 0.04196881 -0.12590644 0.1640599 -0.030522773 0.064860895 -0.14689085 -0.0152613865 -0.18122897 -0.17359827 -0.064860895 -0.09156832 0.21556708

sequential/dense/Tensordot/MatMul i1 [12, 1280] scale=0.0007461278 zero_point=0
000000 dd f9 c7 54 0a 07 e5 24 00 f8 c1 f2 26 af 1f 3c
       -0.026114473 -0.0052228947 -0.042529285 0.06267474 0.007461278 0.0052228947 -0.02014545 0.0268606 0.0 -0.0059690224 -0.047006052 -0.010445789 0.028352857 -0.060436353 0.023129962 0.044767667
000010 bb de d5 19 34 d1 0d ff b1 32 69 fd b5 31 3c 05
       -0.05148282 -0.025368346 -0.032083496 0.018653195 0.038798645 -0.035068005 0.009699661 -0.0007461278 -0.058944095 0.03730639 0.07834342 -0.0022383835 -0.055959586 0.036560263 0.044767667 0.003730639
000020 2e dd 57 e5 e9 bd c9 12 39 e1 a5 f9 55 49 3c e1
       0.034321878 -0.026114473 0.06491312 -0.02014545 -0.017160939 -0.04999056 -0.04103703 0.0134303 0.042529285 -0.023129962 -0.06789763 -0.0052228947 0.06342086 0.054467328 0.044767667 -0.023129962
000030 bf e7 12 0a 29 40 1a 17 a4 ec b3 42 cd b0 44 cb
       -0.048498306 -0.018653195 0.0134303 0.007461278 0.03059124 0.04775218 0.019399323 0.017160939 -0.068643756 -0.014922556 -0.05745184 0.049244434 -0.038052518 -0.059690222 0.05073669 -0.039544772
000040 ae bf 1d f6 3d 40 1e b5 d0 b7 30 d2 b2 b9 06 0f
       -0.06118248 -0.048498306 0.021637706 -0.007461278 0.045513798 0.04775218 0.022383833 -0.055959586 -0.035814136 -0.054467328 0.035814136 -0.034321878 -0.058197968 -0.052975073 0.004476767 0.011191917
000050 fd e3 f7 ec f9 ee 51 45 da bb 0a 06 37 2d 09 30
       -0.0022383835 -0.021637706 -0.00671515 -0.014922556 -0.0052228947 -0.0134303 0.060436353 0.05148282 -0.028352857 -0.05148282 0.007461278 0.004476767 0.04103703 0.03357575 0.00671515 0.035814136
000060 aa 09 d8 00 27 ae ff fa 20 26 e1 ce 1b 4b 56 f5
       -0.06416699 0.00671515 -0.029845111 0.0 0.029098984 -0.06118248 -0.0007461278 -0.004476767 0.02387609 0.028352857 -0.023129962 -0.03730639 0.02014545 0.055959586 0.06416699 -0.008207406
000070 b7 b5 5b d0 4e 27 f8 dc 98 c0 dc 24 59 12 51 56
       -0.054467328 -0.055959586 0.06789763 -0.035814136 0.058197968 0.029098984 -0.0059690224 -0.0268606 -0.07759729 -0.04775218 -0.0268606 0.0268606 0.06640537 0.0134303 0.060436353 0.06416699
000080 0f d8 c1 e1 a9 ce c3 bc 49 57 01 bd e9 ba 00 5c
       0.011191917 -0.029845111 -0.047006052 -0.023129962 -0.06491312 -0.03730639 -0.045513798 -0.05073669 0.054467328 0.06491312 0.0007461278 -0.04999056 -0.017160939 -0.052228946 0.0 0.068643756
000090 b6 cd 2b 00 26 20 26 30 3f e0 4e 09 3d 4a 4a 54
       -0.05521346 -0.038052518 0.032083496 0.0 0.028352857 0.02387609 0.028352857 0.035814136 0.047006052 -0.02387609 0.058197968 0.00671515 0.045513798 0.05521346 0.05521346 0.06267474
0000a0 b7 1d 57 be 5b cd 2d c9 23 33 4b d7 2c 2c e9 c7
       -0.054467328 0.021637706 0.06491312 -0.049244434 0.06789763 -0.038052518 0.03357575 -0.04103703 0.026114473 0.038052518 0.055959586 -0.03059124 0.032829624 0.032829624 -0.017160939 -0.042529285
0000b0 3e d8 e5 f0 4d 33 c9 b9 55 47 24 b0 e1 a5 08 40
       0.046259925 -0.029845111 -0.02014545 -0.011938045 0.05745184 0.038052518 -0.04103703 -0.052975073 0.06342086 0.052975073 0.0268606 -0.059690222 -0.023129962 -0.06789763 0.0059690224 0.04775218
0000c0 5e 49 db 07 4a 0a 04 1b 37 03 53 28 fd a5 59 3b
       0.07013601 0.054467328 -0.02760673 0.0052228947 0.05521346 0.007461278 0.0029845112 0.02014545 0.04103703 0.0022383835 0.061928608 0.029845111 -0.0022383835 -0.06789763 0.06640537 0.04402154
0000d0 df a4 b0 bf ed 28 0c 3e 0f 4f ac ba 35 3e cf f7
       -0.024622217 -0.068643756 -0.059690222 -0.048498306 -0.014176428 0.029845111 0.008953534 0.046259925 0.011191917 0.058944095 -0.06267474 -0.052228946 0.039544772 0.046259925 -0.036560263 -0.00671515
0000e0 df e8 0c 3a 52 b0 3c f6 57 50 b5 ad 46 a5 d6 3e
       -0.024622217 -0.017907068 0.008953534 0.043275412 0.06118248 -0.059690222 0.044767667 -0.007461278 0.06491312 0.059690222 -0.055959586 -0.061928608 0.052228946 -0.06789763 -0.03133737 0.046259925
0000f0 02 4b 0a 2a 60 d2 d5 00 2c fa 1d c0 d4 a0 2b 1c
       0.0014922556 0.055959586 0.007461278 0.03133737 0.07162827 -0.034321878 -0.032083496 0.0 0.032829624 -0.004476767 0.021637706 -0.04775218 -0.032829624 -0.07162827 0.032083496 0.020891579

sequential/model/Conv_1/Conv2D i1 [1280, 1, 1, 32]
000000 45 d2 d0 de a3 d8 5a 70 13 6c 4e e6 f0 0b 21 15
       69 -46 -48 -34 -93 -40 90 112 19 108 78 -26 -16 11 33 21
000010 16 fd 20 4d 33 62 f0 23 e8 dc f5 62 e2 5d 81 26
       22 -3 32 77 51 98 -16 35 -24 -36 -11 98 -30 93 -127 38
000020 ea 32 05 7f b9 d8 03 17 05 38 f5 e3 f4 da ed d0
       -22 50 5 127 -71 -40 3 23 5 56 -11 -29 -12 -38 -19 -48
000030 eb ff 17 84 e9 cd 1f de dc c7 22 43 f0 d4 11 c7
       -21 -1 23 -124 -23 -51 31 -34 -36 -57 34 67 -16 -44 17 -57
000040 31 9a b4 81 fd 61 fb dd f1 f1 3e dc 0c 9e bc b7
       49 -102 -76 -127 -3 97 -5 -35 -15 -15 62 -36 12 -98 -68 -73
000050 8a 02 e3 79 ff 3d 19 c6 2a 31 c8 fb d6 29 d5 7b
       -118 2 -29 121 -1 61 25 -58 42 49 -56 -5 -42 41 -43 123
000060 0e d9 2b e9 d7 b9 29 15 12 8b 86 f1 fa c6 b2 bf
       14 -39 43 -23 -41 -71 41 21 18 -117 -122 -15 -6 -58 -78 -65
000070 25 fb 00 0e 21 21 f4 e5 f4 20 d4 40 bf 40 7f ed
       37 -5 0 14 33 33 -12 -27 -12 32 -44 64 -65 64 127 -19
000080 71 23 f8 dc b3 4b d0 f1 07 ff 14 d4 27 28 06 c0
       113 35 -8 -36 -77 75 -48 -15 7 -1 20 -44 39 40 6 -64
000090 38 36 17 15 32 1b 03 e6 81 d0 09 39 e2 7b 1c e4
       56 54 23 21 50 27 3 -26 -127 -48 9 57 -30 123 28 -28
0000a0 2d 19 b4 ec fa 23 ff 12 e4 3e 81 f2 1c 02 2e 0a
       45 25 -76 -20 -6 35 -1 18 -28 62 -127 -14 28 2 46 10
0000b0 12 ed fc 34 39 d8 05 a9 e9 d9 20 28 21 1d 09 37
       18 -19 -4 52 57 -40 5 -87 -23 -39 32 40 33 29 9 55
0000c0 27 dd af f1 30 76 03 a2 c7 b3 f8 a7 aa 17 81 b9
       39 -35 -81 -15 48 118 3 -94 -57 -77 -8 -89 -86 23 -127 -71
0000d0 ce 36 18 4d 14 00 12 3f c6 ed 0b ec 06 1c 24 07
       -50 54 24 77 20 0 18 63 -58 -19 11 -20 6 28 36 7
0000e0 35 dd 04 5a 9d 22 c3 02 46 02 b2 7a 81 d2 0a e8
       53 -35 4 90 -99 34 -61 2 70 2 -78 122 -127 -46 10 -24
0000f0 4d c9 e2 d3 3a 06 fb 11 dd 3b f0 62 2d fc 5b cc
       77 -55 -30 -45 58 6 -5 17 -35 59 -16 98 45 -4 91 -52

sequential/model/block_16_project/Conv2D i1 [32, 1, 1, 96]
000000 a5 02 67 b9 e6 23 cf 03 2f 79 39 e4 fb f6 26 b9
       -91 2 103 -71 -26 35 -49 3 47 121 57 -28 -5 -10 38 -71
000010 17 f5 51 17 0c 02 33 cb 14 ca 4a 20 49 35 20 1b
       23 -11 81 23 12 2 51 -53 20 -54 74 32 73 53 32 27
000020 ff f2 2d 5c aa 21 1a 11 f1 24 1b 81 33 de 05 13
       -1 -14 45 92 -86 33 26 17 -15 36 27 -127 51 -34 5 19
000030 31 43 13 41 ec 39 e4 ed 40 42 e1 ef 2b 0a e5 e0
       49 67 19 65 -20 57 -28 -19 64 66 -31 -17 43 10 -27 -32
000040 13 05 bd 1a fc 4a dc 3e 22 2c fd 1a 23 ea 1a c3
       19 5 -67 26 -4 74 -36 62 34 44 -3 26 35 -22 26 -61
000050 cb 33 f9 27 15 2b 24 ec ea 2c c6 4f 25 97 23 08
       -53 51 -7 39 21 43 36 -20 -22 44 -58 79 37 -105 35 8
000060 37 28 1c 00 2e 25 03 fb 14 ee 0c 17 e5 19 fe 0b
       55 40 28 0 46 37 3 -5 20 -18 12 23 -27 25 -2 11
000070 1c 16 0d d8 28 e3 dc 03 08 ee 29 df a5 ec e0 e3
       28 22 13 -40 40 -29 -36 3 8 -18 41 -33 -91 -20 -32 -29
000080 eb 17 12 e7 f5 0b e0 ed d6 1a 26 ff 81 fb 11 4e
       -21 23 18 -25 -11 11 -32 -19 -42 26 38 -1 -127 -5 17 78
000090 07 27 04 00 02 fd a6 1c fc d7 09 f8 2b 08 2e e9
       7 39 4 0 2 -3 -90 28 -4 -41 9 -8 43 8 46 -23
0000a0 4f c0 32 11 04 ee b7 fd 38 fc 02 22 2a 05 04 ed
       79 -64 50 17 4 -18 -73 -3 56 -4 2 34 42 5 4 -19
0000b0 17 07 d5 cf eb f5 ff 05 de 06 1f e2 ab fa 5e fb
       23 7 -43 -49 -21 -11 -1 5 -34 6 31 -30 -85 -6 94 -5
0000c0 f4 07 bc 55 cc 44 1f e0 cb f6 18 09 07 11 d8 2a
       -12 7 -68 85 -52 68 31 -32 -53 -10 24 9 7 17 -40 42
0000d0 de 4e 9f 3a c4 81 cd 17 5a ea 19 a8 4f fb 4e ff
       -34 78 -97 58 -60 -127 -51 23 90 -22 25 -88 79 -5 78 -1
0000e0 1a ff d8 ab e5 ff da af a0 ff 5c 3a 4c 33 00 f4
       26 -1 -40 -85 -27 -1 -38 -81 -96 -1 92 58 76 51 0 -12
0000f0 da fe 21 68 96 0e 41 63 08 2d 5a 46 07 18 fe cd
       -38 -2 33 104 -106 14 65 99 8 45 90 70 7 24 -2 -51

sequential/model/block_16_depthwise_BN/FusedBatchNormV3;sequential/model/block_16_depthwise/depthwise i1 [1, 3, 3, 96]
000000 05 fc fe 5e 11 f6 d0 12 f3 f3 10 26 13 02 2b 21
       5 -4 -2 94 17 -10 -48 18 -13 -13 16 38 19 2 43 33
000010 f5 bd 1f c5 23 20 ff a6 14 ed f6 f7 e9 da e4 20
       -11 -67 31 -59 35 32 -1 -90 20 -19 -10 -9 -23 -38 -28 32
000020 f1 fa d0 c9 fe f2 fd da f7 21 20 14 03 11 ce 13
       -15 -6 -48 -55 -2 -14 -3 -38 -9 33 32 20 3 17 -50 19
000030 13 fd d1 dc 24 d9 08 08 fd 2e f7 7f dd e2 01 13
       19 -3 -47 -36 36 -39 8 8 -3 46 -9 127 -35 -30 1 19
000040 f9 f1 09 ff 07 e0 d0 0b ef fb f3 18 0d 18 99 17
       -7 -15 9 -1 7 -32 -48 11 -17 -5 -13 24 13 24 -103 23
000050 2d 07 23 03 0c 9e 38 10 92 0c d4 f2 c3 3e 13 d8
       45 7 35 3 12 -98 56 16 -110 12 -44 -14 -61 62 19 -40
000060 27 03 fd 7f 74 f3 69 eb d4 ea 43 4e 1f 07 7f 7f
       39 3 -3 127 116 -13 105 -21 -44 -22 67 78 31 7 127 127
000070 ac c6 0f d5 7f 25 41 e7 64 f4 56 05 da ff b0 f7
       -84 -58 15 -43 127 37 65 -25 100 -12 86 5 -38 -1 -80 -9
000080 f7 e0 01 af da 08 d6 cb ff 3c 77 33 64 f9 0d 77
       -9 -32 1 -81 -38 8 -42 -53 -1 60 119 51 100 -7 13 119
000090 59 0b da d6 7f 93 00 12 fc 77 dc 62 c4 b1 13 ed
       89 11 -38 -42 127 -109 0 18 -4 119 -36 98 -60 -79 19 -19
0000a0 0c de ce e0 3f d1 c3 46 df f5 ea 36 07 7f e1 28
       12 -34 -50 -32 63 -47 -61 70 -33 -11 -22 54 7 127 -31 40
0000b0 1d 05 2c 5c 08 a9 7f fb fe 15 cd bb fd 55 6e e0
       29 5 44 92 8 -87 127 -5 -2 21 -51 -69 -3 85 110 -32
0000c0 08 fe fd 62 12 f2 e9 fa e6 ef f0 1d 10 06 27 12
       8 -2 -3 98 18 -14 -23 -6 -26 -17 -16 29 16 6 39 18
0000d0 fc b5 21 ed 22 1a 15 ba 20 f1 fb f9 e9 ca 88 0a
       -4 -75 33 -19 34 26 21 -70 32 -15 -5 -7 -23 -54 -120 10
0000e0 ee fc b3 d2 01 ff fc d9 fa 0a 25 12 02 00 bc 0a
       -18 -4 -77 -46 1 -1 -4 -39 -6 10 37 18 2 0 -68 10
0000f0 fc 05 fb e0 22 d4 00 08 00 28 fc 4f de da fc f8
       -4 5 -5 -32 34 -44 0 8 0 40 -4 79 -34 -38 -4 -8

sequential/model/block_16_expand/Conv2D i1 [96, 1, 1, 16]
000000 ca 25 02 eb 10 f2 32 9f 19 14 dd bf f0 7f fe 18
       -54 37 2 -21 16 -14 50 -97 25 20 -35 -65 -16 127 -2 24
000010 e6 4d 21 e7 3b 5a d5 f2 7f 34 20 c8 f9 c5 a8 bc
       -26 77 33 -25 59 90 -43 -14 127 52 32 -56 -7 -59 -88 -68
000020 59 d0 bf e2 87 81 fb a5 ac ac e3 28 f2 64 48 5d
       89 -48 -65 -30 -121 -127 -5 -91 -84 -84 -29 40 -14 100 72 93
000030 e1 81 11 e4 03 ee ee cc c6 b9 54 c0 d9 0b 0c 52
       -31 -127 17 -28 3 -18 -18 -52 -58 -71 84 -64 -39 11 12 82
000040 d1 f8 7f e3 08 13 33 f1 08 e2 1b 28 31 0b 34 2b
       -47 -8 127 -29 8 19 51 -15 8 -30 27 40 49 11 52 43
000050 1e 1c f5 5d d1 1a 61 19 7f 5b 2e 88 07 9f b4 1c
       30 28 -11 93 -47 26 97 25 127 91 46 -120 7 -97 -76 28
000060 81 db a7 5a 43 5e ca 37 35 ad f3 2b 14 45 22 03
       -127 -37 -89 90 67 94 -54 55 53 -83 -13 43 20 69 34 3
000070 7f 43 0c 7e 45 c5 f4 92 cd 26 c2 f8 51 c5 26 61
       127 67 12 126 69 -59 -12 -110 -51 38 -62 -8 81 -59 38 97
000080 14 f7 d8 1d 2e c6 1c 1b 0d e0 d3 f3 d8 fe 81 1a
       20 -9 -40 29 46 -58 28 27 13 -32 -45 -13 -40 -2 -127 26
000090 fc f5 d9 d6 18 e9 3b ed d9 f3 2b 81 8d 01 ee 3c
       -4 -11 -39 -42 24 -23 59 -19 -39 -13 43 -127 -115 1 -18 60
0000a0 c6 14 81 03 44 56 4c 30 16 96 c2 18 1d 20 fc 15
       -58 20 -127 3 68 86 76 48 22 -106 -62 24 29 32 -4 21
0000b0 48 b9 fe 63 04 03 e6 eb 6d 33 d9 af 81 ca fc 3f
       72 -71 -2 99 4 3 -26 -21 109 51 -39 -81 -127 -54 -4 63
0000c0 0e bf 15 30 ee c8 e4 09 29 7f 07 44 aa b2 83 29
       14 -65 21 48 -18 -56 -28 9 41 127 7 68 -86 -78 -125 41
0000d0 8d 94 97 c8 39 e7 27 57 b7 7f ea a6 17 0f 11 1e
       -115 -108 -105 -56 57 -25 39 87 -73 127 -22 -90 23 15 17 30
0000e0 75 81 e2 a9 f8 88 e5 43 b9 3f d4 4b b4 ca 38 02
       117 -127 -30 -87 -8 -120 -27 67 -71 63 -44 75 -76 -54 56 2
0000f0 7f ba 28 c9 ac 2a ba fb 2a a1 f9 d8 d5 0b 26 12
       127 -70 40 -55 -84 42 -70 -5 42 -95 -7 -40 -43 11 38 18

sequential/model/block_15_project/Conv2D i1 [16, 1, 1, 96]
000000 28 09 05 0c f4 d5 2a 36 c3 08 1d 28 fe d9 d7 f3
       40 9 5 12 -12 -43 42 54 -61 8 29 40 -2 -39 -41 -13
000010 e3 1b 0b 11 c3 39 03 12 33 12 27 0b ee 09 ea 08
       -29 27 11 17 -61 57 3 18 51 18 39 11 -18 9 -22 8
000020 fc 2c ec 0d e2 08 2d 08 ef fa eb dc 06 1a 19 b6
       -4 44 -20 13 -30 8 45 8 -17 -6 -21 -36 6 26 25 -74
000030 d7 12 f4 ef 24 f9 db 1d e8 fd 33 13 59 de 00 2d
       -41 18 -12 -17 36 -7 -37 29 -24 -3 51 19 89 -34 0 45
000040 2b ed d1 fe 34 19 f6 11 fd 09 20 f4 b9 d8 16 34
       43 -19 -47 -2 52 25 -10 17 -3 9 32 -12 -71 -40 22 52
000050 e1 dd 81 04 f0 ec f1 f7 2b 02 0c d6 03 d3 13 d9
       -31 -35 -127 4 -16 -20 -15 -9 43 2 12 -42 3 -45 19 -39
000060 11 28 66 d7 14 18 01 ba f4 01 ef 45 ec f3 fe 10
       17 40 102 -41 20 24 1 -70 -12 1 -17 69 -20 -13 -2 16
000070 ce fb fd cc da e5 a2 1f f4 cc 03 ff 23 f8 2d eb
       -50 -5 -3 -52 -38 -27 -94 31 -12 -52 3 -1 35 -8 45 -21
000080 f2 1a e9 f7 fa be df 00 14 10 1e 22 f4 ff 2a 36
       -14 26 -23 -9 -6 -66 -33 0 20 16 30 34 -12 -1 42 54
000090 ad 14 19 ce 81 b1 d3 a1 20 16 12 ef f1 85 eb ea
       -83 20 25 -50 -127 -79 -45 -95 32 22 18 -17 -15 -123 -21 -22
0000a0 f8 22 db 17 1e 21 ae cb 24 16 0b da 45 fc df 01
       -8 34 -37 23 30 33 -82 -53 36 22 11 -38 69 -4 -33 1
0000b0 09 40 d9 3a fd e3 fa ee 1d 1a 2b 0f 2a a7 22 e3
       9 64 -39 58 -3 -29 -6 -18 29 26 43 15 42 -89 34 -29
0000c0 e1 ed 16 56 14 99 e9 18 fd 96 ea 5a 05 34 38 d1
       -31 -19 22 86 20 -103 -23 24 -3 -106 -22 90 5 52 56 -47
0000d0 04 fd ed aa 42 b9 f0 bd e6 7f 8e c9 6e 0c 07 ee
       4 -3 -19 -86 66 -71 -16 -67 -26 127 -114 -55 110 12 7 -18
0000e0 ee 2f 25 f4 10 20 18 f9 1a 0b 2a 36 27 0b cd 12
       -18 47 37 -12 16 32 24 -7 26 11 42 54 39 11 -51 18
0000f0 35 0c fb 02 b6 4e 92 52 ff f0 d3 37 09 d6 f6 66
       53 12 -5 2 -74 78 -110 82 -1 -16 -45 55 9 -42 -10 102

sequential/model/block_15_depthwise_BN/FusedBatchNormV3;sequential/model/block_15_depthwise/depthwise;sequential/model/block_16_depthwise/depthwise i1 [1, 3, 3, 96]
000000 38 3b 0a fc b3 d3 94 dd ef a2 81 19 29 d9 cb 11
       56 59 10 -4 -77 -45 -108 -35 -17 -94 -127 25 41 -39 -53 17
000010 4a 08 b4 f9 e3 25 a7 2c fb 98 6e 78 4e 9c f4 0e
       74 8 -76 -7 -29 37 -89 44 -5 -104 110 120 78 -100 -12 14
000020 fc d9 98 e7 ee 12 08 eb 22 8a 33 22 0c d8 38 eb
       -4 -39 -104 -25 -18 18 8 -21 34 -118 51 34 12 -40 56 -21
000030 30 45 0c e4 0e e7 1d 2d 7f 81 27 c9 67 d0 99 17
       48 69 12 -28 14 -25 29 45 127 -127 39 -55 103 -48 -103 23
000040 0f 54 f7 d7 4d d4 c4 f8 10 f2 e9 dd fe 7f d2 a1
       15 84 -9 -41 77 -44 -60 -8 16 -14 -23 -35 -2 127 -46 -95
000050 39 8c 5b 58 54 ea a2 4d 30 37 42 f7 07 96 32 d6
       57 -116 91 88 84 -22 -94 77 48 55 66 -9 7 -106 50 -42
000060 7f 2e d9 de da 88 3b a4 52 ae e4 81 7f d0 e6 5f
       127 46 -39 -34 -38 -120 59 -92 82 -82 -28 -127 127 -48 -26 95
000070 0f ee 7f 20 a2 1e 7f 24 7f 7c 4c c0 2d e9 f6 7f
       15 -18 127 32 -94 30 127 36 127 124 76 -64 45 -23 -10 127
000080 bb 97 81 81 9a b2 7c 57 40 3e d4 b0 13 11 fe 7f
       -69 -105 -127 -127 -102 -78 124 87 64 62 -44 -80 19 17 -2 127
000090 fd 7f e0 b4 f6 01 4b 01 e7 d5 77 60 1f e9 78 fa
       -3 127 -32 -76 -10 1 75 1 -25 -43 119 96 31 -23 120 -6
0000a0 43 68 2c 41 ff bd a0 ad 81 26 bc 97 09 bd 81 09
       67 104 44 65 -1 -67 -96 -83 -127 38 -68 -105 9 -67 -127 9
0000b0 fa 38 50 21 46 2b 04 6a 42 49 2c f5 dd 18 07 17
       -6 56 80 33 70 43 4 106 66 73 44 -11 -35 24 7 23
0000c0 25 37 10 26 b5 c9 81 db 0a a5 64 cf d2 d7 ca f4
       37 55 16 38 -75 -55 -127 -37 10 -91 100 -49 -46 -41 -54 -12
0000d0 3f 1e 30 18 e4 e7 07 13 c9 81 7f 7f 5c 90 fd 0d
       63 30 48 24 -28 -25 7 19 -55 -127 127 127 92 -112 -3 13
0000e0 02 dc ba 11 d1 13 04 c6 10 81 b2 18 22 e1 45 f2
       2 -36 -70 17 -47 19 4 -58 16 -127 -78 24 34 -31 69 -14
0000f0 42 de f1 3f 01 e1 3c 2a 75 ce 6e 14 7f d5 64 0d
       66 -34 -15 63 1 -31 60 42 117 -50 110 20 127 -43 100 13

sequential/model/block_15_expand/Conv2D i1 [96, 1, 1, 16]
000000 eb 18 30 b9 a7 e9 81 f9 3b 28 e9 dc 05 4c f3 0f
       -21 24 48 -71 -89 -23 -127 -7 59 40 -23 -36 5 76 -13 15
000010 0d 8d cc 6b 01 04 9b e1 c0 00 11 5b 34 10 22 81
       13 -115 -52 107 1 4 -101 -31 -64 0 17 91 52 16 34 -127
000020 06 f7 c4 12 6d 02 d2 e2 3d 39 29 c9 90 81 fc c0
       6 -9 -60 18 109 2 -46 -30 61 57 41 -55 -112 -127 -4 -64
000030 be 30 3e ef bb 1b 81 da 48 10 4b 2f ee c7 16 62
       -66 48 62 -17 -69 27 -127 -38 72 16 75 47 -18 -57 22 98
000040 1f d0 17 7f dd 3b c9 9d 71 dd b3 f3 f9 84 c0 73
       31 -48 23 127 -35 59 -55 -99 113 -35 -77 -13 -7 -124 -64 115
000050 52 28 15 c3 e6 3c 09 81 3d e0 5f 2a ff ec 0b ae
       82 40 21 -61 -26 60 9 -127 61 -32 95 42 -1 -20 11 -82
000060 17 3a fc de ca 10 41 f3 0c 43 a5 f4 d1 7f 57 17
       23 58 -4 -34 -54 16 65 -13 12 67 -91 -12 -47 127 87 23
000070 4c c2 dc e0 c2 c4 b6 71 e0 7f 00 15 ba ea 8a ee
       76 -62 -36 -32 -62 -60 -74 113 -32 127 0 21 -70 -22 -118 -18
000080 f7 64 02 01 eb d6 23 62 7f 14 cb ba 9f 1a 05 8f
       -9 100 2 1 -21 -42 35 98 127 20 -53 -70 -97 26 5 -113
000090 26 ee 74 26 1b d0 e2 10 30 bb 62 eb cf d0 7f 45
       38 -18 116 38 27 -48 -30 16 48 -69 98 -21 -49 -48 127 69
0000a0 75 01 f8 88 50 7f 21 dd 5d c5 20 b1 0f 2a cf 10
       117 1 -8 -120 80 127 33 -35 93 -59 32 -79 15 42 -49 16
0000b0 e2 38 d1 e1 b7 25 24 21 7f 26 1c ee b5 97 26 e8
       -30 56 -47 -31 -73 37 36 33 127 38 28 -18 -75 -105 38 -24
0000c0 f8 13 58 ed 91 9d d5 b2 1b 51 8a d7 13 3d 81 64
       -8 19 88 -19 -111 -99 -43 -78 27 81 -118 -41 19 61 -127 100
0000d0 51 f5 16 da 3a e4 c6 43 1c 08 ab 04 d4 3f f8 81
       81 -11 22 -38 58 -28 -58 67 28 8 -85 4 -44 63 -8 -127
0000e0 96 0b 81 05 53 51 14 d0 aa f9 98 05 39 b3 dc fd
       -106 11 -127 5 83 81 20 -48 -86 -7 -104 5 57 -77 -36 -3
0000f0 dd 1a f4 c9 31 09 bd 4d dd fe f2 26 22 00 81 f4
       -35 26 -12 -55 49 9 -67 77 -35 -2 -14 38 34 0 -127 -12

sequential/model/block_14_project/Conv2D i1 [16, 1, 1, 96]
000000 15 eb fd c2 0c f9 d8 2d 5c d7 09 30 81 01 01 dc
       21 -21 -3 -62 12 -7 -40 45 92 -41 9 48 -127 1 1 -36
000010 fe e3 21 f4 1d ff 00 d7 04 1e 0c e1 e0 e3 0e d3
       -2 -29 33 -12 29 -1 0 -41 4 30 12 -31 -32 -29 14 -45
000020 05 13 c8 0a 16 fc de 17 1d 20 f0 04 2f bc f2 d4
       5 19 -56 10 22 -4 -34 23 29 32 -16 4 47 -68 -14 -44
000030 0a 1c 02 33 f8 d0 fb 0a 37 f6 05 f5 e6 c6 3a 08
       10 28 2 51 -8 -48 -5 10 55 -10 5 -11 -26 -58 58 8
000040 ba 0e e7 f3 b4 17 db 00 16 fd fa f7 ff 08 0e 0e
       -70 14 -25 -13 -76 23 -37 0 22 -3 -6 -9 -1 8 14 14
000050 fd e4 f8 2f 19 fc fc 27 24 f9 1b bb e6 b9 47 36
       -3 -28 -8 47 25 -4 -4 39 36 -7 27 -69 -26 -71 71 54
000060 01 dd f1 f8 14 e0 53 09 b7 ec 1c 48 ec f7 45 32
       1 -35 -15 -8 20 -32 83 9 -73 -20 28 72 -20 -9 69 50
000070 4c d1 2a 01 2e 17 fd 35 30 0f ea 08 67 06 29 1c
       76 -47 42 1 46 23 -3 53 48 15 -22 8 103 6 41 28
000080 42 15 0b f3 7f c6 85 f3 08 69 e8 e3 d6 23 1c c0
       66 21 11 -13 127 -58 -123 -13 8 105 -24 -29 -42 35 28 -64
000090 e5 b3 e7 55 39 b0 31 09 ce f0 dd 06 0b d9 e8 08
       -27 -77 -25 85 57 -80 49 9 -50 -16 -35 6 11 -39 -24 8
0000a0 25 0e 3c 3e e5 e6 ba ef 10 e5 22 16 df 00 e8 fe
       37 14 60 62 -27 -26 -70 -17 16 -27 34 22 -33 0 -24 -2
0000b0 e6 a6 ef 06 a7 d6 e4 1c e4 c5 3f 00 b5 f2 fe 07
       -26 -90 -17 6 -89 -42 -28 28 -28 -59 63 0 -75 -14 -2 7
0000c0 cd c7 f1 f7 1b 2c 16 e4 e7 d1 c6 cb 4a 0a 01 d7
       -51 -57 -15 -9 27 44 22 -28 -25 -47 -58 -53 74 10 1 -41
0000d0 06 d2 08 07 31 f0 00 c2 ed ec f8 af ad e3 d2 d9
       6 -46 8 7 49 -16 0 -62 -19 -20 -8 -81 -83 -29 -46 -39
0000e0 e5 01 17 0c dc 0d e3 eb cb 31 fa f4 fa 59 07 e2
       -27 1 23 12 -36 13 -29 -21 -53 49 -6 -12 -6 89 7 -30
0000f0 0e 21 0d 20 18 f5 ed 03 31 0d fc e8 cb ed 04 f8
       14 33 13 32 24 -11 -19 3 49 13 -4 -24 -53 -19 4 -8

sequential/model/block_14_depthwise_BN/FusedBatchNormV3;sequential/model/block_14_depthwise/depthwise;sequential/model/block_16_depthwise/depthwise i1 [1, 3, 3, 96]
000000 24 72 1b 7f ba 6c 08 de 92 42 81 7f e6 04 1e d1
       36 114 27 127 -70 108 8 -34 -110 66 -127 127 -26 4 30 -47
000010 00 f9 f0 c1 de d3 dd a7 04 e8 99 d7 01 18 dc 0a
       0 -7 -16 -63 -34 -45 -35 -89 4 -24 -103 -41 1 24 -36 10
000020 16 35 59 a8 23 10 fc ed 32 1b f9 f2 c3 cf e7 48
       22 53 89 -88 35 16 -4 -19 50 27 -7 -14 -61 -49 -25 72
000030 dd c4 dc 94 81 84 0f 15 41 c5 7f ae 30 0b d8 27
       -35 -60 -36 -108 -127 -124 15 21 65 -59 127 -82 48 11 -40 39
000040 e2 de 19 0f 30 43 f2 01 f8 7f 07 56 09 be f3 21
       -30 -34 25 15 48 67 -14 1 -8 127 7 86 9 -66 -13 33
000050 cb d9 a3 21 fb 81 ce 27 94 0e 0e 00 f7 00 1c e7
       -53 -39 -93 33 -5 -127 -50 39 -108 14 14 0 -9 0 28 -25
000060 10 7b 1f fd a5 67 22 eb 24 7e a0 03 f3 19 08 13
       16 123 31 -3 -91 103 34 -21 36 126 -96 3 -13 25 8 19
000070 49 10 c4 be d4 51 eb 7f 0e 05 07 23 fd 31 81 0b
       73 16 -60 -66 -44 81 -21 127 14 5 7 35 -3 49 -127 11
000080 f7 10 22 9d 14 a5 02 f8 fb 06 ed 75 d4 d5 09 7f
       -9 16 34 -99 20 -91 2 -8 -5 6 -19 117 -44 -43 9 127
000090 7f f3 fc d4 18 81 1f 0a 4e c0 17 bc 1c bc e5 7f
       127 -13 -4 -44 24 -127 31 10 78 -64 23 -68 28 -68 -27 127
0000a0 7f ff 18 3f 0e 46 dc 7f b7 ed 51 9c b0 17 06 0e
       127 -1 24 63 14 70 -36 127 -73 -19 81 -100 -80 23 6 14
0000b0 77 f6 56 25 dd 9d b4 ea a5 1c 0b e9 33 f1 ee 0f
       119 -10 86 37 -35 -99 -76 -22 -91 28 11 -23 51 -15 -18 15
0000c0 ff 7f 0a 76 a2 fb fa c8 81 5e a8 73 08 12 e2 ff
       -1 127 10 118 -94 -5 -6 -56 -127 94 -88 115 8 18 -30 -1
0000d0 21 f0 12 c4 da e2 d8 26 17 01 b7 db 15 09 dc e1
       33 -16 18 -60 -38 -30 -40 38 23 1 -73 -37 21 9 -36 -31
0000e0 ff 2b cf df 21 d2 f0 01 1c c5 b2 f4 e5 ca 27 3d
       -1 43 -49 -33 33 -46 -16 1 28 -59 -78 -12 -27 -54 39 61
0000f0 f4 0f f5 81 e9 21 f4 e8 2b c8 6e 4e 8e f6 81 be
       -12 15 -11 -127 -23 33 -12 -24 43 -56 110 78 -114 -10 -127 -66

sequential/model/block_14_expand/Conv2D i1 [96, 1, 1, 16]
000000 f6 0c 48 a7 d6 4a 39 6e f8 23 ca 16 81 11 39 62
       -10 12 72 -89 -42 74 57 110 -8 35 -54 22 -127 17 57 98
000010 1a 63 7f 2c 07 33 b6 b0 3e f2 de 0c 48 2f 0f da
       26 99 127 44 7 51 -74 -80 62 -14 -34 12 72 47 15 -38
000020 17 04 b1 94 2e 15 0d 0d d4 f0 7c 7f 74 33 d1 ef
       23 4 -79 -108 46 21 13 13 -44 -16 124 127 116 51 -47 -17
000030 0e 33 12 45 41 d5 7f fb 0f 0a fc dc 07 d0 e1 b2
       14 51 18 69 65 -43 127 -5 15 10 -4 -36 7 -48 -31 -78
000040 f3 22 39 e8 ec fd c0 00 4c 0b 36 bf bb 81 c4 21
       -13 34 57 -24 -20 -3 -64 0 76 11 54 -65 -69 -127 -60 33
000050 42 a3 4e 03 eb b5 f7 db bf f1 4e 3b 71 5a 87 81
       66 -93 78 3 -21 -75 -9 -37 -65 -15 78 59 113 90 -121 -127
000060 c4 7f fe 0e 15 2d 06 00 fe 14 26 e6 17 d8 1d 08
       -60 127 -2 14 21 45 6 0 -2 20 38 -26 23 -40 29 8
000070 66 7f e6 1f 52 67 5d 53 3b ee c6 d4 21 e8 da 0c
       102 127 -26 31 82 103 93 83 59 -18 -58 -44 33 -24 -38 12
000080 7f 18 4f dd f6 21 17 44 77 f8 6d 05 fe 95 f8 e7
       127 24 79 -35 -10 33 23 68 119 -8 109 5 -2 -107 -8 -25
000090 f8 5e e3 e7 3c 7f e3 21 d4 22 15 d1 19 0a 27 26
       -8 94 -29 -25 60 127 -29 33 -44 34 21 -47 25 10 39 38
0000a0 c2 7f ff 1d d3 0a 05 33 4b 2e ee bf ae ea 17 d2
       -62 127 -1 29 -45 10 5 51 75 46 -18 -65 -82 -22 23 -46
0000b0 58 13 43 5b 1c 29 08 03 67 27 3a b8 3f 4f cf 7f
       88 19 67 91 28 41 8 3 103 39 58 -72 63 79 -49 127
0000c0 f0 cc 91 25 e7 56 ee be 29 81 45 47 a9 09 07 04
       -16 -52 -111 37 -25 86 -18 -66 41 -127 69 71 -87 9 7 4
0000d0 e2 ff e3 f4 e3 53 ce 28 bd af ee 81 fd cc 38 3d
       -30 -1 -29 -12 -29 83 -50 40 -67 -81 -18 -127 -3 -52 56 61
0000e0 12 81 ee 1f 52 eb 2f 27 4a 5d da 2e 77 60 e7 87
       18 -127 -18 31 82 -21 47 39 74 93 -38 46 119 96 -25 -121
0000f0 e8 eb dd 2c 32 c1 0b 45 09 ed 81 0b af 4b 15 bc
       -24 -21 -35 44 50 -63 11 69 9 -19 -127 11 -81 75 21 -68

sequential/model/block_13_project/Conv2D i1 [16, 1, 1, 96]
000000 11 0f 0d 11 14 e0 de be 07 68 1b 2f 24 e7 fc 38
       17 15 13 17 20 -32 -34 -66 7 104 27 47 36 -25 -4 56
000010 0c bc ec 3b e7 7f eb f6 f5 26 20 3a 2d f6 f9 f7
       12 -68 -20 59 -25 127 -21 -10 -11 38 32 58 45 -10 -7 -9
000020 49 e9 ec f4 ce e9 42 af eb fc 22 b7 e1 cc 0b 0f
       73 -23 -20 -12 -50 -23 66 -81 -21 -4 34 -73 -31 -52 11 15
000030 3f 3a 4e ff e6 19 00 42 20 fa d5 c8 11 46 f7 fe
       63 58 78 -1 -26 25 0 66 32 -6 -43 -56 17 70 -9 -2
000040 33 12 f1 09 1c e4 f7 2b e8 b4 0f b8 01 14 37 da
       51 18 -15 9 28 -28 -9 43 -24 -76 15 -72 1 20 55 -38
000050 f8 d7 e9 33 28 17 d0 ec d4 da 06 6b 63 ee cb e8
       -8 -41 -23 51 40 23 -48 -20 -44 -38 6 107 99 -18 -53 -24
000060 13 f3 0e ec 29 d6 f5 18 fa 07 0d 06 f2 15 fc 97
       19 -13 14 -20 41 -42 -11 24 -6 7 13 6 -14 21 -4 -105
000070 39 31 e8 24 f7 fe 1c ee 33 20 fc 17 de 1b 0d fa
       57 49 -24 36 -9 -2 28 -18 51 32 -4 23 -34 27 13 -6
000080 14 aa f9 d7 e8 e1 b1 95 f9 ee a4 b6 ea ce 0b e6
       20 -86 -7 -41 -24 -31 -79 -107 -7 -18 -92 -74 -22 -50 11 -26
000090 ce 17 c5 ed 3a c5 20 d7 2f d5 e2 44 e7 0d f4 15
       -50 23 -59 -19 58 -59 32 -41 47 -43 -30 68 -25 13 -12 21
0000a0 1e fc 29 e3 20 e6 03 24 7f 00 31 da 23 f0 2e a6
       30 -4 41 -29 32 -26 3 36 127 0 49 -38 35 -16 46 -90
0000b0 06 0d f4 ca 18 04 c4 f1 fa fc bd f3 67 11 e8 b5
       6 13 -12 -54 24 4 -60 -15 -6 -4 -67 -13 103 17 -24 -75
0000c0 03 e3 1c 02 d6 ee f7 f9 e3 fc 03 ee d6 0e 1c 0d
       3 -29 28 2 -42 -18 -9 -7 -29 -4 3 -18 -42 14 28 13
0000d0 67 0f c1 3e b4 06 e9 2a e6 c7 c1 c2 1f da f5 e8
       103 15 -63 62 -76 6 -23 42 -26 -57 -63 -62 31 -38 -11 -24
0000e0 af fe b0 ee e5 ec dc 75 e2 0b ec f4 e0 e5 ae 1f
       -81 -2 -80 -18 -27 -20 -36 117 -30 11 -20 -12 -32 -27 -82 31
0000f0 16 88 df 04 8b fa f7 f5 84 dc 68 29 fd eb 41 ed
       22 -120 -33 4 -117 -6 -9 -11 -124 -36 104 41 -3 -21 65 -19

sequential/model/block_13_depthwise_BN/FusedBatchNormV3;sequential/model/block_13_depthwise/depthwise;sequential/model/block_16_depthwise/depthwise i1 [1, 3, 3, 96]
000000 c7 1c 7f e8 70 f7 4f d4 ae 35 81 14 be 19 d6 4e
       -57 28 127 -24 112 -9 79 -44 -82 53 -127 20 -66 25 -42 78
000010 f2 76 8d 4a ae 7a 9a 39 6e 60 a6 c8 7f 47 72 7f
       -14 118 -115 74 -82 122 -102 57 110 96 -90 -56 127 71 114 127
000020 48 4f f8 d7 36 29 5d 05 bd 08 a4 64 91 81 04 8a
       72 79 -8 -41 54 41 93 5 -67 8 -92 100 -111 -127 4 -118
000030 71 3f 19 5c 2c 81 66 c5 4c df 64 71 ae 50 91 5d
       113 63 25 92 44 -127 102 -59 76 -33 100 113 -82 80 -111 93
000040 8e 30 53 8e 2a e3 73 e7 45 c0 ad a3 32 2c 56 46
       -114 48 83 -114 42 -29 115 -25 69 -64 -83 -93 50 44 86 70
000050 04 44 7f 49 d8 10 ac 01 b8 6b 2a 12 57 1b f5 38
       4 68 127 73 -40 16 -84 1 -72 107 42 18 87 27 -11 56
000060 d4 ce 4a cd 63 c3 05 93 86 22 e1 69 cc 36 81 46
       -44 -50 74 -51 99 -61 5 -109 -122 34 -31 105 -52 54 -127 70
000070 30 62 e5 e3 c5 eb b0 7d 3e 36 9b a7 76 f7 31 ca
       48 98 -27 -29 -59 -21 -80 125 62 54 -101 -89 118 -9 49 -54
000080 57 52 57 3e 38 2a c4 c1 98 17 a3 6e a2 27 3d 09
       87 82 87 62 56 42 -60 -63 -104 23 -93 110 -94 39 61 9
000090 47 5c 4f 76 b0 a8 5e 98 29 f6 5b 74 a7 5a c5 e1
       71 92 79 118 -80 -88 94 -104 41 -10 91 116 -89 90 -59 -31
0000a0 be 1e 6a c9 67 ab c1 42 61 7f d2 f2 6c b3 37 ea
       -66 30 106 -55 103 -85 -63 66 97 127 -46 -14 108 -77 55 -22
0000b0 1f 7f 56 4e 33 ba 57 e1 e4 57 6a 73 13 66 54 d9
       31 127 86 78 51 -70 87 -31 -28 87 106 115 19 102 84 -39
0000c0 04 30 4c 09 5b e0 6f 1a b8 5c a9 2d b5 60 31 57
       4 48 76 9 91 -32 111 26 -72 92 -87 45 -75 96 49 87
0000d0 53 7f 81 c8 c8 12 a6 4b 49 e8 9f e9 4c 34 31 f8
       83 127 -127 -56 -56 18 -90 75 73 -24 -97 -23 76 52 49 -8
0000e0 c0 d1 c6 58 4b 25 6d 51 e6 17 cf d1 4f 81 81 97
       -64 -47 -58 88 75 37 109 81 -26 23 -49 -47 79 -127 -127 -105
0000f0 20 1a 3e 68 56 ce 7f 34 cd 81 e3 4d f4 54 81 c6
       32 26 62 104 86 -50 127 52 -51 -127 -29 77 -12 84 -127 -58

sequential/model/block_13_expand/Conv2D i1 [96, 1, 1, 16]
000000 32 29 db 36 02 34 0a e1 1b 52 d0 19 a5 c9 81 fb
       50 41 -37 54 2 52 10 -31 27 82 -48 25 -91 -55 -127 -5
000010 41 df fc 7f 17 f3 0b 1b d6 3f 1b 04 d8 d0 2d f8
       65 -33 -4 127 23 -13 11 27 -42 63 27 4 -40 -48 45 -8
000020 68 81 fd eb 1e d6 98 09 04 f6 2f ad 1f 28 c5 07
       104 -127 -3 -21 30 -42 -104 9 4 -10 47 -83 31 40 -59 7
000030 e2 b4 f4 fb 28 1f 7f f2 e1 c2 d0 ec ad 18 05 f3
       -30 -76 -12 -5 40 31 127 -14 -31 -62 -48 -20 -83 24 5 -13
000040 36 49 f5 32 f7 f3 fd 15 c3 55 26 21 02 f3 f2 81
       54 73 -11 50 -9 -13 -3 21 -61 85 38 33 2 -13 -14 -127
000050 85 ca e1 f8 6e 3d 06 72 b5 b4 81 58 06 d2 34 ee
       -123 -54 -31 -8 110 61 6 114 -75 -76 -127 88 6 -46 52 -18
000060 90 02 5c 58 2e bc 81 dd c6 fb ba 0b 70 fc d4 25
       -112 2 92 88 46 -68 -127 -35 -58 -5 -70 11 112 -4 -44 37
000070 33 fd ff 6d bc 5c 66 67 38 5c f5 cb d3 f8 4d 7f
       51 -3 -1 109 -68 92 102 103 56 92 -11 -53 -45 -8 77 127
000080 31 02 43 a2 14 44 1a 7f 15 a3 fa a7 ff 5a 11 da
       49 2 67 -94 20 68 26 127 21 -93 -6 -89 -1 90 17 -38
000090 27 81 12 2e fe 46 fd ca e7 49 af 3a 7e 39 1c 90
       39 -127 18 46 -2 70 -3 -54 -25 73 -81 58 126 57 28 -112
0000a0 74 81 3f b8 28 b8 8f d0 c9 ee e1 9e f0 10 c0 13
       116 -127 63 -72 40 -72 -113 -48 -55 -18 -31 -98 -16 16 -64 19
0000b0 81 21 06 30 1b 3f 73 9a d4 39 23 2c 79 9f 0b bb
       -127 33 6 48 27 63 115 -102 -44 57 35 44 121 -97 11 -69
0000c0 47 0e e8 12 f3 ed 22 f0 81 f1 0f eb 60 37 1c 32
       71 14 -24 18 -13 -19 34 -16 -127 -15 15 -21 96 55 28 50
0000d0 a6 0c da d0 14 7f 9f 16 34 30 1b 0a 06 0d 11 11
       -90 12 -38 -48 20 127 -97 22 52 48 27 10 6 13 17 17
0000e0 b6 25 2e db 77 f0 7f c8 9b a6 fa f1 aa 05 c7 35
       -74 37 46 -37 119 -16 127 -56 -101 -90 -6 -15 -86 5 -57 53
0000f0 bf ce db f3 e3 c9 11 2f c0 11 06 e3 7f e9 0f ee
       -65 -50 -37 -13 -29 -55 17 47 -64 17 6 -29 127 -23 15 -18

sequential/model/block_12_project/Conv2D i1 [16, 1, 1, 96]
000000 27 ee fa 0a d9 15 1b 2e 12 f7 c6 ef 06 04 1f 08
       39 -18 -6 10 -39 21 27 46 18 -9 -58 -17 6 4 31 8
000010 16 15 07 0e bf 06 1e 15 a2 fc df cb 1e 05 ed 2e
       22 21 7 14 -65 6 30 21 -94 -4 -33 -53 30 5 -19 46
000020 f7 ec ee 1e 11 04 c5 03 2e 18 0b 11 cb 2b 3a 14
       -9 -20 -18 30 17 4 -59 3 46 24 11 17 -53 43 58 20
000030 38 e0 e8 e6 49 e2 d4 f9 00 dc fe 81 17 15 e4 04
       56 -32 -24 -26 73 -30 -44 -7 0 -36 -2 -127 23 21 -28 4
000040 2f d7 21 10 ed 14 23 e1 ce 3e 26 de fd 0e 1e a7
       47 -41 33 16 -19 20 35 -31 -50 62 38 -34 -3 14 30 -89
000050 e9 eb 16 10 18 13 1d 04 f4 1c 34 f9 12 44 1a cb
       -23 -21 22 16 24 19 29 4 -12 28 52 -7 18 68 26 -53
000060 15 e7 db eb 1a 9a e7 81 c8 2f f6 eb 02 09 de e3
       21 -25 -37 -21 26 -102 -25 -127 -56 47 -10 -21 2 9 -34 -29
000070 c7 f7 f4 ab 09 f1 c1 0b 41 d8 fb 32 36 f1 64 09
       -57 -9 -12 -85 9 -15 -63 11 65 -40 -5 50 54 -15 100 9
000080 e1 e1 38 0a c5 dc 55 bb 03 f6 f5 2d 37 f0 14 31
       -31 -31 56 10 -59 -36 85 -69 3 -10 -11 45 55 -16 20 49
000090 19 c1 e9 f6 88 02 d0 21 16 20 e2 d2 14 08 3a e5
       25 -63 -23 -10 -120 2 -48 33 22 32 -30 -46 20 8 58 -27
0000a0 fa 5e f3 08 24 e6 c5 de 53 11 fb 28 3b e3 fe f6
       -6 94 -13 8 36 -26 -59 -34 83 17 -5 40 59 -29 -2 -10
0000b0 21 3e f0 f3 20 0d fa b6 ee e1 17 e9 fa 06 1a 24
       33 62 -16 -13 32 13 -6 -74 -18 -31 23 -23 -6 6 26 36
0000c0 de bf d3 01 14 e1 3a fa 3a bd e6 07 22 07 ee bc
       -34 -65 -45 1 20 -31 58 -6 58 -67 -26 7 34 7 -18 -68
0000d0 ef 16 a7 f5 39 1f c8 cd bf ec e1 7f 23 2a e0 1e
       -17 22 -89 -11 57 31 -56 -51 -65 -20 -31 127 35 42 -32 30
0000e0 f4 20 04 da e1 fa b7 27 0f b9 04 cb cc a9 d7 12
       -12 32 4 -38 -31 -6 -73 39 15 -71 4 -53 -52 -87 -41 18
0000f0 f0 99 0f fd 9f d5 e7 06 eb c7 0f 07 35 11 0e ee
       -16 -103 15 -3 -97 -43 -25 6 -21 -57 15 7 53 17 14 -18

sequential/model/block_12_depthwise_BN/FusedBatchNormV3;sequential/model/block_12_depthwise/depthwise;sequential/model/block_16_depthwise/depthwise i1 [1, 3, 3, 96]
000000 6f 65 42 1c b5 24 aa 2f 90 c7 5d 29 b9 f7 34 2d
       111 101 66 28 -75 36 -86 47 -112 -57 93 41 -71 -9 52 45
000010 2f 04 04 7f db 07 7f 3d c7 cc 0d 39 e5 78 b3 b4
       47 4 4 127 -37 7 127 61 -57 -52 13 57 -27 120 -77 -76
000020 e8 97 ff 7f e8 11 7f 33 81 c3 66 10 5e e4 bf 81
       -24 -105 -1 127 -24 17 127 51 -127 -61 102 16 94 -28 -65 -127
000030 79 3d c9 0f 05 9c af 5d 04 98 17 7f d3 f5 f4 81
       121 61 -55 15 5 -100 -81 93 4 -104 23 127 -45 -11 -12 -127
000040 e7 a2 00 fd 87 81 18 81 1e 7f 7f e4 50 7b 81 48
       -25 -94 0 -3 -121 -127 24 -127 30 127 127 -28 80 123 -127 72
000050 8a 31 11 07 e0 18 cb dc 7f 28 ff 7f ff 35 38 07
       -118 49 17 7 -32 24 -53 -36 127 40 -1 127 -1 53 56 7
000060 42 68 6b 7f d8 d2 a5 f1 c4 ac d8 2d de 7f df 20
       66 104 107 127 -40 -46 -91 -15 -60 -84 -40 45 -34 127 -33 32
000070 7f df e4 2e 05 74 59 ce ee 09 15 e7 23 eb 7f 81
       127 -33 -28 46 5 116 89 -50 -18 9 21 -25 35 -21 127 -127
000080 bf 85 a3 8a 81 d5 f6 f6 31 cf b1 97 36 2b 30 a7
       -65 -123 -93 -118 -127 -43 -10 -10 49 -49 -79 -105 54 43 48 -89
000090 7f cf c1 fb 50 12 e8 3b ee 71 83 db 54 1e 1b 29
       127 -49 -63 -5 80 18 -24 59 -18 113 -125 -37 84 30 27 41
0000a0 2a e8 c3 35 81 aa 7f 20 3c 79 e9 09 fd 09 d7 ee
       42 -24 -61 53 -127 -86 127 32 60 121 -23 9 -3 9 -41 -18
0000b0 98 19 9c de 09 b8 81 a6 f6 81 e7 a2 2e df 3a 41
       -104 25 -100 -34 9 -72 -127 -90 -10 -127 -25 -94 46 -33 58 65
0000c0 68 d4 b2 00 e0 e0 81 ec 60 81 58 05 3e 14 d4 f0
       104 -44 -78 0 -32 -32 -127 -20 96 -127 88 5 62 20 -44 -16
0000d0 db 81 d8 5e f7 34 60 d6 f2 20 f0 e7 f6 7b ba a2
       -37 -127 -40 94 -9 52 96 -42 -14 32 -16 -25 -10 123 -70 -94
0000e0 10 b0 e4 ad 1f 05 2a fe 2b 07 81 f6 6f d8 10 98
       16 -80 -28 -83 31 5 42 -2 43 7 -127 -10 111 -40 16 -104
0000f0 34 09 7f 7f b1 58 53 2e d9 8a b6 47 40 e5 09 cc
       52 9 127 127 -79 88 83 46 -39 -118 -74 71 64 -27 9 -52

sequential/model/block_12_expand/Conv2D i1 [96, 1, 1, 16]
000000 50 ea f0 b1 13 d0 f2 fd 33 9c f5 81 fe f7 f6 12
       80 -22 -16 -79 19 -48 -14 -3 51 -100 -11 -127 -2 -9 -10 18
000010 1a f2 fa f7 7f f5 49 d1 18 cf 15 19 cd 2f 20 ec
       26 -14 -6 -9 127 -11 73 -47 24 -49 21 25 -51 47 32 -20
000020 e6 9b f3 e0 4a f2 81 20 33 22 c3 f2 2e 3c cc 16
       -26 -101 -13 -32 74 -14 -127 32 51 34 -61 -14 46 60 -52 22
000030 52 08 37 24 21 ff 27 c7 d6 88 ba 00 7f e7 5f e5
       82 8 55 36 33 -1 39 -57 -42 -120 -70 0 127 -25 95 -27
000040 a5 2e f4 14 5b 85 d9 ed 31 64 81 1c 5a 69 ca fb
       -91 46 -12 20 91 -123 -39 -19 49 100 -127 28 90 105 -54 -5
000050 81 eb b5 f9 ae e6 11 0e 94 b7 17 5d 10 ed 35 a5
       -127 -21 -75 -7 -82 -26 17 14 -108 -73 23 93 16 -19 53 -91
000060 3e f6 a0 be f1 45 9b c7 9c 03 98 a3 7f 04 cf e1
       62 -10 -96 -66 -15 69 -101 -57 -100 3 -104 -93 127 4 -49 -31
000070 5d 81 24 03 37 ac d8 29 14 39 2e ef 1f 0c f5 0a
       93 -127 36 3 55 -84 -40 41 20 57 46 -17 31 12 -11 10
000080 31 f9 07 dd fe 39 31 e7 ee 2f 2d f9 f4 0b 7f ff
       49 -7 7 -35 -2 57 49 -25 -18 47 45 -7 -12 11 127 -1
000090 34 c1 1a 0b cf ee 40 de 4f 7f 06 26 fa 61 56 b6
       52 -63 26 11 -49 -18 64 -34 79 127 6 38 -6 97 86 -74
0000a0 dd 6f ff 3a 13 81 5a f9 e5 1c 3d 7c 0c e8 df a6
       -35 111 -1 58 19 -127 90 -7 -27 28 61 124 12 -24 -33 -90
0000b0 2a ee 17 36 9a 1a 09 3f 64 7f ef ff 55 42 62 ec
       42 -18 23 54 -102 26 9 63 100 127 -17 -1 85 66 98 -20
0000c0 27 d8 02 38 81 d8 13 67 6e 32 0c c0 08 41 29 53
       39 -40 2 56 -127 -40 19 103 110 50 12 -64 8 65 41 83
0000d0 7f 8a cf fb bf c1 b8 f7 8e 00 a0 ec 64 0b c9 3a
       127 -118 -49 -5 -65 -63 -72 -9 -114 0 -96 -20 100 11 -55 58
0000e0 b7 7f fc cb b4 41 e1 24 27 28 07 f4 d1 09 e5 a0
       -73 127 -4 -53 -76 65 -31 36 39 40 7 -12 -47 9 -27 -96
0000f0 db fd 38 bd aa ff 81 3f c4 1e de e7 0f fa f1 f8
       -37 -3 56 -67 -86 -1 -127 63 -60 30 -34 -25 15 -6 -15 -8

sequential/model/block_11_project/Conv2D i1 [16, 1, 1, 96]
000000 11 0b 2d fb e6 db 29 3b 2a 4a 0a e6 06 33 a6 72
       17 11 45 -5 -26 -37 41 59 42 74 10 -26 6 51 -90 114
000010 ed df cd da eb 04 ee 6f 4c a6 ee 27 35 cc 7f aa
       -19 -33 -51 -38 -21 4 -18 111 76 -90 -18 39 53 -52 127 -86
000020 06 1a 50 ce 13 62 ee 2a f1 17 16 41 0f 2d 16 12
       6 26 80 -50 19 98 -18 42 -15 23 22 65 15 45 22 18
000030 e2 10 d7 ec 68 c8 1e 05 f7 0d 27 1d 48 dd 03 19
       -30 16 -41 -20 104 -56 30 5 -9 13 39 29 72 -35 3 25
000040 03 0c d6 11 21 f4 4a c1 c1 f7 06 e0 d6 65 0c fc
       3 12 -42 17 33 -12 74 -63 -63 -9 6 -32 -42 101 12 -4
000050 f9 f2 c9 3d 36 20 0f 08 e4 b7 3b de bf f5 05 0b
       -7 -14 -55 61 54 32 15 8 -28 -73 59 -34 -65 -11 5 11
000060 08 0f c7 a7 b4 ff df 31 71 c2 01 fa 38 e6 4a 12
       8 15 -57 -89 -76 -1 -33 49 113 -62 1 -6 56 -26 74 18
000070 40 99 48 a9 20 ee 0c 14 ba 50 1b f6 3b d3 2c 3f
       64 -103 72 -87 32 -18 12 20 -70 80 27 -10 59 -45 44 63
000080 f3 04 0d 21 0c 0b 48 f0 b3 38 d5 07 db a8 24 f2
       -13 4 13 33 12 11 72 -16 -77 56 -43 7 -37 -88 36 -14
000090 eb e5 eb ea 3c 29 c2 e0 1f eb d3 d4 ec d6 fe bb
       -21 -27 -21 -22 60 41 -62 -32 31 -21 -45 -44 -20 -42 -2 -69
0000a0 dd 2a de f0 0c f6 e9 30 1b f5 dc f8 f6 2f ef 27
       -35 42 -34 -16 12 -10 -23 48 27 -11 -36 -8 -10 47 -17 39
0000b0 eb 4e 3b 7f 26 d2 0e d5 1d f8 23 1a 08 e6 e7 c6
       -21 78 59 127 38 -46 14 -43 29 -8 35 26 8 -26 -25 -58
0000c0 e0 1f f7 e9 1c 07 ec e0 26 d7 1f f2 2e cc 1f c9
       -32 31 -9 -23 28 7 -20 -32 38 -41 31 -14 46 -52 31 -55
0000d0 ef 00 29 ee 10 12 db 0e fd 05 0d f4 fc fe 04 f2
       -17 0 41 -18 16 18 -37 14 -3 5 13 -12 -4 -2 4 -14
0000e0 1d 02 0b fd eb ee e1 15 f9 24 fd 26 f3 15 3f 24
       29 2 11 -3 -21 -18 -31 21 -7 36 -3 38 -13 21 63 36
0000f0 fa f3 cc 09 fc 7f d9 17 04 f1 db f7 dc e5 24 03
       -6 -13 -52 9 -4 127 -39 23 4 -15 -37 -9 -36 -27 36 3

sequential/model/block_11_depthwise_BN/FusedBatchNormV3;sequential/model/block_11_depthwise/depthwise;sequential/model/block_16_depthwise/depthwise i1 [1, 3, 3, 96]
000000 36 f3 05 f9 f4 d5 20 29 d5 fb 38 8e ef 0e 24 29
       54 -13 5 -7 -12 -43 32 41 -43 -5 56 -114 -17 14 36 41
000010 ac eb a6 11 c2 d9 d0 e3 94 e0 07 af d4 19 fb 1b
       -84 -21 -90 17 -62 -39 -48 -29 -108 -32 7 -81 -44 25 -5 27
000020 fd 37 59 39 1c 9b 40 ca f9 2a 3f d1 07 0b 17 d7
       -3 55 89 57 28 -101 64 -54 -7 42 63 -47 7 11 23 -41
000030 8f 93 b3 2b e8 10 14 81 0b 7f 4e 3d 2a f4 2d 59
       -113 -109 -77 43 -24 16 20 -127 11 127 78 61 42 -12 45 89
000040 5a a9 4f 81 5c 81 fd 34 9d 77 20 7f d3 1a 15 38
       90 -87 79 -127 92 -127 -3 52 -99 119 32 127 -45 26 21 56
000050 07 12 1d d7 f8 7f 49 25 94 07 0f 08 89 10 eb dc
       7 18 29 -41 -8 127 73 37 -108 7 15 8 -119 16 -21 -36
000060 e0 03 7f 7f dc f9 fd 26 13 28 f4 0f 3d fc 42 16
       -32 3 127 127 -36 -7 -3 38 19 40 -12 15 61 -4 66 22
000070 81 21 f1 06 93 81 81 f6 bd e5 ca b9 e6 3c ae 36
       -127 33 -15 6 -109 -127 -127 -10 -67 -27 -54 -71 -26 60 -82 54
000080 e2 37 7f 29 e1 d1 f4 e4 81 05 06 17 ce f5 04 82
       -30 55 127 41 -31 -47 -12 -28 -127 5 6 23 -50 -11 4 -126
000090 bd 20 1c 46 08 ff 81 f8 3a c4 7f e8 d9 11 06 7b
       -67 32 28 70 8 -1 -127 -8 58 -60 127 -24 -39 17 6 123
0000a0 85 c8 e1 d1 28 3d c4 fb e6 81 55 19 e0 05 62 49
       -123 -56 -31 -47 40 61 -60 -5 -26 -127 85 25 -32 5 98 73
0000b0 88 c4 51 07 d2 12 00 6a d6 eb 19 3e d2 f9 ec 21
       -120 -60 81 7 -46 18 0 106 -42 -21 25 62 -46 -7 -20 33
0000c0 ea 0a f4 e6 d9 30 e3 ad e2 d9 07 76 05 f2 dc e5
       -22 10 -12 -26 -39 48 -29 -83 -30 -39 7 118 5 -14 -36 -27
0000d0 d6 e0 04 ee 8b 4d 1f 23 fb db 2a 07 d0 00 46 ce
       -42 -32 4 -18 -117 77 31 35 -5 -37 42 7 -48 0 70 -50
0000e0 0c 8c 34 fe 4b ab c8 c8 03 2b 29 1e fb fa 49 d7
       12 -116 52 -2 75 -85 -56 -56 3 43 41 30 -5 -6 73 -41
0000f0 b0 af e9 19 10 e0 18 ca 67 bb 1c 42 fe ef 55 08
       -80 -81 -23 25 16 -32 24 -54 103 -69 28 66 -2 -17 85 8

sequential/model/block_11_expand/Conv2D i1 [96, 1, 1, 16]
000000 52 db 03 e9 ec 52 e8 6f da b8 f2 07 7f 1b d7 d2
       82 -37 3 -23 -20 82 -24 111 -38 -72 -14 7 127 27 -41 -46
000010 83 35 a1 81 21 a8 09 ff 48 59 17 45 d9 d7 e2 37
       -125 53 -95 -127 33 -88 9 -1 72 89 23 69 -39 -41 -30 55
000020 66 f2 2f e9 07 1f a4 f2 63 e3 81 24 fe 17 f9 2d
       102 -14 47 -23 7 31 -92 -14 99 -29 -127 36 -2 23 -7 45
000030 fe 8d 13 ca bf e2 29 f1 11 d8 ff 81 65 3b 8a 72
       -2 -115 19 -54 -65 -30 41 -15 17 -40 -1 -127 101 59 -118 114
000040 be 1b 81 1f ca 59 7a 08 c8 e9 f9 61 02 15 31 00
       -66 27 -127 31 -54 89 122 8 -56 -23 -7 97 2 21 49 0
000050 f0 2c c1 99 ce 16 db 18 79 fb 34 7f ba f7 04 c1
       -16 44 -63 -103 -50 22 -37 24 121 -5 52 127 -70 -9 4 -63
000060 32 be 40 2a c9 26 b7 f8 78 35 7f a6 dd 33 ca fc
       50 -66 64 42 -55 38 -73 -8 120 53 127 -90 -35 51 -54 -4
000070 15 61 c2 02 26 c4 78 35 b3 b8 4b cd 14 2c c2 7f
       21 97 -62 2 38 -60 120 53 -77 -72 75 -51 20 44 -62 127
000080 57 7d d9 7f ad b6 7c 09 0b 1b 49 9e 8e cf 06 14
       87 125 -39 127 -83 -74 124 9 11 27 73 -98 -114 -49 6 20
000090 30 02 78 26 3b fc 81 e4 31 c2 cb be e6 fa 17 0b
       48 2 120 38 59 -4 -127 -28 49 -62 -53 -66 -26 -6 23 11
0000a0 fa f0 12 de 15 fc de e0 e4 4b 9f 69 08 81 71 ca
       -6 -16 18 -34 21 -4 -34 -32 -28 75 -97 105 8 -127 113 -54
0000b0 0d 13 c5 f1 cf 46 de 2f 3b e1 59 e4 13 50 13 81
       13 19 -59 -15 -49 70 -34 47 59 -31 89 -28 19 80 19 -127
0000c0 74 9f e5 86 6f 2d 2c f9 d9 00 21 b2 7f db 13 e3
       116 -97 -27 -122 111 45 44 -7 -39 0 33 -78 127 -37 19 -29
0000d0 32 f5 f7 de fb 16 81 e7 b6 26 89 81 27 56 bb 1d
       50 -11 -9 -34 -5 22 -127 -25 -74 38 -119 -127 39 86 -69 29
0000e0 ac f5 00 33 34 2b 18 e6 3b e6 3b 81 d2 fa 08 c2
       -84 -11 0 51 52 43 24 -26 59 -26 59 -127 -46 -6 8 -62
0000f0 db c9 1c ed 4c d7 20 df 81 fc dc 04 d3 f2 fb b1
       -37 -55 28 -19 76 -41 32 -33 -127 -4 -36 4 -45 -14 -5 -79

sequential/model/block_10_project/Conv2D i1 [16, 1, 1, 48]
000000 2d 2e 29 f2 c3 09 2d ce e4 ec 0d ce e1 e9 0e 13
       45 46 41 -14 -61 9 45 -50 -28 -20 13 -50 -31 -23 14 19
000010 ea 02 dc 35 0a ee e3 07 16 eb 0f de e6 48 f7 32
       -22 2 -36 53 10 -18 -29 7 22 -21 15 -34 -26 72 -9 50
000020 e3 e2 1f 3e f6 ec 7f f6 23 05 5e 26 dd 26 2f fe
       -29 -30 31 62 -10 -20 127 -10 35 5 94 38 -35 38 47 -2
000030 f8 e3 c3 fa 46 02 37 b6 03 3a 15 f6 0e 09 f0 d3
       -8 -29 -61 -6 70 2 55 -74 3 58 21 -10 14 9 -16 -45
000040 ff 0a dc 55 03 ff da 11 f4 05 09 db 15 e6 ac b6
       -1 10 -36 85 3 -1 -38 17 -12 5 9 -37 21 -26 -84 -74
000050 11 10 f2 03 c8 cc f9 e4 eb e9 d2 01 a9 ff 49 81
       17 16 -14 3 -56 -52 -7 -28 -21 -23 -46 1 -87 -1 73 -127
000060 fe f3 9a 0b c3 9a 33 f4 bd af 67 e4 4f 33 3f 3d
       -2 -13 -102 11 -61 -102 51 -12 -67 -81 103 -28 79 51 63 61
000070 24 49 c8 28 ee 04 3a cf 68 0f 32 49 0c d9 3c 19
       36 73 -56 40 -18 4 58 -49 104 15 50 73 12 -39 60 25
000080 17 02 37 2b d8 54 d4 bf 18 27 11 d3 e0 fe 81 26
       23 2 55 43 -40 84 -44 -65 24 39 17 -45 -32 -2 -127 38
000090 f6 15 ec ec ff 0f fc fe f2 9a ca e5 cb 02 13 53
       -10 21 -20 -20 -1 15 -4 -2 -14 -102 -54 -27 -53 2 19 83
0000a0 08 fd 05 dc 15 fc e3 14 31 e2 f4 14 1c e6 f4 ee
       8 -3 5 -36 21 -4 -29 20 49 -30 -12 20 28 -26 -12 -18
0000b0 0f eb fb e1 db f5 7f f0 f7 ec 00 e0 01 e6 35 1b
       15 -21 -5 -31 -37 -11 127 -16 -9 -20 0 -32 1 -26 53 27
0000c0 17 c9 1a ee 7f f6 dd fd ed 09 dc d0 fd 1d 0d 17
       23 -55 26 -18 127 -10 -35 -3 -19 9 -36 -48 -3 29 13 23
0000d0 b4 e5 da 10 22 29 32 fa 26 f0 10 f5 df 0f 05 e4
       -76 -27 -38 16 34 41 50 -6 38 -16 16 -11 -33 15 5 -28
0000e0 01 09 d0 0e 06 2b d4 09 21 a1 e8 d7 f8 1f 5f 52
       1 9 -48 14 6 43 -44 9 33 -95 -24 -41 -8 31 95 82
0000f0 df 05 ee 24 0f f1 07 29 26 22 53 c7 2b 1f b6 0f
       -33 5 -18 36 15 -15 7 41 38 34 83 -57 43 31 -74 15

sequential/model/block_10_depthwise_BN/FusedBatchNormV3;sequential/model/block_10_depthwise/depthwise i1 [1, 3, 3, 48]
000000 10 0f dc ff 05 0a 06 f5 d3 02 28 0e a2 f6 06 05
       16 15 -36 -1 5 10 6 -11 -45 2 40 14 -94 -10 6 5
000010 df 81 0a f6 81 d3 21 68 f2 2c 13 e2 e3 23 e9 17
       -33 -127 10 -10 -127 -45 33 104 -14 44 19 -30 -29 35 -23 23
000020 a4 15 b9 ff 2a fe f6 0e 03 13 00 1d 05 67 f9 fc
       -92 21 -71 -1 42 -2 -10 14 3 19 0 29 5 103 -7 -4
000030 21 49 23 0d f4 f2 f7 0d 26 17 17 d8 b1 fe fd 09
       33 73 35 13 -12 -14 -9 13 38 23 23 -40 -79 -2 -3 9
000040 1a b2 8e 0c cc e2 ef 6b 05 ea be 21 bb ff 09 03
       26 -78 -114 12 -52 -30 -17 107 5 -22 -66 33 -69 -1 9 3
000050 81 17 3e 24 41 02 ff 17 fd 14 01 1d fe 95 0e 00
       -127 23 62 36 65 2 -1 23 -3 20 1 29 -2 -107 14 0
000060 0f 31 04 f8 03 00 fa f9 06 00 fd 08 90 fc fe ff
       15 49 4 -8 3 0 -6 -7 6 0 -3 8 -112 -4 -2 -1
000070 02 f8 18 fb df c8 0a bd ff 40 2b de b9 dd 0c d6
       2 -8 24 -5 -33 -56 10 -67 -1 64 43 -34 -71 -35 12 -42
000080 d4 03 0b d0 14 ff fe f1 01 09 05 16 06 f9 ff fe
       -44 3 11 -48 20 -1 -2 -15 1 9 5 22 6 -7 -1 -2
000090 56 37 8e b9 ab 4e 7f 50 81 7f 74 77 97 6c 81 64
       86 55 -114 -71 -85 78 127 80 -127 127 116 119 -105 108 -127 100
0000a0 81 61 5d 55 b1 b4 01 81 2e 7f 8e fe cc 74 ef 7f
       -127 97 93 85 -79 -76 1 -127 46 127 -114 -2 -52 116 -17 127
0000b0 c0 5f 81 f6 7f 5f 81 34 58 6b 64 40 a9 53 fe 42
       -64 95 -127 -10 127 95 -127 52 88 107 100 64 -87 83 -2 66
0000c0 7f 7f 7f 6e 81 81 7b 7f 7f 7a 7f 7f 81 7f 81 7f
       127 127 127 110 -127 -127 123 127 127 122 127 127 -127 127 -127 127
0000d0 76 47 7f 7f db 81 17 f0 7f 57 81 7f 81 13 e2 46
       118 71 127 127 -37 -127 23 -16 127 87 -127 127 -127 19 -30 70
0000e0 c4 7f 78 7f 5c 7f 37 7c 81 7f 7f 7f 81 81 7f 7f
       -60 127 120 127 92 127 55 124 -127 127 127 127 -127 -127 127 127
0000f0 27 56 04 cc e2 2a fa 1e 04 2e 2e 4d e9 11 c6 2d
       39 86 4 -52 -30 42 -6 30 4 46 46 77 -23 17 -58 45

sequential/model/block_10_expand/Conv2D i1 [48, 1, 1, 8]
000000 c9 a1 27 34 2c 40 e4 7f 44 0f 41 4c 81 14 df 08
       -55 -95 39 52 44 64 -28 127 68 15 65 76 -127 20 -33 8
000010 35 81 a8 5c f2 de 08 b5 64 f9 81 b9 02 04 c0 72
       53 -127 -88 92 -14 -34 8 -75 100 -7 -127 -71 2 4 -64 114
000020 0b de f6 cf e7 bb 7f 1a 7f c8 17 0f 5d fe e1 14
       11 -34 -10 -49 -25 -69 127 26 127 -56 23 15 93 -2 -31 20
000030 7f 40 5a 34 20 ce ff 1c 32 07 02 81 b1 eb c8 c2
       127 64 90 52 32 -50 -1 28 50 7 2 -127 -79 -21 -56 -62
000040 81 05 5c fc 1d 43 44 8b d7 f8 7f d3 40 ca 0b a4
       -127 5 92 -4 29 67 68 -117 -41 -8 127 -45 64 -54 11 -92
000050 a3 54 e1 0d 22 e2 81 d6 b3 77 66 81 85 84 e9 fa
       -93 84 -31 13 34 -30 -127 -42 -77 119 102 -127 -123 -124 -23 -6
000060 f6 4c d9 6d 81 ea 23 2b f2 c8 7f f5 c7 92 98 2d
       -10 76 -39 109 -127 -22 35 43 -14 -56 127 -11 -57 -110 -104 45
000070 9e 81 43 a2 f2 d5 c4 e8 30 09 81 2c c8 30 fa 55
       -98 -127 67 -94 -14 -43 -60 -24 48 9 -127 44 -56 48 -6 85
000080 64 10 81 01 66 65 2d 37 41 ca 94 db db 82 8d 7f
       100 16 -127 1 102 101 45 55 65 -54 -108 -37 -37 -126 -115 127
000090 81 c9 b8 89 ce 5a eb dd cb f9 ff 7f 51 16 36 3c
       -127 -55 -72 -119 -50 90 -21 -35 -53 -7 -1 127 81 22 54 60
0000a0 41 e2 db 4b 7f 2a 22 22 1c 2e e6 63 15 0b 81 ba
       65 -30 -37 75 127 42 34 34 28 46 -26 99 21 11 -127 -70
0000b0 e3 4e 84 9e 0f ce cd 7f 65 08 54 41 7f ca 1c f8
       -29 78 -124 -98 15 -50 -51 127 101 8 84 65 127 -54 28 -8
0000c0 5c 43 92 ee d9 2b db 7f de 90 d3 3b ea e2 36 81
       92 67 -110 -18 -39 43 -37 127 -34 -112 -45 59 -22 -30 54 -127
0000d0 81 cd a6 d0 ce 32 f0 e6 0e 81 d0 5b da 05 30 ba
       -127 -51 -90 -48 -50 50 -16 -26 14 -127 -48 91 -38 5 48 -70
0000e0 03 7f 24 cf 05 30 ec 54 ed f0 81 04 c6 d2 fe be
       3 127 36 -49 5 48 -20 84 -19 -16 -127 4 -58 -46 -2 -66
0000f0 dc 35 23 16 fe 81 cf 58 3a d6 2d 7f bd 42 37 b3
       -36 53 35 22 -2 -127 -49 88 58 -42 45 127 -67 66 55 -77
